<?xml version="1.0" ?>
<net name="ResMobNet_v4 (LReLU) with single SSD head" version="10">
	<layers>
		<layer id="0" name="data" type="Parameter" version="opset1">
			<data element_type="f16" shape="1,3,320,544"/>
			<output>
				<port id="0" precision="FP16">
					<dim>1</dim>
					<dim>3</dim>
					<dim>320</dim>
					<dim>544</dim>
				</port>
			</output>
		</layer>
		<layer id="1" name="data_mul_25243/copy_const751_const" type="Const" version="opset1">
			<data element_type="f16" offset="0" shape="1,3,1,1" size="6"/>
			<output>
				<port id="1" precision="FP16">
					<dim>1</dim>
					<dim>3</dim>
					<dim>1</dim>
					<dim>1</dim>
				</port>
			</output>
		</layer>
		<layer id="2" name="data/norm/bn/mean/Fused_Mul_" type="Multiply" version="opset1">
			<input>
				<port id="0">
					<dim>1</dim>
					<dim>3</dim>
					<dim>320</dim>
					<dim>544</dim>
				</port>
				<port id="1">
					<dim>1</dim>
					<dim>3</dim>
					<dim>1</dim>
					<dim>1</dim>
				</port>
			</input>
			<output>
				<port id="2" precision="FP16">
					<dim>1</dim>
					<dim>3</dim>
					<dim>320</dim>
					<dim>544</dim>
				</port>
			</output>
		</layer>
		<layer id="3" name="data_add_25245/copy_const753_const" type="Const" version="opset1">
			<data element_type="f16" offset="6" shape="1,3,1,1" size="6"/>
			<output>
				<port id="1" precision="FP16">
					<dim>1</dim>
					<dim>3</dim>
					<dim>1</dim>
					<dim>1</dim>
				</port>
			</output>
		</layer>
		<layer id="4" name="data/norm/bn/variance/Fused_Add_" type="Add" version="opset1">
			<input>
				<port id="0">
					<dim>1</dim>
					<dim>3</dim>
					<dim>320</dim>
					<dim>544</dim>
				</port>
				<port id="1">
					<dim>1</dim>
					<dim>3</dim>
					<dim>1</dim>
					<dim>1</dim>
				</port>
			</input>
			<output>
				<port id="2" precision="FP16">
					<dim>1</dim>
					<dim>3</dim>
					<dim>320</dim>
					<dim>544</dim>
				</port>
			</output>
		</layer>
		<layer id="5" name="44324436_const" type="Const" version="opset1">
			<data element_type="f16" offset="12" shape="" size="2"/>
			<output>
				<port id="1" precision="FP16"/>
			</output>
		</layer>
		<layer id="6" name="44334437_const" type="Const" version="opset1">
			<data element_type="f16" offset="14" shape="" size="2"/>
			<output>
				<port id="1" precision="FP16"/>
			</output>
		</layer>
		<layer id="7" name="44344438_const" type="Const" version="opset1">
			<data element_type="f16" offset="12" shape="" size="2"/>
			<output>
				<port id="1" precision="FP16"/>
			</output>
		</layer>
		<layer id="8" name="44354439_const" type="Const" version="opset1">
			<data element_type="f16" offset="14" shape="" size="2"/>
			<output>
				<port id="1" precision="FP16"/>
			</output>
		</layer>
		<layer id="9" name="init_block1/dim_inc/conv/fq_input_0" type="FakeQuantize" version="opset1">
			<data levels="256"/>
			<input>
				<port id="0">
					<dim>1</dim>
					<dim>3</dim>
					<dim>320</dim>
					<dim>544</dim>
				</port>
				<port id="1"/>
				<port id="2"/>
				<port id="3"/>
				<port id="4"/>
			</input>
			<output>
				<port id="5" precision="FP16">
					<dim>1</dim>
					<dim>3</dim>
					<dim>320</dim>
					<dim>544</dim>
				</port>
			</output>
		</layer>
		<layer id="10" name="init_block1/dim_inc/conv/fq_weights_1/Convert_to_float/Cast_012548_const" type="Const" version="opset1">
			<data element_type="u8" offset="16" shape="32,3,3,3" size="864"/>
			<output>
				<port id="1" precision="U8">
					<dim>32</dim>
					<dim>3</dim>
					<dim>3</dim>
					<dim>3</dim>
				</port>
			</output>
		</layer>
		<layer id="11" name="init_block1/dim_inc/conv/fq_weights_1/Convert_to_float" type="Convert" version="opset1">
			<data destination_type="f16"/>
			<input>
				<port id="0">
					<dim>32</dim>
					<dim>3</dim>
					<dim>3</dim>
					<dim>3</dim>
				</port>
			</input>
			<output>
				<port id="1" precision="FP16">
					<dim>32</dim>
					<dim>3</dim>
					<dim>3</dim>
					<dim>3</dim>
				</port>
			</output>
		</layer>
		<layer id="12" name="init_block1/dim_inc/conv/fq_weights_1/Copy/out_low10185_const" type="Const" version="opset1">
			<data element_type="f16" offset="880" shape="1" size="2"/>
			<output>
				<port id="1" precision="FP16">
					<dim>1</dim>
				</port>
			</output>
		</layer>
		<layer id="13" name="init_block1/dim_inc/conv/fq_weights_1/Copy/out_high10186_const" type="Const" version="opset1">
			<data element_type="f16" offset="882" shape="1" size="2"/>
			<output>
				<port id="1" precision="FP16">
					<dim>1</dim>
				</port>
			</output>
		</layer>
		<layer id="14" name="44444448_const" type="Const" version="opset1">
			<data element_type="f16" offset="884" shape="32,1,1,1" size="64"/>
			<output>
				<port id="1" precision="FP16">
					<dim>32</dim>
					<dim>1</dim>
					<dim>1</dim>
					<dim>1</dim>
				</port>
			</output>
		</layer>
		<layer id="15" name="44454449_const" type="Const" version="opset1">
			<data element_type="f16" offset="948" shape="32,1,1,1" size="64"/>
			<output>
				<port id="1" precision="FP16">
					<dim>32</dim>
					<dim>1</dim>
					<dim>1</dim>
					<dim>1</dim>
				</port>
			</output>
		</layer>
		<layer id="16" name="init_block1/dim_inc/conv/fq_weights_1" type="FakeQuantize" version="opset1">
			<data levels="255"/>
			<input>
				<port id="0">
					<dim>32</dim>
					<dim>3</dim>
					<dim>3</dim>
					<dim>3</dim>
				</port>
				<port id="1">
					<dim>1</dim>
				</port>
				<port id="2">
					<dim>1</dim>
				</port>
				<port id="3">
					<dim>32</dim>
					<dim>1</dim>
					<dim>1</dim>
					<dim>1</dim>
				</port>
				<port id="4">
					<dim>32</dim>
					<dim>1</dim>
					<dim>1</dim>
					<dim>1</dim>
				</port>
			</input>
			<output>
				<port id="5" precision="FP16">
					<dim>32</dim>
					<dim>3</dim>
					<dim>3</dim>
					<dim>3</dim>
				</port>
			</output>
		</layer>
		<layer id="17" name="init_block1/dim_inc/conv" type="Convolution" version="opset1">
			<data dilations="1,1" output_padding="0,0" pads_begin="1,1" pads_end="1,1" strides="2,2"/>
			<input>
				<port id="0">
					<dim>1</dim>
					<dim>3</dim>
					<dim>320</dim>
					<dim>544</dim>
				</port>
				<port id="1">
					<dim>32</dim>
					<dim>3</dim>
					<dim>3</dim>
					<dim>3</dim>
				</port>
			</input>
			<output>
				<port id="2" precision="FP16">
					<dim>1</dim>
					<dim>32</dim>
					<dim>160</dim>
					<dim>272</dim>
				</port>
			</output>
		</layer>
		<layer id="18" name="data_add_2524825253/copy_const757_const" type="Const" version="opset1">
			<data element_type="f16" offset="1012" shape="1,32,1,1" size="64"/>
			<output>
				<port id="1" precision="FP16">
					<dim>1</dim>
					<dim>32</dim>
					<dim>1</dim>
					<dim>1</dim>
				</port>
			</output>
		</layer>
		<layer id="19" name="init_block1/dim_inc/bn/variance/Fused_Add_" type="Add" version="opset1">
			<input>
				<port id="0">
					<dim>1</dim>
					<dim>32</dim>
					<dim>160</dim>
					<dim>272</dim>
				</port>
				<port id="1">
					<dim>1</dim>
					<dim>32</dim>
					<dim>1</dim>
					<dim>1</dim>
				</port>
			</input>
			<output>
				<port id="2" precision="FP16">
					<dim>1</dim>
					<dim>32</dim>
					<dim>160</dim>
					<dim>272</dim>
				</port>
			</output>
		</layer>
		<layer id="20" name="init_block1/dim_inc/fn" type="ReLU" version="opset1">
			<input>
				<port id="0">
					<dim>1</dim>
					<dim>32</dim>
					<dim>160</dim>
					<dim>272</dim>
				</port>
			</input>
			<output>
				<port id="1" precision="FP16">
					<dim>1</dim>
					<dim>32</dim>
					<dim>160</dim>
					<dim>272</dim>
				</port>
			</output>
		</layer>
		<layer id="21" name="27522756_const" type="Const" version="opset1">
			<data element_type="f16" offset="1076" shape="" size="2"/>
			<output>
				<port id="1" precision="FP16"/>
			</output>
		</layer>
		<layer id="22" name="27532757_const" type="Const" version="opset1">
			<data element_type="f16" offset="1078" shape="" size="2"/>
			<output>
				<port id="1" precision="FP16"/>
			</output>
		</layer>
		<layer id="23" name="27542758_const" type="Const" version="opset1">
			<data element_type="f16" offset="1076" shape="" size="2"/>
			<output>
				<port id="1" precision="FP16"/>
			</output>
		</layer>
		<layer id="24" name="27552759_const" type="Const" version="opset1">
			<data element_type="f16" offset="1078" shape="" size="2"/>
			<output>
				<port id="1" precision="FP16"/>
			</output>
		</layer>
		<layer id="25" name="bottleneck1_1/add/fq_input_0" type="FakeQuantize" version="opset1">
			<data levels="256"/>
			<input>
				<port id="0">
					<dim>1</dim>
					<dim>32</dim>
					<dim>160</dim>
					<dim>272</dim>
				</port>
				<port id="1"/>
				<port id="2"/>
				<port id="3"/>
				<port id="4"/>
			</input>
			<output>
				<port id="5" precision="FP16">
					<dim>1</dim>
					<dim>32</dim>
					<dim>160</dim>
					<dim>272</dim>
				</port>
			</output>
		</layer>
		<layer id="26" name="bottleneck1_1/dim_red/conv/fq_weights_1/Convert_to_float/Cast_012760_const" type="Const" version="opset1">
			<data element_type="u8" offset="1080" shape="8,32,1,1" size="256"/>
			<output>
				<port id="1" precision="U8">
					<dim>8</dim>
					<dim>32</dim>
					<dim>1</dim>
					<dim>1</dim>
				</port>
			</output>
		</layer>
		<layer id="27" name="bottleneck1_1/dim_red/conv/fq_weights_1/Convert_to_float" type="Convert" version="opset1">
			<data destination_type="f16"/>
			<input>
				<port id="0">
					<dim>8</dim>
					<dim>32</dim>
					<dim>1</dim>
					<dim>1</dim>
				</port>
			</input>
			<output>
				<port id="1" precision="FP16">
					<dim>8</dim>
					<dim>32</dim>
					<dim>1</dim>
					<dim>1</dim>
				</port>
			</output>
		</layer>
		<layer id="28" name="bottleneck1_1/dim_red/conv/fq_weights_1/Copy/out_low10553_const" type="Const" version="opset1">
			<data element_type="f16" offset="1336" shape="1" size="2"/>
			<output>
				<port id="1" precision="FP16">
					<dim>1</dim>
				</port>
			</output>
		</layer>
		<layer id="29" name="bottleneck1_1/dim_red/conv/fq_weights_1/Copy/out_high10554_const" type="Const" version="opset1">
			<data element_type="f16" offset="882" shape="1" size="2"/>
			<output>
				<port id="1" precision="FP16">
					<dim>1</dim>
				</port>
			</output>
		</layer>
		<layer id="30" name="33843388_const" type="Const" version="opset1">
			<data element_type="f16" offset="1338" shape="8,1,1,1" size="16"/>
			<output>
				<port id="1" precision="FP16">
					<dim>8</dim>
					<dim>1</dim>
					<dim>1</dim>
					<dim>1</dim>
				</port>
			</output>
		</layer>
		<layer id="31" name="33853389_const" type="Const" version="opset1">
			<data element_type="f16" offset="1354" shape="8,1,1,1" size="16"/>
			<output>
				<port id="1" precision="FP16">
					<dim>8</dim>
					<dim>1</dim>
					<dim>1</dim>
					<dim>1</dim>
				</port>
			</output>
		</layer>
		<layer id="32" name="bottleneck1_1/dim_red/conv/fq_weights_1" type="FakeQuantize" version="opset1">
			<data levels="255"/>
			<input>
				<port id="0">
					<dim>8</dim>
					<dim>32</dim>
					<dim>1</dim>
					<dim>1</dim>
				</port>
				<port id="1">
					<dim>1</dim>
				</port>
				<port id="2">
					<dim>1</dim>
				</port>
				<port id="3">
					<dim>8</dim>
					<dim>1</dim>
					<dim>1</dim>
					<dim>1</dim>
				</port>
				<port id="4">
					<dim>8</dim>
					<dim>1</dim>
					<dim>1</dim>
					<dim>1</dim>
				</port>
			</input>
			<output>
				<port id="5" precision="FP16">
					<dim>8</dim>
					<dim>32</dim>
					<dim>1</dim>
					<dim>1</dim>
				</port>
			</output>
		</layer>
		<layer id="33" name="bottleneck1_1/dim_red/conv" type="Convolution" version="opset1">
			<data dilations="1,1" output_padding="0,0" pads_begin="0,0" pads_end="0,0" strides="1,1"/>
			<input>
				<port id="0">
					<dim>1</dim>
					<dim>32</dim>
					<dim>160</dim>
					<dim>272</dim>
				</port>
				<port id="1">
					<dim>8</dim>
					<dim>32</dim>
					<dim>1</dim>
					<dim>1</dim>
				</port>
			</input>
			<output>
				<port id="2" precision="FP16">
					<dim>1</dim>
					<dim>8</dim>
					<dim>160</dim>
					<dim>272</dim>
				</port>
			</output>
		</layer>
		<layer id="34" name="data_add_2525625261/copy_const762_const" type="Const" version="opset1">
			<data element_type="f16" offset="1370" shape="1,8,1,1" size="16"/>
			<output>
				<port id="1" precision="FP16">
					<dim>1</dim>
					<dim>8</dim>
					<dim>1</dim>
					<dim>1</dim>
				</port>
			</output>
		</layer>
		<layer id="35" name="bottleneck1_1/dim_red/bn/variance/Fused_Add_" type="Add" version="opset1">
			<input>
				<port id="0">
					<dim>1</dim>
					<dim>8</dim>
					<dim>160</dim>
					<dim>272</dim>
				</port>
				<port id="1">
					<dim>1</dim>
					<dim>8</dim>
					<dim>1</dim>
					<dim>1</dim>
				</port>
			</input>
			<output>
				<port id="2" precision="FP16">
					<dim>1</dim>
					<dim>8</dim>
					<dim>160</dim>
					<dim>272</dim>
				</port>
			</output>
		</layer>
		<layer id="36" name="bottleneck1_1/dim_red/fn32821/Cast_112796_const" type="Const" version="opset1">
			<data element_type="f32" offset="1386" shape="1" size="4"/>
			<output>
				<port id="1" precision="FP32">
					<dim>1</dim>
				</port>
			</output>
		</layer>
		<layer id="37" name="bottleneck1_1/dim_red/fn32821" type="PReLU" version="opset1">
			<input>
				<port id="0">
					<dim>1</dim>
					<dim>8</dim>
					<dim>160</dim>
					<dim>272</dim>
				</port>
				<port id="1">
					<dim>1</dim>
				</port>
			</input>
			<output>
				<port id="2" precision="FP16">
					<dim>1</dim>
					<dim>8</dim>
					<dim>160</dim>
					<dim>272</dim>
				</port>
			</output>
		</layer>
		<layer id="38" name="37923796_const" type="Const" version="opset1">
			<data element_type="f16" offset="1390" shape="1,8,1,1" size="16"/>
			<output>
				<port id="1" precision="FP16">
					<dim>1</dim>
					<dim>8</dim>
					<dim>1</dim>
					<dim>1</dim>
				</port>
			</output>
		</layer>
		<layer id="39" name="37933797_const" type="Const" version="opset1">
			<data element_type="f16" offset="1406" shape="1,8,1,1" size="16"/>
			<output>
				<port id="1" precision="FP16">
					<dim>1</dim>
					<dim>8</dim>
					<dim>1</dim>
					<dim>1</dim>
				</port>
			</output>
		</layer>
		<layer id="40" name="37943798_const" type="Const" version="opset1">
			<data element_type="f16" offset="1390" shape="1,8,1,1" size="16"/>
			<output>
				<port id="1" precision="FP16">
					<dim>1</dim>
					<dim>8</dim>
					<dim>1</dim>
					<dim>1</dim>
				</port>
			</output>
		</layer>
		<layer id="41" name="37953799_const" type="Const" version="opset1">
			<data element_type="f16" offset="1406" shape="1,8,1,1" size="16"/>
			<output>
				<port id="1" precision="FP16">
					<dim>1</dim>
					<dim>8</dim>
					<dim>1</dim>
					<dim>1</dim>
				</port>
			</output>
		</layer>
		<layer id="42" name="bottleneck1_1/inner/dw1/conv/fq_input_0" type="FakeQuantize" version="opset1">
			<data levels="256"/>
			<input>
				<port id="0">
					<dim>1</dim>
					<dim>8</dim>
					<dim>160</dim>
					<dim>272</dim>
				</port>
				<port id="1">
					<dim>1</dim>
					<dim>8</dim>
					<dim>1</dim>
					<dim>1</dim>
				</port>
				<port id="2">
					<dim>1</dim>
					<dim>8</dim>
					<dim>1</dim>
					<dim>1</dim>
				</port>
				<port id="3">
					<dim>1</dim>
					<dim>8</dim>
					<dim>1</dim>
					<dim>1</dim>
				</port>
				<port id="4">
					<dim>1</dim>
					<dim>8</dim>
					<dim>1</dim>
					<dim>1</dim>
				</port>
			</input>
			<output>
				<port id="5" precision="FP16">
					<dim>1</dim>
					<dim>8</dim>
					<dim>160</dim>
					<dim>272</dim>
				</port>
			</output>
		</layer>
		<layer id="43" name="bottleneck1_1/inner/dw1/conv/fq_weights_1/Convert_to_float/Cast_012832_const" type="Const" version="opset1">
			<data element_type="u8" offset="1422" shape="8,1,3,3" size="72"/>
			<output>
				<port id="1" precision="U8">
					<dim>8</dim>
					<dim>1</dim>
					<dim>3</dim>
					<dim>3</dim>
				</port>
			</output>
		</layer>
		<layer id="44" name="bottleneck1_1/inner/dw1/conv/fq_weights_1/Convert_to_float" type="Convert" version="opset1">
			<data destination_type="f16"/>
			<input>
				<port id="0">
					<dim>8</dim>
					<dim>1</dim>
					<dim>3</dim>
					<dim>3</dim>
				</port>
			</input>
			<output>
				<port id="1" precision="FP16">
					<dim>8</dim>
					<dim>1</dim>
					<dim>3</dim>
					<dim>3</dim>
				</port>
			</output>
		</layer>
		<layer id="45" name="bottleneck1_1/inner/dw1/conv/fq_weights_1/Copy/out_low10713_const" type="Const" version="opset1">
			<data element_type="f16" offset="1336" shape="1" size="2"/>
			<output>
				<port id="1" precision="FP16">
					<dim>1</dim>
				</port>
			</output>
		</layer>
		<layer id="46" name="bottleneck1_1/inner/dw1/conv/fq_weights_1/Copy/out_high10714_const" type="Const" version="opset1">
			<data element_type="f16" offset="882" shape="1" size="2"/>
			<output>
				<port id="1" precision="FP16">
					<dim>1</dim>
				</port>
			</output>
		</layer>
		<layer id="47" name="38043808_const" type="Const" version="opset1">
			<data element_type="f16" offset="1494" shape="8,1,1,1" size="16"/>
			<output>
				<port id="1" precision="FP16">
					<dim>8</dim>
					<dim>1</dim>
					<dim>1</dim>
					<dim>1</dim>
				</port>
			</output>
		</layer>
		<layer id="48" name="38053809_const" type="Const" version="opset1">
			<data element_type="f16" offset="1510" shape="8,1,1,1" size="16"/>
			<output>
				<port id="1" precision="FP16">
					<dim>8</dim>
					<dim>1</dim>
					<dim>1</dim>
					<dim>1</dim>
				</port>
			</output>
		</layer>
		<layer id="49" name="bottleneck1_1/inner/dw1/conv/fq_weights_1" type="FakeQuantize" version="opset1">
			<data levels="255"/>
			<input>
				<port id="0">
					<dim>8</dim>
					<dim>1</dim>
					<dim>3</dim>
					<dim>3</dim>
				</port>
				<port id="1">
					<dim>1</dim>
				</port>
				<port id="2">
					<dim>1</dim>
				</port>
				<port id="3">
					<dim>8</dim>
					<dim>1</dim>
					<dim>1</dim>
					<dim>1</dim>
				</port>
				<port id="4">
					<dim>8</dim>
					<dim>1</dim>
					<dim>1</dim>
					<dim>1</dim>
				</port>
			</input>
			<output>
				<port id="5" precision="FP16">
					<dim>8</dim>
					<dim>1</dim>
					<dim>3</dim>
					<dim>3</dim>
				</port>
			</output>
		</layer>
		<layer id="50" name="14332/value14334_const" type="Const" version="opset1">
			<data element_type="i64" offset="1526" shape="5" size="40"/>
			<output>
				<port id="1" precision="I64">
					<dim>5</dim>
				</port>
			</output>
		</layer>
		<layer id="51" name="14332" type="Reshape" version="opset1">
			<data special_zero="True"/>
			<input>
				<port id="0">
					<dim>8</dim>
					<dim>1</dim>
					<dim>3</dim>
					<dim>3</dim>
				</port>
				<port id="1">
					<dim>5</dim>
				</port>
			</input>
			<output>
				<port id="2" precision="FP16">
					<dim>8</dim>
					<dim>1</dim>
					<dim>1</dim>
					<dim>3</dim>
					<dim>3</dim>
				</port>
			</output>
		</layer>
		<layer id="52" name="bottleneck1_1/inner/dw1/conv" type="GroupConvolution" version="opset1">
			<data dilations="1,1" output_padding="0,0" pads_begin="1,1" pads_end="1,1" strides="1,1"/>
			<input>
				<port id="0">
					<dim>1</dim>
					<dim>8</dim>
					<dim>160</dim>
					<dim>272</dim>
				</port>
				<port id="1">
					<dim>8</dim>
					<dim>1</dim>
					<dim>1</dim>
					<dim>3</dim>
					<dim>3</dim>
				</port>
			</input>
			<output>
				<port id="2" precision="FP16">
					<dim>1</dim>
					<dim>8</dim>
					<dim>160</dim>
					<dim>272</dim>
				</port>
			</output>
		</layer>
		<layer id="53" name="data_add_2526425269/copy_const768_const" type="Const" version="opset1">
			<data element_type="f16" offset="1566" shape="1,8,1,1" size="16"/>
			<output>
				<port id="1" precision="FP16">
					<dim>1</dim>
					<dim>8</dim>
					<dim>1</dim>
					<dim>1</dim>
				</port>
			</output>
		</layer>
		<layer id="54" name="bottleneck1_1/inner/dw1/bn/variance/Fused_Add_" type="Add" version="opset1">
			<input>
				<port id="0">
					<dim>1</dim>
					<dim>8</dim>
					<dim>160</dim>
					<dim>272</dim>
				</port>
				<port id="1">
					<dim>1</dim>
					<dim>8</dim>
					<dim>1</dim>
					<dim>1</dim>
				</port>
			</input>
			<output>
				<port id="2" precision="FP16">
					<dim>1</dim>
					<dim>8</dim>
					<dim>160</dim>
					<dim>272</dim>
				</port>
			</output>
		</layer>
		<layer id="55" name="bottleneck1_1/inner/dw1/fn32809/Cast_112828_const" type="Const" version="opset1">
			<data element_type="f32" offset="1386" shape="1" size="4"/>
			<output>
				<port id="1" precision="FP32">
					<dim>1</dim>
				</port>
			</output>
		</layer>
		<layer id="56" name="bottleneck1_1/inner/dw1/fn32809" type="PReLU" version="opset1">
			<input>
				<port id="0">
					<dim>1</dim>
					<dim>8</dim>
					<dim>160</dim>
					<dim>272</dim>
				</port>
				<port id="1">
					<dim>1</dim>
				</port>
			</input>
			<output>
				<port id="2" precision="FP16">
					<dim>1</dim>
					<dim>8</dim>
					<dim>160</dim>
					<dim>272</dim>
				</port>
			</output>
		</layer>
		<layer id="57" name="54325436_const" type="Const" version="opset1">
			<data element_type="f16" offset="1582" shape="" size="2"/>
			<output>
				<port id="1" precision="FP16"/>
			</output>
		</layer>
		<layer id="58" name="54335437_const" type="Const" version="opset1">
			<data element_type="f16" offset="1584" shape="" size="2"/>
			<output>
				<port id="1" precision="FP16"/>
			</output>
		</layer>
		<layer id="59" name="54345438_const" type="Const" version="opset1">
			<data element_type="f16" offset="1582" shape="" size="2"/>
			<output>
				<port id="1" precision="FP16"/>
			</output>
		</layer>
		<layer id="60" name="54355439_const" type="Const" version="opset1">
			<data element_type="f16" offset="1584" shape="" size="2"/>
			<output>
				<port id="1" precision="FP16"/>
			</output>
		</layer>
		<layer id="61" name="bottleneck1_1/dim_inc/conv/fq_input_0" type="FakeQuantize" version="opset1">
			<data levels="256"/>
			<input>
				<port id="0">
					<dim>1</dim>
					<dim>8</dim>
					<dim>160</dim>
					<dim>272</dim>
				</port>
				<port id="1"/>
				<port id="2"/>
				<port id="3"/>
				<port id="4"/>
			</input>
			<output>
				<port id="5" precision="FP16">
					<dim>1</dim>
					<dim>8</dim>
					<dim>160</dim>
					<dim>272</dim>
				</port>
			</output>
		</layer>
		<layer id="62" name="bottleneck1_1/dim_inc/conv/fq_weights_1/Convert_to_float/Cast_012836_const" type="Const" version="opset1">
			<data element_type="u8" offset="1586" shape="32,8,1,1" size="256"/>
			<output>
				<port id="1" precision="U8">
					<dim>32</dim>
					<dim>8</dim>
					<dim>1</dim>
					<dim>1</dim>
				</port>
			</output>
		</layer>
		<layer id="63" name="bottleneck1_1/dim_inc/conv/fq_weights_1/Convert_to_float" type="Convert" version="opset1">
			<data destination_type="f16"/>
			<input>
				<port id="0">
					<dim>32</dim>
					<dim>8</dim>
					<dim>1</dim>
					<dim>1</dim>
				</port>
			</input>
			<output>
				<port id="1" precision="FP16">
					<dim>32</dim>
					<dim>8</dim>
					<dim>1</dim>
					<dim>1</dim>
				</port>
			</output>
		</layer>
		<layer id="64" name="bottleneck1_1/dim_inc/conv/fq_weights_1/Copy/out_low10609_const" type="Const" version="opset1">
			<data element_type="f16" offset="1336" shape="1" size="2"/>
			<output>
				<port id="1" precision="FP16">
					<dim>1</dim>
				</port>
			</output>
		</layer>
		<layer id="65" name="bottleneck1_1/dim_inc/conv/fq_weights_1/Copy/out_high10610_const" type="Const" version="opset1">
			<data element_type="f16" offset="882" shape="1" size="2"/>
			<output>
				<port id="1" precision="FP16">
					<dim>1</dim>
				</port>
			</output>
		</layer>
		<layer id="66" name="54445448_const" type="Const" version="opset1">
			<data element_type="f16" offset="1842" shape="32,1,1,1" size="64"/>
			<output>
				<port id="1" precision="FP16">
					<dim>32</dim>
					<dim>1</dim>
					<dim>1</dim>
					<dim>1</dim>
				</port>
			</output>
		</layer>
		<layer id="67" name="54455449_const" type="Const" version="opset1">
			<data element_type="f16" offset="1906" shape="32,1,1,1" size="64"/>
			<output>
				<port id="1" precision="FP16">
					<dim>32</dim>
					<dim>1</dim>
					<dim>1</dim>
					<dim>1</dim>
				</port>
			</output>
		</layer>
		<layer id="68" name="bottleneck1_1/dim_inc/conv/fq_weights_1" type="FakeQuantize" version="opset1">
			<data levels="255"/>
			<input>
				<port id="0">
					<dim>32</dim>
					<dim>8</dim>
					<dim>1</dim>
					<dim>1</dim>
				</port>
				<port id="1">
					<dim>1</dim>
				</port>
				<port id="2">
					<dim>1</dim>
				</port>
				<port id="3">
					<dim>32</dim>
					<dim>1</dim>
					<dim>1</dim>
					<dim>1</dim>
				</port>
				<port id="4">
					<dim>32</dim>
					<dim>1</dim>
					<dim>1</dim>
					<dim>1</dim>
				</port>
			</input>
			<output>
				<port id="5" precision="FP16">
					<dim>32</dim>
					<dim>8</dim>
					<dim>1</dim>
					<dim>1</dim>
				</port>
			</output>
		</layer>
		<layer id="69" name="bottleneck1_1/dim_inc/conv" type="Convolution" version="opset1">
			<data dilations="1,1" output_padding="0,0" pads_begin="0,0" pads_end="0,0" strides="1,1"/>
			<input>
				<port id="0">
					<dim>1</dim>
					<dim>8</dim>
					<dim>160</dim>
					<dim>272</dim>
				</port>
				<port id="1">
					<dim>32</dim>
					<dim>8</dim>
					<dim>1</dim>
					<dim>1</dim>
				</port>
			</input>
			<output>
				<port id="2" precision="FP16">
					<dim>1</dim>
					<dim>32</dim>
					<dim>160</dim>
					<dim>272</dim>
				</port>
			</output>
		</layer>
		<layer id="70" name="data_add_2527225277/copy_const774_const" type="Const" version="opset1">
			<data element_type="f16" offset="1970" shape="1,32,1,1" size="64"/>
			<output>
				<port id="1" precision="FP16">
					<dim>1</dim>
					<dim>32</dim>
					<dim>1</dim>
					<dim>1</dim>
				</port>
			</output>
		</layer>
		<layer id="71" name="bottleneck1_1/dim_inc/bn/variance/Fused_Add_" type="Add" version="opset1">
			<input>
				<port id="0">
					<dim>1</dim>
					<dim>32</dim>
					<dim>160</dim>
					<dim>272</dim>
				</port>
				<port id="1">
					<dim>1</dim>
					<dim>32</dim>
					<dim>1</dim>
					<dim>1</dim>
				</port>
			</input>
			<output>
				<port id="2" precision="FP16">
					<dim>1</dim>
					<dim>32</dim>
					<dim>160</dim>
					<dim>272</dim>
				</port>
			</output>
		</layer>
		<layer id="72" name="27622766_const" type="Const" version="opset1">
			<data element_type="f16" offset="2034" shape="" size="2"/>
			<output>
				<port id="1" precision="FP16"/>
			</output>
		</layer>
		<layer id="73" name="27632767_const" type="Const" version="opset1">
			<data element_type="f16" offset="2036" shape="" size="2"/>
			<output>
				<port id="1" precision="FP16"/>
			</output>
		</layer>
		<layer id="74" name="27642768_const" type="Const" version="opset1">
			<data element_type="f16" offset="2034" shape="" size="2"/>
			<output>
				<port id="1" precision="FP16"/>
			</output>
		</layer>
		<layer id="75" name="27652769_const" type="Const" version="opset1">
			<data element_type="f16" offset="2036" shape="" size="2"/>
			<output>
				<port id="1" precision="FP16"/>
			</output>
		</layer>
		<layer id="76" name="bottleneck1_1/add/fq_input_1" type="FakeQuantize" version="opset1">
			<data levels="256"/>
			<input>
				<port id="0">
					<dim>1</dim>
					<dim>32</dim>
					<dim>160</dim>
					<dim>272</dim>
				</port>
				<port id="1"/>
				<port id="2"/>
				<port id="3"/>
				<port id="4"/>
			</input>
			<output>
				<port id="5" precision="FP16">
					<dim>1</dim>
					<dim>32</dim>
					<dim>160</dim>
					<dim>272</dim>
				</port>
			</output>
		</layer>
		<layer id="77" name="bottleneck1_1/add" type="Add" version="opset1">
			<input>
				<port id="0">
					<dim>1</dim>
					<dim>32</dim>
					<dim>160</dim>
					<dim>272</dim>
				</port>
				<port id="1">
					<dim>1</dim>
					<dim>32</dim>
					<dim>160</dim>
					<dim>272</dim>
				</port>
			</input>
			<output>
				<port id="2" precision="FP16">
					<dim>1</dim>
					<dim>32</dim>
					<dim>160</dim>
					<dim>272</dim>
				</port>
			</output>
		</layer>
		<layer id="78" name="bottleneck1_1/fn32781/Cast_112428_const" type="Const" version="opset1">
			<data element_type="f32" offset="1386" shape="1" size="4"/>
			<output>
				<port id="1" precision="FP32">
					<dim>1</dim>
				</port>
			</output>
		</layer>
		<layer id="79" name="bottleneck1_1/fn32781" type="PReLU" version="opset1">
			<input>
				<port id="0">
					<dim>1</dim>
					<dim>32</dim>
					<dim>160</dim>
					<dim>272</dim>
				</port>
				<port id="1">
					<dim>1</dim>
				</port>
			</input>
			<output>
				<port id="2" precision="FP16">
					<dim>1</dim>
					<dim>32</dim>
					<dim>160</dim>
					<dim>272</dim>
				</port>
			</output>
		</layer>
		<layer id="80" name="31123116_const" type="Const" version="opset1">
			<data element_type="f16" offset="2038" shape="" size="2"/>
			<output>
				<port id="1" precision="FP16"/>
			</output>
		</layer>
		<layer id="81" name="31133117_const" type="Const" version="opset1">
			<data element_type="f16" offset="2040" shape="" size="2"/>
			<output>
				<port id="1" precision="FP16"/>
			</output>
		</layer>
		<layer id="82" name="31143118_const" type="Const" version="opset1">
			<data element_type="f16" offset="2038" shape="" size="2"/>
			<output>
				<port id="1" precision="FP16"/>
			</output>
		</layer>
		<layer id="83" name="31153119_const" type="Const" version="opset1">
			<data element_type="f16" offset="2040" shape="" size="2"/>
			<output>
				<port id="1" precision="FP16"/>
			</output>
		</layer>
		<layer id="84" name="bottleneck1_2/add/fq_input_0" type="FakeQuantize" version="opset1">
			<data levels="256"/>
			<input>
				<port id="0">
					<dim>1</dim>
					<dim>32</dim>
					<dim>160</dim>
					<dim>272</dim>
				</port>
				<port id="1"/>
				<port id="2"/>
				<port id="3"/>
				<port id="4"/>
			</input>
			<output>
				<port id="5" precision="FP16">
					<dim>1</dim>
					<dim>32</dim>
					<dim>160</dim>
					<dim>272</dim>
				</port>
			</output>
		</layer>
		<layer id="85" name="bottleneck1_2/dim_red/conv/fq_weights_1/Convert_to_float/Cast_012700_const" type="Const" version="opset1">
			<data element_type="u8" offset="2042" shape="8,32,1,1" size="256"/>
			<output>
				<port id="1" precision="U8">
					<dim>8</dim>
					<dim>32</dim>
					<dim>1</dim>
					<dim>1</dim>
				</port>
			</output>
		</layer>
		<layer id="86" name="bottleneck1_2/dim_red/conv/fq_weights_1/Convert_to_float" type="Convert" version="opset1">
			<data destination_type="f16"/>
			<input>
				<port id="0">
					<dim>8</dim>
					<dim>32</dim>
					<dim>1</dim>
					<dim>1</dim>
				</port>
			</input>
			<output>
				<port id="1" precision="FP16">
					<dim>8</dim>
					<dim>32</dim>
					<dim>1</dim>
					<dim>1</dim>
				</port>
			</output>
		</layer>
		<layer id="87" name="bottleneck1_2/dim_red/conv/fq_weights_1/Copy/out_low10313_const" type="Const" version="opset1">
			<data element_type="f16" offset="1336" shape="1" size="2"/>
			<output>
				<port id="1" precision="FP16">
					<dim>1</dim>
				</port>
			</output>
		</layer>
		<layer id="88" name="bottleneck1_2/dim_red/conv/fq_weights_1/Copy/out_high10314_const" type="Const" version="opset1">
			<data element_type="f16" offset="882" shape="1" size="2"/>
			<output>
				<port id="1" precision="FP16">
					<dim>1</dim>
				</port>
			</output>
		</layer>
		<layer id="89" name="36843688_const" type="Const" version="opset1">
			<data element_type="f16" offset="2298" shape="8,1,1,1" size="16"/>
			<output>
				<port id="1" precision="FP16">
					<dim>8</dim>
					<dim>1</dim>
					<dim>1</dim>
					<dim>1</dim>
				</port>
			</output>
		</layer>
		<layer id="90" name="36853689_const" type="Const" version="opset1">
			<data element_type="f16" offset="2314" shape="8,1,1,1" size="16"/>
			<output>
				<port id="1" precision="FP16">
					<dim>8</dim>
					<dim>1</dim>
					<dim>1</dim>
					<dim>1</dim>
				</port>
			</output>
		</layer>
		<layer id="91" name="bottleneck1_2/dim_red/conv/fq_weights_1" type="FakeQuantize" version="opset1">
			<data levels="255"/>
			<input>
				<port id="0">
					<dim>8</dim>
					<dim>32</dim>
					<dim>1</dim>
					<dim>1</dim>
				</port>
				<port id="1">
					<dim>1</dim>
				</port>
				<port id="2">
					<dim>1</dim>
				</port>
				<port id="3">
					<dim>8</dim>
					<dim>1</dim>
					<dim>1</dim>
					<dim>1</dim>
				</port>
				<port id="4">
					<dim>8</dim>
					<dim>1</dim>
					<dim>1</dim>
					<dim>1</dim>
				</port>
			</input>
			<output>
				<port id="5" precision="FP16">
					<dim>8</dim>
					<dim>32</dim>
					<dim>1</dim>
					<dim>1</dim>
				</port>
			</output>
		</layer>
		<layer id="92" name="bottleneck1_2/dim_red/conv" type="Convolution" version="opset1">
			<data dilations="1,1" output_padding="0,0" pads_begin="0,0" pads_end="0,0" strides="1,1"/>
			<input>
				<port id="0">
					<dim>1</dim>
					<dim>32</dim>
					<dim>160</dim>
					<dim>272</dim>
				</port>
				<port id="1">
					<dim>8</dim>
					<dim>32</dim>
					<dim>1</dim>
					<dim>1</dim>
				</port>
			</input>
			<output>
				<port id="2" precision="FP16">
					<dim>1</dim>
					<dim>8</dim>
					<dim>160</dim>
					<dim>272</dim>
				</port>
			</output>
		</layer>
		<layer id="93" name="data_add_2528025285/copy_const781_const" type="Const" version="opset1">
			<data element_type="f16" offset="2330" shape="1,8,1,1" size="16"/>
			<output>
				<port id="1" precision="FP16">
					<dim>1</dim>
					<dim>8</dim>
					<dim>1</dim>
					<dim>1</dim>
				</port>
			</output>
		</layer>
		<layer id="94" name="bottleneck1_2/dim_red/bn/variance/Fused_Add_" type="Add" version="opset1">
			<input>
				<port id="0">
					<dim>1</dim>
					<dim>8</dim>
					<dim>160</dim>
					<dim>272</dim>
				</port>
				<port id="1">
					<dim>1</dim>
					<dim>8</dim>
					<dim>1</dim>
					<dim>1</dim>
				</port>
			</input>
			<output>
				<port id="2" precision="FP16">
					<dim>1</dim>
					<dim>8</dim>
					<dim>160</dim>
					<dim>272</dim>
				</port>
			</output>
		</layer>
		<layer id="95" name="bottleneck1_2/dim_red/fn32773/Cast_112682_const" type="Const" version="opset1">
			<data element_type="f32" offset="1386" shape="1" size="4"/>
			<output>
				<port id="1" precision="FP32">
					<dim>1</dim>
				</port>
			</output>
		</layer>
		<layer id="96" name="bottleneck1_2/dim_red/fn32773" type="PReLU" version="opset1">
			<input>
				<port id="0">
					<dim>1</dim>
					<dim>8</dim>
					<dim>160</dim>
					<dim>272</dim>
				</port>
				<port id="1">
					<dim>1</dim>
				</port>
			</input>
			<output>
				<port id="2" precision="FP16">
					<dim>1</dim>
					<dim>8</dim>
					<dim>160</dim>
					<dim>272</dim>
				</port>
			</output>
		</layer>
		<layer id="97" name="52725276_const" type="Const" version="opset1">
			<data element_type="f16" offset="2346" shape="1,8,1,1" size="16"/>
			<output>
				<port id="1" precision="FP16">
					<dim>1</dim>
					<dim>8</dim>
					<dim>1</dim>
					<dim>1</dim>
				</port>
			</output>
		</layer>
		<layer id="98" name="52735277_const" type="Const" version="opset1">
			<data element_type="f16" offset="2362" shape="1,8,1,1" size="16"/>
			<output>
				<port id="1" precision="FP16">
					<dim>1</dim>
					<dim>8</dim>
					<dim>1</dim>
					<dim>1</dim>
				</port>
			</output>
		</layer>
		<layer id="99" name="52745278_const" type="Const" version="opset1">
			<data element_type="f16" offset="2346" shape="1,8,1,1" size="16"/>
			<output>
				<port id="1" precision="FP16">
					<dim>1</dim>
					<dim>8</dim>
					<dim>1</dim>
					<dim>1</dim>
				</port>
			</output>
		</layer>
		<layer id="100" name="52755279_const" type="Const" version="opset1">
			<data element_type="f16" offset="2362" shape="1,8,1,1" size="16"/>
			<output>
				<port id="1" precision="FP16">
					<dim>1</dim>
					<dim>8</dim>
					<dim>1</dim>
					<dim>1</dim>
				</port>
			</output>
		</layer>
		<layer id="101" name="bottleneck1_2/inner/dw1/conv/fq_input_0" type="FakeQuantize" version="opset1">
			<data levels="256"/>
			<input>
				<port id="0">
					<dim>1</dim>
					<dim>8</dim>
					<dim>160</dim>
					<dim>272</dim>
				</port>
				<port id="1">
					<dim>1</dim>
					<dim>8</dim>
					<dim>1</dim>
					<dim>1</dim>
				</port>
				<port id="2">
					<dim>1</dim>
					<dim>8</dim>
					<dim>1</dim>
					<dim>1</dim>
				</port>
				<port id="3">
					<dim>1</dim>
					<dim>8</dim>
					<dim>1</dim>
					<dim>1</dim>
				</port>
				<port id="4">
					<dim>1</dim>
					<dim>8</dim>
					<dim>1</dim>
					<dim>1</dim>
				</port>
			</input>
			<output>
				<port id="5" precision="FP16">
					<dim>1</dim>
					<dim>8</dim>
					<dim>160</dim>
					<dim>272</dim>
				</port>
			</output>
		</layer>
		<layer id="102" name="bottleneck1_2/inner/dw1/conv/fq_weights_1/Convert_to_float/Cast_012614_const" type="Const" version="opset1">
			<data element_type="u8" offset="2378" shape="8,1,3,3" size="72"/>
			<output>
				<port id="1" precision="U8">
					<dim>8</dim>
					<dim>1</dim>
					<dim>3</dim>
					<dim>3</dim>
				</port>
			</output>
		</layer>
		<layer id="103" name="bottleneck1_2/inner/dw1/conv/fq_weights_1/Convert_to_float" type="Convert" version="opset1">
			<data destination_type="f16"/>
			<input>
				<port id="0">
					<dim>8</dim>
					<dim>1</dim>
					<dim>3</dim>
					<dim>3</dim>
				</port>
			</input>
			<output>
				<port id="1" precision="FP16">
					<dim>8</dim>
					<dim>1</dim>
					<dim>3</dim>
					<dim>3</dim>
				</port>
			</output>
		</layer>
		<layer id="104" name="bottleneck1_2/inner/dw1/conv/fq_weights_1/Copy/out_low10993_const" type="Const" version="opset1">
			<data element_type="f16" offset="1336" shape="1" size="2"/>
			<output>
				<port id="1" precision="FP16">
					<dim>1</dim>
				</port>
			</output>
		</layer>
		<layer id="105" name="bottleneck1_2/inner/dw1/conv/fq_weights_1/Copy/out_high10994_const" type="Const" version="opset1">
			<data element_type="f16" offset="882" shape="1" size="2"/>
			<output>
				<port id="1" precision="FP16">
					<dim>1</dim>
				</port>
			</output>
		</layer>
		<layer id="106" name="52845288_const" type="Const" version="opset1">
			<data element_type="f16" offset="2450" shape="8,1,1,1" size="16"/>
			<output>
				<port id="1" precision="FP16">
					<dim>8</dim>
					<dim>1</dim>
					<dim>1</dim>
					<dim>1</dim>
				</port>
			</output>
		</layer>
		<layer id="107" name="52855289_const" type="Const" version="opset1">
			<data element_type="f16" offset="2466" shape="8,1,1,1" size="16"/>
			<output>
				<port id="1" precision="FP16">
					<dim>8</dim>
					<dim>1</dim>
					<dim>1</dim>
					<dim>1</dim>
				</port>
			</output>
		</layer>
		<layer id="108" name="bottleneck1_2/inner/dw1/conv/fq_weights_1" type="FakeQuantize" version="opset1">
			<data levels="255"/>
			<input>
				<port id="0">
					<dim>8</dim>
					<dim>1</dim>
					<dim>3</dim>
					<dim>3</dim>
				</port>
				<port id="1">
					<dim>1</dim>
				</port>
				<port id="2">
					<dim>1</dim>
				</port>
				<port id="3">
					<dim>8</dim>
					<dim>1</dim>
					<dim>1</dim>
					<dim>1</dim>
				</port>
				<port id="4">
					<dim>8</dim>
					<dim>1</dim>
					<dim>1</dim>
					<dim>1</dim>
				</port>
			</input>
			<output>
				<port id="5" precision="FP16">
					<dim>8</dim>
					<dim>1</dim>
					<dim>3</dim>
					<dim>3</dim>
				</port>
			</output>
		</layer>
		<layer id="109" name="14392/value14394_const" type="Const" version="opset1">
			<data element_type="i64" offset="1526" shape="5" size="40"/>
			<output>
				<port id="1" precision="I64">
					<dim>5</dim>
				</port>
			</output>
		</layer>
		<layer id="110" name="14392" type="Reshape" version="opset1">
			<data special_zero="True"/>
			<input>
				<port id="0">
					<dim>8</dim>
					<dim>1</dim>
					<dim>3</dim>
					<dim>3</dim>
				</port>
				<port id="1">
					<dim>5</dim>
				</port>
			</input>
			<output>
				<port id="2" precision="FP16">
					<dim>8</dim>
					<dim>1</dim>
					<dim>1</dim>
					<dim>3</dim>
					<dim>3</dim>
				</port>
			</output>
		</layer>
		<layer id="111" name="bottleneck1_2/inner/dw1/conv" type="GroupConvolution" version="opset1">
			<data dilations="1,1" output_padding="0,0" pads_begin="1,1" pads_end="1,1" strides="1,1"/>
			<input>
				<port id="0">
					<dim>1</dim>
					<dim>8</dim>
					<dim>160</dim>
					<dim>272</dim>
				</port>
				<port id="1">
					<dim>8</dim>
					<dim>1</dim>
					<dim>1</dim>
					<dim>3</dim>
					<dim>3</dim>
				</port>
			</input>
			<output>
				<port id="2" precision="FP16">
					<dim>1</dim>
					<dim>8</dim>
					<dim>160</dim>
					<dim>272</dim>
				</port>
			</output>
		</layer>
		<layer id="112" name="data_add_2528825293/copy_const787_const" type="Const" version="opset1">
			<data element_type="f16" offset="2482" shape="1,8,1,1" size="16"/>
			<output>
				<port id="1" precision="FP16">
					<dim>1</dim>
					<dim>8</dim>
					<dim>1</dim>
					<dim>1</dim>
				</port>
			</output>
		</layer>
		<layer id="113" name="bottleneck1_2/inner/dw1/bn/variance/Fused_Add_" type="Add" version="opset1">
			<input>
				<port id="0">
					<dim>1</dim>
					<dim>8</dim>
					<dim>160</dim>
					<dim>272</dim>
				</port>
				<port id="1">
					<dim>1</dim>
					<dim>8</dim>
					<dim>1</dim>
					<dim>1</dim>
				</port>
			</input>
			<output>
				<port id="2" precision="FP16">
					<dim>1</dim>
					<dim>8</dim>
					<dim>160</dim>
					<dim>272</dim>
				</port>
			</output>
		</layer>
		<layer id="114" name="bottleneck1_2/inner/dw1/fn32525/Cast_112480_const" type="Const" version="opset1">
			<data element_type="f32" offset="1386" shape="1" size="4"/>
			<output>
				<port id="1" precision="FP32">
					<dim>1</dim>
				</port>
			</output>
		</layer>
		<layer id="115" name="bottleneck1_2/inner/dw1/fn32525" type="PReLU" version="opset1">
			<input>
				<port id="0">
					<dim>1</dim>
					<dim>8</dim>
					<dim>160</dim>
					<dim>272</dim>
				</port>
				<port id="1">
					<dim>1</dim>
				</port>
			</input>
			<output>
				<port id="2" precision="FP16">
					<dim>1</dim>
					<dim>8</dim>
					<dim>160</dim>
					<dim>272</dim>
				</port>
			</output>
		</layer>
		<layer id="116" name="34723476_const" type="Const" version="opset1">
			<data element_type="f16" offset="2498" shape="" size="2"/>
			<output>
				<port id="1" precision="FP16"/>
			</output>
		</layer>
		<layer id="117" name="34733477_const" type="Const" version="opset1">
			<data element_type="f16" offset="2500" shape="" size="2"/>
			<output>
				<port id="1" precision="FP16"/>
			</output>
		</layer>
		<layer id="118" name="34743478_const" type="Const" version="opset1">
			<data element_type="f16" offset="2498" shape="" size="2"/>
			<output>
				<port id="1" precision="FP16"/>
			</output>
		</layer>
		<layer id="119" name="34753479_const" type="Const" version="opset1">
			<data element_type="f16" offset="2500" shape="" size="2"/>
			<output>
				<port id="1" precision="FP16"/>
			</output>
		</layer>
		<layer id="120" name="bottleneck1_2/dim_inc/conv/fq_input_0" type="FakeQuantize" version="opset1">
			<data levels="256"/>
			<input>
				<port id="0">
					<dim>1</dim>
					<dim>8</dim>
					<dim>160</dim>
					<dim>272</dim>
				</port>
				<port id="1"/>
				<port id="2"/>
				<port id="3"/>
				<port id="4"/>
			</input>
			<output>
				<port id="5" precision="FP16">
					<dim>1</dim>
					<dim>8</dim>
					<dim>160</dim>
					<dim>272</dim>
				</port>
			</output>
		</layer>
		<layer id="121" name="bottleneck1_2/dim_inc/conv/fq_weights_1/Convert_to_float/Cast_012410_const" type="Const" version="opset1">
			<data element_type="u8" offset="2502" shape="32,8,1,1" size="256"/>
			<output>
				<port id="1" precision="U8">
					<dim>32</dim>
					<dim>8</dim>
					<dim>1</dim>
					<dim>1</dim>
				</port>
			</output>
		</layer>
		<layer id="122" name="bottleneck1_2/dim_inc/conv/fq_weights_1/Convert_to_float" type="Convert" version="opset1">
			<data destination_type="f16"/>
			<input>
				<port id="0">
					<dim>32</dim>
					<dim>8</dim>
					<dim>1</dim>
					<dim>1</dim>
				</port>
			</input>
			<output>
				<port id="1" precision="FP16">
					<dim>32</dim>
					<dim>8</dim>
					<dim>1</dim>
					<dim>1</dim>
				</port>
			</output>
		</layer>
		<layer id="123" name="bottleneck1_2/dim_inc/conv/fq_weights_1/Copy/out_low10217_const" type="Const" version="opset1">
			<data element_type="f16" offset="1336" shape="1" size="2"/>
			<output>
				<port id="1" precision="FP16">
					<dim>1</dim>
				</port>
			</output>
		</layer>
		<layer id="124" name="bottleneck1_2/dim_inc/conv/fq_weights_1/Copy/out_high10218_const" type="Const" version="opset1">
			<data element_type="f16" offset="882" shape="1" size="2"/>
			<output>
				<port id="1" precision="FP16">
					<dim>1</dim>
				</port>
			</output>
		</layer>
		<layer id="125" name="34843488_const" type="Const" version="opset1">
			<data element_type="f16" offset="2758" shape="32,1,1,1" size="64"/>
			<output>
				<port id="1" precision="FP16">
					<dim>32</dim>
					<dim>1</dim>
					<dim>1</dim>
					<dim>1</dim>
				</port>
			</output>
		</layer>
		<layer id="126" name="34853489_const" type="Const" version="opset1">
			<data element_type="f16" offset="2822" shape="32,1,1,1" size="64"/>
			<output>
				<port id="1" precision="FP16">
					<dim>32</dim>
					<dim>1</dim>
					<dim>1</dim>
					<dim>1</dim>
				</port>
			</output>
		</layer>
		<layer id="127" name="bottleneck1_2/dim_inc/conv/fq_weights_1" type="FakeQuantize" version="opset1">
			<data levels="255"/>
			<input>
				<port id="0">
					<dim>32</dim>
					<dim>8</dim>
					<dim>1</dim>
					<dim>1</dim>
				</port>
				<port id="1">
					<dim>1</dim>
				</port>
				<port id="2">
					<dim>1</dim>
				</port>
				<port id="3">
					<dim>32</dim>
					<dim>1</dim>
					<dim>1</dim>
					<dim>1</dim>
				</port>
				<port id="4">
					<dim>32</dim>
					<dim>1</dim>
					<dim>1</dim>
					<dim>1</dim>
				</port>
			</input>
			<output>
				<port id="5" precision="FP16">
					<dim>32</dim>
					<dim>8</dim>
					<dim>1</dim>
					<dim>1</dim>
				</port>
			</output>
		</layer>
		<layer id="128" name="bottleneck1_2/dim_inc/conv" type="Convolution" version="opset1">
			<data dilations="1,1" output_padding="0,0" pads_begin="0,0" pads_end="0,0" strides="1,1"/>
			<input>
				<port id="0">
					<dim>1</dim>
					<dim>8</dim>
					<dim>160</dim>
					<dim>272</dim>
				</port>
				<port id="1">
					<dim>32</dim>
					<dim>8</dim>
					<dim>1</dim>
					<dim>1</dim>
				</port>
			</input>
			<output>
				<port id="2" precision="FP16">
					<dim>1</dim>
					<dim>32</dim>
					<dim>160</dim>
					<dim>272</dim>
				</port>
			</output>
		</layer>
		<layer id="129" name="data_add_2529625301/copy_const793_const" type="Const" version="opset1">
			<data element_type="f16" offset="2886" shape="1,32,1,1" size="64"/>
			<output>
				<port id="1" precision="FP16">
					<dim>1</dim>
					<dim>32</dim>
					<dim>1</dim>
					<dim>1</dim>
				</port>
			</output>
		</layer>
		<layer id="130" name="bottleneck1_2/dim_inc/bn/variance/Fused_Add_" type="Add" version="opset1">
			<input>
				<port id="0">
					<dim>1</dim>
					<dim>32</dim>
					<dim>160</dim>
					<dim>272</dim>
				</port>
				<port id="1">
					<dim>1</dim>
					<dim>32</dim>
					<dim>1</dim>
					<dim>1</dim>
				</port>
			</input>
			<output>
				<port id="2" precision="FP16">
					<dim>1</dim>
					<dim>32</dim>
					<dim>160</dim>
					<dim>272</dim>
				</port>
			</output>
		</layer>
		<layer id="131" name="31223126_const" type="Const" version="opset1">
			<data element_type="f16" offset="2950" shape="" size="2"/>
			<output>
				<port id="1" precision="FP16"/>
			</output>
		</layer>
		<layer id="132" name="31233127_const" type="Const" version="opset1">
			<data element_type="f16" offset="2952" shape="" size="2"/>
			<output>
				<port id="1" precision="FP16"/>
			</output>
		</layer>
		<layer id="133" name="31243128_const" type="Const" version="opset1">
			<data element_type="f16" offset="2950" shape="" size="2"/>
			<output>
				<port id="1" precision="FP16"/>
			</output>
		</layer>
		<layer id="134" name="31253129_const" type="Const" version="opset1">
			<data element_type="f16" offset="2952" shape="" size="2"/>
			<output>
				<port id="1" precision="FP16"/>
			</output>
		</layer>
		<layer id="135" name="bottleneck1_2/add/fq_input_1" type="FakeQuantize" version="opset1">
			<data levels="256"/>
			<input>
				<port id="0">
					<dim>1</dim>
					<dim>32</dim>
					<dim>160</dim>
					<dim>272</dim>
				</port>
				<port id="1"/>
				<port id="2"/>
				<port id="3"/>
				<port id="4"/>
			</input>
			<output>
				<port id="5" precision="FP16">
					<dim>1</dim>
					<dim>32</dim>
					<dim>160</dim>
					<dim>272</dim>
				</port>
			</output>
		</layer>
		<layer id="136" name="bottleneck1_2/add" type="Add" version="opset1">
			<input>
				<port id="0">
					<dim>1</dim>
					<dim>32</dim>
					<dim>160</dim>
					<dim>272</dim>
				</port>
				<port id="1">
					<dim>1</dim>
					<dim>32</dim>
					<dim>160</dim>
					<dim>272</dim>
				</port>
			</input>
			<output>
				<port id="2" precision="FP16">
					<dim>1</dim>
					<dim>32</dim>
					<dim>160</dim>
					<dim>272</dim>
				</port>
			</output>
		</layer>
		<layer id="137" name="bottleneck1_2/fn32561/Cast_112408_const" type="Const" version="opset1">
			<data element_type="f32" offset="1386" shape="1" size="4"/>
			<output>
				<port id="1" precision="FP32">
					<dim>1</dim>
				</port>
			</output>
		</layer>
		<layer id="138" name="bottleneck1_2/fn32561" type="PReLU" version="opset1">
			<input>
				<port id="0">
					<dim>1</dim>
					<dim>32</dim>
					<dim>160</dim>
					<dim>272</dim>
				</port>
				<port id="1">
					<dim>1</dim>
				</port>
			</input>
			<output>
				<port id="2" precision="FP16">
					<dim>1</dim>
					<dim>32</dim>
					<dim>160</dim>
					<dim>272</dim>
				</port>
			</output>
		</layer>
		<layer id="139" name="47324736_const" type="Const" version="opset1">
			<data element_type="f16" offset="2954" shape="" size="2"/>
			<output>
				<port id="1" precision="FP16"/>
			</output>
		</layer>
		<layer id="140" name="47334737_const" type="Const" version="opset1">
			<data element_type="f16" offset="2956" shape="" size="2"/>
			<output>
				<port id="1" precision="FP16"/>
			</output>
		</layer>
		<layer id="141" name="47344738_const" type="Const" version="opset1">
			<data element_type="f16" offset="2954" shape="" size="2"/>
			<output>
				<port id="1" precision="FP16"/>
			</output>
		</layer>
		<layer id="142" name="47354739_const" type="Const" version="opset1">
			<data element_type="f16" offset="2956" shape="" size="2"/>
			<output>
				<port id="1" precision="FP16"/>
			</output>
		</layer>
		<layer id="143" name="bottleneck1_3/add/fq_input_0" type="FakeQuantize" version="opset1">
			<data levels="256"/>
			<input>
				<port id="0">
					<dim>1</dim>
					<dim>32</dim>
					<dim>160</dim>
					<dim>272</dim>
				</port>
				<port id="1"/>
				<port id="2"/>
				<port id="3"/>
				<port id="4"/>
			</input>
			<output>
				<port id="5" precision="FP16">
					<dim>1</dim>
					<dim>32</dim>
					<dim>160</dim>
					<dim>272</dim>
				</port>
			</output>
		</layer>
		<layer id="144" name="bottleneck1_3/dim_red/conv/fq_weights_1/Convert_to_float/Cast_012446_const" type="Const" version="opset1">
			<data element_type="u8" offset="2958" shape="8,32,1,1" size="256"/>
			<output>
				<port id="1" precision="U8">
					<dim>8</dim>
					<dim>32</dim>
					<dim>1</dim>
					<dim>1</dim>
				</port>
			</output>
		</layer>
		<layer id="145" name="bottleneck1_3/dim_red/conv/fq_weights_1/Convert_to_float" type="Convert" version="opset1">
			<data destination_type="f16"/>
			<input>
				<port id="0">
					<dim>8</dim>
					<dim>32</dim>
					<dim>1</dim>
					<dim>1</dim>
				</port>
			</input>
			<output>
				<port id="1" precision="FP16">
					<dim>8</dim>
					<dim>32</dim>
					<dim>1</dim>
					<dim>1</dim>
				</port>
			</output>
		</layer>
		<layer id="146" name="bottleneck1_3/dim_red/conv/fq_weights_1/Copy/out_low10777_const" type="Const" version="opset1">
			<data element_type="f16" offset="1336" shape="1" size="2"/>
			<output>
				<port id="1" precision="FP16">
					<dim>1</dim>
				</port>
			</output>
		</layer>
		<layer id="147" name="bottleneck1_3/dim_red/conv/fq_weights_1/Copy/out_high10778_const" type="Const" version="opset1">
			<data element_type="f16" offset="882" shape="1" size="2"/>
			<output>
				<port id="1" precision="FP16">
					<dim>1</dim>
				</port>
			</output>
		</layer>
		<layer id="148" name="47644768_const" type="Const" version="opset1">
			<data element_type="f16" offset="3214" shape="8,1,1,1" size="16"/>
			<output>
				<port id="1" precision="FP16">
					<dim>8</dim>
					<dim>1</dim>
					<dim>1</dim>
					<dim>1</dim>
				</port>
			</output>
		</layer>
		<layer id="149" name="47654769_const" type="Const" version="opset1">
			<data element_type="f16" offset="3230" shape="8,1,1,1" size="16"/>
			<output>
				<port id="1" precision="FP16">
					<dim>8</dim>
					<dim>1</dim>
					<dim>1</dim>
					<dim>1</dim>
				</port>
			</output>
		</layer>
		<layer id="150" name="bottleneck1_3/dim_red/conv/fq_weights_1" type="FakeQuantize" version="opset1">
			<data levels="255"/>
			<input>
				<port id="0">
					<dim>8</dim>
					<dim>32</dim>
					<dim>1</dim>
					<dim>1</dim>
				</port>
				<port id="1">
					<dim>1</dim>
				</port>
				<port id="2">
					<dim>1</dim>
				</port>
				<port id="3">
					<dim>8</dim>
					<dim>1</dim>
					<dim>1</dim>
					<dim>1</dim>
				</port>
				<port id="4">
					<dim>8</dim>
					<dim>1</dim>
					<dim>1</dim>
					<dim>1</dim>
				</port>
			</input>
			<output>
				<port id="5" precision="FP16">
					<dim>8</dim>
					<dim>32</dim>
					<dim>1</dim>
					<dim>1</dim>
				</port>
			</output>
		</layer>
		<layer id="151" name="bottleneck1_3/dim_red/conv" type="Convolution" version="opset1">
			<data dilations="1,1" output_padding="0,0" pads_begin="0,0" pads_end="0,0" strides="1,1"/>
			<input>
				<port id="0">
					<dim>1</dim>
					<dim>32</dim>
					<dim>160</dim>
					<dim>272</dim>
				</port>
				<port id="1">
					<dim>8</dim>
					<dim>32</dim>
					<dim>1</dim>
					<dim>1</dim>
				</port>
			</input>
			<output>
				<port id="2" precision="FP16">
					<dim>1</dim>
					<dim>8</dim>
					<dim>160</dim>
					<dim>272</dim>
				</port>
			</output>
		</layer>
		<layer id="152" name="data_add_2530425309/copy_const800_const" type="Const" version="opset1">
			<data element_type="f16" offset="3246" shape="1,8,1,1" size="16"/>
			<output>
				<port id="1" precision="FP16">
					<dim>1</dim>
					<dim>8</dim>
					<dim>1</dim>
					<dim>1</dim>
				</port>
			</output>
		</layer>
		<layer id="153" name="bottleneck1_3/dim_red/bn/variance/Fused_Add_" type="Add" version="opset1">
			<input>
				<port id="0">
					<dim>1</dim>
					<dim>8</dim>
					<dim>160</dim>
					<dim>272</dim>
				</port>
				<port id="1">
					<dim>1</dim>
					<dim>8</dim>
					<dim>1</dim>
					<dim>1</dim>
				</port>
			</input>
			<output>
				<port id="2" precision="FP16">
					<dim>1</dim>
					<dim>8</dim>
					<dim>160</dim>
					<dim>272</dim>
				</port>
			</output>
		</layer>
		<layer id="154" name="bottleneck1_3/dim_red/fn32597/Cast_112764_const" type="Const" version="opset1">
			<data element_type="f32" offset="1386" shape="1" size="4"/>
			<output>
				<port id="1" precision="FP32">
					<dim>1</dim>
				</port>
			</output>
		</layer>
		<layer id="155" name="bottleneck1_3/dim_red/fn32597" type="PReLU" version="opset1">
			<input>
				<port id="0">
					<dim>1</dim>
					<dim>8</dim>
					<dim>160</dim>
					<dim>272</dim>
				</port>
				<port id="1">
					<dim>1</dim>
				</port>
			</input>
			<output>
				<port id="2" precision="FP16">
					<dim>1</dim>
					<dim>8</dim>
					<dim>160</dim>
					<dim>272</dim>
				</port>
			</output>
		</layer>
		<layer id="156" name="32723276_const" type="Const" version="opset1">
			<data element_type="f16" offset="3262" shape="1,8,1,1" size="16"/>
			<output>
				<port id="1" precision="FP16">
					<dim>1</dim>
					<dim>8</dim>
					<dim>1</dim>
					<dim>1</dim>
				</port>
			</output>
		</layer>
		<layer id="157" name="32733277_const" type="Const" version="opset1">
			<data element_type="f16" offset="3278" shape="1,8,1,1" size="16"/>
			<output>
				<port id="1" precision="FP16">
					<dim>1</dim>
					<dim>8</dim>
					<dim>1</dim>
					<dim>1</dim>
				</port>
			</output>
		</layer>
		<layer id="158" name="32743278_const" type="Const" version="opset1">
			<data element_type="f16" offset="3262" shape="1,8,1,1" size="16"/>
			<output>
				<port id="1" precision="FP16">
					<dim>1</dim>
					<dim>8</dim>
					<dim>1</dim>
					<dim>1</dim>
				</port>
			</output>
		</layer>
		<layer id="159" name="32753279_const" type="Const" version="opset1">
			<data element_type="f16" offset="3278" shape="1,8,1,1" size="16"/>
			<output>
				<port id="1" precision="FP16">
					<dim>1</dim>
					<dim>8</dim>
					<dim>1</dim>
					<dim>1</dim>
				</port>
			</output>
		</layer>
		<layer id="160" name="bottleneck1_3/inner/dw1/conv/fq_input_0" type="FakeQuantize" version="opset1">
			<data levels="256"/>
			<input>
				<port id="0">
					<dim>1</dim>
					<dim>8</dim>
					<dim>160</dim>
					<dim>272</dim>
				</port>
				<port id="1">
					<dim>1</dim>
					<dim>8</dim>
					<dim>1</dim>
					<dim>1</dim>
				</port>
				<port id="2">
					<dim>1</dim>
					<dim>8</dim>
					<dim>1</dim>
					<dim>1</dim>
				</port>
				<port id="3">
					<dim>1</dim>
					<dim>8</dim>
					<dim>1</dim>
					<dim>1</dim>
				</port>
				<port id="4">
					<dim>1</dim>
					<dim>8</dim>
					<dim>1</dim>
					<dim>1</dim>
				</port>
			</input>
			<output>
				<port id="5" precision="FP16">
					<dim>1</dim>
					<dim>8</dim>
					<dim>160</dim>
					<dim>272</dim>
				</port>
			</output>
		</layer>
		<layer id="161" name="bottleneck1_3/inner/dw1/conv/fq_weights_1/Convert_to_float/Cast_012588_const" type="Const" version="opset1">
			<data element_type="u8" offset="3294" shape="8,1,3,3" size="72"/>
			<output>
				<port id="1" precision="U8">
					<dim>8</dim>
					<dim>1</dim>
					<dim>3</dim>
					<dim>3</dim>
				</port>
			</output>
		</layer>
		<layer id="162" name="bottleneck1_3/inner/dw1/conv/fq_weights_1/Convert_to_float" type="Convert" version="opset1">
			<data destination_type="f16"/>
			<input>
				<port id="0">
					<dim>8</dim>
					<dim>1</dim>
					<dim>3</dim>
					<dim>3</dim>
				</port>
			</input>
			<output>
				<port id="1" precision="FP16">
					<dim>8</dim>
					<dim>1</dim>
					<dim>3</dim>
					<dim>3</dim>
				</port>
			</output>
		</layer>
		<layer id="163" name="bottleneck1_3/inner/dw1/conv/fq_weights_1/Copy/out_low10729_const" type="Const" version="opset1">
			<data element_type="f16" offset="1336" shape="1" size="2"/>
			<output>
				<port id="1" precision="FP16">
					<dim>1</dim>
				</port>
			</output>
		</layer>
		<layer id="164" name="bottleneck1_3/inner/dw1/conv/fq_weights_1/Copy/out_high10730_const" type="Const" version="opset1">
			<data element_type="f16" offset="882" shape="1" size="2"/>
			<output>
				<port id="1" precision="FP16">
					<dim>1</dim>
				</port>
			</output>
		</layer>
		<layer id="165" name="32843288_const" type="Const" version="opset1">
			<data element_type="f16" offset="3366" shape="8,1,1,1" size="16"/>
			<output>
				<port id="1" precision="FP16">
					<dim>8</dim>
					<dim>1</dim>
					<dim>1</dim>
					<dim>1</dim>
				</port>
			</output>
		</layer>
		<layer id="166" name="32853289_const" type="Const" version="opset1">
			<data element_type="f16" offset="3382" shape="8,1,1,1" size="16"/>
			<output>
				<port id="1" precision="FP16">
					<dim>8</dim>
					<dim>1</dim>
					<dim>1</dim>
					<dim>1</dim>
				</port>
			</output>
		</layer>
		<layer id="167" name="bottleneck1_3/inner/dw1/conv/fq_weights_1" type="FakeQuantize" version="opset1">
			<data levels="255"/>
			<input>
				<port id="0">
					<dim>8</dim>
					<dim>1</dim>
					<dim>3</dim>
					<dim>3</dim>
				</port>
				<port id="1">
					<dim>1</dim>
				</port>
				<port id="2">
					<dim>1</dim>
				</port>
				<port id="3">
					<dim>8</dim>
					<dim>1</dim>
					<dim>1</dim>
					<dim>1</dim>
				</port>
				<port id="4">
					<dim>8</dim>
					<dim>1</dim>
					<dim>1</dim>
					<dim>1</dim>
				</port>
			</input>
			<output>
				<port id="5" precision="FP16">
					<dim>8</dim>
					<dim>1</dim>
					<dim>3</dim>
					<dim>3</dim>
				</port>
			</output>
		</layer>
		<layer id="168" name="14316/value14318_const" type="Const" version="opset1">
			<data element_type="i64" offset="1526" shape="5" size="40"/>
			<output>
				<port id="1" precision="I64">
					<dim>5</dim>
				</port>
			</output>
		</layer>
		<layer id="169" name="14316" type="Reshape" version="opset1">
			<data special_zero="True"/>
			<input>
				<port id="0">
					<dim>8</dim>
					<dim>1</dim>
					<dim>3</dim>
					<dim>3</dim>
				</port>
				<port id="1">
					<dim>5</dim>
				</port>
			</input>
			<output>
				<port id="2" precision="FP16">
					<dim>8</dim>
					<dim>1</dim>
					<dim>1</dim>
					<dim>3</dim>
					<dim>3</dim>
				</port>
			</output>
		</layer>
		<layer id="170" name="bottleneck1_3/inner/dw1/conv" type="GroupConvolution" version="opset1">
			<data dilations="1,1" output_padding="0,0" pads_begin="1,1" pads_end="1,1" strides="1,1"/>
			<input>
				<port id="0">
					<dim>1</dim>
					<dim>8</dim>
					<dim>160</dim>
					<dim>272</dim>
				</port>
				<port id="1">
					<dim>8</dim>
					<dim>1</dim>
					<dim>1</dim>
					<dim>3</dim>
					<dim>3</dim>
				</port>
			</input>
			<output>
				<port id="2" precision="FP16">
					<dim>1</dim>
					<dim>8</dim>
					<dim>160</dim>
					<dim>272</dim>
				</port>
			</output>
		</layer>
		<layer id="171" name="data_add_2531225317/copy_const806_const" type="Const" version="opset1">
			<data element_type="f16" offset="3398" shape="1,8,1,1" size="16"/>
			<output>
				<port id="1" precision="FP16">
					<dim>1</dim>
					<dim>8</dim>
					<dim>1</dim>
					<dim>1</dim>
				</port>
			</output>
		</layer>
		<layer id="172" name="bottleneck1_3/inner/dw1/bn/variance/Fused_Add_" type="Add" version="opset1">
			<input>
				<port id="0">
					<dim>1</dim>
					<dim>8</dim>
					<dim>160</dim>
					<dim>272</dim>
				</port>
				<port id="1">
					<dim>1</dim>
					<dim>8</dim>
					<dim>1</dim>
					<dim>1</dim>
				</port>
			</input>
			<output>
				<port id="2" precision="FP16">
					<dim>1</dim>
					<dim>8</dim>
					<dim>160</dim>
					<dim>272</dim>
				</port>
			</output>
		</layer>
		<layer id="173" name="bottleneck1_3/inner/dw1/fn32849/Cast_112826_const" type="Const" version="opset1">
			<data element_type="f32" offset="1386" shape="1" size="4"/>
			<output>
				<port id="1" precision="FP32">
					<dim>1</dim>
				</port>
			</output>
		</layer>
		<layer id="174" name="bottleneck1_3/inner/dw1/fn32849" type="PReLU" version="opset1">
			<input>
				<port id="0">
					<dim>1</dim>
					<dim>8</dim>
					<dim>160</dim>
					<dim>272</dim>
				</port>
				<port id="1">
					<dim>1</dim>
				</port>
			</input>
			<output>
				<port id="2" precision="FP16">
					<dim>1</dim>
					<dim>8</dim>
					<dim>160</dim>
					<dim>272</dim>
				</port>
			</output>
		</layer>
		<layer id="175" name="49924996_const" type="Const" version="opset1">
			<data element_type="f16" offset="3414" shape="" size="2"/>
			<output>
				<port id="1" precision="FP16"/>
			</output>
		</layer>
		<layer id="176" name="49934997_const" type="Const" version="opset1">
			<data element_type="f16" offset="3416" shape="" size="2"/>
			<output>
				<port id="1" precision="FP16"/>
			</output>
		</layer>
		<layer id="177" name="49944998_const" type="Const" version="opset1">
			<data element_type="f16" offset="3414" shape="" size="2"/>
			<output>
				<port id="1" precision="FP16"/>
			</output>
		</layer>
		<layer id="178" name="49954999_const" type="Const" version="opset1">
			<data element_type="f16" offset="3416" shape="" size="2"/>
			<output>
				<port id="1" precision="FP16"/>
			</output>
		</layer>
		<layer id="179" name="bottleneck1_3/dim_inc/conv/fq_input_0" type="FakeQuantize" version="opset1">
			<data levels="256"/>
			<input>
				<port id="0">
					<dim>1</dim>
					<dim>8</dim>
					<dim>160</dim>
					<dim>272</dim>
				</port>
				<port id="1"/>
				<port id="2"/>
				<port id="3"/>
				<port id="4"/>
			</input>
			<output>
				<port id="5" precision="FP16">
					<dim>1</dim>
					<dim>8</dim>
					<dim>160</dim>
					<dim>272</dim>
				</port>
			</output>
		</layer>
		<layer id="180" name="bottleneck1_3/dim_inc/conv/fq_weights_1/Convert_to_float/Cast_012568_const" type="Const" version="opset1">
			<data element_type="u8" offset="3418" shape="32,8,1,1" size="256"/>
			<output>
				<port id="1" precision="U8">
					<dim>32</dim>
					<dim>8</dim>
					<dim>1</dim>
					<dim>1</dim>
				</port>
			</output>
		</layer>
		<layer id="181" name="bottleneck1_3/dim_inc/conv/fq_weights_1/Convert_to_float" type="Convert" version="opset1">
			<data destination_type="f16"/>
			<input>
				<port id="0">
					<dim>32</dim>
					<dim>8</dim>
					<dim>1</dim>
					<dim>1</dim>
				</port>
			</input>
			<output>
				<port id="1" precision="FP16">
					<dim>32</dim>
					<dim>8</dim>
					<dim>1</dim>
					<dim>1</dim>
				</port>
			</output>
		</layer>
		<layer id="182" name="bottleneck1_3/dim_inc/conv/fq_weights_1/Copy/out_low10761_const" type="Const" version="opset1">
			<data element_type="f16" offset="1336" shape="1" size="2"/>
			<output>
				<port id="1" precision="FP16">
					<dim>1</dim>
				</port>
			</output>
		</layer>
		<layer id="183" name="bottleneck1_3/dim_inc/conv/fq_weights_1/Copy/out_high10762_const" type="Const" version="opset1">
			<data element_type="f16" offset="882" shape="1" size="2"/>
			<output>
				<port id="1" precision="FP16">
					<dim>1</dim>
				</port>
			</output>
		</layer>
		<layer id="184" name="50045008_const" type="Const" version="opset1">
			<data element_type="f16" offset="3674" shape="32,1,1,1" size="64"/>
			<output>
				<port id="1" precision="FP16">
					<dim>32</dim>
					<dim>1</dim>
					<dim>1</dim>
					<dim>1</dim>
				</port>
			</output>
		</layer>
		<layer id="185" name="50055009_const" type="Const" version="opset1">
			<data element_type="f16" offset="3738" shape="32,1,1,1" size="64"/>
			<output>
				<port id="1" precision="FP16">
					<dim>32</dim>
					<dim>1</dim>
					<dim>1</dim>
					<dim>1</dim>
				</port>
			</output>
		</layer>
		<layer id="186" name="bottleneck1_3/dim_inc/conv/fq_weights_1" type="FakeQuantize" version="opset1">
			<data levels="255"/>
			<input>
				<port id="0">
					<dim>32</dim>
					<dim>8</dim>
					<dim>1</dim>
					<dim>1</dim>
				</port>
				<port id="1">
					<dim>1</dim>
				</port>
				<port id="2">
					<dim>1</dim>
				</port>
				<port id="3">
					<dim>32</dim>
					<dim>1</dim>
					<dim>1</dim>
					<dim>1</dim>
				</port>
				<port id="4">
					<dim>32</dim>
					<dim>1</dim>
					<dim>1</dim>
					<dim>1</dim>
				</port>
			</input>
			<output>
				<port id="5" precision="FP16">
					<dim>32</dim>
					<dim>8</dim>
					<dim>1</dim>
					<dim>1</dim>
				</port>
			</output>
		</layer>
		<layer id="187" name="bottleneck1_3/dim_inc/conv" type="Convolution" version="opset1">
			<data dilations="1,1" output_padding="0,0" pads_begin="0,0" pads_end="0,0" strides="1,1"/>
			<input>
				<port id="0">
					<dim>1</dim>
					<dim>8</dim>
					<dim>160</dim>
					<dim>272</dim>
				</port>
				<port id="1">
					<dim>32</dim>
					<dim>8</dim>
					<dim>1</dim>
					<dim>1</dim>
				</port>
			</input>
			<output>
				<port id="2" precision="FP16">
					<dim>1</dim>
					<dim>32</dim>
					<dim>160</dim>
					<dim>272</dim>
				</port>
			</output>
		</layer>
		<layer id="188" name="data_add_2532025325/copy_const812_const" type="Const" version="opset1">
			<data element_type="f16" offset="3802" shape="1,32,1,1" size="64"/>
			<output>
				<port id="1" precision="FP16">
					<dim>1</dim>
					<dim>32</dim>
					<dim>1</dim>
					<dim>1</dim>
				</port>
			</output>
		</layer>
		<layer id="189" name="bottleneck1_3/dim_inc/bn/variance/Fused_Add_" type="Add" version="opset1">
			<input>
				<port id="0">
					<dim>1</dim>
					<dim>32</dim>
					<dim>160</dim>
					<dim>272</dim>
				</port>
				<port id="1">
					<dim>1</dim>
					<dim>32</dim>
					<dim>1</dim>
					<dim>1</dim>
				</port>
			</input>
			<output>
				<port id="2" precision="FP16">
					<dim>1</dim>
					<dim>32</dim>
					<dim>160</dim>
					<dim>272</dim>
				</port>
			</output>
		</layer>
		<layer id="190" name="47424746_const" type="Const" version="opset1">
			<data element_type="f16" offset="3866" shape="" size="2"/>
			<output>
				<port id="1" precision="FP16"/>
			</output>
		</layer>
		<layer id="191" name="47434747_const" type="Const" version="opset1">
			<data element_type="f16" offset="3868" shape="" size="2"/>
			<output>
				<port id="1" precision="FP16"/>
			</output>
		</layer>
		<layer id="192" name="47444748_const" type="Const" version="opset1">
			<data element_type="f16" offset="3866" shape="" size="2"/>
			<output>
				<port id="1" precision="FP16"/>
			</output>
		</layer>
		<layer id="193" name="47454749_const" type="Const" version="opset1">
			<data element_type="f16" offset="3868" shape="" size="2"/>
			<output>
				<port id="1" precision="FP16"/>
			</output>
		</layer>
		<layer id="194" name="bottleneck1_3/add/fq_input_1" type="FakeQuantize" version="opset1">
			<data levels="256"/>
			<input>
				<port id="0">
					<dim>1</dim>
					<dim>32</dim>
					<dim>160</dim>
					<dim>272</dim>
				</port>
				<port id="1"/>
				<port id="2"/>
				<port id="3"/>
				<port id="4"/>
			</input>
			<output>
				<port id="5" precision="FP16">
					<dim>1</dim>
					<dim>32</dim>
					<dim>160</dim>
					<dim>272</dim>
				</port>
			</output>
		</layer>
		<layer id="195" name="bottleneck1_3/add" type="Add" version="opset1">
			<input>
				<port id="0">
					<dim>1</dim>
					<dim>32</dim>
					<dim>160</dim>
					<dim>272</dim>
				</port>
				<port id="1">
					<dim>1</dim>
					<dim>32</dim>
					<dim>160</dim>
					<dim>272</dim>
				</port>
			</input>
			<output>
				<port id="2" precision="FP16">
					<dim>1</dim>
					<dim>32</dim>
					<dim>160</dim>
					<dim>272</dim>
				</port>
			</output>
		</layer>
		<layer id="196" name="bottleneck1_3/fn32929/Cast_112680_const" type="Const" version="opset1">
			<data element_type="f32" offset="1386" shape="1" size="4"/>
			<output>
				<port id="1" precision="FP32">
					<dim>1</dim>
				</port>
			</output>
		</layer>
		<layer id="197" name="bottleneck1_3/fn32929" type="PReLU" version="opset1">
			<input>
				<port id="0">
					<dim>1</dim>
					<dim>32</dim>
					<dim>160</dim>
					<dim>272</dim>
				</port>
				<port id="1">
					<dim>1</dim>
				</port>
			</input>
			<output>
				<port id="2" precision="FP16">
					<dim>1</dim>
					<dim>32</dim>
					<dim>160</dim>
					<dim>272</dim>
				</port>
			</output>
		</layer>
		<layer id="198" name="41324136_const" type="Const" version="opset1">
			<data element_type="f16" offset="3870" shape="" size="2"/>
			<output>
				<port id="1" precision="FP16"/>
			</output>
		</layer>
		<layer id="199" name="41334137_const" type="Const" version="opset1">
			<data element_type="f16" offset="3872" shape="" size="2"/>
			<output>
				<port id="1" precision="FP16"/>
			</output>
		</layer>
		<layer id="200" name="41344138_const" type="Const" version="opset1">
			<data element_type="f16" offset="3870" shape="" size="2"/>
			<output>
				<port id="1" precision="FP16"/>
			</output>
		</layer>
		<layer id="201" name="41354139_const" type="Const" version="opset1">
			<data element_type="f16" offset="3872" shape="" size="2"/>
			<output>
				<port id="1" precision="FP16"/>
			</output>
		</layer>
		<layer id="202" name="bottleneck1_4/add/fq_input_0" type="FakeQuantize" version="opset1">
			<data levels="256"/>
			<input>
				<port id="0">
					<dim>1</dim>
					<dim>32</dim>
					<dim>160</dim>
					<dim>272</dim>
				</port>
				<port id="1"/>
				<port id="2"/>
				<port id="3"/>
				<port id="4"/>
			</input>
			<output>
				<port id="5" precision="FP16">
					<dim>1</dim>
					<dim>32</dim>
					<dim>160</dim>
					<dim>272</dim>
				</port>
			</output>
		</layer>
		<layer id="203" name="bottleneck1_4/dim_red/conv/fq_weights_1/Convert_to_float/Cast_012636_const" type="Const" version="opset1">
			<data element_type="u8" offset="3874" shape="8,32,1,1" size="256"/>
			<output>
				<port id="1" precision="U8">
					<dim>8</dim>
					<dim>32</dim>
					<dim>1</dim>
					<dim>1</dim>
				</port>
			</output>
		</layer>
		<layer id="204" name="bottleneck1_4/dim_red/conv/fq_weights_1/Convert_to_float" type="Convert" version="opset1">
			<data destination_type="f16"/>
			<input>
				<port id="0">
					<dim>8</dim>
					<dim>32</dim>
					<dim>1</dim>
					<dim>1</dim>
				</port>
			</input>
			<output>
				<port id="1" precision="FP16">
					<dim>8</dim>
					<dim>32</dim>
					<dim>1</dim>
					<dim>1</dim>
				</port>
			</output>
		</layer>
		<layer id="205" name="bottleneck1_4/dim_red/conv/fq_weights_1/Copy/out_low10417_const" type="Const" version="opset1">
			<data element_type="f16" offset="1336" shape="1" size="2"/>
			<output>
				<port id="1" precision="FP16">
					<dim>1</dim>
				</port>
			</output>
		</layer>
		<layer id="206" name="bottleneck1_4/dim_red/conv/fq_weights_1/Copy/out_high10418_const" type="Const" version="opset1">
			<data element_type="f16" offset="882" shape="1" size="2"/>
			<output>
				<port id="1" precision="FP16">
					<dim>1</dim>
				</port>
			</output>
		</layer>
		<layer id="207" name="54645468_const" type="Const" version="opset1">
			<data element_type="f16" offset="4130" shape="8,1,1,1" size="16"/>
			<output>
				<port id="1" precision="FP16">
					<dim>8</dim>
					<dim>1</dim>
					<dim>1</dim>
					<dim>1</dim>
				</port>
			</output>
		</layer>
		<layer id="208" name="54655469_const" type="Const" version="opset1">
			<data element_type="f16" offset="4146" shape="8,1,1,1" size="16"/>
			<output>
				<port id="1" precision="FP16">
					<dim>8</dim>
					<dim>1</dim>
					<dim>1</dim>
					<dim>1</dim>
				</port>
			</output>
		</layer>
		<layer id="209" name="bottleneck1_4/dim_red/conv/fq_weights_1" type="FakeQuantize" version="opset1">
			<data levels="255"/>
			<input>
				<port id="0">
					<dim>8</dim>
					<dim>32</dim>
					<dim>1</dim>
					<dim>1</dim>
				</port>
				<port id="1">
					<dim>1</dim>
				</port>
				<port id="2">
					<dim>1</dim>
				</port>
				<port id="3">
					<dim>8</dim>
					<dim>1</dim>
					<dim>1</dim>
					<dim>1</dim>
				</port>
				<port id="4">
					<dim>8</dim>
					<dim>1</dim>
					<dim>1</dim>
					<dim>1</dim>
				</port>
			</input>
			<output>
				<port id="5" precision="FP16">
					<dim>8</dim>
					<dim>32</dim>
					<dim>1</dim>
					<dim>1</dim>
				</port>
			</output>
		</layer>
		<layer id="210" name="bottleneck1_4/dim_red/conv" type="Convolution" version="opset1">
			<data dilations="1,1" output_padding="0,0" pads_begin="0,0" pads_end="0,0" strides="1,1"/>
			<input>
				<port id="0">
					<dim>1</dim>
					<dim>32</dim>
					<dim>160</dim>
					<dim>272</dim>
				</port>
				<port id="1">
					<dim>8</dim>
					<dim>32</dim>
					<dim>1</dim>
					<dim>1</dim>
				</port>
			</input>
			<output>
				<port id="2" precision="FP16">
					<dim>1</dim>
					<dim>8</dim>
					<dim>160</dim>
					<dim>272</dim>
				</port>
			</output>
		</layer>
		<layer id="211" name="data_add_2532825333/copy_const819_const" type="Const" version="opset1">
			<data element_type="f16" offset="4162" shape="1,8,1,1" size="16"/>
			<output>
				<port id="1" precision="FP16">
					<dim>1</dim>
					<dim>8</dim>
					<dim>1</dim>
					<dim>1</dim>
				</port>
			</output>
		</layer>
		<layer id="212" name="bottleneck1_4/dim_red/bn/variance/Fused_Add_" type="Add" version="opset1">
			<input>
				<port id="0">
					<dim>1</dim>
					<dim>8</dim>
					<dim>160</dim>
					<dim>272</dim>
				</port>
				<port id="1">
					<dim>1</dim>
					<dim>8</dim>
					<dim>1</dim>
					<dim>1</dim>
				</port>
			</input>
			<output>
				<port id="2" precision="FP16">
					<dim>1</dim>
					<dim>8</dim>
					<dim>160</dim>
					<dim>272</dim>
				</port>
			</output>
		</layer>
		<layer id="213" name="bottleneck1_4/dim_red/fn32709/Cast_112696_const" type="Const" version="opset1">
			<data element_type="f32" offset="1386" shape="1" size="4"/>
			<output>
				<port id="1" precision="FP32">
					<dim>1</dim>
				</port>
			</output>
		</layer>
		<layer id="214" name="bottleneck1_4/dim_red/fn32709" type="PReLU" version="opset1">
			<input>
				<port id="0">
					<dim>1</dim>
					<dim>8</dim>
					<dim>160</dim>
					<dim>272</dim>
				</port>
				<port id="1">
					<dim>1</dim>
				</port>
			</input>
			<output>
				<port id="2" precision="FP16">
					<dim>1</dim>
					<dim>8</dim>
					<dim>160</dim>
					<dim>272</dim>
				</port>
			</output>
		</layer>
		<layer id="215" name="36523656_const" type="Const" version="opset1">
			<data element_type="f16" offset="4178" shape="1,8,1,1" size="16"/>
			<output>
				<port id="1" precision="FP16">
					<dim>1</dim>
					<dim>8</dim>
					<dim>1</dim>
					<dim>1</dim>
				</port>
			</output>
		</layer>
		<layer id="216" name="36533657_const" type="Const" version="opset1">
			<data element_type="f16" offset="4194" shape="1,8,1,1" size="16"/>
			<output>
				<port id="1" precision="FP16">
					<dim>1</dim>
					<dim>8</dim>
					<dim>1</dim>
					<dim>1</dim>
				</port>
			</output>
		</layer>
		<layer id="217" name="36543658_const" type="Const" version="opset1">
			<data element_type="f16" offset="4178" shape="1,8,1,1" size="16"/>
			<output>
				<port id="1" precision="FP16">
					<dim>1</dim>
					<dim>8</dim>
					<dim>1</dim>
					<dim>1</dim>
				</port>
			</output>
		</layer>
		<layer id="218" name="36553659_const" type="Const" version="opset1">
			<data element_type="f16" offset="4194" shape="1,8,1,1" size="16"/>
			<output>
				<port id="1" precision="FP16">
					<dim>1</dim>
					<dim>8</dim>
					<dim>1</dim>
					<dim>1</dim>
				</port>
			</output>
		</layer>
		<layer id="219" name="bottleneck1_4/inner/dw1/conv/fq_input_0" type="FakeQuantize" version="opset1">
			<data levels="256"/>
			<input>
				<port id="0">
					<dim>1</dim>
					<dim>8</dim>
					<dim>160</dim>
					<dim>272</dim>
				</port>
				<port id="1">
					<dim>1</dim>
					<dim>8</dim>
					<dim>1</dim>
					<dim>1</dim>
				</port>
				<port id="2">
					<dim>1</dim>
					<dim>8</dim>
					<dim>1</dim>
					<dim>1</dim>
				</port>
				<port id="3">
					<dim>1</dim>
					<dim>8</dim>
					<dim>1</dim>
					<dim>1</dim>
				</port>
				<port id="4">
					<dim>1</dim>
					<dim>8</dim>
					<dim>1</dim>
					<dim>1</dim>
				</port>
			</input>
			<output>
				<port id="5" precision="FP16">
					<dim>1</dim>
					<dim>8</dim>
					<dim>160</dim>
					<dim>272</dim>
				</port>
			</output>
		</layer>
		<layer id="220" name="bottleneck1_4/inner/dw1/conv/fq_weights_1/Convert_to_float/Cast_012722_const" type="Const" version="opset1">
			<data element_type="u8" offset="4210" shape="8,1,3,3" size="72"/>
			<output>
				<port id="1" precision="U8">
					<dim>8</dim>
					<dim>1</dim>
					<dim>3</dim>
					<dim>3</dim>
				</port>
			</output>
		</layer>
		<layer id="221" name="bottleneck1_4/inner/dw1/conv/fq_weights_1/Convert_to_float" type="Convert" version="opset1">
			<data destination_type="f16"/>
			<input>
				<port id="0">
					<dim>8</dim>
					<dim>1</dim>
					<dim>3</dim>
					<dim>3</dim>
				</port>
			</input>
			<output>
				<port id="1" precision="FP16">
					<dim>8</dim>
					<dim>1</dim>
					<dim>3</dim>
					<dim>3</dim>
				</port>
			</output>
		</layer>
		<layer id="222" name="bottleneck1_4/inner/dw1/conv/fq_weights_1/Copy/out_low10449_const" type="Const" version="opset1">
			<data element_type="f16" offset="1336" shape="1" size="2"/>
			<output>
				<port id="1" precision="FP16">
					<dim>1</dim>
				</port>
			</output>
		</layer>
		<layer id="223" name="bottleneck1_4/inner/dw1/conv/fq_weights_1/Copy/out_high10450_const" type="Const" version="opset1">
			<data element_type="f16" offset="882" shape="1" size="2"/>
			<output>
				<port id="1" precision="FP16">
					<dim>1</dim>
				</port>
			</output>
		</layer>
		<layer id="224" name="36643668_const" type="Const" version="opset1">
			<data element_type="f16" offset="4282" shape="8,1,1,1" size="16"/>
			<output>
				<port id="1" precision="FP16">
					<dim>8</dim>
					<dim>1</dim>
					<dim>1</dim>
					<dim>1</dim>
				</port>
			</output>
		</layer>
		<layer id="225" name="36653669_const" type="Const" version="opset1">
			<data element_type="f16" offset="4298" shape="8,1,1,1" size="16"/>
			<output>
				<port id="1" precision="FP16">
					<dim>8</dim>
					<dim>1</dim>
					<dim>1</dim>
					<dim>1</dim>
				</port>
			</output>
		</layer>
		<layer id="226" name="bottleneck1_4/inner/dw1/conv/fq_weights_1" type="FakeQuantize" version="opset1">
			<data levels="255"/>
			<input>
				<port id="0">
					<dim>8</dim>
					<dim>1</dim>
					<dim>3</dim>
					<dim>3</dim>
				</port>
				<port id="1">
					<dim>1</dim>
				</port>
				<port id="2">
					<dim>1</dim>
				</port>
				<port id="3">
					<dim>8</dim>
					<dim>1</dim>
					<dim>1</dim>
					<dim>1</dim>
				</port>
				<port id="4">
					<dim>8</dim>
					<dim>1</dim>
					<dim>1</dim>
					<dim>1</dim>
				</port>
			</input>
			<output>
				<port id="5" precision="FP16">
					<dim>8</dim>
					<dim>1</dim>
					<dim>3</dim>
					<dim>3</dim>
				</port>
			</output>
		</layer>
		<layer id="227" name="14328/value14330_const" type="Const" version="opset1">
			<data element_type="i64" offset="1526" shape="5" size="40"/>
			<output>
				<port id="1" precision="I64">
					<dim>5</dim>
				</port>
			</output>
		</layer>
		<layer id="228" name="14328" type="Reshape" version="opset1">
			<data special_zero="True"/>
			<input>
				<port id="0">
					<dim>8</dim>
					<dim>1</dim>
					<dim>3</dim>
					<dim>3</dim>
				</port>
				<port id="1">
					<dim>5</dim>
				</port>
			</input>
			<output>
				<port id="2" precision="FP16">
					<dim>8</dim>
					<dim>1</dim>
					<dim>1</dim>
					<dim>3</dim>
					<dim>3</dim>
				</port>
			</output>
		</layer>
		<layer id="229" name="bottleneck1_4/inner/dw1/conv" type="GroupConvolution" version="opset1">
			<data dilations="1,1" output_padding="0,0" pads_begin="1,1" pads_end="1,1" strides="1,1"/>
			<input>
				<port id="0">
					<dim>1</dim>
					<dim>8</dim>
					<dim>160</dim>
					<dim>272</dim>
				</port>
				<port id="1">
					<dim>8</dim>
					<dim>1</dim>
					<dim>1</dim>
					<dim>3</dim>
					<dim>3</dim>
				</port>
			</input>
			<output>
				<port id="2" precision="FP16">
					<dim>1</dim>
					<dim>8</dim>
					<dim>160</dim>
					<dim>272</dim>
				</port>
			</output>
		</layer>
		<layer id="230" name="data_add_2533625341/copy_const825_const" type="Const" version="opset1">
			<data element_type="f16" offset="4314" shape="1,8,1,1" size="16"/>
			<output>
				<port id="1" precision="FP16">
					<dim>1</dim>
					<dim>8</dim>
					<dim>1</dim>
					<dim>1</dim>
				</port>
			</output>
		</layer>
		<layer id="231" name="bottleneck1_4/inner/dw1/bn/variance/Fused_Add_" type="Add" version="opset1">
			<input>
				<port id="0">
					<dim>1</dim>
					<dim>8</dim>
					<dim>160</dim>
					<dim>272</dim>
				</port>
				<port id="1">
					<dim>1</dim>
					<dim>8</dim>
					<dim>1</dim>
					<dim>1</dim>
				</port>
			</input>
			<output>
				<port id="2" precision="FP16">
					<dim>1</dim>
					<dim>8</dim>
					<dim>160</dim>
					<dim>272</dim>
				</port>
			</output>
		</layer>
		<layer id="232" name="bottleneck1_4/inner/dw1/fn32829/Cast_112648_const" type="Const" version="opset1">
			<data element_type="f32" offset="1386" shape="1" size="4"/>
			<output>
				<port id="1" precision="FP32">
					<dim>1</dim>
				</port>
			</output>
		</layer>
		<layer id="233" name="bottleneck1_4/inner/dw1/fn32829" type="PReLU" version="opset1">
			<input>
				<port id="0">
					<dim>1</dim>
					<dim>8</dim>
					<dim>160</dim>
					<dim>272</dim>
				</port>
				<port id="1">
					<dim>1</dim>
				</port>
			</input>
			<output>
				<port id="2" precision="FP16">
					<dim>1</dim>
					<dim>8</dim>
					<dim>160</dim>
					<dim>272</dim>
				</port>
			</output>
		</layer>
		<layer id="234" name="34323436_const" type="Const" version="opset1">
			<data element_type="f16" offset="4330" shape="" size="2"/>
			<output>
				<port id="1" precision="FP16"/>
			</output>
		</layer>
		<layer id="235" name="34333437_const" type="Const" version="opset1">
			<data element_type="f16" offset="4332" shape="" size="2"/>
			<output>
				<port id="1" precision="FP16"/>
			</output>
		</layer>
		<layer id="236" name="34343438_const" type="Const" version="opset1">
			<data element_type="f16" offset="4330" shape="" size="2"/>
			<output>
				<port id="1" precision="FP16"/>
			</output>
		</layer>
		<layer id="237" name="34353439_const" type="Const" version="opset1">
			<data element_type="f16" offset="4332" shape="" size="2"/>
			<output>
				<port id="1" precision="FP16"/>
			</output>
		</layer>
		<layer id="238" name="bottleneck1_4/dim_inc/conv/fq_input_0" type="FakeQuantize" version="opset1">
			<data levels="256"/>
			<input>
				<port id="0">
					<dim>1</dim>
					<dim>8</dim>
					<dim>160</dim>
					<dim>272</dim>
				</port>
				<port id="1"/>
				<port id="2"/>
				<port id="3"/>
				<port id="4"/>
			</input>
			<output>
				<port id="5" precision="FP16">
					<dim>1</dim>
					<dim>8</dim>
					<dim>160</dim>
					<dim>272</dim>
				</port>
			</output>
		</layer>
		<layer id="239" name="bottleneck1_4/dim_inc/conv/fq_weights_1/Convert_to_float/Cast_012550_const" type="Const" version="opset1">
			<data element_type="u8" offset="4334" shape="32,8,1,1" size="256"/>
			<output>
				<port id="1" precision="U8">
					<dim>32</dim>
					<dim>8</dim>
					<dim>1</dim>
					<dim>1</dim>
				</port>
			</output>
		</layer>
		<layer id="240" name="bottleneck1_4/dim_inc/conv/fq_weights_1/Convert_to_float" type="Convert" version="opset1">
			<data destination_type="f16"/>
			<input>
				<port id="0">
					<dim>32</dim>
					<dim>8</dim>
					<dim>1</dim>
					<dim>1</dim>
				</port>
			</input>
			<output>
				<port id="1" precision="FP16">
					<dim>32</dim>
					<dim>8</dim>
					<dim>1</dim>
					<dim>1</dim>
				</port>
			</output>
		</layer>
		<layer id="241" name="bottleneck1_4/dim_inc/conv/fq_weights_1/Copy/out_low10873_const" type="Const" version="opset1">
			<data element_type="f16" offset="1336" shape="1" size="2"/>
			<output>
				<port id="1" precision="FP16">
					<dim>1</dim>
				</port>
			</output>
		</layer>
		<layer id="242" name="bottleneck1_4/dim_inc/conv/fq_weights_1/Copy/out_high10874_const" type="Const" version="opset1">
			<data element_type="f16" offset="882" shape="1" size="2"/>
			<output>
				<port id="1" precision="FP16">
					<dim>1</dim>
				</port>
			</output>
		</layer>
		<layer id="243" name="34443448_const" type="Const" version="opset1">
			<data element_type="f16" offset="4590" shape="32,1,1,1" size="64"/>
			<output>
				<port id="1" precision="FP16">
					<dim>32</dim>
					<dim>1</dim>
					<dim>1</dim>
					<dim>1</dim>
				</port>
			</output>
		</layer>
		<layer id="244" name="34453449_const" type="Const" version="opset1">
			<data element_type="f16" offset="4654" shape="32,1,1,1" size="64"/>
			<output>
				<port id="1" precision="FP16">
					<dim>32</dim>
					<dim>1</dim>
					<dim>1</dim>
					<dim>1</dim>
				</port>
			</output>
		</layer>
		<layer id="245" name="bottleneck1_4/dim_inc/conv/fq_weights_1" type="FakeQuantize" version="opset1">
			<data levels="255"/>
			<input>
				<port id="0">
					<dim>32</dim>
					<dim>8</dim>
					<dim>1</dim>
					<dim>1</dim>
				</port>
				<port id="1">
					<dim>1</dim>
				</port>
				<port id="2">
					<dim>1</dim>
				</port>
				<port id="3">
					<dim>32</dim>
					<dim>1</dim>
					<dim>1</dim>
					<dim>1</dim>
				</port>
				<port id="4">
					<dim>32</dim>
					<dim>1</dim>
					<dim>1</dim>
					<dim>1</dim>
				</port>
			</input>
			<output>
				<port id="5" precision="FP16">
					<dim>32</dim>
					<dim>8</dim>
					<dim>1</dim>
					<dim>1</dim>
				</port>
			</output>
		</layer>
		<layer id="246" name="bottleneck1_4/dim_inc/conv" type="Convolution" version="opset1">
			<data dilations="1,1" output_padding="0,0" pads_begin="0,0" pads_end="0,0" strides="1,1"/>
			<input>
				<port id="0">
					<dim>1</dim>
					<dim>8</dim>
					<dim>160</dim>
					<dim>272</dim>
				</port>
				<port id="1">
					<dim>32</dim>
					<dim>8</dim>
					<dim>1</dim>
					<dim>1</dim>
				</port>
			</input>
			<output>
				<port id="2" precision="FP16">
					<dim>1</dim>
					<dim>32</dim>
					<dim>160</dim>
					<dim>272</dim>
				</port>
			</output>
		</layer>
		<layer id="247" name="data_add_2534425349/copy_const831_const" type="Const" version="opset1">
			<data element_type="f16" offset="4718" shape="1,32,1,1" size="64"/>
			<output>
				<port id="1" precision="FP16">
					<dim>1</dim>
					<dim>32</dim>
					<dim>1</dim>
					<dim>1</dim>
				</port>
			</output>
		</layer>
		<layer id="248" name="bottleneck1_4/dim_inc/bn/variance/Fused_Add_" type="Add" version="opset1">
			<input>
				<port id="0">
					<dim>1</dim>
					<dim>32</dim>
					<dim>160</dim>
					<dim>272</dim>
				</port>
				<port id="1">
					<dim>1</dim>
					<dim>32</dim>
					<dim>1</dim>
					<dim>1</dim>
				</port>
			</input>
			<output>
				<port id="2" precision="FP16">
					<dim>1</dim>
					<dim>32</dim>
					<dim>160</dim>
					<dim>272</dim>
				</port>
			</output>
		</layer>
		<layer id="249" name="41424146_const" type="Const" version="opset1">
			<data element_type="f16" offset="4782" shape="" size="2"/>
			<output>
				<port id="1" precision="FP16"/>
			</output>
		</layer>
		<layer id="250" name="41434147_const" type="Const" version="opset1">
			<data element_type="f16" offset="4784" shape="" size="2"/>
			<output>
				<port id="1" precision="FP16"/>
			</output>
		</layer>
		<layer id="251" name="41444148_const" type="Const" version="opset1">
			<data element_type="f16" offset="4782" shape="" size="2"/>
			<output>
				<port id="1" precision="FP16"/>
			</output>
		</layer>
		<layer id="252" name="41454149_const" type="Const" version="opset1">
			<data element_type="f16" offset="4784" shape="" size="2"/>
			<output>
				<port id="1" precision="FP16"/>
			</output>
		</layer>
		<layer id="253" name="bottleneck1_4/add/fq_input_1" type="FakeQuantize" version="opset1">
			<data levels="256"/>
			<input>
				<port id="0">
					<dim>1</dim>
					<dim>32</dim>
					<dim>160</dim>
					<dim>272</dim>
				</port>
				<port id="1"/>
				<port id="2"/>
				<port id="3"/>
				<port id="4"/>
			</input>
			<output>
				<port id="5" precision="FP16">
					<dim>1</dim>
					<dim>32</dim>
					<dim>160</dim>
					<dim>272</dim>
				</port>
			</output>
		</layer>
		<layer id="254" name="bottleneck1_4/add" type="Add" version="opset1">
			<input>
				<port id="0">
					<dim>1</dim>
					<dim>32</dim>
					<dim>160</dim>
					<dim>272</dim>
				</port>
				<port id="1">
					<dim>1</dim>
					<dim>32</dim>
					<dim>160</dim>
					<dim>272</dim>
				</port>
			</input>
			<output>
				<port id="2" precision="FP16">
					<dim>1</dim>
					<dim>32</dim>
					<dim>160</dim>
					<dim>272</dim>
				</port>
			</output>
		</layer>
		<layer id="255" name="bottleneck1_4/fn32917/Cast_112702_const" type="Const" version="opset1">
			<data element_type="f32" offset="1386" shape="1" size="4"/>
			<output>
				<port id="1" precision="FP32">
					<dim>1</dim>
				</port>
			</output>
		</layer>
		<layer id="256" name="bottleneck1_4/fn32917" type="PReLU" version="opset1">
			<input>
				<port id="0">
					<dim>1</dim>
					<dim>32</dim>
					<dim>160</dim>
					<dim>272</dim>
				</port>
				<port id="1">
					<dim>1</dim>
				</port>
			</input>
			<output>
				<port id="2" precision="FP16">
					<dim>1</dim>
					<dim>32</dim>
					<dim>160</dim>
					<dim>272</dim>
				</port>
			</output>
		</layer>
		<layer id="257" name="37723776_const" type="Const" version="opset1">
			<data element_type="f16" offset="4786" shape="" size="2"/>
			<output>
				<port id="1" precision="FP16"/>
			</output>
		</layer>
		<layer id="258" name="37733777_const" type="Const" version="opset1">
			<data element_type="f16" offset="4788" shape="" size="2"/>
			<output>
				<port id="1" precision="FP16"/>
			</output>
		</layer>
		<layer id="259" name="37743778_const" type="Const" version="opset1">
			<data element_type="f16" offset="4786" shape="" size="2"/>
			<output>
				<port id="1" precision="FP16"/>
			</output>
		</layer>
		<layer id="260" name="37753779_const" type="Const" version="opset1">
			<data element_type="f16" offset="4788" shape="" size="2"/>
			<output>
				<port id="1" precision="FP16"/>
			</output>
		</layer>
		<layer id="261" name="bottleneck2_0/dim_red/conv/fq_input_0" type="FakeQuantize" version="opset1">
			<data levels="256"/>
			<input>
				<port id="0">
					<dim>1</dim>
					<dim>32</dim>
					<dim>160</dim>
					<dim>272</dim>
				</port>
				<port id="1"/>
				<port id="2"/>
				<port id="3"/>
				<port id="4"/>
			</input>
			<output>
				<port id="5" precision="FP16">
					<dim>1</dim>
					<dim>32</dim>
					<dim>160</dim>
					<dim>272</dim>
				</port>
			</output>
		</layer>
		<layer id="262" name="bottleneck2_0/skip/pooling" type="MaxPool" version="opset1">
			<data kernel="2,2" pads_begin="0,0" pads_end="0,0" rounding_type="ceil" strides="2,2"/>
			<input>
				<port id="0">
					<dim>1</dim>
					<dim>32</dim>
					<dim>160</dim>
					<dim>272</dim>
				</port>
			</input>
			<output>
				<port id="1" precision="FP16">
					<dim>1</dim>
					<dim>32</dim>
					<dim>80</dim>
					<dim>136</dim>
				</port>
			</output>
		</layer>
		<layer id="263" name="bottleneck2_0/skip/conv/fq_weights_1/Convert_to_float/Cast_012788_const" type="Const" version="opset1">
			<data element_type="u8" offset="4790" shape="64,32,1,1" size="2048"/>
			<output>
				<port id="1" precision="U8">
					<dim>64</dim>
					<dim>32</dim>
					<dim>1</dim>
					<dim>1</dim>
				</port>
			</output>
		</layer>
		<layer id="264" name="bottleneck2_0/skip/conv/fq_weights_1/Convert_to_float" type="Convert" version="opset1">
			<data destination_type="f16"/>
			<input>
				<port id="0">
					<dim>64</dim>
					<dim>32</dim>
					<dim>1</dim>
					<dim>1</dim>
				</port>
			</input>
			<output>
				<port id="1" precision="FP16">
					<dim>64</dim>
					<dim>32</dim>
					<dim>1</dim>
					<dim>1</dim>
				</port>
			</output>
		</layer>
		<layer id="265" name="bottleneck2_0/skip/conv/fq_weights_1/Copy/out_low10233_const" type="Const" version="opset1">
			<data element_type="f16" offset="1336" shape="1" size="2"/>
			<output>
				<port id="1" precision="FP16">
					<dim>1</dim>
				</port>
			</output>
		</layer>
		<layer id="266" name="bottleneck2_0/skip/conv/fq_weights_1/Copy/out_high10234_const" type="Const" version="opset1">
			<data element_type="f16" offset="882" shape="1" size="2"/>
			<output>
				<port id="1" precision="FP16">
					<dim>1</dim>
				</port>
			</output>
		</layer>
		<layer id="267" name="45844588_const" type="Const" version="opset1">
			<data element_type="f16" offset="6838" shape="64,1,1,1" size="128"/>
			<output>
				<port id="1" precision="FP16">
					<dim>64</dim>
					<dim>1</dim>
					<dim>1</dim>
					<dim>1</dim>
				</port>
			</output>
		</layer>
		<layer id="268" name="45854589_const" type="Const" version="opset1">
			<data element_type="f16" offset="6966" shape="64,1,1,1" size="128"/>
			<output>
				<port id="1" precision="FP16">
					<dim>64</dim>
					<dim>1</dim>
					<dim>1</dim>
					<dim>1</dim>
				</port>
			</output>
		</layer>
		<layer id="269" name="bottleneck2_0/skip/conv/fq_weights_1" type="FakeQuantize" version="opset1">
			<data levels="255"/>
			<input>
				<port id="0">
					<dim>64</dim>
					<dim>32</dim>
					<dim>1</dim>
					<dim>1</dim>
				</port>
				<port id="1">
					<dim>1</dim>
				</port>
				<port id="2">
					<dim>1</dim>
				</port>
				<port id="3">
					<dim>64</dim>
					<dim>1</dim>
					<dim>1</dim>
					<dim>1</dim>
				</port>
				<port id="4">
					<dim>64</dim>
					<dim>1</dim>
					<dim>1</dim>
					<dim>1</dim>
				</port>
			</input>
			<output>
				<port id="5" precision="FP16">
					<dim>64</dim>
					<dim>32</dim>
					<dim>1</dim>
					<dim>1</dim>
				</port>
			</output>
		</layer>
		<layer id="270" name="bottleneck2_0/skip/conv" type="Convolution" version="opset1">
			<data dilations="1,1" output_padding="0,0" pads_begin="0,0" pads_end="0,0" strides="1,1"/>
			<input>
				<port id="0">
					<dim>1</dim>
					<dim>32</dim>
					<dim>80</dim>
					<dim>136</dim>
				</port>
				<port id="1">
					<dim>64</dim>
					<dim>32</dim>
					<dim>1</dim>
					<dim>1</dim>
				</port>
			</input>
			<output>
				<port id="2" precision="FP16">
					<dim>1</dim>
					<dim>64</dim>
					<dim>80</dim>
					<dim>136</dim>
				</port>
			</output>
		</layer>
		<layer id="271" name="data_add_2535225357/copy_const839_const" type="Const" version="opset1">
			<data element_type="f16" offset="7094" shape="1,64,1,1" size="128"/>
			<output>
				<port id="1" precision="FP16">
					<dim>1</dim>
					<dim>64</dim>
					<dim>1</dim>
					<dim>1</dim>
				</port>
			</output>
		</layer>
		<layer id="272" name="bottleneck2_0/skip/bn/variance/Fused_Add_" type="Add" version="opset1">
			<input>
				<port id="0">
					<dim>1</dim>
					<dim>64</dim>
					<dim>80</dim>
					<dim>136</dim>
				</port>
				<port id="1">
					<dim>1</dim>
					<dim>64</dim>
					<dim>1</dim>
					<dim>1</dim>
				</port>
			</input>
			<output>
				<port id="2" precision="FP16">
					<dim>1</dim>
					<dim>64</dim>
					<dim>80</dim>
					<dim>136</dim>
				</port>
			</output>
		</layer>
		<layer id="273" name="26722676_const" type="Const" version="opset1">
			<data element_type="f16" offset="7222" shape="" size="2"/>
			<output>
				<port id="1" precision="FP16"/>
			</output>
		</layer>
		<layer id="274" name="26732677_const" type="Const" version="opset1">
			<data element_type="f16" offset="7224" shape="" size="2"/>
			<output>
				<port id="1" precision="FP16"/>
			</output>
		</layer>
		<layer id="275" name="26742678_const" type="Const" version="opset1">
			<data element_type="f16" offset="7222" shape="" size="2"/>
			<output>
				<port id="1" precision="FP16"/>
			</output>
		</layer>
		<layer id="276" name="26752679_const" type="Const" version="opset1">
			<data element_type="f16" offset="7224" shape="" size="2"/>
			<output>
				<port id="1" precision="FP16"/>
			</output>
		</layer>
		<layer id="277" name="bottleneck2_0/add/fq_input_0" type="FakeQuantize" version="opset1">
			<data levels="256"/>
			<input>
				<port id="0">
					<dim>1</dim>
					<dim>64</dim>
					<dim>80</dim>
					<dim>136</dim>
				</port>
				<port id="1"/>
				<port id="2"/>
				<port id="3"/>
				<port id="4"/>
			</input>
			<output>
				<port id="5" precision="FP16">
					<dim>1</dim>
					<dim>64</dim>
					<dim>80</dim>
					<dim>136</dim>
				</port>
			</output>
		</layer>
		<layer id="278" name="bottleneck2_0/dim_red/conv/fq_weights_1/Convert_to_float/Cast_012434_const" type="Const" version="opset1">
			<data element_type="u8" offset="7226" shape="16,32,1,1" size="512"/>
			<output>
				<port id="1" precision="U8">
					<dim>16</dim>
					<dim>32</dim>
					<dim>1</dim>
					<dim>1</dim>
				</port>
			</output>
		</layer>
		<layer id="279" name="bottleneck2_0/dim_red/conv/fq_weights_1/Convert_to_float" type="Convert" version="opset1">
			<data destination_type="f16"/>
			<input>
				<port id="0">
					<dim>16</dim>
					<dim>32</dim>
					<dim>1</dim>
					<dim>1</dim>
				</port>
			</input>
			<output>
				<port id="1" precision="FP16">
					<dim>16</dim>
					<dim>32</dim>
					<dim>1</dim>
					<dim>1</dim>
				</port>
			</output>
		</layer>
		<layer id="280" name="bottleneck2_0/dim_red/conv/fq_weights_1/Copy/out_low10689_const" type="Const" version="opset1">
			<data element_type="f16" offset="1336" shape="1" size="2"/>
			<output>
				<port id="1" precision="FP16">
					<dim>1</dim>
				</port>
			</output>
		</layer>
		<layer id="281" name="bottleneck2_0/dim_red/conv/fq_weights_1/Copy/out_high10690_const" type="Const" version="opset1">
			<data element_type="f16" offset="882" shape="1" size="2"/>
			<output>
				<port id="1" precision="FP16">
					<dim>1</dim>
				</port>
			</output>
		</layer>
		<layer id="282" name="37843788_const" type="Const" version="opset1">
			<data element_type="f16" offset="7738" shape="16,1,1,1" size="32"/>
			<output>
				<port id="1" precision="FP16">
					<dim>16</dim>
					<dim>1</dim>
					<dim>1</dim>
					<dim>1</dim>
				</port>
			</output>
		</layer>
		<layer id="283" name="37853789_const" type="Const" version="opset1">
			<data element_type="f16" offset="7770" shape="16,1,1,1" size="32"/>
			<output>
				<port id="1" precision="FP16">
					<dim>16</dim>
					<dim>1</dim>
					<dim>1</dim>
					<dim>1</dim>
				</port>
			</output>
		</layer>
		<layer id="284" name="bottleneck2_0/dim_red/conv/fq_weights_1" type="FakeQuantize" version="opset1">
			<data levels="255"/>
			<input>
				<port id="0">
					<dim>16</dim>
					<dim>32</dim>
					<dim>1</dim>
					<dim>1</dim>
				</port>
				<port id="1">
					<dim>1</dim>
				</port>
				<port id="2">
					<dim>1</dim>
				</port>
				<port id="3">
					<dim>16</dim>
					<dim>1</dim>
					<dim>1</dim>
					<dim>1</dim>
				</port>
				<port id="4">
					<dim>16</dim>
					<dim>1</dim>
					<dim>1</dim>
					<dim>1</dim>
				</port>
			</input>
			<output>
				<port id="5" precision="FP16">
					<dim>16</dim>
					<dim>32</dim>
					<dim>1</dim>
					<dim>1</dim>
				</port>
			</output>
		</layer>
		<layer id="285" name="bottleneck2_0/dim_red/conv" type="Convolution" version="opset1">
			<data dilations="1,1" output_padding="0,0" pads_begin="0,0" pads_end="0,0" strides="1,1"/>
			<input>
				<port id="0">
					<dim>1</dim>
					<dim>32</dim>
					<dim>160</dim>
					<dim>272</dim>
				</port>
				<port id="1">
					<dim>16</dim>
					<dim>32</dim>
					<dim>1</dim>
					<dim>1</dim>
				</port>
			</input>
			<output>
				<port id="2" precision="FP16">
					<dim>1</dim>
					<dim>16</dim>
					<dim>160</dim>
					<dim>272</dim>
				</port>
			</output>
		</layer>
		<layer id="286" name="data_add_2536025365/copy_const843_const" type="Const" version="opset1">
			<data element_type="f16" offset="7802" shape="1,16,1,1" size="32"/>
			<output>
				<port id="1" precision="FP16">
					<dim>1</dim>
					<dim>16</dim>
					<dim>1</dim>
					<dim>1</dim>
				</port>
			</output>
		</layer>
		<layer id="287" name="bottleneck2_0/dim_red/bn/variance/Fused_Add_" type="Add" version="opset1">
			<input>
				<port id="0">
					<dim>1</dim>
					<dim>16</dim>
					<dim>160</dim>
					<dim>272</dim>
				</port>
				<port id="1">
					<dim>1</dim>
					<dim>16</dim>
					<dim>1</dim>
					<dim>1</dim>
				</port>
			</input>
			<output>
				<port id="2" precision="FP16">
					<dim>1</dim>
					<dim>16</dim>
					<dim>160</dim>
					<dim>272</dim>
				</port>
			</output>
		</layer>
		<layer id="288" name="bottleneck2_0/dim_red/fn32877/Cast_112574_const" type="Const" version="opset1">
			<data element_type="f32" offset="1386" shape="1" size="4"/>
			<output>
				<port id="1" precision="FP32">
					<dim>1</dim>
				</port>
			</output>
		</layer>
		<layer id="289" name="bottleneck2_0/dim_red/fn32877" type="PReLU" version="opset1">
			<input>
				<port id="0">
					<dim>1</dim>
					<dim>16</dim>
					<dim>160</dim>
					<dim>272</dim>
				</port>
				<port id="1">
					<dim>1</dim>
				</port>
			</input>
			<output>
				<port id="2" precision="FP16">
					<dim>1</dim>
					<dim>16</dim>
					<dim>160</dim>
					<dim>272</dim>
				</port>
			</output>
		</layer>
		<layer id="290" name="47124716_const" type="Const" version="opset1">
			<data element_type="f16" offset="7834" shape="1,16,1,1" size="32"/>
			<output>
				<port id="1" precision="FP16">
					<dim>1</dim>
					<dim>16</dim>
					<dim>1</dim>
					<dim>1</dim>
				</port>
			</output>
		</layer>
		<layer id="291" name="47134717_const" type="Const" version="opset1">
			<data element_type="f16" offset="7866" shape="1,16,1,1" size="32"/>
			<output>
				<port id="1" precision="FP16">
					<dim>1</dim>
					<dim>16</dim>
					<dim>1</dim>
					<dim>1</dim>
				</port>
			</output>
		</layer>
		<layer id="292" name="47144718_const" type="Const" version="opset1">
			<data element_type="f16" offset="7834" shape="1,16,1,1" size="32"/>
			<output>
				<port id="1" precision="FP16">
					<dim>1</dim>
					<dim>16</dim>
					<dim>1</dim>
					<dim>1</dim>
				</port>
			</output>
		</layer>
		<layer id="293" name="47154719_const" type="Const" version="opset1">
			<data element_type="f16" offset="7866" shape="1,16,1,1" size="32"/>
			<output>
				<port id="1" precision="FP16">
					<dim>1</dim>
					<dim>16</dim>
					<dim>1</dim>
					<dim>1</dim>
				</port>
			</output>
		</layer>
		<layer id="294" name="bottleneck2_0/inner/dw1/conv/fq_input_0" type="FakeQuantize" version="opset1">
			<data levels="256"/>
			<input>
				<port id="0">
					<dim>1</dim>
					<dim>16</dim>
					<dim>160</dim>
					<dim>272</dim>
				</port>
				<port id="1">
					<dim>1</dim>
					<dim>16</dim>
					<dim>1</dim>
					<dim>1</dim>
				</port>
				<port id="2">
					<dim>1</dim>
					<dim>16</dim>
					<dim>1</dim>
					<dim>1</dim>
				</port>
				<port id="3">
					<dim>1</dim>
					<dim>16</dim>
					<dim>1</dim>
					<dim>1</dim>
				</port>
				<port id="4">
					<dim>1</dim>
					<dim>16</dim>
					<dim>1</dim>
					<dim>1</dim>
				</port>
			</input>
			<output>
				<port id="5" precision="FP16">
					<dim>1</dim>
					<dim>16</dim>
					<dim>160</dim>
					<dim>272</dim>
				</port>
			</output>
		</layer>
		<layer id="295" name="bottleneck2_0/inner/dw1/conv/fq_weights_1/Convert_to_float/Cast_012838_const" type="Const" version="opset1">
			<data element_type="u8" offset="7898" shape="16,1,3,3" size="144"/>
			<output>
				<port id="1" precision="U8">
					<dim>16</dim>
					<dim>1</dim>
					<dim>3</dim>
					<dim>3</dim>
				</port>
			</output>
		</layer>
		<layer id="296" name="bottleneck2_0/inner/dw1/conv/fq_weights_1/Convert_to_float" type="Convert" version="opset1">
			<data destination_type="f16"/>
			<input>
				<port id="0">
					<dim>16</dim>
					<dim>1</dim>
					<dim>3</dim>
					<dim>3</dim>
				</port>
			</input>
			<output>
				<port id="1" precision="FP16">
					<dim>16</dim>
					<dim>1</dim>
					<dim>3</dim>
					<dim>3</dim>
				</port>
			</output>
		</layer>
		<layer id="297" name="bottleneck2_0/inner/dw1/conv/fq_weights_1/Copy/out_low10705_const" type="Const" version="opset1">
			<data element_type="f16" offset="1336" shape="1" size="2"/>
			<output>
				<port id="1" precision="FP16">
					<dim>1</dim>
				</port>
			</output>
		</layer>
		<layer id="298" name="bottleneck2_0/inner/dw1/conv/fq_weights_1/Copy/out_high10706_const" type="Const" version="opset1">
			<data element_type="f16" offset="882" shape="1" size="2"/>
			<output>
				<port id="1" precision="FP16">
					<dim>1</dim>
				</port>
			</output>
		</layer>
		<layer id="299" name="47244728_const" type="Const" version="opset1">
			<data element_type="f16" offset="8042" shape="16,1,1,1" size="32"/>
			<output>
				<port id="1" precision="FP16">
					<dim>16</dim>
					<dim>1</dim>
					<dim>1</dim>
					<dim>1</dim>
				</port>
			</output>
		</layer>
		<layer id="300" name="47254729_const" type="Const" version="opset1">
			<data element_type="f16" offset="8074" shape="16,1,1,1" size="32"/>
			<output>
				<port id="1" precision="FP16">
					<dim>16</dim>
					<dim>1</dim>
					<dim>1</dim>
					<dim>1</dim>
				</port>
			</output>
		</layer>
		<layer id="301" name="bottleneck2_0/inner/dw1/conv/fq_weights_1" type="FakeQuantize" version="opset1">
			<data levels="255"/>
			<input>
				<port id="0">
					<dim>16</dim>
					<dim>1</dim>
					<dim>3</dim>
					<dim>3</dim>
				</port>
				<port id="1">
					<dim>1</dim>
				</port>
				<port id="2">
					<dim>1</dim>
				</port>
				<port id="3">
					<dim>16</dim>
					<dim>1</dim>
					<dim>1</dim>
					<dim>1</dim>
				</port>
				<port id="4">
					<dim>16</dim>
					<dim>1</dim>
					<dim>1</dim>
					<dim>1</dim>
				</port>
			</input>
			<output>
				<port id="5" precision="FP16">
					<dim>16</dim>
					<dim>1</dim>
					<dim>3</dim>
					<dim>3</dim>
				</port>
			</output>
		</layer>
		<layer id="302" name="14376/value14378_const" type="Const" version="opset1">
			<data element_type="i64" offset="8106" shape="5" size="40"/>
			<output>
				<port id="1" precision="I64">
					<dim>5</dim>
				</port>
			</output>
		</layer>
		<layer id="303" name="14376" type="Reshape" version="opset1">
			<data special_zero="True"/>
			<input>
				<port id="0">
					<dim>16</dim>
					<dim>1</dim>
					<dim>3</dim>
					<dim>3</dim>
				</port>
				<port id="1">
					<dim>5</dim>
				</port>
			</input>
			<output>
				<port id="2" precision="FP16">
					<dim>16</dim>
					<dim>1</dim>
					<dim>1</dim>
					<dim>3</dim>
					<dim>3</dim>
				</port>
			</output>
		</layer>
		<layer id="304" name="bottleneck2_0/inner/dw1/conv" type="GroupConvolution" version="opset1">
			<data dilations="1,1" output_padding="0,0" pads_begin="1,1" pads_end="1,1" strides="2,2"/>
			<input>
				<port id="0">
					<dim>1</dim>
					<dim>16</dim>
					<dim>160</dim>
					<dim>272</dim>
				</port>
				<port id="1">
					<dim>16</dim>
					<dim>1</dim>
					<dim>1</dim>
					<dim>3</dim>
					<dim>3</dim>
				</port>
			</input>
			<output>
				<port id="2" precision="FP16">
					<dim>1</dim>
					<dim>16</dim>
					<dim>80</dim>
					<dim>136</dim>
				</port>
			</output>
		</layer>
		<layer id="305" name="data_add_2536825373/copy_const849_const" type="Const" version="opset1">
			<data element_type="f16" offset="8146" shape="1,16,1,1" size="32"/>
			<output>
				<port id="1" precision="FP16">
					<dim>1</dim>
					<dim>16</dim>
					<dim>1</dim>
					<dim>1</dim>
				</port>
			</output>
		</layer>
		<layer id="306" name="bottleneck2_0/inner/dw1/bn/variance/Fused_Add_" type="Add" version="opset1">
			<input>
				<port id="0">
					<dim>1</dim>
					<dim>16</dim>
					<dim>80</dim>
					<dim>136</dim>
				</port>
				<port id="1">
					<dim>1</dim>
					<dim>16</dim>
					<dim>1</dim>
					<dim>1</dim>
				</port>
			</input>
			<output>
				<port id="2" precision="FP16">
					<dim>1</dim>
					<dim>16</dim>
					<dim>80</dim>
					<dim>136</dim>
				</port>
			</output>
		</layer>
		<layer id="307" name="bottleneck2_0/inner/dw1/fn32505/Cast_112464_const" type="Const" version="opset1">
			<data element_type="f32" offset="1386" shape="1" size="4"/>
			<output>
				<port id="1" precision="FP32">
					<dim>1</dim>
				</port>
			</output>
		</layer>
		<layer id="308" name="bottleneck2_0/inner/dw1/fn32505" type="PReLU" version="opset1">
			<input>
				<port id="0">
					<dim>1</dim>
					<dim>16</dim>
					<dim>80</dim>
					<dim>136</dim>
				</port>
				<port id="1">
					<dim>1</dim>
				</port>
			</input>
			<output>
				<port id="2" precision="FP16">
					<dim>1</dim>
					<dim>16</dim>
					<dim>80</dim>
					<dim>136</dim>
				</port>
			</output>
		</layer>
		<layer id="309" name="27122716_const" type="Const" version="opset1">
			<data element_type="f16" offset="8178" shape="" size="2"/>
			<output>
				<port id="1" precision="FP16"/>
			</output>
		</layer>
		<layer id="310" name="27132717_const" type="Const" version="opset1">
			<data element_type="f16" offset="8180" shape="" size="2"/>
			<output>
				<port id="1" precision="FP16"/>
			</output>
		</layer>
		<layer id="311" name="27142718_const" type="Const" version="opset1">
			<data element_type="f16" offset="8178" shape="" size="2"/>
			<output>
				<port id="1" precision="FP16"/>
			</output>
		</layer>
		<layer id="312" name="27152719_const" type="Const" version="opset1">
			<data element_type="f16" offset="8180" shape="" size="2"/>
			<output>
				<port id="1" precision="FP16"/>
			</output>
		</layer>
		<layer id="313" name="bottleneck2_0/dim_inc/conv/fq_input_0" type="FakeQuantize" version="opset1">
			<data levels="256"/>
			<input>
				<port id="0">
					<dim>1</dim>
					<dim>16</dim>
					<dim>80</dim>
					<dim>136</dim>
				</port>
				<port id="1"/>
				<port id="2"/>
				<port id="3"/>
				<port id="4"/>
			</input>
			<output>
				<port id="5" precision="FP16">
					<dim>1</dim>
					<dim>16</dim>
					<dim>80</dim>
					<dim>136</dim>
				</port>
			</output>
		</layer>
		<layer id="314" name="bottleneck2_0/dim_inc/conv/fq_weights_1/Convert_to_float/Cast_012758_const" type="Const" version="opset1">
			<data element_type="u8" offset="8182" shape="64,16,1,1" size="1024"/>
			<output>
				<port id="1" precision="U8">
					<dim>64</dim>
					<dim>16</dim>
					<dim>1</dim>
					<dim>1</dim>
				</port>
			</output>
		</layer>
		<layer id="315" name="bottleneck2_0/dim_inc/conv/fq_weights_1/Convert_to_float" type="Convert" version="opset1">
			<data destination_type="f16"/>
			<input>
				<port id="0">
					<dim>64</dim>
					<dim>16</dim>
					<dim>1</dim>
					<dim>1</dim>
				</port>
			</input>
			<output>
				<port id="1" precision="FP16">
					<dim>64</dim>
					<dim>16</dim>
					<dim>1</dim>
					<dim>1</dim>
				</port>
			</output>
		</layer>
		<layer id="316" name="bottleneck2_0/dim_inc/conv/fq_weights_1/Copy/out_low10457_const" type="Const" version="opset1">
			<data element_type="f16" offset="1336" shape="1" size="2"/>
			<output>
				<port id="1" precision="FP16">
					<dim>1</dim>
				</port>
			</output>
		</layer>
		<layer id="317" name="bottleneck2_0/dim_inc/conv/fq_weights_1/Copy/out_high10458_const" type="Const" version="opset1">
			<data element_type="f16" offset="882" shape="1" size="2"/>
			<output>
				<port id="1" precision="FP16">
					<dim>1</dim>
				</port>
			</output>
		</layer>
		<layer id="318" name="27242728_const" type="Const" version="opset1">
			<data element_type="f16" offset="9206" shape="64,1,1,1" size="128"/>
			<output>
				<port id="1" precision="FP16">
					<dim>64</dim>
					<dim>1</dim>
					<dim>1</dim>
					<dim>1</dim>
				</port>
			</output>
		</layer>
		<layer id="319" name="27252729_const" type="Const" version="opset1">
			<data element_type="f16" offset="9334" shape="64,1,1,1" size="128"/>
			<output>
				<port id="1" precision="FP16">
					<dim>64</dim>
					<dim>1</dim>
					<dim>1</dim>
					<dim>1</dim>
				</port>
			</output>
		</layer>
		<layer id="320" name="bottleneck2_0/dim_inc/conv/fq_weights_1" type="FakeQuantize" version="opset1">
			<data levels="255"/>
			<input>
				<port id="0">
					<dim>64</dim>
					<dim>16</dim>
					<dim>1</dim>
					<dim>1</dim>
				</port>
				<port id="1">
					<dim>1</dim>
				</port>
				<port id="2">
					<dim>1</dim>
				</port>
				<port id="3">
					<dim>64</dim>
					<dim>1</dim>
					<dim>1</dim>
					<dim>1</dim>
				</port>
				<port id="4">
					<dim>64</dim>
					<dim>1</dim>
					<dim>1</dim>
					<dim>1</dim>
				</port>
			</input>
			<output>
				<port id="5" precision="FP16">
					<dim>64</dim>
					<dim>16</dim>
					<dim>1</dim>
					<dim>1</dim>
				</port>
			</output>
		</layer>
		<layer id="321" name="bottleneck2_0/dim_inc/conv" type="Convolution" version="opset1">
			<data dilations="1,1" output_padding="0,0" pads_begin="0,0" pads_end="0,0" strides="1,1"/>
			<input>
				<port id="0">
					<dim>1</dim>
					<dim>16</dim>
					<dim>80</dim>
					<dim>136</dim>
				</port>
				<port id="1">
					<dim>64</dim>
					<dim>16</dim>
					<dim>1</dim>
					<dim>1</dim>
				</port>
			</input>
			<output>
				<port id="2" precision="FP16">
					<dim>1</dim>
					<dim>64</dim>
					<dim>80</dim>
					<dim>136</dim>
				</port>
			</output>
		</layer>
		<layer id="322" name="data_add_2537625381/copy_const855_const" type="Const" version="opset1">
			<data element_type="f16" offset="9462" shape="1,64,1,1" size="128"/>
			<output>
				<port id="1" precision="FP16">
					<dim>1</dim>
					<dim>64</dim>
					<dim>1</dim>
					<dim>1</dim>
				</port>
			</output>
		</layer>
		<layer id="323" name="bottleneck2_0/dim_inc/bn/variance/Fused_Add_" type="Add" version="opset1">
			<input>
				<port id="0">
					<dim>1</dim>
					<dim>64</dim>
					<dim>80</dim>
					<dim>136</dim>
				</port>
				<port id="1">
					<dim>1</dim>
					<dim>64</dim>
					<dim>1</dim>
					<dim>1</dim>
				</port>
			</input>
			<output>
				<port id="2" precision="FP16">
					<dim>1</dim>
					<dim>64</dim>
					<dim>80</dim>
					<dim>136</dim>
				</port>
			</output>
		</layer>
		<layer id="324" name="26822686_const" type="Const" version="opset1">
			<data element_type="f16" offset="9590" shape="" size="2"/>
			<output>
				<port id="1" precision="FP16"/>
			</output>
		</layer>
		<layer id="325" name="26832687_const" type="Const" version="opset1">
			<data element_type="f16" offset="9592" shape="" size="2"/>
			<output>
				<port id="1" precision="FP16"/>
			</output>
		</layer>
		<layer id="326" name="26842688_const" type="Const" version="opset1">
			<data element_type="f16" offset="9590" shape="" size="2"/>
			<output>
				<port id="1" precision="FP16"/>
			</output>
		</layer>
		<layer id="327" name="26852689_const" type="Const" version="opset1">
			<data element_type="f16" offset="9592" shape="" size="2"/>
			<output>
				<port id="1" precision="FP16"/>
			</output>
		</layer>
		<layer id="328" name="bottleneck2_0/add/fq_input_1" type="FakeQuantize" version="opset1">
			<data levels="256"/>
			<input>
				<port id="0">
					<dim>1</dim>
					<dim>64</dim>
					<dim>80</dim>
					<dim>136</dim>
				</port>
				<port id="1"/>
				<port id="2"/>
				<port id="3"/>
				<port id="4"/>
			</input>
			<output>
				<port id="5" precision="FP16">
					<dim>1</dim>
					<dim>64</dim>
					<dim>80</dim>
					<dim>136</dim>
				</port>
			</output>
		</layer>
		<layer id="329" name="bottleneck2_0/add" type="Add" version="opset1">
			<input>
				<port id="0">
					<dim>1</dim>
					<dim>64</dim>
					<dim>80</dim>
					<dim>136</dim>
				</port>
				<port id="1">
					<dim>1</dim>
					<dim>64</dim>
					<dim>80</dim>
					<dim>136</dim>
				</port>
			</input>
			<output>
				<port id="2" precision="FP16">
					<dim>1</dim>
					<dim>64</dim>
					<dim>80</dim>
					<dim>136</dim>
				</port>
			</output>
		</layer>
		<layer id="330" name="bottleneck2_0/fn32721/Cast_112602_const" type="Const" version="opset1">
			<data element_type="f32" offset="1386" shape="1" size="4"/>
			<output>
				<port id="1" precision="FP32">
					<dim>1</dim>
				</port>
			</output>
		</layer>
		<layer id="331" name="bottleneck2_0/fn32721" type="PReLU" version="opset1">
			<input>
				<port id="0">
					<dim>1</dim>
					<dim>64</dim>
					<dim>80</dim>
					<dim>136</dim>
				</port>
				<port id="1">
					<dim>1</dim>
				</port>
			</input>
			<output>
				<port id="2" precision="FP16">
					<dim>1</dim>
					<dim>64</dim>
					<dim>80</dim>
					<dim>136</dim>
				</port>
			</output>
		</layer>
		<layer id="332" name="36123616_const" type="Const" version="opset1">
			<data element_type="f16" offset="9594" shape="" size="2"/>
			<output>
				<port id="1" precision="FP16"/>
			</output>
		</layer>
		<layer id="333" name="36133617_const" type="Const" version="opset1">
			<data element_type="f16" offset="9596" shape="" size="2"/>
			<output>
				<port id="1" precision="FP16"/>
			</output>
		</layer>
		<layer id="334" name="36143618_const" type="Const" version="opset1">
			<data element_type="f16" offset="9594" shape="" size="2"/>
			<output>
				<port id="1" precision="FP16"/>
			</output>
		</layer>
		<layer id="335" name="36153619_const" type="Const" version="opset1">
			<data element_type="f16" offset="9596" shape="" size="2"/>
			<output>
				<port id="1" precision="FP16"/>
			</output>
		</layer>
		<layer id="336" name="bottleneck2_1/add/fq_input_0" type="FakeQuantize" version="opset1">
			<data levels="256"/>
			<input>
				<port id="0">
					<dim>1</dim>
					<dim>64</dim>
					<dim>80</dim>
					<dim>136</dim>
				</port>
				<port id="1"/>
				<port id="2"/>
				<port id="3"/>
				<port id="4"/>
			</input>
			<output>
				<port id="5" precision="FP16">
					<dim>1</dim>
					<dim>64</dim>
					<dim>80</dim>
					<dim>136</dim>
				</port>
			</output>
		</layer>
		<layer id="337" name="bottleneck2_1/dim_red/conv/fq_weights_1/Convert_to_float/Cast_012546_const" type="Const" version="opset1">
			<data element_type="u8" offset="9598" shape="16,64,1,1" size="1024"/>
			<output>
				<port id="1" precision="U8">
					<dim>16</dim>
					<dim>64</dim>
					<dim>1</dim>
					<dim>1</dim>
				</port>
			</output>
		</layer>
		<layer id="338" name="bottleneck2_1/dim_red/conv/fq_weights_1/Convert_to_float" type="Convert" version="opset1">
			<data destination_type="f16"/>
			<input>
				<port id="0">
					<dim>16</dim>
					<dim>64</dim>
					<dim>1</dim>
					<dim>1</dim>
				</port>
			</input>
			<output>
				<port id="1" precision="FP16">
					<dim>16</dim>
					<dim>64</dim>
					<dim>1</dim>
					<dim>1</dim>
				</port>
			</output>
		</layer>
		<layer id="339" name="bottleneck2_1/dim_red/conv/fq_weights_1/Copy/out_low10281_const" type="Const" version="opset1">
			<data element_type="f16" offset="1336" shape="1" size="2"/>
			<output>
				<port id="1" precision="FP16">
					<dim>1</dim>
				</port>
			</output>
		</layer>
		<layer id="340" name="bottleneck2_1/dim_red/conv/fq_weights_1/Copy/out_high10282_const" type="Const" version="opset1">
			<data element_type="f16" offset="882" shape="1" size="2"/>
			<output>
				<port id="1" precision="FP16">
					<dim>1</dim>
				</port>
			</output>
		</layer>
		<layer id="341" name="35443548_const" type="Const" version="opset1">
			<data element_type="f16" offset="10622" shape="16,1,1,1" size="32"/>
			<output>
				<port id="1" precision="FP16">
					<dim>16</dim>
					<dim>1</dim>
					<dim>1</dim>
					<dim>1</dim>
				</port>
			</output>
		</layer>
		<layer id="342" name="35453549_const" type="Const" version="opset1">
			<data element_type="f16" offset="10654" shape="16,1,1,1" size="32"/>
			<output>
				<port id="1" precision="FP16">
					<dim>16</dim>
					<dim>1</dim>
					<dim>1</dim>
					<dim>1</dim>
				</port>
			</output>
		</layer>
		<layer id="343" name="bottleneck2_1/dim_red/conv/fq_weights_1" type="FakeQuantize" version="opset1">
			<data levels="255"/>
			<input>
				<port id="0">
					<dim>16</dim>
					<dim>64</dim>
					<dim>1</dim>
					<dim>1</dim>
				</port>
				<port id="1">
					<dim>1</dim>
				</port>
				<port id="2">
					<dim>1</dim>
				</port>
				<port id="3">
					<dim>16</dim>
					<dim>1</dim>
					<dim>1</dim>
					<dim>1</dim>
				</port>
				<port id="4">
					<dim>16</dim>
					<dim>1</dim>
					<dim>1</dim>
					<dim>1</dim>
				</port>
			</input>
			<output>
				<port id="5" precision="FP16">
					<dim>16</dim>
					<dim>64</dim>
					<dim>1</dim>
					<dim>1</dim>
				</port>
			</output>
		</layer>
		<layer id="344" name="bottleneck2_1/dim_red/conv" type="Convolution" version="opset1">
			<data dilations="1,1" output_padding="0,0" pads_begin="0,0" pads_end="0,0" strides="1,1"/>
			<input>
				<port id="0">
					<dim>1</dim>
					<dim>64</dim>
					<dim>80</dim>
					<dim>136</dim>
				</port>
				<port id="1">
					<dim>16</dim>
					<dim>64</dim>
					<dim>1</dim>
					<dim>1</dim>
				</port>
			</input>
			<output>
				<port id="2" precision="FP16">
					<dim>1</dim>
					<dim>16</dim>
					<dim>80</dim>
					<dim>136</dim>
				</port>
			</output>
		</layer>
		<layer id="345" name="data_add_2538425389/copy_const862_const" type="Const" version="opset1">
			<data element_type="f16" offset="10686" shape="1,16,1,1" size="32"/>
			<output>
				<port id="1" precision="FP16">
					<dim>1</dim>
					<dim>16</dim>
					<dim>1</dim>
					<dim>1</dim>
				</port>
			</output>
		</layer>
		<layer id="346" name="bottleneck2_1/dim_red/bn/variance/Fused_Add_" type="Add" version="opset1">
			<input>
				<port id="0">
					<dim>1</dim>
					<dim>16</dim>
					<dim>80</dim>
					<dim>136</dim>
				</port>
				<port id="1">
					<dim>1</dim>
					<dim>16</dim>
					<dim>1</dim>
					<dim>1</dim>
				</port>
			</input>
			<output>
				<port id="2" precision="FP16">
					<dim>1</dim>
					<dim>16</dim>
					<dim>80</dim>
					<dim>136</dim>
				</port>
			</output>
		</layer>
		<layer id="347" name="bottleneck2_1/dim_red/fn32861/Cast_112422_const" type="Const" version="opset1">
			<data element_type="f32" offset="1386" shape="1" size="4"/>
			<output>
				<port id="1" precision="FP32">
					<dim>1</dim>
				</port>
			</output>
		</layer>
		<layer id="348" name="bottleneck2_1/dim_red/fn32861" type="PReLU" version="opset1">
			<input>
				<port id="0">
					<dim>1</dim>
					<dim>16</dim>
					<dim>80</dim>
					<dim>136</dim>
				</port>
				<port id="1">
					<dim>1</dim>
				</port>
			</input>
			<output>
				<port id="2" precision="FP16">
					<dim>1</dim>
					<dim>16</dim>
					<dim>80</dim>
					<dim>136</dim>
				</port>
			</output>
		</layer>
		<layer id="349" name="27322736_const" type="Const" version="opset1">
			<data element_type="f16" offset="10718" shape="1,16,1,1" size="32"/>
			<output>
				<port id="1" precision="FP16">
					<dim>1</dim>
					<dim>16</dim>
					<dim>1</dim>
					<dim>1</dim>
				</port>
			</output>
		</layer>
		<layer id="350" name="27332737_const" type="Const" version="opset1">
			<data element_type="f16" offset="10750" shape="1,16,1,1" size="32"/>
			<output>
				<port id="1" precision="FP16">
					<dim>1</dim>
					<dim>16</dim>
					<dim>1</dim>
					<dim>1</dim>
				</port>
			</output>
		</layer>
		<layer id="351" name="27342738_const" type="Const" version="opset1">
			<data element_type="f16" offset="10718" shape="1,16,1,1" size="32"/>
			<output>
				<port id="1" precision="FP16">
					<dim>1</dim>
					<dim>16</dim>
					<dim>1</dim>
					<dim>1</dim>
				</port>
			</output>
		</layer>
		<layer id="352" name="27352739_const" type="Const" version="opset1">
			<data element_type="f16" offset="10750" shape="1,16,1,1" size="32"/>
			<output>
				<port id="1" precision="FP16">
					<dim>1</dim>
					<dim>16</dim>
					<dim>1</dim>
					<dim>1</dim>
				</port>
			</output>
		</layer>
		<layer id="353" name="bottleneck2_1/inner/dw1/conv/fq_input_0" type="FakeQuantize" version="opset1">
			<data levels="256"/>
			<input>
				<port id="0">
					<dim>1</dim>
					<dim>16</dim>
					<dim>80</dim>
					<dim>136</dim>
				</port>
				<port id="1">
					<dim>1</dim>
					<dim>16</dim>
					<dim>1</dim>
					<dim>1</dim>
				</port>
				<port id="2">
					<dim>1</dim>
					<dim>16</dim>
					<dim>1</dim>
					<dim>1</dim>
				</port>
				<port id="3">
					<dim>1</dim>
					<dim>16</dim>
					<dim>1</dim>
					<dim>1</dim>
				</port>
				<port id="4">
					<dim>1</dim>
					<dim>16</dim>
					<dim>1</dim>
					<dim>1</dim>
				</port>
			</input>
			<output>
				<port id="5" precision="FP16">
					<dim>1</dim>
					<dim>16</dim>
					<dim>80</dim>
					<dim>136</dim>
				</port>
			</output>
		</layer>
		<layer id="354" name="bottleneck2_1/inner/dw1/conv/fq_weights_1/Convert_to_float/Cast_012556_const" type="Const" version="opset1">
			<data element_type="u8" offset="10782" shape="16,1,3,3" size="144"/>
			<output>
				<port id="1" precision="U8">
					<dim>16</dim>
					<dim>1</dim>
					<dim>3</dim>
					<dim>3</dim>
				</port>
			</output>
		</layer>
		<layer id="355" name="bottleneck2_1/inner/dw1/conv/fq_weights_1/Convert_to_float" type="Convert" version="opset1">
			<data destination_type="f16"/>
			<input>
				<port id="0">
					<dim>16</dim>
					<dim>1</dim>
					<dim>3</dim>
					<dim>3</dim>
				</port>
			</input>
			<output>
				<port id="1" precision="FP16">
					<dim>16</dim>
					<dim>1</dim>
					<dim>3</dim>
					<dim>3</dim>
				</port>
			</output>
		</layer>
		<layer id="356" name="bottleneck2_1/inner/dw1/conv/fq_weights_1/Copy/out_low10401_const" type="Const" version="opset1">
			<data element_type="f16" offset="1336" shape="1" size="2"/>
			<output>
				<port id="1" precision="FP16">
					<dim>1</dim>
				</port>
			</output>
		</layer>
		<layer id="357" name="bottleneck2_1/inner/dw1/conv/fq_weights_1/Copy/out_high10402_const" type="Const" version="opset1">
			<data element_type="f16" offset="882" shape="1" size="2"/>
			<output>
				<port id="1" precision="FP16">
					<dim>1</dim>
				</port>
			</output>
		</layer>
		<layer id="358" name="27442748_const" type="Const" version="opset1">
			<data element_type="f16" offset="10926" shape="16,1,1,1" size="32"/>
			<output>
				<port id="1" precision="FP16">
					<dim>16</dim>
					<dim>1</dim>
					<dim>1</dim>
					<dim>1</dim>
				</port>
			</output>
		</layer>
		<layer id="359" name="27452749_const" type="Const" version="opset1">
			<data element_type="f16" offset="10958" shape="16,1,1,1" size="32"/>
			<output>
				<port id="1" precision="FP16">
					<dim>16</dim>
					<dim>1</dim>
					<dim>1</dim>
					<dim>1</dim>
				</port>
			</output>
		</layer>
		<layer id="360" name="bottleneck2_1/inner/dw1/conv/fq_weights_1" type="FakeQuantize" version="opset1">
			<data levels="255"/>
			<input>
				<port id="0">
					<dim>16</dim>
					<dim>1</dim>
					<dim>3</dim>
					<dim>3</dim>
				</port>
				<port id="1">
					<dim>1</dim>
				</port>
				<port id="2">
					<dim>1</dim>
				</port>
				<port id="3">
					<dim>16</dim>
					<dim>1</dim>
					<dim>1</dim>
					<dim>1</dim>
				</port>
				<port id="4">
					<dim>16</dim>
					<dim>1</dim>
					<dim>1</dim>
					<dim>1</dim>
				</port>
			</input>
			<output>
				<port id="5" precision="FP16">
					<dim>16</dim>
					<dim>1</dim>
					<dim>3</dim>
					<dim>3</dim>
				</port>
			</output>
		</layer>
		<layer id="361" name="14272/value14274_const" type="Const" version="opset1">
			<data element_type="i64" offset="8106" shape="5" size="40"/>
			<output>
				<port id="1" precision="I64">
					<dim>5</dim>
				</port>
			</output>
		</layer>
		<layer id="362" name="14272" type="Reshape" version="opset1">
			<data special_zero="True"/>
			<input>
				<port id="0">
					<dim>16</dim>
					<dim>1</dim>
					<dim>3</dim>
					<dim>3</dim>
				</port>
				<port id="1">
					<dim>5</dim>
				</port>
			</input>
			<output>
				<port id="2" precision="FP16">
					<dim>16</dim>
					<dim>1</dim>
					<dim>1</dim>
					<dim>3</dim>
					<dim>3</dim>
				</port>
			</output>
		</layer>
		<layer id="363" name="bottleneck2_1/inner/dw1/conv" type="GroupConvolution" version="opset1">
			<data dilations="1,1" output_padding="0,0" pads_begin="1,1" pads_end="1,1" strides="1,1"/>
			<input>
				<port id="0">
					<dim>1</dim>
					<dim>16</dim>
					<dim>80</dim>
					<dim>136</dim>
				</port>
				<port id="1">
					<dim>16</dim>
					<dim>1</dim>
					<dim>1</dim>
					<dim>3</dim>
					<dim>3</dim>
				</port>
			</input>
			<output>
				<port id="2" precision="FP16">
					<dim>1</dim>
					<dim>16</dim>
					<dim>80</dim>
					<dim>136</dim>
				</port>
			</output>
		</layer>
		<layer id="364" name="data_add_2539225397/copy_const868_const" type="Const" version="opset1">
			<data element_type="f16" offset="10990" shape="1,16,1,1" size="32"/>
			<output>
				<port id="1" precision="FP16">
					<dim>1</dim>
					<dim>16</dim>
					<dim>1</dim>
					<dim>1</dim>
				</port>
			</output>
		</layer>
		<layer id="365" name="bottleneck2_1/inner/dw1/bn/variance/Fused_Add_" type="Add" version="opset1">
			<input>
				<port id="0">
					<dim>1</dim>
					<dim>16</dim>
					<dim>80</dim>
					<dim>136</dim>
				</port>
				<port id="1">
					<dim>1</dim>
					<dim>16</dim>
					<dim>1</dim>
					<dim>1</dim>
				</port>
			</input>
			<output>
				<port id="2" precision="FP16">
					<dim>1</dim>
					<dim>16</dim>
					<dim>80</dim>
					<dim>136</dim>
				</port>
			</output>
		</layer>
		<layer id="366" name="bottleneck2_1/inner/dw1/fn32601/Cast_112704_const" type="Const" version="opset1">
			<data element_type="f32" offset="1386" shape="1" size="4"/>
			<output>
				<port id="1" precision="FP32">
					<dim>1</dim>
				</port>
			</output>
		</layer>
		<layer id="367" name="bottleneck2_1/inner/dw1/fn32601" type="PReLU" version="opset1">
			<input>
				<port id="0">
					<dim>1</dim>
					<dim>16</dim>
					<dim>80</dim>
					<dim>136</dim>
				</port>
				<port id="1">
					<dim>1</dim>
				</port>
			</input>
			<output>
				<port id="2" precision="FP16">
					<dim>1</dim>
					<dim>16</dim>
					<dim>80</dim>
					<dim>136</dim>
				</port>
			</output>
		</layer>
		<layer id="368" name="27722776_const" type="Const" version="opset1">
			<data element_type="f16" offset="11022" shape="" size="2"/>
			<output>
				<port id="1" precision="FP16"/>
			</output>
		</layer>
		<layer id="369" name="27732777_const" type="Const" version="opset1">
			<data element_type="f16" offset="11024" shape="" size="2"/>
			<output>
				<port id="1" precision="FP16"/>
			</output>
		</layer>
		<layer id="370" name="27742778_const" type="Const" version="opset1">
			<data element_type="f16" offset="11022" shape="" size="2"/>
			<output>
				<port id="1" precision="FP16"/>
			</output>
		</layer>
		<layer id="371" name="27752779_const" type="Const" version="opset1">
			<data element_type="f16" offset="11024" shape="" size="2"/>
			<output>
				<port id="1" precision="FP16"/>
			</output>
		</layer>
		<layer id="372" name="bottleneck2_1/dim_inc/conv/fq_input_0" type="FakeQuantize" version="opset1">
			<data levels="256"/>
			<input>
				<port id="0">
					<dim>1</dim>
					<dim>16</dim>
					<dim>80</dim>
					<dim>136</dim>
				</port>
				<port id="1"/>
				<port id="2"/>
				<port id="3"/>
				<port id="4"/>
			</input>
			<output>
				<port id="5" precision="FP16">
					<dim>1</dim>
					<dim>16</dim>
					<dim>80</dim>
					<dim>136</dim>
				</port>
			</output>
		</layer>
		<layer id="373" name="bottleneck2_1/dim_inc/conv/fq_weights_1/Convert_to_float/Cast_012662_const" type="Const" version="opset1">
			<data element_type="u8" offset="11026" shape="64,16,1,1" size="1024"/>
			<output>
				<port id="1" precision="U8">
					<dim>64</dim>
					<dim>16</dim>
					<dim>1</dim>
					<dim>1</dim>
				</port>
			</output>
		</layer>
		<layer id="374" name="bottleneck2_1/dim_inc/conv/fq_weights_1/Convert_to_float" type="Convert" version="opset1">
			<data destination_type="f16"/>
			<input>
				<port id="0">
					<dim>64</dim>
					<dim>16</dim>
					<dim>1</dim>
					<dim>1</dim>
				</port>
			</input>
			<output>
				<port id="1" precision="FP16">
					<dim>64</dim>
					<dim>16</dim>
					<dim>1</dim>
					<dim>1</dim>
				</port>
			</output>
		</layer>
		<layer id="375" name="bottleneck2_1/dim_inc/conv/fq_weights_1/Copy/out_low10841_const" type="Const" version="opset1">
			<data element_type="f16" offset="1336" shape="1" size="2"/>
			<output>
				<port id="1" precision="FP16">
					<dim>1</dim>
				</port>
			</output>
		</layer>
		<layer id="376" name="bottleneck2_1/dim_inc/conv/fq_weights_1/Copy/out_high10842_const" type="Const" version="opset1">
			<data element_type="f16" offset="882" shape="1" size="2"/>
			<output>
				<port id="1" precision="FP16">
					<dim>1</dim>
				</port>
			</output>
		</layer>
		<layer id="377" name="27842788_const" type="Const" version="opset1">
			<data element_type="f16" offset="12050" shape="64,1,1,1" size="128"/>
			<output>
				<port id="1" precision="FP16">
					<dim>64</dim>
					<dim>1</dim>
					<dim>1</dim>
					<dim>1</dim>
				</port>
			</output>
		</layer>
		<layer id="378" name="27852789_const" type="Const" version="opset1">
			<data element_type="f16" offset="12178" shape="64,1,1,1" size="128"/>
			<output>
				<port id="1" precision="FP16">
					<dim>64</dim>
					<dim>1</dim>
					<dim>1</dim>
					<dim>1</dim>
				</port>
			</output>
		</layer>
		<layer id="379" name="bottleneck2_1/dim_inc/conv/fq_weights_1" type="FakeQuantize" version="opset1">
			<data levels="255"/>
			<input>
				<port id="0">
					<dim>64</dim>
					<dim>16</dim>
					<dim>1</dim>
					<dim>1</dim>
				</port>
				<port id="1">
					<dim>1</dim>
				</port>
				<port id="2">
					<dim>1</dim>
				</port>
				<port id="3">
					<dim>64</dim>
					<dim>1</dim>
					<dim>1</dim>
					<dim>1</dim>
				</port>
				<port id="4">
					<dim>64</dim>
					<dim>1</dim>
					<dim>1</dim>
					<dim>1</dim>
				</port>
			</input>
			<output>
				<port id="5" precision="FP16">
					<dim>64</dim>
					<dim>16</dim>
					<dim>1</dim>
					<dim>1</dim>
				</port>
			</output>
		</layer>
		<layer id="380" name="bottleneck2_1/dim_inc/conv" type="Convolution" version="opset1">
			<data dilations="1,1" output_padding="0,0" pads_begin="0,0" pads_end="0,0" strides="1,1"/>
			<input>
				<port id="0">
					<dim>1</dim>
					<dim>16</dim>
					<dim>80</dim>
					<dim>136</dim>
				</port>
				<port id="1">
					<dim>64</dim>
					<dim>16</dim>
					<dim>1</dim>
					<dim>1</dim>
				</port>
			</input>
			<output>
				<port id="2" precision="FP16">
					<dim>1</dim>
					<dim>64</dim>
					<dim>80</dim>
					<dim>136</dim>
				</port>
			</output>
		</layer>
		<layer id="381" name="data_add_2540025405/copy_const874_const" type="Const" version="opset1">
			<data element_type="f16" offset="12306" shape="1,64,1,1" size="128"/>
			<output>
				<port id="1" precision="FP16">
					<dim>1</dim>
					<dim>64</dim>
					<dim>1</dim>
					<dim>1</dim>
				</port>
			</output>
		</layer>
		<layer id="382" name="bottleneck2_1/dim_inc/bn/variance/Fused_Add_" type="Add" version="opset1">
			<input>
				<port id="0">
					<dim>1</dim>
					<dim>64</dim>
					<dim>80</dim>
					<dim>136</dim>
				</port>
				<port id="1">
					<dim>1</dim>
					<dim>64</dim>
					<dim>1</dim>
					<dim>1</dim>
				</port>
			</input>
			<output>
				<port id="2" precision="FP16">
					<dim>1</dim>
					<dim>64</dim>
					<dim>80</dim>
					<dim>136</dim>
				</port>
			</output>
		</layer>
		<layer id="383" name="36223626_const" type="Const" version="opset1">
			<data element_type="f16" offset="12434" shape="" size="2"/>
			<output>
				<port id="1" precision="FP16"/>
			</output>
		</layer>
		<layer id="384" name="36233627_const" type="Const" version="opset1">
			<data element_type="f16" offset="12436" shape="" size="2"/>
			<output>
				<port id="1" precision="FP16"/>
			</output>
		</layer>
		<layer id="385" name="36243628_const" type="Const" version="opset1">
			<data element_type="f16" offset="12434" shape="" size="2"/>
			<output>
				<port id="1" precision="FP16"/>
			</output>
		</layer>
		<layer id="386" name="36253629_const" type="Const" version="opset1">
			<data element_type="f16" offset="12436" shape="" size="2"/>
			<output>
				<port id="1" precision="FP16"/>
			</output>
		</layer>
		<layer id="387" name="bottleneck2_1/add/fq_input_1" type="FakeQuantize" version="opset1">
			<data levels="256"/>
			<input>
				<port id="0">
					<dim>1</dim>
					<dim>64</dim>
					<dim>80</dim>
					<dim>136</dim>
				</port>
				<port id="1"/>
				<port id="2"/>
				<port id="3"/>
				<port id="4"/>
			</input>
			<output>
				<port id="5" precision="FP16">
					<dim>1</dim>
					<dim>64</dim>
					<dim>80</dim>
					<dim>136</dim>
				</port>
			</output>
		</layer>
		<layer id="388" name="bottleneck2_1/add" type="Add" version="opset1">
			<input>
				<port id="0">
					<dim>1</dim>
					<dim>64</dim>
					<dim>80</dim>
					<dim>136</dim>
				</port>
				<port id="1">
					<dim>1</dim>
					<dim>64</dim>
					<dim>80</dim>
					<dim>136</dim>
				</port>
			</input>
			<output>
				<port id="2" precision="FP16">
					<dim>1</dim>
					<dim>64</dim>
					<dim>80</dim>
					<dim>136</dim>
				</port>
			</output>
		</layer>
		<layer id="389" name="bottleneck2_1/fn32621/Cast_112412_const" type="Const" version="opset1">
			<data element_type="f32" offset="1386" shape="1" size="4"/>
			<output>
				<port id="1" precision="FP32">
					<dim>1</dim>
				</port>
			</output>
		</layer>
		<layer id="390" name="bottleneck2_1/fn32621" type="PReLU" version="opset1">
			<input>
				<port id="0">
					<dim>1</dim>
					<dim>64</dim>
					<dim>80</dim>
					<dim>136</dim>
				</port>
				<port id="1">
					<dim>1</dim>
				</port>
			</input>
			<output>
				<port id="2" precision="FP16">
					<dim>1</dim>
					<dim>64</dim>
					<dim>80</dim>
					<dim>136</dim>
				</port>
			</output>
		</layer>
		<layer id="391" name="34523456_const" type="Const" version="opset1">
			<data element_type="f16" offset="12438" shape="" size="2"/>
			<output>
				<port id="1" precision="FP16"/>
			</output>
		</layer>
		<layer id="392" name="34533457_const" type="Const" version="opset1">
			<data element_type="f16" offset="12440" shape="" size="2"/>
			<output>
				<port id="1" precision="FP16"/>
			</output>
		</layer>
		<layer id="393" name="34543458_const" type="Const" version="opset1">
			<data element_type="f16" offset="12438" shape="" size="2"/>
			<output>
				<port id="1" precision="FP16"/>
			</output>
		</layer>
		<layer id="394" name="34553459_const" type="Const" version="opset1">
			<data element_type="f16" offset="12440" shape="" size="2"/>
			<output>
				<port id="1" precision="FP16"/>
			</output>
		</layer>
		<layer id="395" name="bottleneck2_2/add/fq_input_0" type="FakeQuantize" version="opset1">
			<data levels="256"/>
			<input>
				<port id="0">
					<dim>1</dim>
					<dim>64</dim>
					<dim>80</dim>
					<dim>136</dim>
				</port>
				<port id="1"/>
				<port id="2"/>
				<port id="3"/>
				<port id="4"/>
			</input>
			<output>
				<port id="5" precision="FP16">
					<dim>1</dim>
					<dim>64</dim>
					<dim>80</dim>
					<dim>136</dim>
				</port>
			</output>
		</layer>
		<layer id="396" name="bottleneck2_2/dim_red/conv/fq_weights_1/Convert_to_float/Cast_012732_const" type="Const" version="opset1">
			<data element_type="u8" offset="12442" shape="16,64,1,1" size="1024"/>
			<output>
				<port id="1" precision="U8">
					<dim>16</dim>
					<dim>64</dim>
					<dim>1</dim>
					<dim>1</dim>
				</port>
			</output>
		</layer>
		<layer id="397" name="bottleneck2_2/dim_red/conv/fq_weights_1/Convert_to_float" type="Convert" version="opset1">
			<data destination_type="f16"/>
			<input>
				<port id="0">
					<dim>16</dim>
					<dim>64</dim>
					<dim>1</dim>
					<dim>1</dim>
				</port>
			</input>
			<output>
				<port id="1" precision="FP16">
					<dim>16</dim>
					<dim>64</dim>
					<dim>1</dim>
					<dim>1</dim>
				</port>
			</output>
		</layer>
		<layer id="398" name="bottleneck2_2/dim_red/conv/fq_weights_1/Copy/out_low10305_const" type="Const" version="opset1">
			<data element_type="f16" offset="1336" shape="1" size="2"/>
			<output>
				<port id="1" precision="FP16">
					<dim>1</dim>
				</port>
			</output>
		</layer>
		<layer id="399" name="bottleneck2_2/dim_red/conv/fq_weights_1/Copy/out_high10306_const" type="Const" version="opset1">
			<data element_type="f16" offset="882" shape="1" size="2"/>
			<output>
				<port id="1" precision="FP16">
					<dim>1</dim>
				</port>
			</output>
		</layer>
		<layer id="400" name="55245528_const" type="Const" version="opset1">
			<data element_type="f16" offset="13466" shape="16,1,1,1" size="32"/>
			<output>
				<port id="1" precision="FP16">
					<dim>16</dim>
					<dim>1</dim>
					<dim>1</dim>
					<dim>1</dim>
				</port>
			</output>
		</layer>
		<layer id="401" name="55255529_const" type="Const" version="opset1">
			<data element_type="f16" offset="13498" shape="16,1,1,1" size="32"/>
			<output>
				<port id="1" precision="FP16">
					<dim>16</dim>
					<dim>1</dim>
					<dim>1</dim>
					<dim>1</dim>
				</port>
			</output>
		</layer>
		<layer id="402" name="bottleneck2_2/dim_red/conv/fq_weights_1" type="FakeQuantize" version="opset1">
			<data levels="255"/>
			<input>
				<port id="0">
					<dim>16</dim>
					<dim>64</dim>
					<dim>1</dim>
					<dim>1</dim>
				</port>
				<port id="1">
					<dim>1</dim>
				</port>
				<port id="2">
					<dim>1</dim>
				</port>
				<port id="3">
					<dim>16</dim>
					<dim>1</dim>
					<dim>1</dim>
					<dim>1</dim>
				</port>
				<port id="4">
					<dim>16</dim>
					<dim>1</dim>
					<dim>1</dim>
					<dim>1</dim>
				</port>
			</input>
			<output>
				<port id="5" precision="FP16">
					<dim>16</dim>
					<dim>64</dim>
					<dim>1</dim>
					<dim>1</dim>
				</port>
			</output>
		</layer>
		<layer id="403" name="bottleneck2_2/dim_red/conv" type="Convolution" version="opset1">
			<data dilations="1,1" output_padding="0,0" pads_begin="0,0" pads_end="0,0" strides="1,1"/>
			<input>
				<port id="0">
					<dim>1</dim>
					<dim>64</dim>
					<dim>80</dim>
					<dim>136</dim>
				</port>
				<port id="1">
					<dim>16</dim>
					<dim>64</dim>
					<dim>1</dim>
					<dim>1</dim>
				</port>
			</input>
			<output>
				<port id="2" precision="FP16">
					<dim>1</dim>
					<dim>16</dim>
					<dim>80</dim>
					<dim>136</dim>
				</port>
			</output>
		</layer>
		<layer id="404" name="data_add_2540825413/copy_const881_const" type="Const" version="opset1">
			<data element_type="f16" offset="13530" shape="1,16,1,1" size="32"/>
			<output>
				<port id="1" precision="FP16">
					<dim>1</dim>
					<dim>16</dim>
					<dim>1</dim>
					<dim>1</dim>
				</port>
			</output>
		</layer>
		<layer id="405" name="bottleneck2_2/dim_red/bn/variance/Fused_Add_" type="Add" version="opset1">
			<input>
				<port id="0">
					<dim>1</dim>
					<dim>16</dim>
					<dim>80</dim>
					<dim>136</dim>
				</port>
				<port id="1">
					<dim>1</dim>
					<dim>16</dim>
					<dim>1</dim>
					<dim>1</dim>
				</port>
			</input>
			<output>
				<port id="2" precision="FP16">
					<dim>1</dim>
					<dim>16</dim>
					<dim>80</dim>
					<dim>136</dim>
				</port>
			</output>
		</layer>
		<layer id="406" name="bottleneck2_2/dim_red/fn32617/Cast_112622_const" type="Const" version="opset1">
			<data element_type="f32" offset="1386" shape="1" size="4"/>
			<output>
				<port id="1" precision="FP32">
					<dim>1</dim>
				</port>
			</output>
		</layer>
		<layer id="407" name="bottleneck2_2/dim_red/fn32617" type="PReLU" version="opset1">
			<input>
				<port id="0">
					<dim>1</dim>
					<dim>16</dim>
					<dim>80</dim>
					<dim>136</dim>
				</port>
				<port id="1">
					<dim>1</dim>
				</port>
			</input>
			<output>
				<port id="2" precision="FP16">
					<dim>1</dim>
					<dim>16</dim>
					<dim>80</dim>
					<dim>136</dim>
				</port>
			</output>
		</layer>
		<layer id="408" name="44724476_const" type="Const" version="opset1">
			<data element_type="f16" offset="13562" shape="1,16,1,1" size="32"/>
			<output>
				<port id="1" precision="FP16">
					<dim>1</dim>
					<dim>16</dim>
					<dim>1</dim>
					<dim>1</dim>
				</port>
			</output>
		</layer>
		<layer id="409" name="44734477_const" type="Const" version="opset1">
			<data element_type="f16" offset="13594" shape="1,16,1,1" size="32"/>
			<output>
				<port id="1" precision="FP16">
					<dim>1</dim>
					<dim>16</dim>
					<dim>1</dim>
					<dim>1</dim>
				</port>
			</output>
		</layer>
		<layer id="410" name="44744478_const" type="Const" version="opset1">
			<data element_type="f16" offset="13562" shape="1,16,1,1" size="32"/>
			<output>
				<port id="1" precision="FP16">
					<dim>1</dim>
					<dim>16</dim>
					<dim>1</dim>
					<dim>1</dim>
				</port>
			</output>
		</layer>
		<layer id="411" name="44754479_const" type="Const" version="opset1">
			<data element_type="f16" offset="13594" shape="1,16,1,1" size="32"/>
			<output>
				<port id="1" precision="FP16">
					<dim>1</dim>
					<dim>16</dim>
					<dim>1</dim>
					<dim>1</dim>
				</port>
			</output>
		</layer>
		<layer id="412" name="bottleneck2_2/inner/dw1/conv/fq_input_0" type="FakeQuantize" version="opset1">
			<data levels="256"/>
			<input>
				<port id="0">
					<dim>1</dim>
					<dim>16</dim>
					<dim>80</dim>
					<dim>136</dim>
				</port>
				<port id="1">
					<dim>1</dim>
					<dim>16</dim>
					<dim>1</dim>
					<dim>1</dim>
				</port>
				<port id="2">
					<dim>1</dim>
					<dim>16</dim>
					<dim>1</dim>
					<dim>1</dim>
				</port>
				<port id="3">
					<dim>1</dim>
					<dim>16</dim>
					<dim>1</dim>
					<dim>1</dim>
				</port>
				<port id="4">
					<dim>1</dim>
					<dim>16</dim>
					<dim>1</dim>
					<dim>1</dim>
				</port>
			</input>
			<output>
				<port id="5" precision="FP16">
					<dim>1</dim>
					<dim>16</dim>
					<dim>80</dim>
					<dim>136</dim>
				</port>
			</output>
		</layer>
		<layer id="413" name="bottleneck2_2/inner/dw1/conv/fq_weights_1/Convert_to_float/Cast_012748_const" type="Const" version="opset1">
			<data element_type="u8" offset="13626" shape="16,1,3,3" size="144"/>
			<output>
				<port id="1" precision="U8">
					<dim>16</dim>
					<dim>1</dim>
					<dim>3</dim>
					<dim>3</dim>
				</port>
			</output>
		</layer>
		<layer id="414" name="bottleneck2_2/inner/dw1/conv/fq_weights_1/Convert_to_float" type="Convert" version="opset1">
			<data destination_type="f16"/>
			<input>
				<port id="0">
					<dim>16</dim>
					<dim>1</dim>
					<dim>3</dim>
					<dim>3</dim>
				</port>
			</input>
			<output>
…
		<edge from-layer="1653" from-port="2" to-layer="1658" to-port="0"/>
		<edge from-layer="1654" from-port="1" to-layer="1658" to-port="1"/>
		<edge from-layer="1655" from-port="1" to-layer="1658" to-port="2"/>
		<edge from-layer="1656" from-port="1" to-layer="1658" to-port="3"/>
		<edge from-layer="1657" from-port="1" to-layer="1658" to-port="4"/>
		<edge from-layer="1607" from-port="5" to-layer="1659" to-port="0"/>
		<edge from-layer="1658" from-port="5" to-layer="1659" to-port="1"/>
		<edge from-layer="1659" from-port="2" to-layer="1661" to-port="0"/>
		<edge from-layer="1660" from-port="1" to-layer="1661" to-port="1"/>
		<edge from-layer="1661" from-port="2" to-layer="1666" to-port="0"/>
		<edge from-layer="1662" from-port="1" to-layer="1666" to-port="1"/>
		<edge from-layer="1663" from-port="1" to-layer="1666" to-port="2"/>
		<edge from-layer="1664" from-port="1" to-layer="1666" to-port="3"/>
		<edge from-layer="1665" from-port="1" to-layer="1666" to-port="4"/>
		<edge from-layer="1667" from-port="1" to-layer="1668" to-port="0"/>
		<edge from-layer="1668" from-port="1" to-layer="1673" to-port="0"/>
		<edge from-layer="1669" from-port="1" to-layer="1673" to-port="1"/>
		<edge from-layer="1670" from-port="1" to-layer="1673" to-port="2"/>
		<edge from-layer="1671" from-port="1" to-layer="1673" to-port="3"/>
		<edge from-layer="1672" from-port="1" to-layer="1673" to-port="4"/>
		<edge from-layer="1666" from-port="5" to-layer="1674" to-port="0"/>
		<edge from-layer="1673" from-port="5" to-layer="1674" to-port="1"/>
		<edge from-layer="1674" from-port="2" to-layer="1676" to-port="0"/>
		<edge from-layer="1675" from-port="1" to-layer="1676" to-port="1"/>
		<edge from-layer="1676" from-port="2" to-layer="1678" to-port="0"/>
		<edge from-layer="1677" from-port="1" to-layer="1678" to-port="1"/>
		<edge from-layer="1678" from-port="2" to-layer="1683" to-port="0"/>
		<edge from-layer="1679" from-port="1" to-layer="1683" to-port="1"/>
		<edge from-layer="1680" from-port="1" to-layer="1683" to-port="2"/>
		<edge from-layer="1681" from-port="1" to-layer="1683" to-port="3"/>
		<edge from-layer="1682" from-port="1" to-layer="1683" to-port="4"/>
		<edge from-layer="1684" from-port="1" to-layer="1685" to-port="0"/>
		<edge from-layer="1685" from-port="1" to-layer="1690" to-port="0"/>
		<edge from-layer="1686" from-port="1" to-layer="1690" to-port="1"/>
		<edge from-layer="1687" from-port="1" to-layer="1690" to-port="2"/>
		<edge from-layer="1688" from-port="1" to-layer="1690" to-port="3"/>
		<edge from-layer="1689" from-port="1" to-layer="1690" to-port="4"/>
		<edge from-layer="1690" from-port="5" to-layer="1692" to-port="0"/>
		<edge from-layer="1691" from-port="1" to-layer="1692" to-port="1"/>
		<edge from-layer="1683" from-port="5" to-layer="1693" to-port="0"/>
		<edge from-layer="1692" from-port="2" to-layer="1693" to-port="1"/>
		<edge from-layer="1693" from-port="2" to-layer="1695" to-port="0"/>
		<edge from-layer="1694" from-port="1" to-layer="1695" to-port="1"/>
		<edge from-layer="1695" from-port="2" to-layer="1697" to-port="0"/>
		<edge from-layer="1696" from-port="1" to-layer="1697" to-port="1"/>
		<edge from-layer="1697" from-port="2" to-layer="1702" to-port="0"/>
		<edge from-layer="1698" from-port="1" to-layer="1702" to-port="1"/>
		<edge from-layer="1699" from-port="1" to-layer="1702" to-port="2"/>
		<edge from-layer="1700" from-port="1" to-layer="1702" to-port="3"/>
		<edge from-layer="1701" from-port="1" to-layer="1702" to-port="4"/>
		<edge from-layer="1703" from-port="1" to-layer="1704" to-port="0"/>
		<edge from-layer="1704" from-port="1" to-layer="1709" to-port="0"/>
		<edge from-layer="1705" from-port="1" to-layer="1709" to-port="1"/>
		<edge from-layer="1706" from-port="1" to-layer="1709" to-port="2"/>
		<edge from-layer="1707" from-port="1" to-layer="1709" to-port="3"/>
		<edge from-layer="1708" from-port="1" to-layer="1709" to-port="4"/>
		<edge from-layer="1702" from-port="5" to-layer="1710" to-port="0"/>
		<edge from-layer="1709" from-port="5" to-layer="1710" to-port="1"/>
		<edge from-layer="1710" from-port="2" to-layer="1712" to-port="0"/>
		<edge from-layer="1711" from-port="1" to-layer="1712" to-port="1"/>
		<edge from-layer="1712" from-port="2" to-layer="1717" to-port="0"/>
		<edge from-layer="1713" from-port="1" to-layer="1717" to-port="1"/>
		<edge from-layer="1714" from-port="1" to-layer="1717" to-port="2"/>
		<edge from-layer="1715" from-port="1" to-layer="1717" to-port="3"/>
		<edge from-layer="1716" from-port="1" to-layer="1717" to-port="4"/>
		<edge from-layer="1666" from-port="5" to-layer="1718" to-port="0"/>
		<edge from-layer="1717" from-port="5" to-layer="1718" to-port="1"/>
		<edge from-layer="1718" from-port="2" to-layer="1720" to-port="0"/>
		<edge from-layer="1719" from-port="1" to-layer="1720" to-port="1"/>
		<edge from-layer="1720" from-port="2" to-layer="1725" to-port="0"/>
		<edge from-layer="1721" from-port="1" to-layer="1725" to-port="1"/>
		<edge from-layer="1722" from-port="1" to-layer="1725" to-port="2"/>
		<edge from-layer="1723" from-port="1" to-layer="1725" to-port="3"/>
		<edge from-layer="1724" from-port="1" to-layer="1725" to-port="4"/>
		<edge from-layer="1726" from-port="1" to-layer="1727" to-port="0"/>
		<edge from-layer="1727" from-port="1" to-layer="1732" to-port="0"/>
		<edge from-layer="1728" from-port="1" to-layer="1732" to-port="1"/>
		<edge from-layer="1729" from-port="1" to-layer="1732" to-port="2"/>
		<edge from-layer="1730" from-port="1" to-layer="1732" to-port="3"/>
		<edge from-layer="1731" from-port="1" to-layer="1732" to-port="4"/>
		<edge from-layer="1725" from-port="5" to-layer="1733" to-port="0"/>
		<edge from-layer="1732" from-port="5" to-layer="1733" to-port="1"/>
		<edge from-layer="1733" from-port="2" to-layer="1735" to-port="0"/>
		<edge from-layer="1734" from-port="1" to-layer="1735" to-port="1"/>
		<edge from-layer="1735" from-port="2" to-layer="1737" to-port="0"/>
		<edge from-layer="1736" from-port="1" to-layer="1737" to-port="1"/>
		<edge from-layer="1737" from-port="2" to-layer="1742" to-port="0"/>
		<edge from-layer="1738" from-port="1" to-layer="1742" to-port="1"/>
		<edge from-layer="1739" from-port="1" to-layer="1742" to-port="2"/>
		<edge from-layer="1740" from-port="1" to-layer="1742" to-port="3"/>
		<edge from-layer="1741" from-port="1" to-layer="1742" to-port="4"/>
		<edge from-layer="1743" from-port="1" to-layer="1744" to-port="0"/>
		<edge from-layer="1744" from-port="1" to-layer="1749" to-port="0"/>
		<edge from-layer="1745" from-port="1" to-layer="1749" to-port="1"/>
		<edge from-layer="1746" from-port="1" to-layer="1749" to-port="2"/>
		<edge from-layer="1747" from-port="1" to-layer="1749" to-port="3"/>
		<edge from-layer="1748" from-port="1" to-layer="1749" to-port="4"/>
		<edge from-layer="1749" from-port="5" to-layer="1751" to-port="0"/>
		<edge from-layer="1750" from-port="1" to-layer="1751" to-port="1"/>
		<edge from-layer="1742" from-port="5" to-layer="1752" to-port="0"/>
		<edge from-layer="1751" from-port="2" to-layer="1752" to-port="1"/>
		<edge from-layer="1752" from-port="2" to-layer="1754" to-port="0"/>
		<edge from-layer="1753" from-port="1" to-layer="1754" to-port="1"/>
		<edge from-layer="1754" from-port="2" to-layer="1756" to-port="0"/>
		<edge from-layer="1755" from-port="1" to-layer="1756" to-port="1"/>
		<edge from-layer="1756" from-port="2" to-layer="1761" to-port="0"/>
		<edge from-layer="1757" from-port="1" to-layer="1761" to-port="1"/>
		<edge from-layer="1758" from-port="1" to-layer="1761" to-port="2"/>
		<edge from-layer="1759" from-port="1" to-layer="1761" to-port="3"/>
		<edge from-layer="1760" from-port="1" to-layer="1761" to-port="4"/>
		<edge from-layer="1762" from-port="1" to-layer="1763" to-port="0"/>
		<edge from-layer="1763" from-port="1" to-layer="1768" to-port="0"/>
		<edge from-layer="1764" from-port="1" to-layer="1768" to-port="1"/>
		<edge from-layer="1765" from-port="1" to-layer="1768" to-port="2"/>
		<edge from-layer="1766" from-port="1" to-layer="1768" to-port="3"/>
		<edge from-layer="1767" from-port="1" to-layer="1768" to-port="4"/>
		<edge from-layer="1761" from-port="5" to-layer="1769" to-port="0"/>
		<edge from-layer="1768" from-port="5" to-layer="1769" to-port="1"/>
		<edge from-layer="1769" from-port="2" to-layer="1771" to-port="0"/>
		<edge from-layer="1770" from-port="1" to-layer="1771" to-port="1"/>
		<edge from-layer="1771" from-port="2" to-layer="1776" to-port="0"/>
		<edge from-layer="1772" from-port="1" to-layer="1776" to-port="1"/>
		<edge from-layer="1773" from-port="1" to-layer="1776" to-port="2"/>
		<edge from-layer="1774" from-port="1" to-layer="1776" to-port="3"/>
		<edge from-layer="1775" from-port="1" to-layer="1776" to-port="4"/>
		<edge from-layer="1725" from-port="5" to-layer="1777" to-port="0"/>
		<edge from-layer="1776" from-port="5" to-layer="1777" to-port="1"/>
		<edge from-layer="1777" from-port="2" to-layer="1779" to-port="0"/>
		<edge from-layer="1778" from-port="1" to-layer="1779" to-port="1"/>
		<edge from-layer="1779" from-port="2" to-layer="1784" to-port="0"/>
		<edge from-layer="1780" from-port="1" to-layer="1784" to-port="1"/>
		<edge from-layer="1781" from-port="1" to-layer="1784" to-port="2"/>
		<edge from-layer="1782" from-port="1" to-layer="1784" to-port="3"/>
		<edge from-layer="1783" from-port="1" to-layer="1784" to-port="4"/>
		<edge from-layer="1785" from-port="1" to-layer="1786" to-port="0"/>
		<edge from-layer="1786" from-port="1" to-layer="1791" to-port="0"/>
		<edge from-layer="1787" from-port="1" to-layer="1791" to-port="1"/>
		<edge from-layer="1788" from-port="1" to-layer="1791" to-port="2"/>
		<edge from-layer="1789" from-port="1" to-layer="1791" to-port="3"/>
		<edge from-layer="1790" from-port="1" to-layer="1791" to-port="4"/>
		<edge from-layer="1784" from-port="5" to-layer="1792" to-port="0"/>
		<edge from-layer="1791" from-port="5" to-layer="1792" to-port="1"/>
		<edge from-layer="1792" from-port="2" to-layer="1794" to-port="0"/>
		<edge from-layer="1793" from-port="1" to-layer="1794" to-port="1"/>
		<edge from-layer="1794" from-port="2" to-layer="1796" to-port="0"/>
		<edge from-layer="1795" from-port="1" to-layer="1796" to-port="1"/>
		<edge from-layer="1796" from-port="2" to-layer="1801" to-port="0"/>
		<edge from-layer="1797" from-port="1" to-layer="1801" to-port="1"/>
		<edge from-layer="1798" from-port="1" to-layer="1801" to-port="2"/>
		<edge from-layer="1799" from-port="1" to-layer="1801" to-port="3"/>
		<edge from-layer="1800" from-port="1" to-layer="1801" to-port="4"/>
		<edge from-layer="1802" from-port="1" to-layer="1803" to-port="0"/>
		<edge from-layer="1803" from-port="1" to-layer="1808" to-port="0"/>
		<edge from-layer="1804" from-port="1" to-layer="1808" to-port="1"/>
		<edge from-layer="1805" from-port="1" to-layer="1808" to-port="2"/>
		<edge from-layer="1806" from-port="1" to-layer="1808" to-port="3"/>
		<edge from-layer="1807" from-port="1" to-layer="1808" to-port="4"/>
		<edge from-layer="1808" from-port="5" to-layer="1810" to-port="0"/>
		<edge from-layer="1809" from-port="1" to-layer="1810" to-port="1"/>
		<edge from-layer="1801" from-port="5" to-layer="1811" to-port="0"/>
		<edge from-layer="1810" from-port="2" to-layer="1811" to-port="1"/>
		<edge from-layer="1811" from-port="2" to-layer="1813" to-port="0"/>
		<edge from-layer="1812" from-port="1" to-layer="1813" to-port="1"/>
		<edge from-layer="1813" from-port="2" to-layer="1815" to-port="0"/>
		<edge from-layer="1814" from-port="1" to-layer="1815" to-port="1"/>
		<edge from-layer="1815" from-port="2" to-layer="1820" to-port="0"/>
		<edge from-layer="1816" from-port="1" to-layer="1820" to-port="1"/>
		<edge from-layer="1817" from-port="1" to-layer="1820" to-port="2"/>
		<edge from-layer="1818" from-port="1" to-layer="1820" to-port="3"/>
		<edge from-layer="1819" from-port="1" to-layer="1820" to-port="4"/>
		<edge from-layer="1821" from-port="1" to-layer="1822" to-port="0"/>
		<edge from-layer="1822" from-port="1" to-layer="1827" to-port="0"/>
		<edge from-layer="1823" from-port="1" to-layer="1827" to-port="1"/>
		<edge from-layer="1824" from-port="1" to-layer="1827" to-port="2"/>
		<edge from-layer="1825" from-port="1" to-layer="1827" to-port="3"/>
		<edge from-layer="1826" from-port="1" to-layer="1827" to-port="4"/>
		<edge from-layer="1820" from-port="5" to-layer="1828" to-port="0"/>
		<edge from-layer="1827" from-port="5" to-layer="1828" to-port="1"/>
		<edge from-layer="1828" from-port="2" to-layer="1830" to-port="0"/>
		<edge from-layer="1829" from-port="1" to-layer="1830" to-port="1"/>
		<edge from-layer="1830" from-port="2" to-layer="1835" to-port="0"/>
		<edge from-layer="1831" from-port="1" to-layer="1835" to-port="1"/>
		<edge from-layer="1832" from-port="1" to-layer="1835" to-port="2"/>
		<edge from-layer="1833" from-port="1" to-layer="1835" to-port="3"/>
		<edge from-layer="1834" from-port="1" to-layer="1835" to-port="4"/>
		<edge from-layer="1784" from-port="5" to-layer="1836" to-port="0"/>
		<edge from-layer="1835" from-port="5" to-layer="1836" to-port="1"/>
		<edge from-layer="1836" from-port="2" to-layer="1838" to-port="0"/>
		<edge from-layer="1837" from-port="1" to-layer="1838" to-port="1"/>
		<edge from-layer="1838" from-port="2" to-layer="1843" to-port="0"/>
		<edge from-layer="1839" from-port="1" to-layer="1843" to-port="1"/>
		<edge from-layer="1840" from-port="1" to-layer="1843" to-port="2"/>
		<edge from-layer="1841" from-port="1" to-layer="1843" to-port="3"/>
		<edge from-layer="1842" from-port="1" to-layer="1843" to-port="4"/>
		<edge from-layer="1844" from-port="1" to-layer="1845" to-port="0"/>
		<edge from-layer="1845" from-port="1" to-layer="1850" to-port="0"/>
		<edge from-layer="1846" from-port="1" to-layer="1850" to-port="1"/>
		<edge from-layer="1847" from-port="1" to-layer="1850" to-port="2"/>
		<edge from-layer="1848" from-port="1" to-layer="1850" to-port="3"/>
		<edge from-layer="1849" from-port="1" to-layer="1850" to-port="4"/>
		<edge from-layer="1843" from-port="5" to-layer="1851" to-port="0"/>
		<edge from-layer="1850" from-port="5" to-layer="1851" to-port="1"/>
		<edge from-layer="1851" from-port="2" to-layer="1853" to-port="0"/>
		<edge from-layer="1852" from-port="1" to-layer="1853" to-port="1"/>
		<edge from-layer="1853" from-port="2" to-layer="1855" to-port="0"/>
		<edge from-layer="1854" from-port="1" to-layer="1855" to-port="1"/>
		<edge from-layer="1855" from-port="2" to-layer="1860" to-port="0"/>
		<edge from-layer="1856" from-port="1" to-layer="1860" to-port="1"/>
		<edge from-layer="1857" from-port="1" to-layer="1860" to-port="2"/>
		<edge from-layer="1858" from-port="1" to-layer="1860" to-port="3"/>
		<edge from-layer="1859" from-port="1" to-layer="1860" to-port="4"/>
		<edge from-layer="1861" from-port="1" to-layer="1862" to-port="0"/>
		<edge from-layer="1862" from-port="1" to-layer="1867" to-port="0"/>
		<edge from-layer="1863" from-port="1" to-layer="1867" to-port="1"/>
		<edge from-layer="1864" from-port="1" to-layer="1867" to-port="2"/>
		<edge from-layer="1865" from-port="1" to-layer="1867" to-port="3"/>
		<edge from-layer="1866" from-port="1" to-layer="1867" to-port="4"/>
		<edge from-layer="1867" from-port="5" to-layer="1869" to-port="0"/>
		<edge from-layer="1868" from-port="1" to-layer="1869" to-port="1"/>
		<edge from-layer="1860" from-port="5" to-layer="1870" to-port="0"/>
		<edge from-layer="1869" from-port="2" to-layer="1870" to-port="1"/>
		<edge from-layer="1870" from-port="2" to-layer="1872" to-port="0"/>
		<edge from-layer="1871" from-port="1" to-layer="1872" to-port="1"/>
		<edge from-layer="1872" from-port="2" to-layer="1874" to-port="0"/>
		<edge from-layer="1873" from-port="1" to-layer="1874" to-port="1"/>
		<edge from-layer="1874" from-port="2" to-layer="1879" to-port="0"/>
		<edge from-layer="1875" from-port="1" to-layer="1879" to-port="1"/>
		<edge from-layer="1876" from-port="1" to-layer="1879" to-port="2"/>
		<edge from-layer="1877" from-port="1" to-layer="1879" to-port="3"/>
		<edge from-layer="1878" from-port="1" to-layer="1879" to-port="4"/>
		<edge from-layer="1880" from-port="1" to-layer="1881" to-port="0"/>
		<edge from-layer="1881" from-port="1" to-layer="1886" to-port="0"/>
		<edge from-layer="1882" from-port="1" to-layer="1886" to-port="1"/>
		<edge from-layer="1883" from-port="1" to-layer="1886" to-port="2"/>
		<edge from-layer="1884" from-port="1" to-layer="1886" to-port="3"/>
		<edge from-layer="1885" from-port="1" to-layer="1886" to-port="4"/>
		<edge from-layer="1879" from-port="5" to-layer="1887" to-port="0"/>
		<edge from-layer="1886" from-port="5" to-layer="1887" to-port="1"/>
		<edge from-layer="1887" from-port="2" to-layer="1889" to-port="0"/>
		<edge from-layer="1888" from-port="1" to-layer="1889" to-port="1"/>
		<edge from-layer="1889" from-port="2" to-layer="1894" to-port="0"/>
		<edge from-layer="1890" from-port="1" to-layer="1894" to-port="1"/>
		<edge from-layer="1891" from-port="1" to-layer="1894" to-port="2"/>
		<edge from-layer="1892" from-port="1" to-layer="1894" to-port="3"/>
		<edge from-layer="1893" from-port="1" to-layer="1894" to-port="4"/>
		<edge from-layer="1843" from-port="5" to-layer="1895" to-port="0"/>
		<edge from-layer="1894" from-port="5" to-layer="1895" to-port="1"/>
		<edge from-layer="1895" from-port="2" to-layer="1897" to-port="0"/>
		<edge from-layer="1896" from-port="1" to-layer="1897" to-port="1"/>
		<edge from-layer="1897" from-port="2" to-layer="1902" to-port="0"/>
		<edge from-layer="1898" from-port="1" to-layer="1902" to-port="1"/>
		<edge from-layer="1899" from-port="1" to-layer="1902" to-port="2"/>
		<edge from-layer="1900" from-port="1" to-layer="1902" to-port="3"/>
		<edge from-layer="1901" from-port="1" to-layer="1902" to-port="4"/>
		<edge from-layer="1903" from-port="1" to-layer="1904" to-port="0"/>
		<edge from-layer="1904" from-port="1" to-layer="1909" to-port="0"/>
		<edge from-layer="1905" from-port="1" to-layer="1909" to-port="1"/>
		<edge from-layer="1906" from-port="1" to-layer="1909" to-port="2"/>
		<edge from-layer="1907" from-port="1" to-layer="1909" to-port="3"/>
		<edge from-layer="1908" from-port="1" to-layer="1909" to-port="4"/>
		<edge from-layer="1902" from-port="5" to-layer="1910" to-port="0"/>
		<edge from-layer="1909" from-port="5" to-layer="1910" to-port="1"/>
		<edge from-layer="1910" from-port="2" to-layer="1912" to-port="0"/>
		<edge from-layer="1911" from-port="1" to-layer="1912" to-port="1"/>
		<edge from-layer="1912" from-port="2" to-layer="1914" to-port="0"/>
		<edge from-layer="1913" from-port="1" to-layer="1914" to-port="1"/>
		<edge from-layer="1914" from-port="2" to-layer="1919" to-port="0"/>
		<edge from-layer="1915" from-port="1" to-layer="1919" to-port="1"/>
		<edge from-layer="1916" from-port="1" to-layer="1919" to-port="2"/>
		<edge from-layer="1917" from-port="1" to-layer="1919" to-port="3"/>
		<edge from-layer="1918" from-port="1" to-layer="1919" to-port="4"/>
		<edge from-layer="1920" from-port="1" to-layer="1921" to-port="0"/>
		<edge from-layer="1921" from-port="1" to-layer="1926" to-port="0"/>
		<edge from-layer="1922" from-port="1" to-layer="1926" to-port="1"/>
		<edge from-layer="1923" from-port="1" to-layer="1926" to-port="2"/>
		<edge from-layer="1924" from-port="1" to-layer="1926" to-port="3"/>
		<edge from-layer="1925" from-port="1" to-layer="1926" to-port="4"/>
		<edge from-layer="1926" from-port="5" to-layer="1928" to-port="0"/>
		<edge from-layer="1927" from-port="1" to-layer="1928" to-port="1"/>
		<edge from-layer="1919" from-port="5" to-layer="1929" to-port="0"/>
		<edge from-layer="1928" from-port="2" to-layer="1929" to-port="1"/>
		<edge from-layer="1929" from-port="2" to-layer="1931" to-port="0"/>
		<edge from-layer="1930" from-port="1" to-layer="1931" to-port="1"/>
		<edge from-layer="1931" from-port="2" to-layer="1933" to-port="0"/>
		<edge from-layer="1932" from-port="1" to-layer="1933" to-port="1"/>
		<edge from-layer="1933" from-port="2" to-layer="1938" to-port="0"/>
		<edge from-layer="1934" from-port="1" to-layer="1938" to-port="1"/>
		<edge from-layer="1935" from-port="1" to-layer="1938" to-port="2"/>
		<edge from-layer="1936" from-port="1" to-layer="1938" to-port="3"/>
		<edge from-layer="1937" from-port="1" to-layer="1938" to-port="4"/>
		<edge from-layer="1939" from-port="1" to-layer="1940" to-port="0"/>
		<edge from-layer="1940" from-port="1" to-layer="1945" to-port="0"/>
		<edge from-layer="1941" from-port="1" to-layer="1945" to-port="1"/>
		<edge from-layer="1942" from-port="1" to-layer="1945" to-port="2"/>
		<edge from-layer="1943" from-port="1" to-layer="1945" to-port="3"/>
		<edge from-layer="1944" from-port="1" to-layer="1945" to-port="4"/>
		<edge from-layer="1938" from-port="5" to-layer="1946" to-port="0"/>
		<edge from-layer="1945" from-port="5" to-layer="1946" to-port="1"/>
		<edge from-layer="1946" from-port="2" to-layer="1948" to-port="0"/>
		<edge from-layer="1947" from-port="1" to-layer="1948" to-port="1"/>
		<edge from-layer="1948" from-port="2" to-layer="1953" to-port="0"/>
		<edge from-layer="1949" from-port="1" to-layer="1953" to-port="1"/>
		<edge from-layer="1950" from-port="1" to-layer="1953" to-port="2"/>
		<edge from-layer="1951" from-port="1" to-layer="1953" to-port="3"/>
		<edge from-layer="1952" from-port="1" to-layer="1953" to-port="4"/>
		<edge from-layer="1902" from-port="5" to-layer="1954" to-port="0"/>
		<edge from-layer="1953" from-port="5" to-layer="1954" to-port="1"/>
		<edge from-layer="1954" from-port="2" to-layer="1956" to-port="0"/>
		<edge from-layer="1955" from-port="1" to-layer="1956" to-port="1"/>
		<edge from-layer="1956" from-port="2" to-layer="1961" to-port="0"/>
		<edge from-layer="1957" from-port="1" to-layer="1961" to-port="1"/>
		<edge from-layer="1958" from-port="1" to-layer="1961" to-port="2"/>
		<edge from-layer="1959" from-port="1" to-layer="1961" to-port="3"/>
		<edge from-layer="1960" from-port="1" to-layer="1961" to-port="4"/>
		<edge from-layer="1962" from-port="1" to-layer="1963" to-port="0"/>
		<edge from-layer="1963" from-port="1" to-layer="1968" to-port="0"/>
		<edge from-layer="1964" from-port="1" to-layer="1968" to-port="1"/>
		<edge from-layer="1965" from-port="1" to-layer="1968" to-port="2"/>
		<edge from-layer="1966" from-port="1" to-layer="1968" to-port="3"/>
		<edge from-layer="1967" from-port="1" to-layer="1968" to-port="4"/>
		<edge from-layer="1961" from-port="5" to-layer="1969" to-port="0"/>
		<edge from-layer="1968" from-port="5" to-layer="1969" to-port="1"/>
		<edge from-layer="1969" from-port="2" to-layer="1971" to-port="0"/>
		<edge from-layer="1970" from-port="1" to-layer="1971" to-port="1"/>
		<edge from-layer="1971" from-port="2" to-layer="1973" to-port="0"/>
		<edge from-layer="1972" from-port="1" to-layer="1973" to-port="1"/>
		<edge from-layer="1973" from-port="2" to-layer="1978" to-port="0"/>
		<edge from-layer="1974" from-port="1" to-layer="1978" to-port="1"/>
		<edge from-layer="1975" from-port="1" to-layer="1978" to-port="2"/>
		<edge from-layer="1976" from-port="1" to-layer="1978" to-port="3"/>
		<edge from-layer="1977" from-port="1" to-layer="1978" to-port="4"/>
		<edge from-layer="1979" from-port="1" to-layer="1980" to-port="0"/>
		<edge from-layer="1980" from-port="1" to-layer="1985" to-port="0"/>
		<edge from-layer="1981" from-port="1" to-layer="1985" to-port="1"/>
		<edge from-layer="1982" from-port="1" to-layer="1985" to-port="2"/>
		<edge from-layer="1983" from-port="1" to-layer="1985" to-port="3"/>
		<edge from-layer="1984" from-port="1" to-layer="1985" to-port="4"/>
		<edge from-layer="1985" from-port="5" to-layer="1987" to-port="0"/>
		<edge from-layer="1986" from-port="1" to-layer="1987" to-port="1"/>
		<edge from-layer="1978" from-port="5" to-layer="1988" to-port="0"/>
		<edge from-layer="1987" from-port="2" to-layer="1988" to-port="1"/>
		<edge from-layer="1988" from-port="2" to-layer="1990" to-port="0"/>
		<edge from-layer="1989" from-port="1" to-layer="1990" to-port="1"/>
		<edge from-layer="1990" from-port="2" to-layer="1992" to-port="0"/>
		<edge from-layer="1991" from-port="1" to-layer="1992" to-port="1"/>
		<edge from-layer="1992" from-port="2" to-layer="1997" to-port="0"/>
		<edge from-layer="1993" from-port="1" to-layer="1997" to-port="1"/>
		<edge from-layer="1994" from-port="1" to-layer="1997" to-port="2"/>
		<edge from-layer="1995" from-port="1" to-layer="1997" to-port="3"/>
		<edge from-layer="1996" from-port="1" to-layer="1997" to-port="4"/>
		<edge from-layer="1998" from-port="1" to-layer="1999" to-port="0"/>
		<edge from-layer="1999" from-port="1" to-layer="2004" to-port="0"/>
		<edge from-layer="2000" from-port="1" to-layer="2004" to-port="1"/>
		<edge from-layer="2001" from-port="1" to-layer="2004" to-port="2"/>
		<edge from-layer="2002" from-port="1" to-layer="2004" to-port="3"/>
		<edge from-layer="2003" from-port="1" to-layer="2004" to-port="4"/>
		<edge from-layer="1997" from-port="5" to-layer="2005" to-port="0"/>
		<edge from-layer="2004" from-port="5" to-layer="2005" to-port="1"/>
		<edge from-layer="2005" from-port="2" to-layer="2007" to-port="0"/>
		<edge from-layer="2006" from-port="1" to-layer="2007" to-port="1"/>
		<edge from-layer="2007" from-port="2" to-layer="2012" to-port="0"/>
		<edge from-layer="2008" from-port="1" to-layer="2012" to-port="1"/>
		<edge from-layer="2009" from-port="1" to-layer="2012" to-port="2"/>
		<edge from-layer="2010" from-port="1" to-layer="2012" to-port="3"/>
		<edge from-layer="2011" from-port="1" to-layer="2012" to-port="4"/>
		<edge from-layer="1961" from-port="5" to-layer="2013" to-port="0"/>
		<edge from-layer="2012" from-port="5" to-layer="2013" to-port="1"/>
		<edge from-layer="2013" from-port="2" to-layer="2015" to-port="0"/>
		<edge from-layer="2014" from-port="1" to-layer="2015" to-port="1"/>
		<edge from-layer="2015" from-port="2" to-layer="2020" to-port="0"/>
		<edge from-layer="2016" from-port="1" to-layer="2020" to-port="1"/>
		<edge from-layer="2017" from-port="1" to-layer="2020" to-port="2"/>
		<edge from-layer="2018" from-port="1" to-layer="2020" to-port="3"/>
		<edge from-layer="2019" from-port="1" to-layer="2020" to-port="4"/>
		<edge from-layer="2021" from-port="1" to-layer="2022" to-port="0"/>
		<edge from-layer="2022" from-port="1" to-layer="2027" to-port="0"/>
		<edge from-layer="2023" from-port="1" to-layer="2027" to-port="1"/>
		<edge from-layer="2024" from-port="1" to-layer="2027" to-port="2"/>
		<edge from-layer="2025" from-port="1" to-layer="2027" to-port="3"/>
		<edge from-layer="2026" from-port="1" to-layer="2027" to-port="4"/>
		<edge from-layer="2020" from-port="5" to-layer="2028" to-port="0"/>
		<edge from-layer="2027" from-port="5" to-layer="2028" to-port="1"/>
		<edge from-layer="2028" from-port="2" to-layer="2030" to-port="0"/>
		<edge from-layer="2029" from-port="1" to-layer="2030" to-port="1"/>
		<edge from-layer="2030" from-port="2" to-layer="2032" to-port="0"/>
		<edge from-layer="2031" from-port="1" to-layer="2032" to-port="1"/>
		<edge from-layer="2032" from-port="2" to-layer="2037" to-port="0"/>
		<edge from-layer="2033" from-port="1" to-layer="2037" to-port="1"/>
		<edge from-layer="2034" from-port="1" to-layer="2037" to-port="2"/>
		<edge from-layer="2035" from-port="1" to-layer="2037" to-port="3"/>
		<edge from-layer="2036" from-port="1" to-layer="2037" to-port="4"/>
		<edge from-layer="2038" from-port="1" to-layer="2039" to-port="0"/>
		<edge from-layer="2039" from-port="1" to-layer="2044" to-port="0"/>
		<edge from-layer="2040" from-port="1" to-layer="2044" to-port="1"/>
		<edge from-layer="2041" from-port="1" to-layer="2044" to-port="2"/>
		<edge from-layer="2042" from-port="1" to-layer="2044" to-port="3"/>
		<edge from-layer="2043" from-port="1" to-layer="2044" to-port="4"/>
		<edge from-layer="2044" from-port="5" to-layer="2046" to-port="0"/>
		<edge from-layer="2045" from-port="1" to-layer="2046" to-port="1"/>
		<edge from-layer="2037" from-port="5" to-layer="2047" to-port="0"/>
		<edge from-layer="2046" from-port="2" to-layer="2047" to-port="1"/>
		<edge from-layer="2047" from-port="2" to-layer="2049" to-port="0"/>
		<edge from-layer="2048" from-port="1" to-layer="2049" to-port="1"/>
		<edge from-layer="2049" from-port="2" to-layer="2051" to-port="0"/>
		<edge from-layer="2050" from-port="1" to-layer="2051" to-port="1"/>
		<edge from-layer="2051" from-port="2" to-layer="2056" to-port="0"/>
		<edge from-layer="2052" from-port="1" to-layer="2056" to-port="1"/>
		<edge from-layer="2053" from-port="1" to-layer="2056" to-port="2"/>
		<edge from-layer="2054" from-port="1" to-layer="2056" to-port="3"/>
		<edge from-layer="2055" from-port="1" to-layer="2056" to-port="4"/>
		<edge from-layer="2057" from-port="1" to-layer="2058" to-port="0"/>
		<edge from-layer="2058" from-port="1" to-layer="2063" to-port="0"/>
		<edge from-layer="2059" from-port="1" to-layer="2063" to-port="1"/>
		<edge from-layer="2060" from-port="1" to-layer="2063" to-port="2"/>
		<edge from-layer="2061" from-port="1" to-layer="2063" to-port="3"/>
		<edge from-layer="2062" from-port="1" to-layer="2063" to-port="4"/>
		<edge from-layer="2056" from-port="5" to-layer="2064" to-port="0"/>
		<edge from-layer="2063" from-port="5" to-layer="2064" to-port="1"/>
		<edge from-layer="2064" from-port="2" to-layer="2066" to-port="0"/>
		<edge from-layer="2065" from-port="1" to-layer="2066" to-port="1"/>
		<edge from-layer="2066" from-port="2" to-layer="2071" to-port="0"/>
		<edge from-layer="2067" from-port="1" to-layer="2071" to-port="1"/>
		<edge from-layer="2068" from-port="1" to-layer="2071" to-port="2"/>
		<edge from-layer="2069" from-port="1" to-layer="2071" to-port="3"/>
		<edge from-layer="2070" from-port="1" to-layer="2071" to-port="4"/>
		<edge from-layer="2020" from-port="5" to-layer="2072" to-port="0"/>
		<edge from-layer="2071" from-port="5" to-layer="2072" to-port="1"/>
		<edge from-layer="2072" from-port="2" to-layer="2074" to-port="0"/>
		<edge from-layer="2073" from-port="1" to-layer="2074" to-port="1"/>
		<edge from-layer="2074" from-port="2" to-layer="2079" to-port="0"/>
		<edge from-layer="2075" from-port="1" to-layer="2079" to-port="1"/>
		<edge from-layer="2076" from-port="1" to-layer="2079" to-port="2"/>
		<edge from-layer="2077" from-port="1" to-layer="2079" to-port="3"/>
		<edge from-layer="2078" from-port="1" to-layer="2079" to-port="4"/>
		<edge from-layer="2080" from-port="1" to-layer="2081" to-port="0"/>
		<edge from-layer="2081" from-port="1" to-layer="2086" to-port="0"/>
		<edge from-layer="2082" from-port="1" to-layer="2086" to-port="1"/>
		<edge from-layer="2083" from-port="1" to-layer="2086" to-port="2"/>
		<edge from-layer="2084" from-port="1" to-layer="2086" to-port="3"/>
		<edge from-layer="2085" from-port="1" to-layer="2086" to-port="4"/>
		<edge from-layer="2079" from-port="5" to-layer="2087" to-port="0"/>
		<edge from-layer="2086" from-port="5" to-layer="2087" to-port="1"/>
		<edge from-layer="2087" from-port="2" to-layer="2089" to-port="0"/>
		<edge from-layer="2088" from-port="1" to-layer="2089" to-port="1"/>
		<edge from-layer="2089" from-port="2" to-layer="2091" to-port="0"/>
		<edge from-layer="2090" from-port="1" to-layer="2091" to-port="1"/>
		<edge from-layer="2091" from-port="2" to-layer="2096" to-port="0"/>
		<edge from-layer="2092" from-port="1" to-layer="2096" to-port="1"/>
		<edge from-layer="2093" from-port="1" to-layer="2096" to-port="2"/>
		<edge from-layer="2094" from-port="1" to-layer="2096" to-port="3"/>
		<edge from-layer="2095" from-port="1" to-layer="2096" to-port="4"/>
		<edge from-layer="2097" from-port="1" to-layer="2098" to-port="0"/>
		<edge from-layer="2098" from-port="1" to-layer="2103" to-port="0"/>
		<edge from-layer="2099" from-port="1" to-layer="2103" to-port="1"/>
		<edge from-layer="2100" from-port="1" to-layer="2103" to-port="2"/>
		<edge from-layer="2101" from-port="1" to-layer="2103" to-port="3"/>
		<edge from-layer="2102" from-port="1" to-layer="2103" to-port="4"/>
		<edge from-layer="2103" from-port="5" to-layer="2105" to-port="0"/>
		<edge from-layer="2104" from-port="1" to-layer="2105" to-port="1"/>
		<edge from-layer="2096" from-port="5" to-layer="2106" to-port="0"/>
		<edge from-layer="2105" from-port="2" to-layer="2106" to-port="1"/>
		<edge from-layer="2106" from-port="2" to-layer="2108" to-port="0"/>
		<edge from-layer="2107" from-port="1" to-layer="2108" to-port="1"/>
		<edge from-layer="2108" from-port="2" to-layer="2110" to-port="0"/>
		<edge from-layer="2109" from-port="1" to-layer="2110" to-port="1"/>
		<edge from-layer="2110" from-port="2" to-layer="2115" to-port="0"/>
		<edge from-layer="2111" from-port="1" to-layer="2115" to-port="1"/>
		<edge from-layer="2112" from-port="1" to-layer="2115" to-port="2"/>
		<edge from-layer="2113" from-port="1" to-layer="2115" to-port="3"/>
		<edge from-layer="2114" from-port="1" to-layer="2115" to-port="4"/>
		<edge from-layer="2116" from-port="1" to-layer="2117" to-port="0"/>
		<edge from-layer="2117" from-port="1" to-layer="2122" to-port="0"/>
		<edge from-layer="2118" from-port="1" to-layer="2122" to-port="1"/>
		<edge from-layer="2119" from-port="1" to-layer="2122" to-port="2"/>
		<edge from-layer="2120" from-port="1" to-layer="2122" to-port="3"/>
		<edge from-layer="2121" from-port="1" to-layer="2122" to-port="4"/>
		<edge from-layer="2115" from-port="5" to-layer="2123" to-port="0"/>
		<edge from-layer="2122" from-port="5" to-layer="2123" to-port="1"/>
		<edge from-layer="2123" from-port="2" to-layer="2125" to-port="0"/>
		<edge from-layer="2124" from-port="1" to-layer="2125" to-port="1"/>
		<edge from-layer="2125" from-port="2" to-layer="2130" to-port="0"/>
		<edge from-layer="2126" from-port="1" to-layer="2130" to-port="1"/>
		<edge from-layer="2127" from-port="1" to-layer="2130" to-port="2"/>
		<edge from-layer="2128" from-port="1" to-layer="2130" to-port="3"/>
		<edge from-layer="2129" from-port="1" to-layer="2130" to-port="4"/>
		<edge from-layer="2079" from-port="5" to-layer="2131" to-port="0"/>
		<edge from-layer="2130" from-port="5" to-layer="2131" to-port="1"/>
		<edge from-layer="2131" from-port="2" to-layer="2133" to-port="0"/>
		<edge from-layer="2132" from-port="1" to-layer="2133" to-port="1"/>
		<edge from-layer="2133" from-port="2" to-layer="2138" to-port="0"/>
		<edge from-layer="2134" from-port="1" to-layer="2138" to-port="1"/>
		<edge from-layer="2135" from-port="1" to-layer="2138" to-port="2"/>
		<edge from-layer="2136" from-port="1" to-layer="2138" to-port="3"/>
		<edge from-layer="2137" from-port="1" to-layer="2138" to-port="4"/>
		<edge from-layer="2139" from-port="1" to-layer="2140" to-port="0"/>
		<edge from-layer="2140" from-port="1" to-layer="2145" to-port="0"/>
		<edge from-layer="2141" from-port="1" to-layer="2145" to-port="1"/>
		<edge from-layer="2142" from-port="1" to-layer="2145" to-port="2"/>
		<edge from-layer="2143" from-port="1" to-layer="2145" to-port="3"/>
		<edge from-layer="2144" from-port="1" to-layer="2145" to-port="4"/>
		<edge from-layer="2138" from-port="5" to-layer="2146" to-port="0"/>
		<edge from-layer="2145" from-port="5" to-layer="2146" to-port="1"/>
		<edge from-layer="2146" from-port="2" to-layer="2148" to-port="0"/>
		<edge from-layer="2147" from-port="1" to-layer="2148" to-port="1"/>
		<edge from-layer="2148" from-port="2" to-layer="2150" to-port="0"/>
		<edge from-layer="2149" from-port="1" to-layer="2150" to-port="1"/>
		<edge from-layer="2150" from-port="2" to-layer="2155" to-port="0"/>
		<edge from-layer="2151" from-port="1" to-layer="2155" to-port="1"/>
		<edge from-layer="2152" from-port="1" to-layer="2155" to-port="2"/>
		<edge from-layer="2153" from-port="1" to-layer="2155" to-port="3"/>
		<edge from-layer="2154" from-port="1" to-layer="2155" to-port="4"/>
		<edge from-layer="2156" from-port="1" to-layer="2157" to-port="0"/>
		<edge from-layer="2157" from-port="1" to-layer="2162" to-port="0"/>
		<edge from-layer="2158" from-port="1" to-layer="2162" to-port="1"/>
		<edge from-layer="2159" from-port="1" to-layer="2162" to-port="2"/>
		<edge from-layer="2160" from-port="1" to-layer="2162" to-port="3"/>
		<edge from-layer="2161" from-port="1" to-layer="2162" to-port="4"/>
		<edge from-layer="2162" from-port="5" to-layer="2164" to-port="0"/>
		<edge from-layer="2163" from-port="1" to-layer="2164" to-port="1"/>
		<edge from-layer="2155" from-port="5" to-layer="2165" to-port="0"/>
		<edge from-layer="2164" from-port="2" to-layer="2165" to-port="1"/>
		<edge from-layer="2165" from-port="2" to-layer="2167" to-port="0"/>
		<edge from-layer="2166" from-port="1" to-layer="2167" to-port="1"/>
		<edge from-layer="2167" from-port="2" to-layer="2169" to-port="0"/>
		<edge from-layer="2168" from-port="1" to-layer="2169" to-port="1"/>
		<edge from-layer="2169" from-port="2" to-layer="2174" to-port="0"/>
		<edge from-layer="2170" from-port="1" to-layer="2174" to-port="1"/>
		<edge from-layer="2171" from-port="1" to-layer="2174" to-port="2"/>
		<edge from-layer="2172" from-port="1" to-layer="2174" to-port="3"/>
		<edge from-layer="2173" from-port="1" to-layer="2174" to-port="4"/>
		<edge from-layer="2175" from-port="1" to-layer="2176" to-port="0"/>
		<edge from-layer="2176" from-port="1" to-layer="2181" to-port="0"/>
		<edge from-layer="2177" from-port="1" to-layer="2181" to-port="1"/>
		<edge from-layer="2178" from-port="1" to-layer="2181" to-port="2"/>
		<edge from-layer="2179" from-port="1" to-layer="2181" to-port="3"/>
		<edge from-layer="2180" from-port="1" to-layer="2181" to-port="4"/>
		<edge from-layer="2174" from-port="5" to-layer="2182" to-port="0"/>
		<edge from-layer="2181" from-port="5" to-layer="2182" to-port="1"/>
		<edge from-layer="2182" from-port="2" to-layer="2184" to-port="0"/>
		<edge from-layer="2183" from-port="1" to-layer="2184" to-port="1"/>
		<edge from-layer="2184" from-port="2" to-layer="2189" to-port="0"/>
		<edge from-layer="2185" from-port="1" to-layer="2189" to-port="1"/>
		<edge from-layer="2186" from-port="1" to-layer="2189" to-port="2"/>
		<edge from-layer="2187" from-port="1" to-layer="2189" to-port="3"/>
		<edge from-layer="2188" from-port="1" to-layer="2189" to-port="4"/>
		<edge from-layer="2138" from-port="5" to-layer="2190" to-port="0"/>
		<edge from-layer="2189" from-port="5" to-layer="2190" to-port="1"/>
		<edge from-layer="2190" from-port="2" to-layer="2192" to-port="0"/>
		<edge from-layer="2191" from-port="1" to-layer="2192" to-port="1"/>
		<edge from-layer="2192" from-port="2" to-layer="2197" to-port="0"/>
		<edge from-layer="2193" from-port="1" to-layer="2197" to-port="1"/>
		<edge from-layer="2194" from-port="1" to-layer="2197" to-port="2"/>
		<edge from-layer="2195" from-port="1" to-layer="2197" to-port="3"/>
		<edge from-layer="2196" from-port="1" to-layer="2197" to-port="4"/>
		<edge from-layer="2198" from-port="1" to-layer="2199" to-port="0"/>
		<edge from-layer="2199" from-port="1" to-layer="2204" to-port="0"/>
		<edge from-layer="2200" from-port="1" to-layer="2204" to-port="1"/>
		<edge from-layer="2201" from-port="1" to-layer="2204" to-port="2"/>
		<edge from-layer="2202" from-port="1" to-layer="2204" to-port="3"/>
		<edge from-layer="2203" from-port="1" to-layer="2204" to-port="4"/>
		<edge from-layer="2197" from-port="5" to-layer="2205" to-port="0"/>
		<edge from-layer="2204" from-port="5" to-layer="2205" to-port="1"/>
		<edge from-layer="2205" from-port="2" to-layer="2207" to-port="0"/>
		<edge from-layer="2206" from-port="1" to-layer="2207" to-port="1"/>
		<edge from-layer="2207" from-port="2" to-layer="2209" to-port="0"/>
		<edge from-layer="2208" from-port="1" to-layer="2209" to-port="1"/>
		<edge from-layer="2209" from-port="2" to-layer="2211" to-port="0"/>
		<edge from-layer="2210" from-port="1" to-layer="2211" to-port="1"/>
		<edge from-layer="2212" from-port="1" to-layer="2213" to-port="0"/>
		<edge from-layer="2213" from-port="1" to-layer="2218" to-port="0"/>
		<edge from-layer="2214" from-port="1" to-layer="2218" to-port="1"/>
		<edge from-layer="2215" from-port="1" to-layer="2218" to-port="2"/>
		<edge from-layer="2216" from-port="1" to-layer="2218" to-port="3"/>
		<edge from-layer="2217" from-port="1" to-layer="2218" to-port="4"/>
		<edge from-layer="2197" from-port="5" to-layer="2219" to-port="0"/>
		<edge from-layer="2218" from-port="5" to-layer="2219" to-port="1"/>
		<edge from-layer="2219" from-port="2" to-layer="2221" to-port="0"/>
		<edge from-layer="2220" from-port="1" to-layer="2221" to-port="1"/>
		<edge from-layer="2221" from-port="2" to-layer="2223" to-port="0"/>
		<edge from-layer="2222" from-port="1" to-layer="2223" to-port="1"/>
		<edge from-layer="2223" from-port="2" to-layer="2225" to-port="0"/>
		<edge from-layer="2224" from-port="1" to-layer="2225" to-port="1"/>
		<edge from-layer="2225" from-port="2" to-layer="2227" to-port="0"/>
		<edge from-layer="2226" from-port="1" to-layer="2227" to-port="1"/>
		<edge from-layer="2227" from-port="2" to-layer="2228" to-port="0"/>
		<edge from-layer="2228" from-port="1" to-layer="2230" to-port="0"/>
		<edge from-layer="2229" from-port="1" to-layer="2230" to-port="1"/>
		<edge from-layer="2192" from-port="2" to-layer="2231" to-port="0"/>
		<edge from-layer="2231" from-port="1" to-layer="2232" to-port="0"/>
		<edge from-layer="2232" from-port="1" to-layer="2236" to-port="0"/>
		<edge from-layer="2233" from-port="1" to-layer="2236" to-port="1"/>
		<edge from-layer="2234" from-port="1" to-layer="2236" to-port="2"/>
		<edge from-layer="2235" from-port="1" to-layer="2236" to-port="3"/>
		<edge from-layer="2236" from-port="4" to-layer="2237" to-port="0"/>
		<edge from-layer="0" from-port="0" to-layer="2238" to-port="0"/>
		<edge from-layer="2238" from-port="1" to-layer="2239" to-port="0"/>
		<edge from-layer="2239" from-port="1" to-layer="2243" to-port="0"/>
		<edge from-layer="2240" from-port="1" to-layer="2243" to-port="1"/>
		<edge from-layer="2241" from-port="1" to-layer="2243" to-port="2"/>
		<edge from-layer="2242" from-port="1" to-layer="2243" to-port="3"/>
		<edge from-layer="2243" from-port="4" to-layer="2244" to-port="0"/>
		<edge from-layer="2237" from-port="1" to-layer="2245" to-port="0"/>
		<edge from-layer="2244" from-port="1" to-layer="2245" to-port="1"/>
		<edge from-layer="2245" from-port="2" to-layer="2247" to-port="0"/>
		<edge from-layer="2246" from-port="1" to-layer="2247" to-port="1"/>
		<edge from-layer="2211" from-port="2" to-layer="2248" to-port="0"/>
		<edge from-layer="2230" from-port="2" to-layer="2248" to-port="1"/>
		<edge from-layer="2247" from-port="2" to-layer="2248" to-port="2"/>
		<edge from-layer="2248" from-port="3" to-layer="2249" to-port="0"/>
	</edges>
	<meta_data>
		<MO_version value="unknown version"/>
		<cli_parameters>
			<blobs_as_inputs value="True"/>
			<caffe_parser_path value="DIR"/>
			<data_type value="FP16"/>
			<disable_nhwc_to_nchw value="False"/>
			<disable_omitting_optional value="False"/>
			<disable_resnet_optimization value="False"/>
			<disable_weights_compression value="False"/>
			<enable_concat_optimization value="False"/>
			<enable_flattening_nested_params value="False"/>
			<enable_ssd_gluoncv value="False"/>
			<extensions value="DIR"/>
			<framework value="caffe"/>
			<freeze_placeholder_with_value value="{}"/>
			<generate_deprecated_IR_V2 value="False"/>
			<generate_deprecated_IR_V7 value="False"/>
			<generate_experimental_IR_V10 value="True"/>
			<input value="data"/>
			<input_model value="DIR/rmnet_lrelu_pd_ssd.caffemodel"/>
			<input_model_is_text value="False"/>
			<input_proto value="DIR/rmnet_lrelu_pd_ssd.prototxt"/>
			<input_shape value="[1,3,320,544]"/>
			<k value="DIR/CustomLayersMapping.xml"/>
			<keep_quantize_ops_in_IR value="True"/>
			<keep_shape_ops value="True"/>
			<legacy_mxnet_model value="False"/>
			<log_level value="ERROR"/>
			<mean_scale_values value="{}"/>
			<mean_values value="()"/>
			<model_name value="person-detection-retail-0013"/>
			<move_to_preprocess value="False"/>
			<output value="['detection_out']"/>
			<output_dir value="DIR"/>
			<placeholder_data_types value="{}"/>
			<placeholder_shapes value="{'data': array([  1,   3, 320, 544])}"/>
			<progress value="False"/>
			<remove_memory value="False"/>
			<remove_output_softmax value="False"/>
			<reverse_input_channels value="False"/>
			<save_params_from_nd value="False"/>
			<scale_values value="()"/>
			<silent value="False"/>
			<stream_output value="False"/>
			<unset unset_cli_parameters="batch, counts, disable_fusing, disable_gfusing, finegrain_fusing, input_checkpoint, input_meta_graph, input_symbol, mean_file, mean_file_offsets, nd_prefix_name, pretrained_model_name, saved_model_dir, saved_model_tags, scale, tensorboard_logdir, tensorflow_custom_layer_libraries, tensorflow_custom_operations_config_update, tensorflow_object_detection_api_pipeline_config, tensorflow_use_custom_operations_config, transformations_config"/>
		</cli_parameters>
	</meta_data>
	<quantization_parameters>
		<config>{
		'compression': {
			'algorithms': [
				{
					'name': 'DefaultQuantization',
					'params': {
						'preset': 'performance',
						'stat_subset_size': 300
					}
				}
			],
			'target_device': 'CPU'
		},
		'engine': {
			'models': [
				{
					'name': 'person-detection-retail-0013',
					'launchers': [
						{
							'framework': 'dlsdk',
							'tags': [
								'FP32'
							],
							'model': 'PATH',
							'weights': 'PATH',
							'adapter': 'ssd',
							'device': 'CPU'
						}
					],
					'datasets': [
						{
							'name': 'person_detection',
							'data_source': 'PATH',
							'annotation_conversion': {
								'converter': 'datatang_street_subway',
								'annotation_file': 'PATH'
							},
							'annotation': 'datatang_street_subway.pickle',
							'dataset_meta': 'datatang_street_subway.json',
							'preprocessing': [
								{
									'type': 'resize',
									'dst_width': 544,
									'dst_height': 320
								}
							],
							'postprocessing': [
								{
									'type': 'resize_prediction_boxes'
								},
								{
									'type': 'filter',
									'apply_to': 'annotation',
									'height_range': 100,
									'aspect_ratio': '0.666, 5',
									'is_empty': true,
									'min_visibility': 'partially occluded'
								},
								{
									'type': 'filter',
									'apply_to': 'prediction',
									'height_range': 100,
									'is_empty': true,
									'aspect_ratio': '0.666, 5'
								}
							],
							'metrics': [
								{
									'type': 'map',
									'ignore_difficult': true,
									'include_boundaries': true,
									'allow_multiple_matches_per_ignored': false,
									'distinct_conf': false
								}
							]
						}
					]
				},
				{
					'name': 'person-detection-retail-0013',
					'launchers': [
						{
							'framework': 'dlsdk',
							'tags': [
								'FP16'
							],
							'model': 'PATH',
							'weights': 'PATH',
							'adapter': 'ssd',
							'device': 'CPU'
						}
					],
					'datasets': [
						{
							'name': 'person_detection',
							'data_source': 'PATH',
							'annotation_conversion': {
								'converter': 'datatang_street_subway',
								'annotation_file': 'PATH'
							},
							'annotation': 'datatang_street_subway.pickle',
							'dataset_meta': 'datatang_street_subway.json',
							'preprocessing': [
								{
									'type': 'resize',
									'dst_width': 544,
									'dst_height': 320
								}
							],
							'postprocessing': [
								{
									'type': 'resize_prediction_boxes'
								},
								{
									'type': 'filter',
									'apply_to': 'annotation',
									'height_range': 100,
									'aspect_ratio': '0.666, 5',
									'is_empty': true,
									'min_visibility': 'partially occluded'
								},
								{
									'type': 'filter',
									'apply_to': 'prediction',
									'height_range': 100,
									'is_empty': true,
									'aspect_ratio': '0.666, 5'
								}
							],
							'metrics': [
								{
									'type': 'map',
									'ignore_difficult': true,
									'include_boundaries': true,
									'allow_multiple_matches_per_ignored': false,
									'distinct_conf': false
								}
							]
						}
					]
				},
				{
					'name': 'person-detection-retail-0013',
					'launchers': [
						{
							'framework': 'dlsdk',
							'tags': [
								'FP16-INT8'
							],
							'model': 'PATH',
							'weights': 'PATH',
							'adapter': 'ssd',
							'device': 'CPU'
						}
					],
					'datasets': [
						{
							'name': 'person_detection',
							'data_source': 'PATH',
							'annotation_conversion': {
								'converter': 'datatang_street_subway',
								'annotation_file': 'PATH'
							},
							'annotation': 'datatang_street_subway.pickle',
							'dataset_meta': 'datatang_street_subway.json',
							'preprocessing': [
								{
									'type': 'resize',
									'dst_width': 544,
									'dst_height': 320
								}
							],
							'postprocessing': [
								{
									'type': 'resize_prediction_boxes'
								},
								{
									'type': 'filter',
									'apply_to': 'annotation',
									'height_range': 100,
									'aspect_ratio': '0.666, 5',
									'is_empty': true,
									'min_visibility': 'partially occluded'
								},
								{
									'type': 'filter',
									'apply_to': 'prediction',
									'height_range': 100,
									'is_empty': true,
									'aspect_ratio': '0.666, 5'
								}
							],
							'metrics': [
								{
									'type': 'map',
									'ignore_difficult': true,
									'include_boundaries': true,
									'allow_multiple_matches_per_ignored': false,
									'distinct_conf': false
								}
							]
						}
					]
				}
			],
			'global_definitions': '../dataset_definitions.yml',
			'stat_requests_number': null,
			'eval_requests_number': null,
			'type': 'accuracy_checker'
		}
	}</config>
		<version value="1.0"/>
		<cli_params value="{'evaluate': False, 'output_dir': 'PATH', 'direct_dump': True, 'log_level': 'INFO', 'pbar': False, 'keep_uncompressed_weights': False}"/>
	</quantization_parameters>
</net>
