<?xml version="1.0" ?>
<net name="person-reidentification-retail-0277" version="10">
	<layers>
		<layer id="0" name="data" type="Parameter" version="opset1">
			<data element_type="f16" shape="1,3,256,128"/>
			<output>
				<port id="0" precision="FP16">
					<dim>1</dim>
					<dim>3</dim>
					<dim>256</dim>
					<dim>128</dim>
				</port>
			</output>
		</layer>
		<layer id="1" name="data/reverse_input_channels3684336847/Split_input_port_1/value36877_const1104_const" type="Const" version="opset1">
			<data element_type="i64" offset="0" shape="" size="8"/>
			<output>
				<port id="1" precision="I64"/>
			</output>
		</layer>
		<layer id="2" name="data/reverse_input_channels3684336847/Split" type="Split" version="opset1">
			<data num_splits="3"/>
			<input>
				<port id="0">
					<dim>1</dim>
					<dim>3</dim>
					<dim>256</dim>
					<dim>128</dim>
				</port>
				<port id="1"/>
			</input>
			<output>
				<port id="2" precision="FP16">
					<dim>1</dim>
					<dim>1</dim>
					<dim>256</dim>
					<dim>128</dim>
				</port>
				<port id="3" precision="FP16">
					<dim>1</dim>
					<dim>1</dim>
					<dim>256</dim>
					<dim>128</dim>
				</port>
				<port id="4" precision="FP16">
					<dim>1</dim>
					<dim>1</dim>
					<dim>256</dim>
					<dim>128</dim>
				</port>
			</output>
		</layer>
		<layer id="3" name="data/reverse_input_channels3684336847/Concat" type="Concat" version="opset1">
			<data axis="1"/>
			<input>
				<port id="0">
					<dim>1</dim>
					<dim>1</dim>
					<dim>256</dim>
					<dim>128</dim>
				</port>
				<port id="1">
					<dim>1</dim>
					<dim>1</dim>
					<dim>256</dim>
					<dim>128</dim>
				</port>
				<port id="2">
					<dim>1</dim>
					<dim>1</dim>
					<dim>256</dim>
					<dim>128</dim>
				</port>
			</input>
			<output>
				<port id="3" precision="FP16">
					<dim>1</dim>
					<dim>3</dim>
					<dim>256</dim>
					<dim>128</dim>
				</port>
			</output>
		</layer>
		<layer id="4" name="data/reverse_input_channels3684336849/Concat36890_const1109_const" type="Const" version="opset1">
			<data element_type="f16" offset="8" shape="1,3,1,1" size="6"/>
			<output>
				<port id="1" precision="FP16">
					<dim>1</dim>
					<dim>3</dim>
					<dim>1</dim>
					<dim>1</dim>
				</port>
			</output>
		</layer>
		<layer id="5" name="Mul_/Fused_Mul_" type="Multiply" version="opset1">
			<input>
				<port id="0">
					<dim>1</dim>
					<dim>3</dim>
					<dim>256</dim>
					<dim>128</dim>
				</port>
				<port id="1">
					<dim>1</dim>
					<dim>3</dim>
					<dim>1</dim>
					<dim>1</dim>
				</port>
			</input>
			<output>
				<port id="2" precision="FP16">
					<dim>1</dim>
					<dim>3</dim>
					<dim>256</dim>
					<dim>128</dim>
				</port>
			</output>
		</layer>
		<layer id="6" name="data/reverse_input_channels36845/Concat36874_const1111_const" type="Const" version="opset1">
			<data element_type="f16" offset="14" shape="1,3,1,1" size="6"/>
			<output>
				<port id="1" precision="FP16">
					<dim>1</dim>
					<dim>3</dim>
					<dim>1</dim>
					<dim>1</dim>
				</port>
			</output>
		</layer>
		<layer id="7" name="Add_/Fused_Add_" type="Add" version="opset1">
			<input>
				<port id="0">
					<dim>1</dim>
					<dim>3</dim>
					<dim>256</dim>
					<dim>128</dim>
				</port>
				<port id="1">
					<dim>1</dim>
					<dim>3</dim>
					<dim>1</dim>
					<dim>1</dim>
				</port>
			</input>
			<output>
				<port id="2" precision="FP16">
					<dim>1</dim>
					<dim>3</dim>
					<dim>256</dim>
					<dim>128</dim>
				</port>
			</output>
		</layer>
		<layer id="8" name="63556359_const" type="Const" version="opset1">
			<data element_type="f16" offset="20" shape="" size="2"/>
			<output>
				<port id="1" precision="FP16"/>
			</output>
		</layer>
		<layer id="9" name="63566360_const" type="Const" version="opset1">
			<data element_type="f16" offset="22" shape="" size="2"/>
			<output>
				<port id="1" precision="FP16"/>
			</output>
		</layer>
		<layer id="10" name="63576361_const" type="Const" version="opset1">
			<data element_type="f16" offset="20" shape="" size="2"/>
			<output>
				<port id="1" precision="FP16"/>
			</output>
		</layer>
		<layer id="11" name="63586362_const" type="Const" version="opset1">
			<data element_type="f16" offset="22" shape="" size="2"/>
			<output>
				<port id="1" precision="FP16"/>
			</output>
		</layer>
		<layer id="12" name="563/Ins_Norm/MVN_/fq_input_0" type="FakeQuantize" version="opset1">
			<data levels="256"/>
			<input>
				<port id="0">
					<dim>1</dim>
					<dim>3</dim>
					<dim>256</dim>
					<dim>128</dim>
				</port>
				<port id="1"/>
				<port id="2"/>
				<port id="3"/>
				<port id="4"/>
			</input>
			<output>
				<port id="5" precision="FP16">
					<dim>1</dim>
					<dim>3</dim>
					<dim>256</dim>
					<dim>128</dim>
				</port>
			</output>
		</layer>
		<layer id="13" name="563/Ins_Norm/MVN_" type="MVN" version="opset2">
			<data across_channels="0" eps="9.999999747378752e-06" normalize_variance="1"/>
			<input>
				<port id="0">
					<dim>1</dim>
					<dim>3</dim>
					<dim>256</dim>
					<dim>128</dim>
				</port>
			</input>
			<output>
				<port id="1" precision="FP16">
					<dim>1</dim>
					<dim>3</dim>
					<dim>256</dim>
					<dim>128</dim>
				</port>
			</output>
		</layer>
		<layer id="14" name="onnx_initializer_node_in_first.weight/Output_0/Data_/copy/copy_const1114_const" type="Const" version="opset1">
			<data element_type="f16" offset="24" shape="1,3,1,1" size="6"/>
			<output>
				<port id="1" precision="FP16">
					<dim>1</dim>
					<dim>3</dim>
					<dim>1</dim>
					<dim>1</dim>
				</port>
			</output>
		</layer>
		<layer id="15" name="563/Ins_Norm/mul_" type="Multiply" version="opset1">
			<input>
				<port id="0">
					<dim>1</dim>
					<dim>3</dim>
					<dim>256</dim>
					<dim>128</dim>
				</port>
				<port id="1">
					<dim>1</dim>
					<dim>3</dim>
					<dim>1</dim>
					<dim>1</dim>
				</port>
			</input>
			<output>
				<port id="2" precision="FP16">
					<dim>1</dim>
					<dim>3</dim>
					<dim>256</dim>
					<dim>128</dim>
				</port>
			</output>
		</layer>
		<layer id="16" name="onnx_initializer_node_in_first.bias/Output_0/Data_/copy/copy_const1116_const" type="Const" version="opset1">
			<data element_type="f16" offset="30" shape="1,3,1,1" size="6"/>
			<output>
				<port id="1" precision="FP16">
					<dim>1</dim>
					<dim>3</dim>
					<dim>1</dim>
					<dim>1</dim>
				</port>
			</output>
		</layer>
		<layer id="17" name="563/Ins_Norm/add_" type="Add" version="opset1">
			<input>
				<port id="0">
					<dim>1</dim>
					<dim>3</dim>
					<dim>256</dim>
					<dim>128</dim>
				</port>
				<port id="1">
					<dim>1</dim>
					<dim>3</dim>
					<dim>1</dim>
					<dim>1</dim>
				</port>
			</input>
			<output>
				<port id="2" precision="FP16">
					<dim>1</dim>
					<dim>3</dim>
					<dim>256</dim>
					<dim>128</dim>
				</port>
			</output>
		</layer>
		<layer id="18" name="50455049_const" type="Const" version="opset1">
			<data element_type="f16" offset="36" shape="" size="2"/>
			<output>
				<port id="1" precision="FP16"/>
			</output>
		</layer>
		<layer id="19" name="50465050_const" type="Const" version="opset1">
			<data element_type="f16" offset="38" shape="" size="2"/>
			<output>
				<port id="1" precision="FP16"/>
			</output>
		</layer>
		<layer id="20" name="50475051_const" type="Const" version="opset1">
			<data element_type="f16" offset="36" shape="" size="2"/>
			<output>
				<port id="1" precision="FP16"/>
			</output>
		</layer>
		<layer id="21" name="50485052_const" type="Const" version="opset1">
			<data element_type="f16" offset="38" shape="" size="2"/>
			<output>
				<port id="1" precision="FP16"/>
			</output>
		</layer>
		<layer id="22" name="564/fq_input_0" type="FakeQuantize" version="opset1">
			<data levels="256"/>
			<input>
				<port id="0">
					<dim>1</dim>
					<dim>3</dim>
					<dim>256</dim>
					<dim>128</dim>
				</port>
				<port id="1"/>
				<port id="2"/>
				<port id="3"/>
				<port id="4"/>
			</input>
			<output>
				<port id="5" precision="FP16">
					<dim>1</dim>
					<dim>3</dim>
					<dim>256</dim>
					<dim>128</dim>
				</port>
			</output>
		</layer>
		<layer id="23" name="564/fq_weights_1/Convert_to_float/Cast_020076_const" type="Const" version="opset1">
			<data element_type="u8" offset="40" shape="64,3,7,7" size="9408"/>
			<output>
				<port id="1" precision="U8">
					<dim>64</dim>
					<dim>3</dim>
					<dim>7</dim>
					<dim>7</dim>
				</port>
			</output>
		</layer>
		<layer id="24" name="564/fq_weights_1/Convert_to_float" type="Convert" version="opset1">
			<data destination_type="f16"/>
			<input>
				<port id="0">
					<dim>64</dim>
					<dim>3</dim>
					<dim>7</dim>
					<dim>7</dim>
				</port>
			</input>
			<output>
				<port id="1" precision="FP16">
					<dim>64</dim>
					<dim>3</dim>
					<dim>7</dim>
					<dim>7</dim>
				</port>
			</output>
		</layer>
		<layer id="25" name="564/fq_weights_1/Copy/out_low17781_const" type="Const" version="opset1">
			<data element_type="f16" offset="9448" shape="1" size="2"/>
			<output>
				<port id="1" precision="FP16">
					<dim>1</dim>
				</port>
			</output>
		</layer>
		<layer id="26" name="564/fq_weights_1/Copy/out_high17782_const" type="Const" version="opset1">
			<data element_type="f16" offset="9450" shape="1" size="2"/>
			<output>
				<port id="1" precision="FP16">
					<dim>1</dim>
				</port>
			</output>
		</layer>
		<layer id="27" name="50575061_const" type="Const" version="opset1">
			<data element_type="f16" offset="9452" shape="64,1,1,1" size="128"/>
			<output>
				<port id="1" precision="FP16">
					<dim>64</dim>
					<dim>1</dim>
					<dim>1</dim>
					<dim>1</dim>
				</port>
			</output>
		</layer>
		<layer id="28" name="50585062_const" type="Const" version="opset1">
			<data element_type="f16" offset="9580" shape="64,1,1,1" size="128"/>
			<output>
				<port id="1" precision="FP16">
					<dim>64</dim>
					<dim>1</dim>
					<dim>1</dim>
					<dim>1</dim>
				</port>
			</output>
		</layer>
		<layer id="29" name="564/fq_weights_1" type="FakeQuantize" version="opset1">
			<data levels="255"/>
			<input>
				<port id="0">
					<dim>64</dim>
					<dim>3</dim>
					<dim>7</dim>
					<dim>7</dim>
				</port>
				<port id="1">
					<dim>1</dim>
				</port>
				<port id="2">
					<dim>1</dim>
				</port>
				<port id="3">
					<dim>64</dim>
					<dim>1</dim>
					<dim>1</dim>
					<dim>1</dim>
				</port>
				<port id="4">
					<dim>64</dim>
					<dim>1</dim>
					<dim>1</dim>
					<dim>1</dim>
				</port>
			</input>
			<output>
				<port id="5" precision="FP16">
					<dim>64</dim>
					<dim>3</dim>
					<dim>7</dim>
					<dim>7</dim>
				</port>
			</output>
		</layer>
		<layer id="30" name="564" type="Convolution" version="opset1">
			<data dilations="1,1" output_padding="0,0" pads_begin="3,3" pads_end="3,3" strides="2,2"/>
			<input>
				<port id="0">
					<dim>1</dim>
					<dim>3</dim>
					<dim>256</dim>
					<dim>128</dim>
				</port>
				<port id="1">
					<dim>64</dim>
					<dim>3</dim>
					<dim>7</dim>
					<dim>7</dim>
				</port>
			</input>
			<output>
				<port id="2" precision="FP16">
					<dim>1</dim>
					<dim>64</dim>
					<dim>128</dim>
					<dim>64</dim>
				</port>
			</output>
		</layer>
		<layer id="31" name="26302632_const" type="Const" version="opset1">
			<data element_type="f16" offset="9708" shape="1,64,1,1" size="128"/>
			<output>
				<port id="1" precision="FP16">
					<dim>1</dim>
					<dim>64</dim>
					<dim>1</dim>
					<dim>1</dim>
				</port>
			</output>
		</layer>
		<layer id="32" name="564/add_" type="Add" version="opset1">
			<input>
				<port id="0">
					<dim>1</dim>
					<dim>64</dim>
					<dim>128</dim>
					<dim>64</dim>
				</port>
				<port id="1">
					<dim>1</dim>
					<dim>64</dim>
					<dim>1</dim>
					<dim>1</dim>
				</port>
			</input>
			<output>
				<port id="2" precision="FP16">
					<dim>1</dim>
					<dim>64</dim>
					<dim>128</dim>
					<dim>64</dim>
				</port>
			</output>
		</layer>
		<layer id="33" name="74157419_const" type="Const" version="opset1">
			<data element_type="f16" offset="9836" shape="" size="2"/>
			<output>
				<port id="1" precision="FP16"/>
			</output>
		</layer>
		<layer id="34" name="74167420_const" type="Const" version="opset1">
			<data element_type="f16" offset="9838" shape="" size="2"/>
			<output>
				<port id="1" precision="FP16"/>
			</output>
		</layer>
		<layer id="35" name="74177421_const" type="Const" version="opset1">
			<data element_type="f16" offset="9836" shape="" size="2"/>
			<output>
				<port id="1" precision="FP16"/>
			</output>
		</layer>
		<layer id="36" name="74187422_const" type="Const" version="opset1">
			<data element_type="f16" offset="9838" shape="" size="2"/>
			<output>
				<port id="1" precision="FP16"/>
			</output>
		</layer>
		<layer id="37" name="565/Ins_Norm/MVN_/fq_input_0" type="FakeQuantize" version="opset1">
			<data levels="256"/>
			<input>
				<port id="0">
					<dim>1</dim>
					<dim>64</dim>
					<dim>128</dim>
					<dim>64</dim>
				</port>
				<port id="1"/>
				<port id="2"/>
				<port id="3"/>
				<port id="4"/>
			</input>
			<output>
				<port id="5" precision="FP16">
					<dim>1</dim>
					<dim>64</dim>
					<dim>128</dim>
					<dim>64</dim>
				</port>
			</output>
		</layer>
		<layer id="38" name="565/Ins_Norm/MVN_" type="MVN" version="opset2">
			<data across_channels="0" eps="9.999999747378752e-06" normalize_variance="1"/>
			<input>
				<port id="0">
					<dim>1</dim>
					<dim>64</dim>
					<dim>128</dim>
					<dim>64</dim>
				</port>
			</input>
			<output>
				<port id="1" precision="FP16">
					<dim>1</dim>
					<dim>64</dim>
					<dim>128</dim>
					<dim>64</dim>
				</port>
			</output>
		</layer>
		<layer id="39" name="onnx_initializer_node_conv1.bn.weight/Output_0/Data_/copy/copy_const1121_const" type="Const" version="opset1">
			<data element_type="f16" offset="9840" shape="1,64,1,1" size="128"/>
			<output>
				<port id="1" precision="FP16">
					<dim>1</dim>
					<dim>64</dim>
					<dim>1</dim>
					<dim>1</dim>
				</port>
			</output>
		</layer>
		<layer id="40" name="565/Ins_Norm/mul_" type="Multiply" version="opset1">
			<input>
				<port id="0">
					<dim>1</dim>
					<dim>64</dim>
					<dim>128</dim>
					<dim>64</dim>
				</port>
				<port id="1">
					<dim>1</dim>
					<dim>64</dim>
					<dim>1</dim>
					<dim>1</dim>
				</port>
			</input>
			<output>
				<port id="2" precision="FP16">
					<dim>1</dim>
					<dim>64</dim>
					<dim>128</dim>
					<dim>64</dim>
				</port>
			</output>
		</layer>
		<layer id="41" name="onnx_initializer_node_conv1.bn.bias/Output_0/Data_/copy/copy_const1123_const" type="Const" version="opset1">
			<data element_type="f16" offset="9968" shape="1,64,1,1" size="128"/>
			<output>
				<port id="1" precision="FP16">
					<dim>1</dim>
					<dim>64</dim>
					<dim>1</dim>
					<dim>1</dim>
				</port>
			</output>
		</layer>
		<layer id="42" name="565/Ins_Norm/add_" type="Add" version="opset1">
			<input>
				<port id="0">
					<dim>1</dim>
					<dim>64</dim>
					<dim>128</dim>
					<dim>64</dim>
				</port>
				<port id="1">
					<dim>1</dim>
					<dim>64</dim>
					<dim>1</dim>
					<dim>1</dim>
				</port>
			</input>
			<output>
				<port id="2" precision="FP16">
					<dim>1</dim>
					<dim>64</dim>
					<dim>128</dim>
					<dim>64</dim>
				</port>
			</output>
		</layer>
		<layer id="43" name="566" type="ReLU" version="opset1">
			<input>
				<port id="0">
					<dim>1</dim>
					<dim>64</dim>
					<dim>128</dim>
					<dim>64</dim>
				</port>
			</input>
			<output>
				<port id="1" precision="FP16">
					<dim>1</dim>
					<dim>64</dim>
					<dim>128</dim>
					<dim>64</dim>
				</port>
			</output>
		</layer>
		<layer id="44" name="1046410468_const" type="Const" version="opset1">
			<data element_type="f16" offset="9448" shape="" size="2"/>
			<output>
				<port id="1" precision="FP16"/>
			</output>
		</layer>
		<layer id="45" name="1046510469_const" type="Const" version="opset1">
			<data element_type="f16" offset="10096" shape="" size="2"/>
			<output>
				<port id="1" precision="FP16"/>
			</output>
		</layer>
		<layer id="46" name="1046610470_const" type="Const" version="opset1">
			<data element_type="f16" offset="9448" shape="" size="2"/>
			<output>
				<port id="1" precision="FP16"/>
			</output>
		</layer>
		<layer id="47" name="1046710471_const" type="Const" version="opset1">
			<data element_type="f16" offset="10096" shape="" size="2"/>
			<output>
				<port id="1" precision="FP16"/>
			</output>
		</layer>
		<layer id="48" name="567/fq_input_0" type="FakeQuantize" version="opset1">
			<data levels="256"/>
			<input>
				<port id="0">
					<dim>1</dim>
					<dim>64</dim>
					<dim>128</dim>
					<dim>64</dim>
				</port>
				<port id="1"/>
				<port id="2"/>
				<port id="3"/>
				<port id="4"/>
			</input>
			<output>
				<port id="5" precision="FP16">
					<dim>1</dim>
					<dim>64</dim>
					<dim>128</dim>
					<dim>64</dim>
				</port>
			</output>
		</layer>
		<layer id="49" name="567" type="MaxPool" version="opset1">
			<data kernel="3,3" pads_begin="1,1" pads_end="1,1" rounding_type="floor" strides="2,2"/>
			<input>
				<port id="0">
					<dim>1</dim>
					<dim>64</dim>
					<dim>128</dim>
					<dim>64</dim>
				</port>
			</input>
			<output>
				<port id="1" precision="FP16">
					<dim>1</dim>
					<dim>64</dim>
					<dim>64</dim>
					<dim>32</dim>
				</port>
			</output>
		</layer>
		<layer id="50" name="568/fq_weights_1/Convert_to_float/Cast_020340_const" type="Const" version="opset1">
			<data element_type="u8" offset="10098" shape="64,64,1,1" size="4096"/>
			<output>
				<port id="1" precision="U8">
					<dim>64</dim>
					<dim>64</dim>
					<dim>1</dim>
					<dim>1</dim>
				</port>
			</output>
		</layer>
		<layer id="51" name="568/fq_weights_1/Convert_to_float" type="Convert" version="opset1">
			<data destination_type="f16"/>
			<input>
				<port id="0">
					<dim>64</dim>
					<dim>64</dim>
					<dim>1</dim>
					<dim>1</dim>
				</port>
			</input>
			<output>
				<port id="1" precision="FP16">
					<dim>64</dim>
					<dim>64</dim>
					<dim>1</dim>
					<dim>1</dim>
				</port>
			</output>
		</layer>
		<layer id="52" name="568/fq_weights_1/Copy/out_low17093_const" type="Const" version="opset1">
			<data element_type="f16" offset="9448" shape="1" size="2"/>
			<output>
				<port id="1" precision="FP16">
					<dim>1</dim>
				</port>
			</output>
		</layer>
		<layer id="53" name="568/fq_weights_1/Copy/out_high17094_const" type="Const" version="opset1">
			<data element_type="f16" offset="9450" shape="1" size="2"/>
			<output>
				<port id="1" precision="FP16">
					<dim>1</dim>
				</port>
			</output>
		</layer>
		<layer id="54" name="68376841_const" type="Const" version="opset1">
			<data element_type="f16" offset="14194" shape="64,1,1,1" size="128"/>
			<output>
				<port id="1" precision="FP16">
					<dim>64</dim>
					<dim>1</dim>
					<dim>1</dim>
					<dim>1</dim>
				</port>
			</output>
		</layer>
		<layer id="55" name="68386842_const" type="Const" version="opset1">
			<data element_type="f16" offset="14322" shape="64,1,1,1" size="128"/>
			<output>
				<port id="1" precision="FP16">
					<dim>64</dim>
					<dim>1</dim>
					<dim>1</dim>
					<dim>1</dim>
				</port>
			</output>
		</layer>
		<layer id="56" name="568/fq_weights_1" type="FakeQuantize" version="opset1">
			<data levels="255"/>
			<input>
				<port id="0">
					<dim>64</dim>
					<dim>64</dim>
					<dim>1</dim>
					<dim>1</dim>
				</port>
				<port id="1">
					<dim>1</dim>
				</port>
				<port id="2">
					<dim>1</dim>
				</port>
				<port id="3">
					<dim>64</dim>
					<dim>1</dim>
					<dim>1</dim>
					<dim>1</dim>
				</port>
				<port id="4">
					<dim>64</dim>
					<dim>1</dim>
					<dim>1</dim>
					<dim>1</dim>
				</port>
			</input>
			<output>
				<port id="5" precision="FP16">
					<dim>64</dim>
					<dim>64</dim>
					<dim>1</dim>
					<dim>1</dim>
				</port>
			</output>
		</layer>
		<layer id="57" name="568" type="Convolution" version="opset1">
			<data dilations="1,1" output_padding="0,0" pads_begin="0,0" pads_end="0,0" strides="1,1"/>
			<input>
				<port id="0">
					<dim>1</dim>
					<dim>64</dim>
					<dim>64</dim>
					<dim>32</dim>
				</port>
				<port id="1">
					<dim>64</dim>
					<dim>64</dim>
					<dim>1</dim>
					<dim>1</dim>
				</port>
			</input>
			<output>
				<port id="2" precision="FP16">
					<dim>1</dim>
					<dim>64</dim>
					<dim>64</dim>
					<dim>32</dim>
				</port>
			</output>
		</layer>
		<layer id="58" name="data_add_2112621131/copy_const1129_const" type="Const" version="opset1">
			<data element_type="f16" offset="14450" shape="1,64,1,1" size="128"/>
			<output>
				<port id="1" precision="FP16">
					<dim>1</dim>
					<dim>64</dim>
					<dim>1</dim>
					<dim>1</dim>
				</port>
			</output>
		</layer>
		<layer id="59" name="569/variance/Fused_Add_" type="Add" version="opset1">
			<input>
				<port id="0">
					<dim>1</dim>
					<dim>64</dim>
					<dim>64</dim>
					<dim>32</dim>
				</port>
				<port id="1">
					<dim>1</dim>
					<dim>64</dim>
					<dim>1</dim>
					<dim>1</dim>
				</port>
			</input>
			<output>
				<port id="2" precision="FP16">
					<dim>1</dim>
					<dim>64</dim>
					<dim>64</dim>
					<dim>32</dim>
				</port>
			</output>
		</layer>
		<layer id="60" name="570" type="ReLU" version="opset1">
			<input>
				<port id="0">
					<dim>1</dim>
					<dim>64</dim>
					<dim>64</dim>
					<dim>32</dim>
				</port>
			</input>
			<output>
				<port id="1" precision="FP16">
					<dim>1</dim>
					<dim>64</dim>
					<dim>64</dim>
					<dim>32</dim>
				</port>
			</output>
		</layer>
		<layer id="61" name="58155819_const" type="Const" version="opset1">
			<data element_type="f16" offset="9448" shape="" size="2"/>
			<output>
				<port id="1" precision="FP16"/>
			</output>
		</layer>
		<layer id="62" name="58165820_const" type="Const" version="opset1">
			<data element_type="f16" offset="14578" shape="" size="2"/>
			<output>
				<port id="1" precision="FP16"/>
			</output>
		</layer>
		<layer id="63" name="58175821_const" type="Const" version="opset1">
			<data element_type="f16" offset="9448" shape="" size="2"/>
			<output>
				<port id="1" precision="FP16"/>
			</output>
		</layer>
		<layer id="64" name="58185822_const" type="Const" version="opset1">
			<data element_type="f16" offset="14578" shape="" size="2"/>
			<output>
				<port id="1" precision="FP16"/>
			</output>
		</layer>
		<layer id="65" name="571/fq_input_0" type="FakeQuantize" version="opset1">
			<data levels="256"/>
			<input>
				<port id="0">
					<dim>1</dim>
					<dim>64</dim>
					<dim>64</dim>
					<dim>32</dim>
				</port>
				<port id="1"/>
				<port id="2"/>
				<port id="3"/>
				<port id="4"/>
			</input>
			<output>
				<port id="5" precision="FP16">
					<dim>1</dim>
					<dim>64</dim>
					<dim>64</dim>
					<dim>32</dim>
				</port>
			</output>
		</layer>
		<layer id="66" name="571/fq_weights_1/Convert_to_float/Cast_020050_const" type="Const" version="opset1">
			<data element_type="u8" offset="14580" shape="64,64,1,1" size="4096"/>
			<output>
				<port id="1" precision="U8">
					<dim>64</dim>
					<dim>64</dim>
					<dim>1</dim>
					<dim>1</dim>
				</port>
			</output>
		</layer>
		<layer id="67" name="571/fq_weights_1/Convert_to_float" type="Convert" version="opset1">
			<data destination_type="f16"/>
			<input>
				<port id="0">
					<dim>64</dim>
					<dim>64</dim>
					<dim>1</dim>
					<dim>1</dim>
				</port>
			</input>
			<output>
				<port id="1" precision="FP16">
					<dim>64</dim>
					<dim>64</dim>
					<dim>1</dim>
					<dim>1</dim>
				</port>
			</output>
		</layer>
		<layer id="68" name="571/fq_weights_1/Copy/out_low17677_const" type="Const" version="opset1">
			<data element_type="f16" offset="9448" shape="1" size="2"/>
			<output>
				<port id="1" precision="FP16">
					<dim>1</dim>
				</port>
			</output>
		</layer>
		<layer id="69" name="571/fq_weights_1/Copy/out_high17678_const" type="Const" version="opset1">
			<data element_type="f16" offset="9450" shape="1" size="2"/>
			<output>
				<port id="1" precision="FP16">
					<dim>1</dim>
				</port>
			</output>
		</layer>
		<layer id="70" name="58275831_const" type="Const" version="opset1">
			<data element_type="f16" offset="18676" shape="64,1,1,1" size="128"/>
			<output>
				<port id="1" precision="FP16">
					<dim>64</dim>
					<dim>1</dim>
					<dim>1</dim>
					<dim>1</dim>
				</port>
			</output>
		</layer>
		<layer id="71" name="58285832_const" type="Const" version="opset1">
			<data element_type="f16" offset="18804" shape="64,1,1,1" size="128"/>
			<output>
				<port id="1" precision="FP16">
					<dim>64</dim>
					<dim>1</dim>
					<dim>1</dim>
					<dim>1</dim>
				</port>
			</output>
		</layer>
		<layer id="72" name="571/fq_weights_1" type="FakeQuantize" version="opset1">
			<data levels="255"/>
			<input>
				<port id="0">
					<dim>64</dim>
					<dim>64</dim>
					<dim>1</dim>
					<dim>1</dim>
				</port>
				<port id="1">
					<dim>1</dim>
				</port>
				<port id="2">
					<dim>1</dim>
				</port>
				<port id="3">
					<dim>64</dim>
					<dim>1</dim>
					<dim>1</dim>
					<dim>1</dim>
				</port>
				<port id="4">
					<dim>64</dim>
					<dim>1</dim>
					<dim>1</dim>
					<dim>1</dim>
				</port>
			</input>
			<output>
				<port id="5" precision="FP16">
					<dim>64</dim>
					<dim>64</dim>
					<dim>1</dim>
					<dim>1</dim>
				</port>
			</output>
		</layer>
		<layer id="73" name="571" type="Convolution" version="opset1">
			<data dilations="1,1" output_padding="0,0" pads_begin="0,0" pads_end="0,0" strides="1,1"/>
			<input>
				<port id="0">
					<dim>1</dim>
					<dim>64</dim>
					<dim>64</dim>
					<dim>32</dim>
				</port>
				<port id="1">
					<dim>64</dim>
					<dim>64</dim>
					<dim>1</dim>
					<dim>1</dim>
				</port>
			</input>
			<output>
				<port id="2" precision="FP16">
					<dim>1</dim>
					<dim>64</dim>
					<dim>64</dim>
					<dim>32</dim>
				</port>
			</output>
		</layer>
		<layer id="74" name="26342636_const" type="Const" version="opset1">
			<data element_type="f16" offset="9708" shape="1,64,1,1" size="128"/>
			<output>
				<port id="1" precision="FP16">
					<dim>1</dim>
					<dim>64</dim>
					<dim>1</dim>
					<dim>1</dim>
				</port>
			</output>
		</layer>
		<layer id="75" name="571/add_" type="Add" version="opset1">
			<input>
				<port id="0">
					<dim>1</dim>
					<dim>64</dim>
					<dim>64</dim>
					<dim>32</dim>
				</port>
				<port id="1">
					<dim>1</dim>
					<dim>64</dim>
					<dim>1</dim>
					<dim>1</dim>
				</port>
			</input>
			<output>
				<port id="2" precision="FP16">
					<dim>1</dim>
					<dim>64</dim>
					<dim>64</dim>
					<dim>32</dim>
				</port>
			</output>
		</layer>
		<layer id="76" name="43254329_const" type="Const" version="opset1">
			<data element_type="f16" offset="18932" shape="1,64,1,1" size="128"/>
			<output>
				<port id="1" precision="FP16">
					<dim>1</dim>
					<dim>64</dim>
					<dim>1</dim>
					<dim>1</dim>
				</port>
			</output>
		</layer>
		<layer id="77" name="43264330_const" type="Const" version="opset1">
			<data element_type="f16" offset="19060" shape="1,64,1,1" size="128"/>
			<output>
				<port id="1" precision="FP16">
					<dim>1</dim>
					<dim>64</dim>
					<dim>1</dim>
					<dim>1</dim>
				</port>
			</output>
		</layer>
		<layer id="78" name="43274331_const" type="Const" version="opset1">
			<data element_type="f16" offset="18932" shape="1,64,1,1" size="128"/>
			<output>
				<port id="1" precision="FP16">
					<dim>1</dim>
					<dim>64</dim>
					<dim>1</dim>
					<dim>1</dim>
				</port>
			</output>
		</layer>
		<layer id="79" name="43284332_const" type="Const" version="opset1">
			<data element_type="f16" offset="19060" shape="1,64,1,1" size="128"/>
			<output>
				<port id="1" precision="FP16">
					<dim>1</dim>
					<dim>64</dim>
					<dim>1</dim>
					<dim>1</dim>
				</port>
			</output>
		</layer>
		<layer id="80" name="572/fq_input_0" type="FakeQuantize" version="opset1">
			<data levels="256"/>
			<input>
				<port id="0">
					<dim>1</dim>
					<dim>64</dim>
					<dim>64</dim>
					<dim>32</dim>
				</port>
				<port id="1">
					<dim>1</dim>
					<dim>64</dim>
					<dim>1</dim>
					<dim>1</dim>
				</port>
				<port id="2">
					<dim>1</dim>
					<dim>64</dim>
					<dim>1</dim>
					<dim>1</dim>
				</port>
				<port id="3">
					<dim>1</dim>
					<dim>64</dim>
					<dim>1</dim>
					<dim>1</dim>
				</port>
				<port id="4">
					<dim>1</dim>
					<dim>64</dim>
					<dim>1</dim>
					<dim>1</dim>
				</port>
			</input>
			<output>
				<port id="5" precision="FP16">
					<dim>1</dim>
					<dim>64</dim>
					<dim>64</dim>
					<dim>32</dim>
				</port>
			</output>
		</layer>
		<layer id="81" name="572/fq_weights_1/Convert_to_float/Cast_020214_const" type="Const" version="opset1">
			<data element_type="u8" offset="19188" shape="64,1,3,3" size="576"/>
			<output>
				<port id="1" precision="U8">
					<dim>64</dim>
					<dim>1</dim>
					<dim>3</dim>
					<dim>3</dim>
				</port>
			</output>
		</layer>
		<layer id="82" name="572/fq_weights_1/Convert_to_float" type="Convert" version="opset1">
			<data destination_type="f16"/>
			<input>
				<port id="0">
					<dim>64</dim>
					<dim>1</dim>
					<dim>3</dim>
					<dim>3</dim>
				</port>
			</input>
			<output>
				<port id="1" precision="FP16">
					<dim>64</dim>
					<dim>1</dim>
					<dim>3</dim>
					<dim>3</dim>
				</port>
			</output>
		</layer>
		<layer id="83" name="572/fq_weights_1/Copy/out_low17581_const" type="Const" version="opset1">
			<data element_type="f16" offset="9448" shape="1" size="2"/>
			<output>
				<port id="1" precision="FP16">
					<dim>1</dim>
				</port>
			</output>
		</layer>
		<layer id="84" name="572/fq_weights_1/Copy/out_high17582_const" type="Const" version="opset1">
			<data element_type="f16" offset="9450" shape="1" size="2"/>
			<output>
				<port id="1" precision="FP16">
					<dim>1</dim>
				</port>
			</output>
		</layer>
		<layer id="85" name="43374341_const" type="Const" version="opset1">
			<data element_type="f16" offset="19764" shape="64,1,1,1" size="128"/>
			<output>
				<port id="1" precision="FP16">
					<dim>64</dim>
					<dim>1</dim>
					<dim>1</dim>
					<dim>1</dim>
				</port>
			</output>
		</layer>
		<layer id="86" name="43384342_const" type="Const" version="opset1">
			<data element_type="f16" offset="19892" shape="64,1,1,1" size="128"/>
			<output>
				<port id="1" precision="FP16">
					<dim>64</dim>
					<dim>1</dim>
					<dim>1</dim>
					<dim>1</dim>
				</port>
			</output>
		</layer>
		<layer id="87" name="572/fq_weights_1" type="FakeQuantize" version="opset1">
			<data levels="255"/>
			<input>
				<port id="0">
					<dim>64</dim>
					<dim>1</dim>
					<dim>3</dim>
					<dim>3</dim>
				</port>
				<port id="1">
					<dim>1</dim>
				</port>
				<port id="2">
					<dim>1</dim>
				</port>
				<port id="3">
					<dim>64</dim>
					<dim>1</dim>
					<dim>1</dim>
					<dim>1</dim>
				</port>
				<port id="4">
					<dim>64</dim>
					<dim>1</dim>
					<dim>1</dim>
					<dim>1</dim>
				</port>
			</input>
			<output>
				<port id="5" precision="FP16">
					<dim>64</dim>
					<dim>1</dim>
					<dim>3</dim>
					<dim>3</dim>
				</port>
			</output>
		</layer>
		<layer id="88" name="22432/value22434_const" type="Const" version="opset1">
			<data element_type="i64" offset="20020" shape="5" size="40"/>
			<output>
				<port id="1" precision="I64">
					<dim>5</dim>
				</port>
			</output>
		</layer>
		<layer id="89" name="22432" type="Reshape" version="opset1">
			<data special_zero="True"/>
			<input>
				<port id="0">
					<dim>64</dim>
					<dim>1</dim>
					<dim>3</dim>
					<dim>3</dim>
				</port>
				<port id="1">
					<dim>5</dim>
				</port>
			</input>
			<output>
				<port id="2" precision="FP16">
					<dim>64</dim>
					<dim>1</dim>
					<dim>1</dim>
					<dim>3</dim>
					<dim>3</dim>
				</port>
			</output>
		</layer>
		<layer id="90" name="572" type="GroupConvolution" version="opset1">
			<data dilations="1,1" output_padding="0,0" pads_begin="1,1" pads_end="1,1" strides="1,1"/>
			<input>
				<port id="0">
					<dim>1</dim>
					<dim>64</dim>
					<dim>64</dim>
					<dim>32</dim>
				</port>
				<port id="1">
					<dim>64</dim>
					<dim>1</dim>
					<dim>1</dim>
					<dim>3</dim>
					<dim>3</dim>
				</port>
			</input>
			<output>
				<port id="2" precision="FP16">
					<dim>1</dim>
					<dim>64</dim>
					<dim>64</dim>
					<dim>32</dim>
				</port>
			</output>
		</layer>
		<layer id="91" name="data_add_2120621211/copy_const1136_const" type="Const" version="opset1">
			<data element_type="f16" offset="20060" shape="1,64,1,1" size="128"/>
			<output>
				<port id="1" precision="FP16">
					<dim>1</dim>
					<dim>64</dim>
					<dim>1</dim>
					<dim>1</dim>
				</port>
			</output>
		</layer>
		<layer id="92" name="573/variance/Fused_Add_" type="Add" version="opset1">
			<input>
				<port id="0">
					<dim>1</dim>
					<dim>64</dim>
					<dim>64</dim>
					<dim>32</dim>
				</port>
				<port id="1">
					<dim>1</dim>
					<dim>64</dim>
					<dim>1</dim>
					<dim>1</dim>
				</port>
			</input>
			<output>
				<port id="2" precision="FP16">
					<dim>1</dim>
					<dim>64</dim>
					<dim>64</dim>
					<dim>32</dim>
				</port>
			</output>
		</layer>
		<layer id="93" name="574" type="ReLU" version="opset1">
			<input>
				<port id="0">
					<dim>1</dim>
					<dim>64</dim>
					<dim>64</dim>
					<dim>32</dim>
				</port>
			</input>
			<output>
				<port id="1" precision="FP16">
					<dim>1</dim>
					<dim>64</dim>
					<dim>64</dim>
					<dim>32</dim>
				</port>
			</output>
		</layer>
		<layer id="94" name="51455149_const" type="Const" version="opset1">
			<data element_type="f16" offset="9448" shape="" size="2"/>
			<output>
				<port id="1" precision="FP16"/>
			</output>
		</layer>
		<layer id="95" name="51465150_const" type="Const" version="opset1">
			<data element_type="f16" offset="20188" shape="" size="2"/>
			<output>
				<port id="1" precision="FP16"/>
			</output>
		</layer>
		<layer id="96" name="51475151_const" type="Const" version="opset1">
			<data element_type="f16" offset="9448" shape="" size="2"/>
			<output>
				<port id="1" precision="FP16"/>
			</output>
		</layer>
		<layer id="97" name="51485152_const" type="Const" version="opset1">
			<data element_type="f16" offset="20188" shape="" size="2"/>
			<output>
				<port id="1" precision="FP16"/>
			</output>
		</layer>
		<layer id="98" name="611/reduce/fq_input_0" type="FakeQuantize" version="opset1">
			<data levels="256"/>
			<input>
				<port id="0">
					<dim>1</dim>
					<dim>64</dim>
					<dim>64</dim>
					<dim>32</dim>
				</port>
				<port id="1"/>
				<port id="2"/>
				<port id="3"/>
				<port id="4"/>
			</input>
			<output>
				<port id="5" precision="FP16">
					<dim>1</dim>
					<dim>64</dim>
					<dim>64</dim>
					<dim>32</dim>
				</port>
			</output>
		</layer>
		<layer id="99" name="1268/Output_0/Data__const1139_const" type="Const" version="opset1">
			<data element_type="i64" offset="20190" shape="" size="8"/>
			<output>
				<port id="1" precision="I64"/>
			</output>
		</layer>
		<layer id="100" name="611/input_rank/shape_of" type="ShapeOf" version="opset3">
			<data output_type="i64"/>
			<input>
				<port id="0">
					<dim>1</dim>
					<dim>64</dim>
					<dim>64</dim>
					<dim>32</dim>
				</port>
			</input>
			<output>
				<port id="1" precision="I64">
					<dim>4</dim>
				</port>
			</output>
		</layer>
		<layer id="101" name="611/input_rank/rank_of" type="ShapeOf" version="opset3">
			<data output_type="i64"/>
			<input>
				<port id="0">
					<dim>4</dim>
				</port>
			</input>
			<output>
				<port id="1" precision="I64">
					<dim>1</dim>
				</port>
			</output>
		</layer>
		<layer id="102" name="611/input_rank/0d_rank_of/value/Output_0/Data__const1142_const" type="Const" version="opset1">
			<data element_type="i64" offset="20198" shape="1" size="8"/>
			<output>
				<port id="1" precision="I64">
					<dim>1</dim>
				</port>
			</output>
		</layer>
		<layer id="103" name="611/input_rank" type="Squeeze" version="opset1">
			<input>
				<port id="0">
					<dim>1</dim>
				</port>
				<port id="1">
					<dim>1</dim>
				</port>
			</input>
			<output>
				<port id="2" precision="I64"/>
			</output>
		</layer>
		<layer id="104" name="1270/Output_0/Data__const1144_const" type="Const" version="opset1">
			<data element_type="i64" offset="0" shape="" size="8"/>
			<output>
				<port id="1" precision="I64"/>
			</output>
		</layer>
		<layer id="105" name="611/global_pooling_reduce_axis" type="Range" version="opset4">
			<data output_type="i64"/>
			<input>
				<port id="0"/>
				<port id="1"/>
				<port id="2"/>
			</input>
			<output>
				<port id="3" precision="I64">
					<dim>2</dim>
				</port>
			</output>
		</layer>
		<layer id="106" name="611/reduce" type="ReduceMean" version="opset1">
			<data keep_dims="True"/>
			<input>
				<port id="0">
					<dim>1</dim>
					<dim>64</dim>
					<dim>64</dim>
					<dim>32</dim>
				</port>
				<port id="1">
					<dim>2</dim>
				</port>
			</input>
			<output>
				<port id="2" precision="FP16">
					<dim>1</dim>
					<dim>64</dim>
					<dim>1</dim>
					<dim>1</dim>
				</port>
			</output>
		</layer>
		<layer id="107" name="Copy_onnx_initializer_node_conv2.0.gate.fc1.weight/Output_0/Data__const1147_const" type="Const" version="opset1">
			<data element_type="f16" offset="20206" shape="4,64,1,1" size="512"/>
			<output>
				<port id="1" precision="FP16">
					<dim>4</dim>
					<dim>64</dim>
					<dim>1</dim>
					<dim>1</dim>
				</port>
			</output>
		</layer>
		<layer id="108" name="612/WithoutBiases" type="Convolution" version="opset1">
			<data dilations="1,1" output_padding="0,0" pads_begin="0,0" pads_end="0,0" strides="1,1"/>
			<input>
				<port id="0">
					<dim>1</dim>
					<dim>64</dim>
					<dim>1</dim>
					<dim>1</dim>
				</port>
				<port id="1">
					<dim>4</dim>
					<dim>64</dim>
					<dim>1</dim>
					<dim>1</dim>
				</port>
			</input>
			<output>
				<port id="2" precision="FP16">
					<dim>1</dim>
					<dim>4</dim>
					<dim>1</dim>
					<dim>1</dim>
				</port>
			</output>
		</layer>
		<layer id="109" name="612/Dims12773/copy_const1149_const" type="Const" version="opset1">
			<data element_type="f16" offset="20718" shape="1,4,1,1" size="8"/>
			<output>
				<port id="1" precision="FP16">
					<dim>1</dim>
					<dim>4</dim>
					<dim>1</dim>
					<dim>1</dim>
				</port>
			</output>
		</layer>
		<layer id="110" name="612" type="Add" version="opset1">
			<input>
				<port id="0">
					<dim>1</dim>
					<dim>4</dim>
					<dim>1</dim>
					<dim>1</dim>
				</port>
				<port id="1">
					<dim>1</dim>
					<dim>4</dim>
					<dim>1</dim>
					<dim>1</dim>
				</port>
			</input>
			<output>
				<port id="2" precision="FP16">
					<dim>1</dim>
					<dim>4</dim>
					<dim>1</dim>
					<dim>1</dim>
				</port>
			</output>
		</layer>
		<layer id="111" name="613" type="ReLU" version="opset1">
			<input>
				<port id="0">
					<dim>1</dim>
					<dim>4</dim>
					<dim>1</dim>
					<dim>1</dim>
				</port>
			</input>
			<output>
				<port id="1" precision="FP16">
					<dim>1</dim>
					<dim>4</dim>
					<dim>1</dim>
					<dim>1</dim>
				</port>
			</output>
		</layer>
		<layer id="112" name="Copy_onnx_initializer_node_conv2.0.gate.fc2.weight/Output_0/Data__const1152_const" type="Const" version="opset1">
			<data element_type="f16" offset="20726" shape="64,4,1,1" size="512"/>
			<output>
				<port id="1" precision="FP16">
					<dim>64</dim>
					<dim>4</dim>
					<dim>1</dim>
					<dim>1</dim>
				</port>
			</output>
		</layer>
		<layer id="113" name="614/WithoutBiases" type="Convolution" version="opset1">
			<data dilations="1,1" output_padding="0,0" pads_begin="0,0" pads_end="0,0" strides="1,1"/>
			<input>
				<port id="0">
					<dim>1</dim>
					<dim>4</dim>
					<dim>1</dim>
					<dim>1</dim>
				</port>
				<port id="1">
					<dim>64</dim>
					<dim>4</dim>
					<dim>1</dim>
					<dim>1</dim>
				</port>
			</input>
			<output>
				<port id="2" precision="FP16">
					<dim>1</dim>
					<dim>64</dim>
					<dim>1</dim>
					<dim>1</dim>
				</port>
			</output>
		</layer>
		<layer id="114" name="614/Dims12767/copy_const1154_const" type="Const" version="opset1">
			<data element_type="f16" offset="21238" shape="1,64,1,1" size="128"/>
			<output>
				<port id="1" precision="FP16">
					<dim>1</dim>
					<dim>64</dim>
					<dim>1</dim>
					<dim>1</dim>
				</port>
			</output>
		</layer>
		<layer id="115" name="614" type="Add" version="opset1">
			<input>
				<port id="0">
					<dim>1</dim>
					<dim>64</dim>
					<dim>1</dim>
					<dim>1</dim>
				</port>
				<port id="1">
					<dim>1</dim>
					<dim>64</dim>
					<dim>1</dim>
					<dim>1</dim>
				</port>
			</input>
			<output>
				<port id="2" precision="FP16">
					<dim>1</dim>
					<dim>64</dim>
					<dim>1</dim>
					<dim>1</dim>
				</port>
			</output>
		</layer>
		<layer id="116" name="615" type="Sigmoid" version="opset1">
			<input>
				<port id="0">
					<dim>1</dim>
					<dim>64</dim>
					<dim>1</dim>
					<dim>1</dim>
				</port>
			</input>
			<output>
				<port id="1" precision="FP16">
					<dim>1</dim>
					<dim>64</dim>
					<dim>1</dim>
					<dim>1</dim>
				</port>
			</output>
		</layer>
		<layer id="117" name="61556159_const" type="Const" version="opset1">
			<data element_type="f16" offset="9448" shape="" size="2"/>
			<output>
				<port id="1" precision="FP16"/>
			</output>
		</layer>
		<layer id="118" name="61566160_const" type="Const" version="opset1">
			<data element_type="f16" offset="21366" shape="" size="2"/>
			<output>
				<port id="1" precision="FP16"/>
			</output>
		</layer>
		<layer id="119" name="61576161_const" type="Const" version="opset1">
			<data element_type="f16" offset="9448" shape="" size="2"/>
			<output>
				<port id="1" precision="FP16"/>
			</output>
		</layer>
		<layer id="120" name="61586162_const" type="Const" version="opset1">
			<data element_type="f16" offset="21366" shape="" size="2"/>
			<output>
				<port id="1" precision="FP16"/>
			</output>
		</layer>
		<layer id="121" name="616/fq_input_1" type="FakeQuantize" version="opset1">
			<data levels="256"/>
			<input>
				<port id="0">
					<dim>1</dim>
					<dim>64</dim>
					<dim>1</dim>
					<dim>1</dim>
				</port>
				<port id="1"/>
				<port id="2"/>
				<port id="3"/>
				<port id="4"/>
			</input>
			<output>
				<port id="5" precision="FP16">
					<dim>1</dim>
					<dim>64</dim>
					<dim>1</dim>
					<dim>1</dim>
				</port>
			</output>
		</layer>
		<layer id="122" name="616" type="Multiply" version="opset1">
			<input>
				<port id="0">
					<dim>1</dim>
					<dim>64</dim>
					<dim>64</dim>
					<dim>32</dim>
				</port>
				<port id="1">
					<dim>1</dim>
					<dim>64</dim>
					<dim>1</dim>
					<dim>1</dim>
				</port>
			</input>
			<output>
				<port id="2" precision="FP16">
					<dim>1</dim>
					<dim>64</dim>
					<dim>64</dim>
					<dim>32</dim>
				</port>
			</output>
		</layer>
		<layer id="123" name="47554759_const" type="Const" version="opset1">
			<data element_type="f16" offset="9448" shape="" size="2"/>
			<output>
				<port id="1" precision="FP16"/>
			</output>
		</layer>
		<layer id="124" name="47564760_const" type="Const" version="opset1">
			<data element_type="f16" offset="21368" shape="" size="2"/>
			<output>
				<port id="1" precision="FP16"/>
			</output>
		</layer>
		<layer id="125" name="47574761_const" type="Const" version="opset1">
			<data element_type="f16" offset="9448" shape="" size="2"/>
			<output>
				<port id="1" precision="FP16"/>
			</output>
		</layer>
		<layer id="126" name="47584762_const" type="Const" version="opset1">
			<data element_type="f16" offset="21368" shape="" size="2"/>
			<output>
				<port id="1" precision="FP16"/>
			</output>
		</layer>
		<layer id="127" name="623/fq_input_0" type="FakeQuantize" version="opset1">
			<data levels="256"/>
			<input>
				<port id="0">
					<dim>1</dim>
					<dim>64</dim>
					<dim>64</dim>
					<dim>32</dim>
				</port>
				<port id="1"/>
				<port id="2"/>
				<port id="3"/>
				<port id="4"/>
			</input>
			<output>
				<port id="5" precision="FP16">
					<dim>1</dim>
					<dim>64</dim>
					<dim>64</dim>
					<dim>32</dim>
				</port>
			</output>
		</layer>
		<layer id="128" name="575/fq_weights_1/Convert_to_float/Cast_020246_const" type="Const" version="opset1">
			<data element_type="u8" offset="21370" shape="64,64,1,1" size="4096"/>
			<output>
				<port id="1" precision="U8">
					<dim>64</dim>
					<dim>64</dim>
					<dim>1</dim>
					<dim>1</dim>
				</port>
			</output>
		</layer>
		<layer id="129" name="575/fq_weights_1/Convert_to_float" type="Convert" version="opset1">
			<data destination_type="f16"/>
			<input>
				<port id="0">
					<dim>64</dim>
					<dim>64</dim>
					<dim>1</dim>
					<dim>1</dim>
				</port>
			</input>
			<output>
				<port id="1" precision="FP16">
					<dim>64</dim>
					<dim>64</dim>
					<dim>1</dim>
					<dim>1</dim>
				</port>
			</output>
		</layer>
		<layer id="130" name="575/fq_weights_1/Copy/out_low17245_const" type="Const" version="opset1">
			<data element_type="f16" offset="9448" shape="1" size="2"/>
			<output>
				<port id="1" precision="FP16">
					<dim>1</dim>
				</port>
			</output>
		</layer>
		<layer id="131" name="575/fq_weights_1/Copy/out_high17246_const" type="Const" version="opset1">
			<data element_type="f16" offset="9450" shape="1" size="2"/>
			<output>
				<port id="1" precision="FP16">
					<dim>1</dim>
				</port>
			</output>
		</layer>
		<layer id="132" name="43174321_const" type="Const" version="opset1">
			<data element_type="f16" offset="25466" shape="64,1,1,1" size="128"/>
			<output>
				<port id="1" precision="FP16">
					<dim>64</dim>
					<dim>1</dim>
					<dim>1</dim>
					<dim>1</dim>
				</port>
			</output>
		</layer>
		<layer id="133" name="43184322_const" type="Const" version="opset1">
			<data element_type="f16" offset="25594" shape="64,1,1,1" size="128"/>
			<output>
				<port id="1" precision="FP16">
					<dim>64</dim>
					<dim>1</dim>
					<dim>1</dim>
					<dim>1</dim>
				</port>
			</output>
		</layer>
		<layer id="134" name="575/fq_weights_1" type="FakeQuantize" version="opset1">
			<data levels="255"/>
			<input>
				<port id="0">
					<dim>64</dim>
					<dim>64</dim>
					<dim>1</dim>
					<dim>1</dim>
				</port>
				<port id="1">
					<dim>1</dim>
				</port>
				<port id="2">
					<dim>1</dim>
				</port>
				<port id="3">
					<dim>64</dim>
					<dim>1</dim>
					<dim>1</dim>
					<dim>1</dim>
				</port>
				<port id="4">
					<dim>64</dim>
					<dim>1</dim>
					<dim>1</dim>
					<dim>1</dim>
				</port>
			</input>
			<output>
				<port id="5" precision="FP16">
					<dim>64</dim>
					<dim>64</dim>
					<dim>1</dim>
					<dim>1</dim>
				</port>
			</output>
		</layer>
		<layer id="135" name="575" type="Convolution" version="opset1">
			<data dilations="1,1" output_padding="0,0" pads_begin="0,0" pads_end="0,0" strides="1,1"/>
			<input>
				<port id="0">
					<dim>1</dim>
					<dim>64</dim>
					<dim>64</dim>
					<dim>32</dim>
				</port>
				<port id="1">
					<dim>64</dim>
					<dim>64</dim>
					<dim>1</dim>
					<dim>1</dim>
				</port>
			</input>
			<output>
				<port id="2" precision="FP16">
					<dim>1</dim>
					<dim>64</dim>
					<dim>64</dim>
					<dim>32</dim>
				</port>
			</output>
		</layer>
		<layer id="136" name="26382640_const" type="Const" version="opset1">
			<data element_type="f16" offset="9708" shape="1,64,1,1" size="128"/>
			<output>
				<port id="1" precision="FP16">
					<dim>1</dim>
					<dim>64</dim>
					<dim>1</dim>
					<dim>1</dim>
				</port>
			</output>
		</layer>
		<layer id="137" name="575/add_" type="Add" version="opset1">
			<input>
				<port id="0">
					<dim>1</dim>
					<dim>64</dim>
					<dim>64</dim>
					<dim>32</dim>
				</port>
				<port id="1">
					<dim>1</dim>
					<dim>64</dim>
					<dim>1</dim>
					<dim>1</dim>
				</port>
			</input>
			<output>
				<port id="2" precision="FP16">
					<dim>1</dim>
					<dim>64</dim>
					<dim>64</dim>
					<dim>32</dim>
				</port>
			</output>
		</layer>
		<layer id="138" name="62356239_const" type="Const" version="opset1">
			<data element_type="f16" offset="25722" shape="1,64,1,1" size="128"/>
			<output>
				<port id="1" precision="FP16">
					<dim>1</dim>
					<dim>64</dim>
					<dim>1</dim>
					<dim>1</dim>
				</port>
			</output>
		</layer>
		<layer id="139" name="62366240_const" type="Const" version="opset1">
			<data element_type="f16" offset="25850" shape="1,64,1,1" size="128"/>
			<output>
				<port id="1" precision="FP16">
					<dim>1</dim>
					<dim>64</dim>
					<dim>1</dim>
					<dim>1</dim>
				</port>
			</output>
		</layer>
		<layer id="140" name="62376241_const" type="Const" version="opset1">
			<data element_type="f16" offset="25722" shape="1,64,1,1" size="128"/>
			<output>
				<port id="1" precision="FP16">
					<dim>1</dim>
					<dim>64</dim>
					<dim>1</dim>
					<dim>1</dim>
				</port>
			</output>
		</layer>
		<layer id="141" name="62386242_const" type="Const" version="opset1">
			<data element_type="f16" offset="25850" shape="1,64,1,1" size="128"/>
			<output>
				<port id="1" precision="FP16">
					<dim>1</dim>
					<dim>64</dim>
					<dim>1</dim>
					<dim>1</dim>
				</port>
			</output>
		</layer>
		<layer id="142" name="576/fq_input_0" type="FakeQuantize" version="opset1">
			<data levels="256"/>
			<input>
				<port id="0">
					<dim>1</dim>
					<dim>64</dim>
					<dim>64</dim>
					<dim>32</dim>
				</port>
				<port id="1">
					<dim>1</dim>
					<dim>64</dim>
					<dim>1</dim>
					<dim>1</dim>
				</port>
				<port id="2">
					<dim>1</dim>
					<dim>64</dim>
					<dim>1</dim>
					<dim>1</dim>
				</port>
				<port id="3">
					<dim>1</dim>
					<dim>64</dim>
					<dim>1</dim>
					<dim>1</dim>
				</port>
				<port id="4">
					<dim>1</dim>
					<dim>64</dim>
					<dim>1</dim>
					<dim>1</dim>
				</port>
			</input>
			<output>
				<port id="5" precision="FP16">
					<dim>1</dim>
					<dim>64</dim>
					<dim>64</dim>
					<dim>32</dim>
				</port>
			</output>
		</layer>
		<layer id="143" name="576/fq_weights_1/Convert_to_float/Cast_020186_const" type="Const" version="opset1">
			<data element_type="u8" offset="25978" shape="64,1,3,3" size="576"/>
			<output>
				<port id="1" precision="U8">
					<dim>64</dim>
					<dim>1</dim>
					<dim>3</dim>
					<dim>3</dim>
				</port>
			</output>
		</layer>
		<layer id="144" name="576/fq_weights_1/Convert_to_float" type="Convert" version="opset1">
			<data destination_type="f16"/>
			<input>
				<port id="0">
					<dim>64</dim>
					<dim>1</dim>
					<dim>3</dim>
					<dim>3</dim>
				</port>
			</input>
			<output>
				<port id="1" precision="FP16">
					<dim>64</dim>
					<dim>1</dim>
					<dim>3</dim>
					<dim>3</dim>
				</port>
			</output>
		</layer>
		<layer id="145" name="576/fq_weights_1/Copy/out_low17077_const" type="Const" version="opset1">
			<data element_type="f16" offset="9448" shape="1" size="2"/>
			<output>
				<port id="1" precision="FP16">
					<dim>1</dim>
				</port>
			</output>
		</layer>
		<layer id="146" name="576/fq_weights_1/Copy/out_high17078_const" type="Const" version="opset1">
			<data element_type="f16" offset="9450" shape="1" size="2"/>
			<output>
				<port id="1" precision="FP16">
					<dim>1</dim>
				</port>
			</output>
		</layer>
		<layer id="147" name="62476251_const" type="Const" version="opset1">
			<data element_type="f16" offset="26554" shape="64,1,1,1" size="128"/>
			<output>
				<port id="1" precision="FP16">
					<dim>64</dim>
					<dim>1</dim>
					<dim>1</dim>
					<dim>1</dim>
				</port>
			</output>
		</layer>
		<layer id="148" name="62486252_const" type="Const" version="opset1">
			<data element_type="f16" offset="26682" shape="64,1,1,1" size="128"/>
			<output>
				<port id="1" precision="FP16">
					<dim>64</dim>
					<dim>1</dim>
					<dim>1</dim>
					<dim>1</dim>
				</port>
			</output>
		</layer>
		<layer id="149" name="576/fq_weights_1" type="FakeQuantize" version="opset1">
			<data levels="255"/>
			<input>
				<port id="0">
					<dim>64</dim>
					<dim>1</dim>
					<dim>3</dim>
					<dim>3</dim>
				</port>
				<port id="1">
					<dim>1</dim>
				</port>
				<port id="2">
					<dim>1</dim>
				</port>
				<port id="3">
					<dim>64</dim>
					<dim>1</dim>
					<dim>1</dim>
					<dim>1</dim>
				</port>
				<port id="4">
					<dim>64</dim>
					<dim>1</dim>
					<dim>1</dim>
					<dim>1</dim>
				</port>
			</input>
			<output>
				<port id="5" precision="FP16">
					<dim>64</dim>
					<dim>1</dim>
					<dim>3</dim>
					<dim>3</dim>
				</port>
			</output>
		</layer>
		<layer id="150" name="22464/value22466_const" type="Const" version="opset1">
			<data element_type="i64" offset="20020" shape="5" size="40"/>
			<output>
				<port id="1" precision="I64">
					<dim>5</dim>
				</port>
			</output>
		</layer>
		<layer id="151" name="22464" type="Reshape" version="opset1">
			<data special_zero="True"/>
			<input>
				<port id="0">
					<dim>64</dim>
					<dim>1</dim>
					<dim>3</dim>
					<dim>3</dim>
				</port>
				<port id="1">
					<dim>5</dim>
				</port>
			</input>
			<output>
				<port id="2" precision="FP16">
					<dim>64</dim>
					<dim>1</dim>
					<dim>1</dim>
					<dim>3</dim>
					<dim>3</dim>
				</port>
			</output>
		</layer>
		<layer id="152" name="576" type="GroupConvolution" version="opset1">
			<data dilations="1,1" output_padding="0,0" pads_begin="1,1" pads_end="1,1" strides="1,1"/>
			<input>
				<port id="0">
					<dim>1</dim>
					<dim>64</dim>
					<dim>64</dim>
					<dim>32</dim>
				</port>
				<port id="1">
					<dim>64</dim>
					<dim>1</dim>
					<dim>1</dim>
					<dim>3</dim>
					<dim>3</dim>
				</port>
			</input>
			<output>
				<port id="2" precision="FP16">
					<dim>1</dim>
					<dim>64</dim>
					<dim>64</dim>
					<dim>32</dim>
				</port>
			</output>
		</layer>
		<layer id="153" name="data_add_2119021195/copy_const1162_const" type="Const" version="opset1">
			<data element_type="f16" offset="26810" shape="1,64,1,1" size="128"/>
			<output>
				<port id="1" precision="FP16">
					<dim>1</dim>
					<dim>64</dim>
					<dim>1</dim>
					<dim>1</dim>
				</port>
			</output>
		</layer>
		<layer id="154" name="577/variance/Fused_Add_" type="Add" version="opset1">
			<input>
				<port id="0">
					<dim>1</dim>
					<dim>64</dim>
					<dim>64</dim>
					<dim>32</dim>
				</port>
				<port id="1">
					<dim>1</dim>
					<dim>64</dim>
					<dim>1</dim>
					<dim>1</dim>
				</port>
			</input>
			<output>
				<port id="2" precision="FP16">
					<dim>1</dim>
					<dim>64</dim>
					<dim>64</dim>
					<dim>32</dim>
				</port>
			</output>
		</layer>
		<layer id="155" name="578" type="ReLU" version="opset1">
			<input>
				<port id="0">
					<dim>1</dim>
					<dim>64</dim>
					<dim>64</dim>
					<dim>32</dim>
				</port>
			</input>
			<output>
				<port id="1" precision="FP16">
					<dim>1</dim>
					<dim>64</dim>
					<dim>64</dim>
					<dim>32</dim>
				</port>
			</output>
		</layer>
		<layer id="156" name="44554459_const" type="Const" version="opset1">
			<data element_type="f16" offset="9448" shape="" size="2"/>
			<output>
				<port id="1" precision="FP16"/>
			</output>
		</layer>
		<layer id="157" name="44564460_const" type="Const" version="opset1">
			<data element_type="f16" offset="26938" shape="" size="2"/>
			<output>
				<port id="1" precision="FP16"/>
			</output>
		</layer>
		<layer id="158" name="44574461_const" type="Const" version="opset1">
			<data element_type="f16" offset="9448" shape="" size="2"/>
			<output>
				<port id="1" precision="FP16"/>
			</output>
		</layer>
		<layer id="159" name="44584462_const" type="Const" version="opset1">
			<data element_type="f16" offset="26938" shape="" size="2"/>
			<output>
				<port id="1" precision="FP16"/>
			</output>
		</layer>
		<layer id="160" name="579/fq_input_0" type="FakeQuantize" version="opset1">
			<data levels="256"/>
			<input>
				<port id="0">
					<dim>1</dim>
					<dim>64</dim>
					<dim>64</dim>
					<dim>32</dim>
				</port>
				<port id="1"/>
				<port id="2"/>
				<port id="3"/>
				<port id="4"/>
			</input>
			<output>
				<port id="5" precision="FP16">
					<dim>1</dim>
					<dim>64</dim>
					<dim>64</dim>
					<dim>32</dim>
				</port>
			</output>
		</layer>
		<layer id="161" name="579/fq_weights_1/Convert_to_float/Cast_020312_const" type="Const" version="opset1">
			<data element_type="u8" offset="26940" shape="64,64,1,1" size="4096"/>
			<output>
				<port id="1" precision="U8">
					<dim>64</dim>
					<dim>64</dim>
					<dim>1</dim>
					<dim>1</dim>
				</port>
			</output>
		</layer>
		<layer id="162" name="579/fq_weights_1/Convert_to_float" type="Convert" version="opset1">
			<data destination_type="f16"/>
			<input>
				<port id="0">
					<dim>64</dim>
					<dim>64</dim>
					<dim>1</dim>
					<dim>1</dim>
				</port>
			</input>
			<output>
				<port id="1" precision="FP16">
					<dim>64</dim>
					<dim>64</dim>
					<dim>1</dim>
					<dim>1</dim>
				</port>
			</output>
		</layer>
		<layer id="163" name="579/fq_weights_1/Copy/out_low17149_const" type="Const" version="opset1">
			<data element_type="f16" offset="9448" shape="1" size="2"/>
			<output>
				<port id="1" precision="FP16">
					<dim>1</dim>
				</port>
			</output>
		</layer>
		<layer id="164" name="579/fq_weights_1/Copy/out_high17150_const" type="Const" version="opset1">
			<data element_type="f16" offset="9450" shape="1" size="2"/>
			<output>
				<port id="1" precision="FP16">
					<dim>1</dim>
				</port>
			</output>
		</layer>
		<layer id="165" name="44674471_const" type="Const" version="opset1">
			<data element_type="f16" offset="31036" shape="64,1,1,1" size="128"/>
			<output>
				<port id="1" precision="FP16">
					<dim>64</dim>
					<dim>1</dim>
					<dim>1</dim>
					<dim>1</dim>
				</port>
			</output>
		</layer>
		<layer id="166" name="44684472_const" type="Const" version="opset1">
			<data element_type="f16" offset="31164" shape="64,1,1,1" size="128"/>
			<output>
				<port id="1" precision="FP16">
					<dim>64</dim>
					<dim>1</dim>
					<dim>1</dim>
					<dim>1</dim>
				</port>
			</output>
		</layer>
		<layer id="167" name="579/fq_weights_1" type="FakeQuantize" version="opset1">
			<data levels="255"/>
			<input>
				<port id="0">
					<dim>64</dim>
					<dim>64</dim>
					<dim>1</dim>
					<dim>1</dim>
				</port>
				<port id="1">
					<dim>1</dim>
				</port>
				<port id="2">
					<dim>1</dim>
				</port>
				<port id="3">
					<dim>64</dim>
					<dim>1</dim>
					<dim>1</dim>
					<dim>1</dim>
				</port>
				<port id="4">
					<dim>64</dim>
					<dim>1</dim>
					<dim>1</dim>
					<dim>1</dim>
				</port>
			</input>
			<output>
				<port id="5" precision="FP16">
					<dim>64</dim>
					<dim>64</dim>
					<dim>1</dim>
					<dim>1</dim>
				</port>
			</output>
		</layer>
		<layer id="168" name="579" type="Convolution" version="opset1">
			<data dilations="1,1" output_padding="0,0" pads_begin="0,0" pads_end="0,0" strides="1,1"/>
			<input>
				<port id="0">
					<dim>1</dim>
					<dim>64</dim>
					<dim>64</dim>
					<dim>32</dim>
				</port>
				<port id="1">
					<dim>64</dim>
					<dim>64</dim>
					<dim>1</dim>
					<dim>1</dim>
				</port>
			</input>
			<output>
				<port id="2" precision="FP16">
					<dim>1</dim>
					<dim>64</dim>
					<dim>64</dim>
					<dim>32</dim>
				</port>
			</output>
		</layer>
		<layer id="169" name="26422644_const" type="Const" version="opset1">
			<data element_type="f16" offset="9708" shape="1,64,1,1" size="128"/>
			<output>
				<port id="1" precision="FP16">
					<dim>1</dim>
					<dim>64</dim>
					<dim>1</dim>
					<dim>1</dim>
				</port>
			</output>
		</layer>
		<layer id="170" name="579/add_" type="Add" version="opset1">
			<input>
				<port id="0">
					<dim>1</dim>
					<dim>64</dim>
					<dim>64</dim>
					<dim>32</dim>
				</port>
				<port id="1">
					<dim>1</dim>
					<dim>64</dim>
					<dim>1</dim>
					<dim>1</dim>
				</port>
			</input>
			<output>
				<port id="2" precision="FP16">
					<dim>1</dim>
					<dim>64</dim>
					<dim>64</dim>
					<dim>32</dim>
				</port>
			</output>
		</layer>
		<layer id="171" name="53855389_const" type="Const" version="opset1">
			<data element_type="f16" offset="31292" shape="1,64,1,1" size="128"/>
			<output>
				<port id="1" precision="FP16">
					<dim>1</dim>
					<dim>64</dim>
					<dim>1</dim>
					<dim>1</dim>
				</port>
			</output>
		</layer>
		<layer id="172" name="53865390_const" type="Const" version="opset1">
			<data element_type="f16" offset="31420" shape="1,64,1,1" size="128"/>
			<output>
				<port id="1" precision="FP16">
					<dim>1</dim>
					<dim>64</dim>
					<dim>1</dim>
					<dim>1</dim>
				</port>
			</output>
		</layer>
		<layer id="173" name="53875391_const" type="Const" version="opset1">
			<data element_type="f16" offset="31292" shape="1,64,1,1" size="128"/>
			<output>
				<port id="1" precision="FP16">
					<dim>1</dim>
					<dim>64</dim>
					<dim>1</dim>
					<dim>1</dim>
				</port>
			</output>
		</layer>
		<layer id="174" name="53885392_const" type="Const" version="opset1">
			<data element_type="f16" offset="31420" shape="1,64,1,1" size="128"/>
			<output>
				<port id="1" precision="FP16">
					<dim>1</dim>
					<dim>64</dim>
					<dim>1</dim>
					<dim>1</dim>
				</port>
			</output>
		</layer>
		<layer id="175" name="580/fq_input_0" type="FakeQuantize" version="opset1">
			<data levels="256"/>
			<input>
				<port id="0">
					<dim>1</dim>
					<dim>64</dim>
					<dim>64</dim>
					<dim>32</dim>
				</port>
				<port id="1">
					<dim>1</dim>
					<dim>64</dim>
					<dim>1</dim>
					<dim>1</dim>
				</port>
				<port id="2">
					<dim>1</dim>
					<dim>64</dim>
					<dim>1</dim>
					<dim>1</dim>
				</port>
				<port id="3">
					<dim>1</dim>
					<dim>64</dim>
					<dim>1</dim>
					<dim>1</dim>
				</port>
				<port id="4">
					<dim>1</dim>
					<dim>64</dim>
					<dim>1</dim>
					<dim>1</dim>
				</port>
			</input>
			<output>
				<port id="5" precision="FP16">
					<dim>1</dim>
					<dim>64</dim>
					<dim>64</dim>
					<dim>32</dim>
				</port>
			</output>
		</layer>
		<layer id="176" name="580/fq_weights_1/Convert_to_float/Cast_020370_const" type="Const" version="opset1">
			<data element_type="u8" offset="31548" shape="64,1,3,3" size="576"/>
			<output>
				<port id="1" precision="U8">
					<dim>64</dim>
					<dim>1</dim>
					<dim>3</dim>
					<dim>3</dim>
				</port>
			</output>
		</layer>
		<layer id="177" name="580/fq_weights_1/Convert_to_float" type="Convert" version="opset1">
			<data destination_type="f16"/>
			<input>
				<port id="0">
					<dim>64</dim>
					<dim>1</dim>
					<dim>3</dim>
					<dim>3</dim>
				</port>
			</input>
			<output>
				<port id="1" precision="FP16">
					<dim>64</dim>
					<dim>1</dim>
					<dim>3</dim>
					<dim>3</dim>
				</port>
			</output>
		</layer>
		<layer id="178" name="580/fq_weights_1/Copy/out_low17357_const" type="Const" version="opset1">
			<data element_type="f16" offset="9448" shape="1" size="2"/>
			<output>
				<port id="1" precision="FP16">
					<dim>1</dim>
				</port>
			</output>
		</layer>
		<layer id="179" name="580/fq_weights_1/Copy/out_high17358_const" type="Const" version="opset1">
			<data element_type="f16" offset="9450" shape="1" size="2"/>
			<output>
				<port id="1" precision="FP16">
					<dim>1</dim>
				</port>
			</output>
		</layer>
		<layer id="180" name="53975401_const" type="Const" version="opset1">
			<data element_type="f16" offset="32124" shape="64,1,1,1" size="128"/>
			<output>
				<port id="1" precision="FP16">
					<dim>64</dim>
					<dim>1</dim>
					<dim>1</dim>
					<dim>1</dim>
				</port>
			</output>
		</layer>
		<layer id="181" name="53985402_const" type="Const" version="opset1">
			<data element_type="f16" offset="32252" shape="64,1,1,1" size="128"/>
			<output>
				<port id="1" precision="FP16">
					<dim>64</dim>
					<dim>1</dim>
					<dim>1</dim>
					<dim>1</dim>
				</port>
			</output>
		</layer>
		<layer id="182" name="580/fq_weights_1" type="FakeQuantize" version="opset1">
			<data levels="255"/>
			<input>
				<port id="0">
					<dim>64</dim>
					<dim>1</dim>
					<dim>3</dim>
					<dim>3</dim>
				</port>
				<port id="1">
					<dim>1</dim>
				</port>
				<port id="2">
					<dim>1</dim>
				</port>
				<port id="3">
					<dim>64</dim>
					<dim>1</dim>
					<dim>1</dim>
					<dim>1</dim>
				</port>
				<port id="4">
					<dim>64</dim>
					<dim>1</dim>
					<dim>1</dim>
					<dim>1</dim>
				</port>
			</input>
			<output>
				<port id="5" precision="FP16">
					<dim>64</dim>
					<dim>1</dim>
					<dim>3</dim>
					<dim>3</dim>
				</port>
			</output>
		</layer>
		<layer id="183" name="22396/value22398_const" type="Const" version="opset1">
			<data element_type="i64" offset="20020" shape="5" size="40"/>
			<output>
				<port id="1" precision="I64">
					<dim>5</dim>
				</port>
			</output>
		</layer>
		<layer id="184" name="22396" type="Reshape" version="opset1">
			<data special_zero="True"/>
			<input>
				<port id="0">
					<dim>64</dim>
					<dim>1</dim>
					<dim>3</dim>
					<dim>3</dim>
				</port>
				<port id="1">
					<dim>5</dim>
				</port>
			</input>
			<output>
				<port id="2" precision="FP16">
					<dim>64</dim>
					<dim>1</dim>
					<dim>1</dim>
					<dim>3</dim>
					<dim>3</dim>
				</port>
			</output>
		</layer>
		<layer id="185" name="580" type="GroupConvolution" version="opset1">
			<data dilations="1,1" output_padding="0,0" pads_begin="1,1" pads_end="1,1" strides="1,1"/>
			<input>
				<port id="0">
					<dim>1</dim>
					<dim>64</dim>
					<dim>64</dim>
					<dim>32</dim>
				</port>
				<port id="1">
					<dim>64</dim>
					<dim>1</dim>
					<dim>1</dim>
					<dim>3</dim>
					<dim>3</dim>
				</port>
			</input>
			<output>
				<port id="2" precision="FP16">
					<dim>1</dim>
					<dim>64</dim>
					<dim>64</dim>
					<dim>32</dim>
				</port>
			</output>
		</layer>
		<layer id="186" name="data_add_2119821203/copy_const1169_const" type="Const" version="opset1">
			<data element_type="f16" offset="32380" shape="1,64,1,1" size="128"/>
			<output>
				<port id="1" precision="FP16">
					<dim>1</dim>
					<dim>64</dim>
					<dim>1</dim>
					<dim>1</dim>
				</port>
			</output>
		</layer>
		<layer id="187" name="581/variance/Fused_Add_" type="Add" version="opset1">
			<input>
				<port id="0">
					<dim>1</dim>
					<dim>64</dim>
					<dim>64</dim>
					<dim>32</dim>
				</port>
				<port id="1">
					<dim>1</dim>
					<dim>64</dim>
					<dim>1</dim>
					<dim>1</dim>
				</port>
			</input>
			<output>
				<port id="2" precision="FP16">
					<dim>1</dim>
					<dim>64</dim>
					<dim>64</dim>
					<dim>32</dim>
				</port>
			</output>
		</layer>
		<layer id="188" name="582" type="ReLU" version="opset1">
			<input>
				<port id="0">
					<dim>1</dim>
					<dim>64</dim>
					<dim>64</dim>
					<dim>32</dim>
				</port>
			</input>
			<output>
				<port id="1" precision="FP16">
					<dim>1</dim>
					<dim>64</dim>
					<dim>64</dim>
					<dim>32</dim>
				</port>
			</output>
		</layer>
		<layer id="189" name="42954299_const" type="Const" version="opset1">
			<data element_type="f16" offset="9448" shape="" size="2"/>
			<output>
				<port id="1" precision="FP16"/>
			</output>
		</layer>
		<layer id="190" name="42964300_const" type="Const" version="opset1">
			<data element_type="f16" offset="32508" shape="" size="2"/>
			<output>
				<port id="1" precision="FP16"/>
			</output>
		</layer>
		<layer id="191" name="42974301_const" type="Const" version="opset1">
			<data element_type="f16" offset="9448" shape="" size="2"/>
			<output>
				<port id="1" precision="FP16"/>
			</output>
		</layer>
		<layer id="192" name="42984302_const" type="Const" version="opset1">
			<data element_type="f16" offset="32508" shape="" size="2"/>
			<output>
				<port id="1" precision="FP16"/>
			</output>
		</layer>
		<layer id="193" name="617/reduce/fq_input_0" type="FakeQuantize" version="opset1">
			<data levels="256"/>
			<input>
				<port id="0">
					<dim>1</dim>
					<dim>64</dim>
					<dim>64</dim>
					<dim>32</dim>
				</port>
				<port id="1"/>
				<port id="2"/>
				<port id="3"/>
				<port id="4"/>
			</input>
			<output>
				<port id="5" precision="FP16">
					<dim>1</dim>
					<dim>64</dim>
					<dim>64</dim>
					<dim>32</dim>
				</port>
			</output>
		</layer>
		<layer id="194" name="1273/Output_0/Data__const1172_const" type="Const" version="opset1">
			<data element_type="i64" offset="20190" shape="" size="8"/>
			<output>
				<port id="1" precision="I64"/>
			</output>
		</layer>
		<layer id="195" name="617/input_rank/shape_of" type="ShapeOf" version="opset3">
			<data output_type="i64"/>
			<input>
				<port id="0">
					<dim>1</dim>
					<dim>64</dim>
					<dim>64</dim>
					<dim>32</dim>
				</port>
			</input>
			<output>
				<port id="1" precision="I64">
					<dim>4</dim>
				</port>
			</output>
		</layer>
		<layer id="196" name="617/input_rank/rank_of" type="ShapeOf" version="opset3">
			<data output_type="i64"/>
			<input>
				<port id="0">
					<dim>4</dim>
				</port>
			</input>
			<output>
				<port id="1" precision="I64">
					<dim>1</dim>
				</port>
			</output>
		</layer>
		<layer id="197" name="617/input_rank/0d_rank_of/value/Output_0/Data__const1175_const" type="Const" version="opset1">
			<data element_type="i64" offset="20198" shape="1" size="8"/>
			<output>
				<port id="1" precision="I64">
					<dim>1</dim>
				</port>
			</output>
		</layer>
		<layer id="198" name="617/input_rank" type="Squeeze" version="opset1">
			<input>
				<port id="0">
					<dim>1</dim>
				</port>
				<port id="1">
					<dim>1</dim>
				</port>
			</input>
			<output>
				<port id="2" precision="I64"/>
			</output>
		</layer>
		<layer id="199" name="1275/Output_0/Data__const1177_const" type="Const" version="opset1">
			<data element_type="i64" offset="0" shape="" size="8"/>
			<output>
				<port id="1" precision="I64"/>
			</output>
		</layer>
		<layer id="200" name="617/global_pooling_reduce_axis" type="Range" version="opset4">
			<data output_type="i64"/>
			<input>
				<port id="0"/>
				<port id="1"/>
				<port id="2"/>
			</input>
			<output>
				<port id="3" precision="I64">
					<dim>2</dim>
				</port>
			</output>
		</layer>
		<layer id="201" name="617/reduce" type="ReduceMean" version="opset1">
			<data keep_dims="True"/>
			<input>
				<port id="0">
					<dim>1</dim>
					<dim>64</dim>
					<dim>64</dim>
					<dim>32</dim>
				</port>
				<port id="1">
					<dim>2</dim>
				</port>
			</input>
			<output>
				<port id="2" precision="FP16">
					<dim>1</dim>
					<dim>64</dim>
					<dim>1</dim>
					<dim>1</dim>
				</port>
			</output>
		</layer>
		<layer id="202" name="Copy_onnx_initializer_node_conv2.0.gate.fc1.weight/Output_0/Data_4074_const1180_const" type="Const" version="opset1">
			<data element_type="f16" offset="20206" shape="4,64,1,1" size="512"/>
			<output>
				<port id="1" precision="FP16">
					<dim>4</dim>
					<dim>64</dim>
					<dim>1</dim>
					<dim>1</dim>
				</port>
			</output>
		</layer>
		<layer id="203" name="618/WithoutBiases" type="Convolution" version="opset1">
			<data dilations="1,1" output_padding="0,0" pads_begin="0,0" pads_end="0,0" strides="1,1"/>
			<input>
				<port id="0">
					<dim>1</dim>
					<dim>64</dim>
					<dim>1</dim>
					<dim>1</dim>
				</port>
				<port id="1">
					<dim>4</dim>
					<dim>64</dim>
					<dim>1</dim>
					<dim>1</dim>
				</port>
			</input>
			<output>
				<port id="2" precision="FP16">
					<dim>1</dim>
					<dim>4</dim>
					<dim>1</dim>
					<dim>1</dim>
				</port>
			</output>
		</layer>
		<layer id="204" name="618/Dims12827/copy_const1182_const" type="Const" version="opset1">
			<data element_type="f16" offset="20718" shape="1,4,1,1" size="8"/>
			<output>
				<port id="1" precision="FP16">
					<dim>1</dim>
					<dim>4</dim>
					<dim>1</dim>
					<dim>1</dim>
				</port>
			</output>
		</layer>
		<layer id="205" name="618" type="Add" version="opset1">
			<input>
				<port id="0">
					<dim>1</dim>
					<dim>4</dim>
					<dim>1</dim>
					<dim>1</dim>
				</port>
				<port id="1">
					<dim>1</dim>
					<dim>4</dim>
					<dim>1</dim>
					<dim>1</dim>
				</port>
			</input>
			<output>
				<port id="2" precision="FP16">
					<dim>1</dim>
					<dim>4</dim>
					<dim>1</dim>
					<dim>1</dim>
				</port>
			</output>
		</layer>
		<layer id="206" name="619" type="ReLU" version="opset1">
			<input>
				<port id="0">
					<dim>1</dim>
					<dim>4</dim>
					<dim>1</dim>
					<dim>1</dim>
				</port>
			</input>
			<output>
				<port id="1" precision="FP16">
					<dim>1</dim>
					<dim>4</dim>
					<dim>1</dim>
					<dim>1</dim>
				</port>
			</output>
		</layer>
		<layer id="207" name="Copy_onnx_initializer_node_conv2.0.gate.fc2.weight/Output_0/Data_4082_const1185_const" type="Const" version="opset1">
			<data element_type="f16" offset="20726" shape="64,4,1,1" size="512"/>
			<output>
				<port id="1" precision="FP16">
					<dim>64</dim>
					<dim>4</dim>
					<dim>1</dim>
					<dim>1</dim>
				</port>
			</output>
		</layer>
		<layer id="208" name="620/WithoutBiases" type="Convolution" version="opset1">
			<data dilations="1,1" output_padding="0,0" pads_begin="0,0" pads_end="0,0" strides="1,1"/>
			<input>
				<port id="0">
					<dim>1</dim>
					<dim>4</dim>
					<dim>1</dim>
					<dim>1</dim>
				</port>
				<port id="1">
					<dim>64</dim>
					<dim>4</dim>
					<dim>1</dim>
					<dim>1</dim>
				</port>
			</input>
			<output>
				<port id="2" precision="FP16">
					<dim>1</dim>
					<dim>64</dim>
					<dim>1</dim>
					<dim>1</dim>
				</port>
			</output>
		</layer>
		<layer id="209" name="620/Dims12857/copy_const1187_const" type="Const" version="opset1">
			<data element_type="f16" offset="21238" shape="1,64,1,1" size="128"/>
			<output>
				<port id="1" precision="FP16">
					<dim>1</dim>
					<dim>64</dim>
					<dim>1</dim>
					<dim>1</dim>
				</port>
			</output>
		</layer>
		<layer id="210" name="620" type="Add" version="opset1">
			<input>
				<port id="0">
					<dim>1</dim>
					<dim>64</dim>
					<dim>1</dim>
					<dim>1</dim>
				</port>
				<port id="1">
					<dim>1</dim>
					<dim>64</dim>
					<dim>1</dim>
					<dim>1</dim>
				</port>
			</input>
			<output>
				<port id="2" precision="FP16">
					<dim>1</dim>
					<dim>64</dim>
					<dim>1</dim>
					<dim>1</dim>
				</port>
			</output>
		</layer>
		<layer id="211" name="621" type="Sigmoid" version="opset1">
			<input>
				<port id="0">
					<dim>1</dim>
					<dim>64</dim>
					<dim>1</dim>
					<dim>1</dim>
				</port>
			</input>
			<output>
				<port id="1" precision="FP16">
					<dim>1</dim>
					<dim>64</dim>
					<dim>1</dim>
					<dim>1</dim>
				</port>
			</output>
		</layer>
		<layer id="212" name="54355439_const" type="Const" version="opset1">
			<data element_type="f16" offset="9448" shape="" size="2"/>
			<output>
				<port id="1" precision="FP16"/>
			</output>
		</layer>
		<layer id="213" name="54365440_const" type="Const" version="opset1">
			<data element_type="f16" offset="32510" shape="" size="2"/>
			<output>
				<port id="1" precision="FP16"/>
			</output>
		</layer>
		<layer id="214" name="54375441_const" type="Const" version="opset1">
			<data element_type="f16" offset="9448" shape="" size="2"/>
			<output>
				<port id="1" precision="FP16"/>
			</output>
		</layer>
		<layer id="215" name="54385442_const" type="Const" version="opset1">
			<data element_type="f16" offset="32510" shape="" size="2"/>
			<output>
				<port id="1" precision="FP16"/>
			</output>
		</layer>
		<layer id="216" name="622/fq_input_1" type="FakeQuantize" version="opset1">
			<data levels="256"/>
			<input>
				<port id="0">
					<dim>1</dim>
					<dim>64</dim>
					<dim>1</dim>
					<dim>1</dim>
				</port>
				<port id="1"/>
				<port id="2"/>
				<port id="3"/>
				<port id="4"/>
			</input>
			<output>
				<port id="5" precision="FP16">
					<dim>1</dim>
					<dim>64</dim>
					<dim>1</dim>
					<dim>1</dim>
				</port>
			</output>
		</layer>
		<layer id="217" name="622" type="Multiply" version="opset1">
			<input>
				<port id="0">
					<dim>1</dim>
					<dim>64</dim>
					<dim>64</dim>
					<dim>32</dim>
				</port>
				<port id="1">
					<dim>1</dim>
					<dim>64</dim>
					<dim>1</dim>
					<dim>1</dim>
				</port>
			</input>
			<output>
				<port id="2" precision="FP16">
					<dim>1</dim>
					<dim>64</dim>
					<dim>64</dim>
					<dim>32</dim>
				</port>
			</output>
		</layer>
		<layer id="218" name="47654769_const" type="Const" version="opset1">
			<data element_type="f16" offset="9448" shape="" size="2"/>
			<output>
				<port id="1" precision="FP16"/>
			</output>
		</layer>
		<layer id="219" name="47664770_const" type="Const" version="opset1">
			<data element_type="f16" offset="32512" shape="" size="2"/>
			<output>
				<port id="1" precision="FP16"/>
			</output>
		</layer>
		<layer id="220" name="47674771_const" type="Const" version="opset1">
			<data element_type="f16" offset="9448" shape="" size="2"/>
			<output>
				<port id="1" precision="FP16"/>
			</output>
		</layer>
		<layer id="221" name="47684772_const" type="Const" version="opset1">
			<data element_type="f16" offset="32512" shape="" size="2"/>
			<output>
				<port id="1" precision="FP16"/>
			</output>
		</layer>
		<layer id="222" name="623/fq_input_1" type="FakeQuantize" version="opset1">
			<data levels="256"/>
			<input>
				<port id="0">
					<dim>1</dim>
					<dim>64</dim>
					<dim>64</dim>
					<dim>32</dim>
				</port>
				<port id="1"/>
				<port id="2"/>
				<port id="3"/>
				<port id="4"/>
			</input>
			<output>
				<port id="5" precision="FP16">
					<dim>1</dim>
					<dim>64</dim>
					<dim>64</dim>
					<dim>32</dim>
				</port>
			</output>
		</layer>
		<layer id="223" name="623" type="Add" version="opset1">
			<input>
				<port id="0">
					<dim>1</dim>
					<dim>64</dim>
					<dim>64</dim>
					<dim>32</dim>
				</port>
				<port id="1">
					<dim>1</dim>
					<dim>64</dim>
					<dim>64</dim>
					<dim>32</dim>
				</port>
			</input>
			<output>
				<port id="2" precision="FP16">
					<dim>1</dim>
					<dim>64</dim>
					<dim>64</dim>
					<dim>32</dim>
				</port>
			</output>
		</layer>
		<layer id="224" name="58855889_const" type="Const" version="opset1">
			<data element_type="f16" offset="9448" shape="" size="2"/>
			<output>
				<port id="1" precision="FP16"/>
			</output>
		</layer>
		<layer id="225" name="58865890_const" type="Const" version="opset1">
			<data element_type="f16" offset="32514" shape="" size="2"/>
			<output>
				<port id="1" precision="FP16"/>
			</output>
		</layer>
		<layer id="226" name="58875891_const" type="Const" version="opset1">
			<data element_type="f16" offset="9448" shape="" size="2"/>
			<output>
				<port id="1" precision="FP16"/>
			</output>
		</layer>
		<layer id="227" name="58885892_const" type="Const" version="opset1">
			<data element_type="f16" offset="32514" shape="" size="2"/>
			<output>
				<port id="1" precision="FP16"/>
			</output>
		</layer>
		<layer id="228" name="630/fq_input_0" type="FakeQuantize" version="opset1">
			<data levels="256"/>
			<input>
				<port id="0">
					<dim>1</dim>
					<dim>64</dim>
					<dim>64</dim>
					<dim>32</dim>
				</port>
				<port id="1"/>
				<port id="2"/>
				<port id="3"/>
				<port id="4"/>
			</input>
			<output>
				<port id="5" precision="FP16">
					<dim>1</dim>
					<dim>64</dim>
					<dim>64</dim>
					<dim>32</dim>
				</port>
			</output>
		</layer>
		<layer id="229" name="583/fq_weights_1/Convert_to_float/Cast_020082_const" type="Const" version="opset1">
			<data element_type="u8" offset="32516" shape="64,64,1,1" size="4096"/>
			<output>
				<port id="1" precision="U8">
					<dim>64</dim>
					<dim>64</dim>
					<dim>1</dim>
					<dim>1</dim>
				</port>
			</output>
		</layer>
		<layer id="230" name="583/fq_weights_1/Convert_to_float" type="Convert" version="opset1">
			<data destination_type="f16"/>
			<input>
				<port id="0">
					<dim>64</dim>
					<dim>64</dim>
					<dim>1</dim>
					<dim>1</dim>
				</port>
			</input>
			<output>
				<port id="1" precision="FP16">
					<dim>64</dim>
					<dim>64</dim>
					<dim>1</dim>
					<dim>1</dim>
				</port>
			</output>
		</layer>
		<layer id="231" name="583/fq_weights_1/Copy/out_low17485_const" type="Const" version="opset1">
			<data element_type="f16" offset="9448" shape="1" size="2"/>
			<output>
				<port id="1" precision="FP16">
					<dim>1</dim>
				</port>
			</output>
		</layer>
		<layer id="232" name="583/fq_weights_1/Copy/out_high17486_const" type="Const" version="opset1">
			<data element_type="f16" offset="9450" shape="1" size="2"/>
			<output>
				<port id="1" precision="FP16">
					<dim>1</dim>
				</port>
			</output>
		</layer>
		<layer id="233" name="70477051_const" type="Const" version="opset1">
			<data element_type="f16" offset="36612" shape="64,1,1,1" size="128"/>
			<output>
				<port id="1" precision="FP16">
					<dim>64</dim>
					<dim>1</dim>
					<dim>1</dim>
					<dim>1</dim>
				</port>
			</output>
		</layer>
		<layer id="234" name="70487052_const" type="Const" version="opset1">
			<data element_type="f16" offset="36740" shape="64,1,1,1" size="128"/>
			<output>
				<port id="1" precision="FP16">
					<dim>64</dim>
					<dim>1</dim>
					<dim>1</dim>
					<dim>1</dim>
				</port>
			</output>
		</layer>
		<layer id="235" name="583/fq_weights_1" type="FakeQuantize" version="opset1">
			<data levels="255"/>
			<input>
				<port id="0">
					<dim>64</dim>
					<dim>64</dim>
					<dim>1</dim>
					<dim>1</dim>
				</port>
				<port id="1">
					<dim>1</dim>
				</port>
				<port id="2">
					<dim>1</dim>
				</port>
				<port id="3">
					<dim>64</dim>
					<dim>1</dim>
					<dim>1</dim>
					<dim>1</dim>
				</port>
				<port id="4">
					<dim>64</dim>
					<dim>1</dim>
					<dim>1</dim>
					<dim>1</dim>
				</port>
			</input>
			<output>
				<port id="5" precision="FP16">
					<dim>64</dim>
					<dim>64</dim>
					<dim>1</dim>
					<dim>1</dim>
				</port>
			</output>
		</layer>
		<layer id="236" name="583" type="Convolution" version="opset1">
			<data dilations="1,1" output_padding="0,0" pads_begin="0,0" pads_end="0,0" strides="1,1"/>
			<input>
				<port id="0">
					<dim>1</dim>
					<dim>64</dim>
					<dim>64</dim>
					<dim>32</dim>
				</port>
				<port id="1">
					<dim>64</dim>
					<dim>64</dim>
					<dim>1</dim>
					<dim>1</dim>
				</port>
			</input>
			<output>
				<port id="2" precision="FP16">
					<dim>1</dim>
					<dim>64</dim>
					<dim>64</dim>
					<dim>32</dim>
				</port>
			</output>
		</layer>
		<layer id="237" name="26462648_const" type="Const" version="opset1">
			<data element_type="f16" offset="9708" shape="1,64,1,1" size="128"/>
			<output>
				<port id="1" precision="FP16">
					<dim>1</dim>
					<dim>64</dim>
					<dim>1</dim>
					<dim>1</dim>
				</port>
			</output>
		</layer>
		<layer id="238" name="583/add_" type="Add" version="opset1">
			<input>
				<port id="0">
					<dim>1</dim>
					<dim>64</dim>
					<dim>64</dim>
					<dim>32</dim>
				</port>
				<port id="1">
					<dim>1</dim>
					<dim>64</dim>
					<dim>1</dim>
					<dim>1</dim>
				</port>
			</input>
			<output>
				<port id="2" precision="FP16">
					<dim>1</dim>
					<dim>64</dim>
					<dim>64</dim>
					<dim>32</dim>
				</port>
			</output>
		</layer>
		<layer id="239" name="50855089_const" type="Const" version="opset1">
			<data element_type="f16" offset="36868" shape="1,64,1,1" size="128"/>
			<output>
				<port id="1" precision="FP16">
					<dim>1</dim>
					<dim>64</dim>
					<dim>1</dim>
					<dim>1</dim>
				</port>
			</output>
		</layer>
		<layer id="240" name="50865090_const" type="Const" version="opset1">
			<data element_type="f16" offset="36996" shape="1,64,1,1" size="128"/>
			<output>
				<port id="1" precision="FP16">
					<dim>1</dim>
					<dim>64</dim>
					<dim>1</dim>
					<dim>1</dim>
				</port>
			</output>
		</layer>
		<layer id="241" name="50875091_const" type="Const" version="opset1">
			<data element_type="f16" offset="36868" shape="1,64,1,1" size="128"/>
			<output>
				<port id="1" precision="FP16">
					<dim>1</dim>
					<dim>64</dim>
					<dim>1</dim>
					<dim>1</dim>
				</port>
			</output>
		</layer>
		<layer id="242" name="50885092_const" type="Const" version="opset1">
			<data element_type="f16" offset="36996" shape="1,64,1,1" size="128"/>
			<output>
				<port id="1" precision="FP16">
					<dim>1</dim>
					<dim>64</dim>
					<dim>1</dim>
					<dim>1</dim>
				</port>
			</output>
		</layer>
		<layer id="243" name="584/fq_input_0" type="FakeQuantize" version="opset1">
			<data levels="256"/>
			<input>
				<port id="0">
					<dim>1</dim>
					<dim>64</dim>
					<dim>64</dim>
					<dim>32</dim>
				</port>
				<port id="1">
					<dim>1</dim>
					<dim>64</dim>
					<dim>1</dim>
					<dim>1</dim>
				</port>
				<port id="2">
					<dim>1</dim>
					<dim>64</dim>
					<dim>1</dim>
					<dim>1</dim>
				</port>
				<port id="3">
					<dim>1</dim>
					<dim>64</dim>
					<dim>1</dim>
					<dim>1</dim>
				</port>
				<port id="4">
					<dim>1</dim>
					<dim>64</dim>
					<dim>1</dim>
					<dim>1</dim>
				</port>
			</input>
			<output>
				<port id="5" precision="FP16">
					<dim>1</dim>
					<dim>64</dim>
					<dim>64</dim>
					<dim>32</dim>
				</port>
			</output>
		</layer>
		<layer id="244" name="584/fq_weights_1/Convert_to_float/Cast_020252_const" type="Const" version="opset1">
			<data element_type="u8" offset="37124" shape="64,1,3,3" size="576"/>
			<output>
				<port id="1" precision="U8">
					<dim>64</dim>
					<dim>1</dim>
					<dim>3</dim>
					<dim>3</dim>
				</port>
			</output>
		</layer>
		<layer id="245" name="584/fq_weights_1/Convert_to_float" type="Convert" version="opset1">
			<data destination_type="f16"/>
			<input>
				<port id="0">
					<dim>64</dim>
					<dim>1</dim>
					<dim>3</dim>
					<dim>3</dim>
				</port>
			</input>
			<output>
				<port id="1" precision="FP16">
					<dim>64</dim>
					<dim>1</dim>
					<dim>3</dim>
					<dim>3</dim>
				</port>
			</output>
		</layer>
		<layer id="246" name="584/fq_weights_1/Copy/out_low17669_const" type="Const" version="opset1">
			<data element_type="f16" offset="9448" shape="1" size="2"/>
			<output>
				<port id="1" precision="FP16">
					<dim>1</dim>
				</port>
			</output>
		</layer>
		<layer id="247" name="584/fq_weights_1/Copy/out_high17670_const" type="Const" version="opset1">
			<data element_type="f16" offset="9450" shape="1" size="2"/>
			<output>
				<port id="1" precision="FP16">
					<dim>1</dim>
				</port>
			</output>
		</layer>
		<layer id="248" name="50975101_const" type="Const" version="opset1">
			<data element_type="f16" offset="37700" shape="64,1,1,1" size="128"/>
			<output>
				<port id="1" precision="FP16">
					<dim>64</dim>
					<dim>1</dim>
					<dim>1</dim>
					<dim>1</dim>
				</port>
			</output>
		</layer>
		<layer id="249" name="50985102_const" type="Const" version="opset1">
			<data element_type="f16" offset="37828" shape="64,1,1,1" size="128"/>
			<output>
				<port id="1" precision="FP16">
					<dim>64</dim>
					<dim>1</dim>
					<dim>1</dim>
					<dim>1</dim>
				</port>
			</output>
		</layer>
		<layer id="250" name="584/fq_weights_1" type="FakeQuantize" version="opset1">
			<data levels="255"/>
			<input>
				<port id="0">
					<dim>64</dim>
					<dim>1</dim>
					<dim>3</dim>
					<dim>3</dim>
				</port>
				<port id="1">
					<dim>1</dim>
				</port>
				<port id="2">
					<dim>1</dim>
				</port>
				<port id="3">
					<dim>64</dim>
					<dim>1</dim>
					<dim>1</dim>
					<dim>1</dim>
				</port>
				<port id="4">
					<dim>64</dim>
					<dim>1</dim>
					<dim>1</dim>
					<dim>1</dim>
				</port>
			</input>
			<output>
				<port id="5" precision="FP16">
					<dim>64</dim>
					<dim>1</dim>
					<dim>3</dim>
					<dim>3</dim>
				</port>
			</output>
		</layer>
		<layer id="251" name="22584/value22586_const" type="Const" version="opset1">
			<data element_type="i64" offset="20020" shape="5" size="40"/>
			<output>
				<port id="1" precision="I64">
					<dim>5</dim>
				</port>
			</output>
		</layer>
		<layer id="252" name="22584" type="Reshape" version="opset1">
			<data special_zero="True"/>
			<input>
				<port id="0">
					<dim>64</dim>
					<dim>1</dim>
					<dim>3</dim>
					<dim>3</dim>
				</port>
				<port id="1">
					<dim>5</dim>
				</port>
			</input>
			<output>
				<port id="2" precision="FP16">
					<dim>64</dim>
					<dim>1</dim>
					<dim>1</dim>
					<dim>3</dim>
					<dim>3</dim>
				</port>
			</output>
		</layer>
		<layer id="253" name="584" type="GroupConvolution" version="opset1">
			<data dilations="1,1" output_padding="0,0" pads_begin="1,1" pads_end="1,1" strides="1,1"/>
			<input>
				<port id="0">
					<dim>1</dim>
					<dim>64</dim>
					<dim>64</dim>
					<dim>32</dim>
				</port>
				<port id="1">
					<dim>64</dim>
					<dim>1</dim>
					<dim>1</dim>
					<dim>3</dim>
					<dim>3</dim>
				</port>
			</input>
			<output>
				<port id="2" precision="FP16">
					<dim>1</dim>
					<dim>64</dim>
					<dim>64</dim>
					<dim>32</dim>
				</port>
			</output>
		</layer>
		<layer id="254" name="data_add_2116621171/copy_const1196_const" type="Const" version="opset1">
			<data element_type="f16" offset="37956" shape="1,64,1,1" size="128"/>
			<output>
				<port id="1" precision="FP16">
					<dim>1</dim>
					<dim>64</dim>
					<dim>1</dim>
					<dim>1</dim>
				</port>
			</output>
		</layer>
		<layer id="255" name="585/variance/Fused_Add_" type="Add" version="opset1">
			<input>
				<port id="0">
					<dim>1</dim>
					<dim>64</dim>
					<dim>64</dim>
					<dim>32</dim>
				</port>
				<port id="1">
					<dim>1</dim>
					<dim>64</dim>
					<dim>1</dim>
					<dim>1</dim>
				</port>
			</input>
			<output>
				<port id="2" precision="FP16">
					<dim>1</dim>
					<dim>64</dim>
					<dim>64</dim>
					<dim>32</dim>
				</port>
			</output>
		</layer>
		<layer id="256" name="586" type="ReLU" version="opset1">
			<input>
				<port id="0">
					<dim>1</dim>
					<dim>64</dim>
					<dim>64</dim>
					<dim>32</dim>
				</port>
			</input>
			<output>
				<port id="1" precision="FP16">
					<dim>1</dim>
					<dim>64</dim>
					<dim>64</dim>
					<dim>32</dim>
				</port>
			</output>
		</layer>
		<layer id="257" name="64856489_const" type="Const" version="opset1">
			<data element_type="f16" offset="9448" shape="" size="2"/>
			<output>
				<port id="1" precision="FP16"/>
			</output>
		</layer>
		<layer id="258" name="64866490_const" type="Const" version="opset1">
			<data element_type="f16" offset="38084" shape="" size="2"/>
			<output>
				<port id="1" precision="FP16"/>
			</output>
		</layer>
		<layer id="259" name="64876491_const" type="Const" version="opset1">
			<data element_type="f16" offset="9448" shape="" size="2"/>
			<output>
				<port id="1" precision="FP16"/>
			</output>
		</layer>
		<layer id="260" name="64886492_const" type="Const" version="opset1">
			<data element_type="f16" offset="38084" shape="" size="2"/>
			<output>
				<port id="1" precision="FP16"/>
			</output>
		</layer>
		<layer id="261" name="587/fq_input_0" type="FakeQuantize" version="opset1">
			<data levels="256"/>
			<input>
				<port id="0">
					<dim>1</dim>
					<dim>64</dim>
					<dim>64</dim>
					<dim>32</dim>
				</port>
				<port id="1"/>
				<port id="2"/>
				<port id="3"/>
				<port id="4"/>
			</input>
			<output>
				<port id="5" precision="FP16">
					<dim>1</dim>
					<dim>64</dim>
					<dim>64</dim>
					<dim>32</dim>
				</port>
			</output>
		</layer>
		<layer id="262" name="587/fq_weights_1/Convert_to_float/Cast_020352_const" type="Const" version="opset1">
			<data element_type="u8" offset="38086" shape="64,64,1,1" size="4096"/>
			<output>
				<port id="1" precision="U8">
					<dim>64</dim>
					<dim>64</dim>
					<dim>1</dim>
					<dim>1</dim>
				</port>
			</output>
		</layer>
		<layer id="263" name="587/fq_weights_1/Convert_to_float" type="Convert" version="opset1">
			<data destination_type="f16"/>
			<input>
				<port id="0">
					<dim>64</dim>
					<dim>64</dim>
					<dim>1</dim>
					<dim>1</dim>
				</port>
			</input>
			<output>
				<port id="1" precision="FP16">
					<dim>64</dim>
					<dim>64</dim>
					<dim>1</dim>
					<dim>1</dim>
				</port>
			</output>
		</layer>
		<layer id="264" name="587/fq_weights_1/Copy/out_low17293_const" type="Const" version="opset1">
			<data element_type="f16" offset="9448" shape="1" size="2"/>
			<output>
				<port id="1" precision="FP16">
					<dim>1</dim>
				</port>
			</output>
		</layer>
		<layer id="265" name="587/fq_weights_1/Copy/out_high17294_const" type="Const" version="opset1">
			<data element_type="f16" offset="9450" shape="1" size="2"/>
			<output>
				<port id="1" precision="FP16">
					<dim>1</dim>
				</port>
			</output>
		</layer>
		<layer id="266" name="64976501_const" type="Const" version="opset1">
			<data element_type="f16" offset="42182" shape="64,1,1,1" size="128"/>
			<output>
				<port id="1" precision="FP16">
					<dim>64</dim>
					<dim>1</dim>
					<dim>1</dim>
					<dim>1</dim>
				</port>
			</output>
		</layer>
		<layer id="267" name="64986502_const" type="Const" version="opset1">
			<data element_type="f16" offset="42310" shape="64,1,1,1" size="128"/>
			<output>
				<port id="1" precision="FP16">
					<dim>64</dim>
					<dim>1</dim>
					<dim>1</dim>
					<dim>1</dim>
				</port>
			</output>
		</layer>
		<layer id="268" name="587/fq_weights_1" type="FakeQuantize" version="opset1">
			<data levels="255"/>
			<input>
				<port id="0">
					<dim>64</dim>
					<dim>64</dim>
					<dim>1</dim>
					<dim>1</dim>
				</port>
				<port id="1">
					<dim>1</dim>
				</port>
				<port id="2">
					<dim>1</dim>
				</port>
				<port id="3">
					<dim>64</dim>
					<dim>1</dim>
					<dim>1</dim>
					<dim>1</dim>
				</port>
				<port id="4">
					<dim>64</dim>
					<dim>1</dim>
					<dim>1</dim>
					<dim>1</dim>
				</port>
			</input>
			<output>
				<port id="5" precision="FP16">
					<dim>64</dim>
					<dim>64</dim>
					<dim>1</dim>
					<dim>1</dim>
				</port>
			</output>
		</layer>
		<layer id="269" name="587" type="Convolution" version="opset1">
			<data dilations="1,1" output_padding="0,0" pads_begin="0,0" pads_end="0,0" strides="1,1"/>
			<input>
				<port id="0">
					<dim>1</dim>
					<dim>64</dim>
					<dim>64</dim>
					<dim>32</dim>
				</port>
				<port id="1">
					<dim>64</dim>
					<dim>64</dim>
					<dim>1</dim>
					<dim>1</dim>
				</port>
			</input>
			<output>
				<port id="2" precision="FP16">
					<dim>1</dim>
					<dim>64</dim>
					<dim>64</dim>
					<dim>32</dim>
				</port>
			</output>
		</layer>
		<layer id="270" name="26502652_const" type="Const" version="opset1">
			<data element_type="f16" offset="9708" shape="1,64,1,1" size="128"/>
			<output>
				<port id="1" precision="FP16">
					<dim>1</dim>
					<dim>64</dim>
					<dim>1</dim>
					<dim>1</dim>
				</port>
			</output>
		</layer>
		<layer id="271" name="587/add_" type="Add" version="opset1">
			<input>
				<port id="0">
					<dim>1</dim>
					<dim>64</dim>
					<dim>64</dim>
					<dim>32</dim>
				</port>
				<port id="1">
					<dim>1</dim>
					<dim>64</dim>
					<dim>1</dim>
					<dim>1</dim>
				</port>
			</input>
			<output>
				<port id="2" precision="FP16">
					<dim>1</dim>
					<dim>64</dim>
					<dim>64</dim>
					<dim>32</dim>
				</port>
			</output>
		</layer>
		<layer id="272" name="62156219_const" type="Const" version="opset1">
			<data element_type="f16" offset="42438" shape="1,64,1,1" size="128"/>
			<output>
				<port id="1" precision="FP16">
					<dim>1</dim>
					<dim>64</dim>
					<dim>1</dim>
					<dim>1</dim>
				</port>
			</output>
		</layer>
		<layer id="273" name="62166220_const" type="Const" version="opset1">
			<data element_type="f16" offset="42566" shape="1,64,1,1" size="128"/>
			<output>
				<port id="1" precision="FP16">
					<dim>1</dim>
					<dim>64</dim>
					<dim>1</dim>
					<dim>1</dim>
				</port>
			</output>
		</layer>
		<layer id="274" name="62176221_const" type="Const" version="opset1">
			<data element_type="f16" offset="42438" shape="1,64,1,1" size="128"/>
			<output>
				<port id="1" precision="FP16">
					<dim>1</dim>
					<dim>64</dim>
					<dim>1</dim>
					<dim>1</dim>
				</port>
			</output>
		</layer>
		<layer id="275" name="62186222_const" type="Const" version="opset1">
			<data element_type="f16" offset="42566" shape="1,64,1,1" size="128"/>
			<output>
				<port id="1" precision="FP16">
					<dim>1</dim>
					<dim>64</dim>
					<dim>1</dim>
					<dim>1</dim>
				</port>
			</output>
		</layer>
		<layer id="276" name="588/fq_input_0" type="FakeQuantize" version="opset1">
			<data levels="256"/>
			<input>
				<port id="0">
					<dim>1</dim>
					<dim>64</dim>
					<dim>64</dim>
					<dim>32</dim>
				</port>
				<port id="1">
					<dim>1</dim>
					<dim>64</dim>
					<dim>1</dim>
					<dim>1</dim>
				</port>
				<port id="2">
					<dim>1</dim>
					<dim>64</dim>
					<dim>1</dim>
					<dim>1</dim>
				</port>
				<port id="3">
					<dim>1</dim>
					<dim>64</dim>
					<dim>1</dim>
					<dim>1</dim>
				</port>
				<port id="4">
					<dim>1</dim>
					<dim>64</dim>
					<dim>1</dim>
					<dim>1</dim>
				</port>
			</input>
			<output>
				<port id="5" precision="FP16">
					<dim>1</dim>
					<dim>64</dim>
					<dim>64</dim>
					<dim>32</dim>
				</port>
			</output>
		</layer>
		<layer id="277" name="588/fq_weights_1/Convert_to_float/Cast_020068_const" type="Const" version="opset1">
			<data element_type="u8" offset="42694" shape="64,1,3,3" size="576"/>
			<output>
				<port id="1" precision="U8">
					<dim>64</dim>
					<dim>1</dim>
					<dim>3</dim>
					<dim>3</dim>
				</port>
			</output>
		</layer>
		<layer id="278" name="588/fq_weights_1/Convert_to_float" type="Convert" version="opset1">
			<data destination_type="f16"/>
			<input>
				<port id="0">
					<dim>64</dim>
					<dim>1</dim>
					<dim>3</dim>
					<dim>3</dim>
				</port>
			</input>
			<output>
				<port id="1" precision="FP16">
					<dim>64</dim>
					<dim>1</dim>
					<dim>3</dim>
					<dim>3</dim>
				</port>
			</output>
		</layer>
		<layer id="279" name="588/fq_weights_1/Copy/out_low17165_const" type="Const" version="opset1">
			<data element_type="f16" offset="9448" shape="1" size="2"/>
			<output>
				<port id="1" precision="FP16">
					<dim>1</dim>
				</port>
			</output>
		</layer>
		<layer id="280" name="588/fq_weights_1/Copy/out_high17166_const" type="Const" version="opset1">
			<data element_type="f16" offset="9450" shape="1" size="2"/>
			<output>
				<port id="1" precision="FP16">
					<dim>1</dim>
				</port>
			</output>
		</layer>
		<layer id="281" name="62276231_const" type="Const" version="opset1">
			<data element_type="f16" offset="43270" shape="64,1,1,1" size="128"/>
			<output>
				<port id="1" precision="FP16">
					<dim>64</dim>
					<dim>1</dim>
					<dim>1</dim>
					<dim>1</dim>
				</port>
			</output>
		</layer>
		<layer id="282" name="62286232_const" type="Const" version="opset1">
			<data element_type="f16" offset="43398" shape="64,1,1,1" size="128"/>
			<output>
				<port id="1" precision="FP16">
					<dim>64</dim>
					<dim>1</dim>
					<dim>1</dim>
					<dim>1</dim>
				</port>
			</output>
		</layer>
		<layer id="283" name="588/fq_weights_1" type="FakeQuantize" version="opset1">
			<data levels="255"/>
			<input>
				<port id="0">
					<dim>64</dim>
					<dim>1</dim>
					<dim>3</dim>
					<dim>3</dim>
				</port>
				<port id="1">
					<dim>1</dim>
				</port>
				<port id="2">
					<dim>1</dim>
				</port>
				<port id="3">
					<dim>64</dim>
					<dim>1</dim>
					<dim>1</dim>
					<dim>1</dim>
				</port>
				<port id="4">
					<dim>64</dim>
					<dim>1</dim>
					<dim>1</dim>
					<dim>1</dim>
				</port>
			</input>
			<output>
				<port id="5" precision="FP16">
					<dim>64</dim>
					<dim>1</dim>
					<dim>3</dim>
					<dim>3</dim>
				</port>
			</output>
		</layer>
		<layer id="284" name="22520/value22522_const" type="Const" version="opset1">
			<data element_type="i64" offset="20020" shape="5" size="40"/>
			<output>
				<port id="1" precision="I64">
					<dim>5</dim>
				</port>
			</output>
		</layer>
		<layer id="285" name="22520" type="Reshape" version="opset1">
			<data special_zero="True"/>
			<input>
				<port id="0">
					<dim>64</dim>
					<dim>1</dim>
					<dim>3</dim>
					<dim>3</dim>
				</port>
				<port id="1">
					<dim>5</dim>
				</port>
			</input>
			<output>
				<port id="2" precision="FP16">
					<dim>64</dim>
					<dim>1</dim>
					<dim>1</dim>
					<dim>3</dim>
					<dim>3</dim>
				</port>
			</output>
		</layer>
		<layer id="286" name="588" type="GroupConvolution" version="opset1">
			<data dilations="1,1" output_padding="0,0" pads_begin="1,1" pads_end="1,1" strides="1,1"/>
			<input>
				<port id="0">
					<dim>1</dim>
					<dim>64</dim>
					<dim>64</dim>
					<dim>32</dim>
				</port>
				<port id="1">
					<dim>64</dim>
					<dim>1</dim>
					<dim>1</dim>
					<dim>3</dim>
					<dim>3</dim>
				</port>
			</input>
			<output>
				<port id="2" precision="FP16">
					<dim>1</dim>
					<dim>64</dim>
					<dim>64</dim>
					<dim>32</dim>
				</port>
			</output>
		</layer>
		<layer id="287" name="data_add_2117421179/copy_const1203_const" type="Const" version="opset1">
			<data element_type="f16" offset="43526" shape="1,64,1,1" size="128"/>
			<output>
				<port id="1" precision="FP16">
					<dim>1</dim>
					<dim>64</dim>
					<dim>1</dim>
					<dim>1</dim>
				</port>
			</output>
		</layer>
		<layer id="288" name="589/variance/Fused_Add_" type="Add" version="opset1">
			<input>
				<port id="0">
					<dim>1</dim>
					<dim>64</dim>
					<dim>64</dim>
					<dim>32</dim>
				</port>
				<port id="1">
					<dim>1</dim>
					<dim>64</dim>
					<dim>1</dim>
					<dim>1</dim>
				</port>
			</input>
			<output>
				<port id="2" precision="FP16">
					<dim>1</dim>
					<dim>64</dim>
					<dim>64</dim>
					<dim>32</dim>
				</port>
			</output>
		</layer>
		<layer id="289" name="590" type="ReLU" version="opset1">
			<input>
				<port id="0">
					<dim>1</dim>
					<dim>64</dim>
					<dim>64</dim>
					<dim>32</dim>
				</port>
			</input>
			<output>
				<port id="1" precision="FP16">
					<dim>1</dim>
					<dim>64</dim>
					<dim>64</dim>
					<dim>32</dim>
				</port>
			</output>
		</layer>
		<layer id="290" name="59455949_const" type="Const" version="opset1">
			<data element_type="f16" offset="9448" shape="" size="2"/>
			<output>
				<port id="1" precision="FP16"/>
			</output>
		</layer>
		<layer id="291" name="59465950_const" type="Const" version="opset1">
			<data element_type="f16" offset="43654" shape="" size="2"/>
			<output>
				<port id="1" precision="FP16"/>
			</output>
		</layer>
		<layer id="292" name="59475951_const" type="Const" version="opset1">
			<data element_type="f16" offset="9448" shape="" size="2"/>
			<output>
				<port id="1" precision="FP16"/>
			</output>
		</layer>
		<layer id="293" name="59485952_const" type="Const" version="opset1">
			<data element_type="f16" offset="43654" shape="" size="2"/>
			<output>
				<port id="1" precision="FP16"/>
			</output>
		</layer>
		<layer id="294" name="591/fq_input_0" type="FakeQuantize" version="opset1">
			<data levels="256"/>
			<input>
				<port id="0">
					<dim>1</dim>
					<dim>64</dim>
					<dim>64</dim>
					<dim>32</dim>
				</port>
				<port id="1"/>
				<port id="2"/>
				<port id="3"/>
				<port id="4"/>
			</input>
			<output>
				<port id="5" precision="FP16">
					<dim>1</dim>
					<dim>64</dim>
					<dim>64</dim>
					<dim>32</dim>
				</port>
			</output>
		</layer>
		<layer id="295" name="591/fq_weights_1/Convert_to_float/Cast_020038_const" type="Const" version="opset1">
			<data element_type="u8" offset="43656" shape="64,64,1,1" size="4096"/>
			<output>
				<port id="1" precision="U8">
					<dim>64</dim>
					<dim>64</dim>
					<dim>1</dim>
					<dim>1</dim>
				</port>
			</output>
		</layer>
		<layer id="296" name="591/fq_weights_1/Convert_to_float" type="Convert" version="opset1">
			<data destination_type="f16"/>
			<input>
				<port id="0">
					<dim>64</dim>
					<dim>64</dim>
					<dim>1</dim>
					<dim>1</dim>
				</port>
			</input>
			<output>
				<port id="1" precision="FP16">
					<dim>64</dim>
					<dim>64</dim>
					<dim>1</dim>
					<dim>1</dim>
				</port>
			</output>
		</layer>
		<layer id="297" name="591/fq_weights_1/Copy/out_low17141_const" type="Const" version="opset1">
			<data element_type="f16" offset="9448" shape="1" size="2"/>
			<output>
				<port id="1" precision="FP16">
					<dim>1</dim>
				</port>
			</output>
		</layer>
		<layer id="298" name="591/fq_weights_1/Copy/out_high17142_const" type="Const" version="opset1">
			<data element_type="f16" offset="9450" shape="1" size="2"/>
			<output>
				<port id="1" precision="FP16">
					<dim>1</dim>
				</port>
			</output>
		</layer>
		<layer id="299" name="59575961_const" type="Const" version="opset1">
			<data element_type="f16" offset="47752" shape="64,1,1,1" size="128"/>
			<output>
				<port id="1" precision="FP16">
					<dim>64</dim>
					<dim>1</dim>
					<dim>1</dim>
					<dim>1</dim>
				</port>
			</output>
		</layer>
		<layer id="300" name="59585962_const" type="Const" version="opset1">
			<data element_type="f16" offset="47880" shape="64,1,1,1" size="128"/>
			<output>
				<port id="1" precision="FP16">
					<dim>64</dim>
					<dim>1</dim>
					<dim>1</dim>
					<dim>1</dim>
				</port>
			</output>
		</layer>
		<layer id="301" name="591/fq_weights_1" type="FakeQuantize" version="opset1">
			<data levels="255"/>
			<input>
				<port id="0">
					<dim>64</dim>
					<dim>64</dim>
					<dim>1</dim>
					<dim>1</dim>
				</port>
				<port id="1">
					<dim>1</dim>
				</port>
				<port id="2">
					<dim>1</dim>
				</port>
				<port id="3">
					<dim>64</dim>
					<dim>1</dim>
					<dim>1</dim>
					<dim>1</dim>
				</port>
				<port id="4">
					<dim>64</dim>
					<dim>1</dim>
					<dim>1</dim>
					<dim>1</dim>
				</port>
			</input>
			<output>
				<port id="5" precision="FP16">
					<dim>64</dim>
					<dim>64</dim>
					<dim>1</dim>
					<dim>1</dim>
				</port>
			</output>
		</layer>
		<layer id="302" name="591" type="Convolution" version="opset1">
			<data dilations="1,1" output_padding="0,0" pads_begin="0,0" pads_end="0,0" strides="1,1"/>
			<input>
				<port id="0">
					<dim>1</dim>
					<dim>64</dim>
					<dim>64</dim>
					<dim>32</dim>
				</port>
				<port id="1">
					<dim>64</dim>
					<dim>64</dim>
					<dim>1</dim>
					<dim>1</dim>
				</port>
			</input>
			<output>
				<port id="2" precision="FP16">
					<dim>1</dim>
					<dim>64</dim>
					<dim>64</dim>
					<dim>32</dim>
				</port>
			</output>
		</layer>
		<layer id="303" name="26542656_const" type="Const" version="opset1">
			<data element_type="f16" offset="9708" shape="1,64,1,1" size="128"/>
			<output>
				<port id="1" precision="FP16">
					<dim>1</dim>
					<dim>64</dim>
					<dim>1</dim>
					<dim>1</dim>
				</port>
			</output>
		</layer>
		<layer id="304" name="591/add_" type="Add" version="opset1">
			<input>
				<port id="0">
					<dim>1</dim>
					<dim>64</dim>
					<dim>64</dim>
					<dim>32</dim>
				</port>
				<port id="1">
					<dim>1</dim>
					<dim>64</dim>
					<dim>1</dim>
					<dim>1</dim>
				</port>
			</input>
			<output>
				<port id="2" precision="FP16">
					<dim>1</dim>
					<dim>64</dim>
					<dim>64</dim>
					<dim>32</dim>
				</port>
			</output>
		</layer>
		<layer id="305" name="55155519_const" type="Const" version="opset1">
			<data element_type="f16" offset="48008" shape="1,64,1,1" size="128"/>
			<output>
				<port id="1" precision="FP16">
					<dim>1</dim>
					<dim>64</dim>
					<dim>1</dim>
					<dim>1</dim>
				</port>
			</output>
		</layer>
		<layer id="306" name="55165520_const" type="Const" version="opset1">
			<data element_type="f16" offset="48136" shape="1,64,1,1" size="128"/>
			<output>
				<port id="1" precision="FP16">
					<dim>1</dim>
					<dim>64</dim>
					<dim>1</dim>
					<dim>1</dim>
				</port>
			</output>
		</layer>
		<layer id="307" name="55175521_const" type="Const" version="opset1">
			<data element_type="f16" offset="48008" shape="1,64,1,1" size="128"/>
			<output>
				<port id="1" precision="FP16">
					<dim>1</dim>
					<dim>64</dim>
					<dim>1</dim>
					<dim>1</dim>
				</port>
			</output>
		</layer>
		<layer id="308" name="55185522_const" type="Const" version="opset1">
			<data element_type="f16" offset="48136" shape="1,64,1,1" size="128"/>
			<output>
				<port id="1" precision="FP16">
					<dim>1</dim>
					<dim>64</dim>
					<dim>1</dim>
					<dim>1</dim>
				</port>
			</output>
		</layer>
		<layer id="309" name="592/fq_input_0" type="FakeQuantize" version="opset1">
			<data levels="256"/>
			<input>
				<port id="0">
					<dim>1</dim>
					<dim>64</dim>
					<dim>64</dim>
					<dim>32</dim>
				</port>
				<port id="1">
					<dim>1</dim>
					<dim>64</dim>
					<dim>1</dim>
					<dim>1</dim>
				</port>
				<port id="2">
					<dim>1</dim>
					<dim>64</dim>
					<dim>1</dim>
					<dim>1</dim>
				</port>
				<port id="3">
					<dim>1</dim>
					<dim>64</dim>
					<dim>1</dim>
					<dim>1</dim>
				</port>
				<port id="4">
					<dim>1</dim>
					<dim>64</dim>
					<dim>1</dim>
					<dim>1</dim>
				</port>
			</input>
			<output>
				<port id="5" precision="FP16">
					<dim>1</dim>
					<dim>64</dim>
					<dim>64</dim>
					<dim>32</dim>
				</port>
			</output>
		</layer>
		<layer id="310" name="592/fq_weights_1/Convert_to_float/Cast_020288_const" type="Const" version="opset1">
			<data element_type="u8" offset="48264" shape="64,1,3,3" size="576"/>
			<output>
				<port id="1" precision="U8">
					<dim>64</dim>
					<dim>1</dim>
					<dim>3</dim>
					<dim>3</dim>
				</port>
			</output>
		</layer>
		<layer id="311" name="592/fq_weights_1/Convert_to_float" type="Convert" version="opset1">
			<data destination_type="f16"/>
			<input>
				<port id="0">
					<dim>64</dim>
					<dim>1</dim>
					<dim>3</dim>
					<dim>3</dim>
				</port>
			</input>
			<output>
				<port id="1" precision="FP16">
					<dim>64</dim>
					<dim>1</dim>
					<dim>3</dim>
					<dim>3</dim>
				</port>
			</output>
		</layer>
		<layer id="312" name="592/fq_weights_1/Copy/out_low17685_const" type="Const" version="opset1">
			<data element_type="f16" offset="9448" shape="1" size="2"/>
			<output>
				<port id="1" precision="FP16">
					<dim>1</dim>
				</port>
			</output>
		</layer>
		<layer id="313" name="592/fq_weights_1/Copy/out_high17686_const" type="Const" version="opset1">
			<data element_type="f16" offset="9450" shape="1" size="2"/>
			<output>
				<port id="1" precision="FP16">
					<dim>1</dim>
				</port>
			</output>
		</layer>
		<layer id="314" name="55275531_const" type="Const" version="opset1">
			<data element_type="f16" offset="48840" shape="64,1,1,1" size="128"/>
			<output>
				<port id="1" precision="FP16">
					<dim>64</dim>
					<dim>1</dim>
					<dim>1</dim>
					<dim>1</dim>
				</port>
			</output>
		</layer>
		<layer id="315" name="55285532_const" type="Const" version="opset1">
			<data element_type="f16" offset="48968" shape="64,1,1,1" size="128"/>
			<output>
				<port id="1" precision="FP16">
					<dim>64</dim>
					<dim>1</dim>
					<dim>1</dim>
					<dim>1</dim>
				</port>
			</output>
		</layer>
		<layer id="316" name="592/fq_weights_1" type="FakeQuantize" version="opset1">
			<data levels="255"/>
			<input>
				<port id="0">
					<dim>64</dim>
					<dim>1</dim>
					<dim>3</dim>
					<dim>3</dim>
				</port>
				<port id="1">
					<dim>1</dim>
				</port>
				<port id="2">
					<dim>1</dim>
				</port>
				<port id="3">
					<dim>64</dim>
					<dim>1</dim>
					<dim>1</dim>
					<dim>1</dim>
				</port>
				<port id="4">
					<dim>64</dim>
					<dim>1</dim>
					<dim>1</dim>
					<dim>1</dim>
				</port>
			</input>
			<output>
				<port id="5" precision="FP16">
					<dim>64</dim>
					<dim>1</dim>
					<dim>3</dim>
					<dim>3</dim>
				</port>
			</output>
		</layer>
		<layer id="317" name="22400/value22402_const" type="Const" version="opset1">
			<data element_type="i64" offset="20020" shape="5" size="40"/>
			<output>
				<port id="1" precision="I64">
					<dim>5</dim>
				</port>
			</output>
		</layer>
		<layer id="318" name="22400" type="Reshape" version="opset1">
			<data special_zero="True"/>
			<input>
				<port id="0">
					<dim>64</dim>
					<dim>1</dim>
					<dim>3</dim>
					<dim>3</dim>
				</port>
				<port id="1">
					<dim>5</dim>
				</port>
			</input>
			<output>
				<port id="2" precision="FP16">
					<dim>64</dim>
					<dim>1</dim>
					<dim>1</dim>
					<dim>3</dim>
					<dim>3</dim>
				</port>
			</output>
		</layer>
		<layer id="319" name="592" type="GroupConvolution" version="opset1">
			<data dilations="1,1" output_padding="0,0" pads_begin="1,1" pads_end="1,1" strides="1,1"/>
			<input>
				<port id="0">
					<dim>1</dim>
					<dim>64</dim>
					<dim>64</dim>
					<dim>32</dim>
				</port>
				<port id="1">
					<dim>64</dim>
					<dim>1</dim>
					<dim>1</dim>
					<dim>3</dim>
					<dim>3</dim>
				</port>
			</input>
			<output>
				<port id="2" precision="FP16">
					<dim>1</dim>
					<dim>64</dim>
					<dim>64</dim>
					<dim>32</dim>
				</port>
			</output>
		</layer>
		<layer id="320" name="data_add_2118221187/copy_const1210_const" type="Const" version="opset1">
			<data element_type="f16" offset="49096" shape="1,64,1,1" size="128"/>
			<output>
				<port id="1" precision="FP16">
					<dim>1</dim>
					<dim>64</dim>
					<dim>1</dim>
					<dim>1</dim>
				</port>
			</output>
		</layer>
		<layer id="321" name="593/variance/Fused_Add_" type="Add" version="opset1">
			<input>
				<port id="0">
					<dim>1</dim>
					<dim>64</dim>
					<dim>64</dim>
					<dim>32</dim>
				</port>
				<port id="1">
					<dim>1</dim>
					<dim>64</dim>
					<dim>1</dim>
					<dim>1</dim>
				</port>
			</input>
			<output>
				<port id="2" precision="FP16">
					<dim>1</dim>
					<dim>64</dim>
					<dim>64</dim>
					<dim>32</dim>
				</port>
			</output>
		</layer>
		<layer id="322" name="594" type="ReLU" version="opset1">
			<input>
				<port id="0">
					<dim>1</dim>
					<dim>64</dim>
					<dim>64</dim>
					<dim>32</dim>
				</port>
			</input>
			<output>
				<port id="1" precision="FP16">
					<dim>1</dim>
					<dim>64</dim>
					<dim>64</dim>
					<dim>32</dim>
				</port>
			</output>
		</layer>
		<layer id="323" name="59655969_const" type="Const" version="opset1">
			<data element_type="f16" offset="9448" shape="" size="2"/>
			<output>
				<port id="1" precision="FP16"/>
			</output>
		</layer>
		<layer id="324" name="59665970_const" type="Const" version="opset1">
			<data element_type="f16" offset="49224" shape="" size="2"/>
			<output>
				<port id="1" precision="FP16"/>
			</output>
		</layer>
		<layer id="325" name="59675971_const" type="Const" version="opset1">
			<data element_type="f16" offset="9448" shape="" size="2"/>
			<output>
				<port id="1" precision="FP16"/>
			</output>
		</layer>
		<layer id="326" name="59685972_const" type="Const" version="opset1">
			<data element_type="f16" offset="49224" shape="" size="2"/>
			<output>
				<port id="1" precision="FP16"/>
			</output>
		</layer>
		<layer id="327" name="624/reduce/fq_input_0" type="FakeQuantize" version="opset1">
			<data levels="256"/>
			<input>
				<port id="0">
					<dim>1</dim>
					<dim>64</dim>
					<dim>64</dim>
					<dim>32</dim>
				</port>
				<port id="1"/>
				<port id="2"/>
				<port id="3"/>
				<port id="4"/>
			</input>
			<output>
				<port id="5" precision="FP16">
					<dim>1</dim>
					<dim>64</dim>
					<dim>64</dim>
					<dim>32</dim>
				</port>
			</output>
		</layer>
		<layer id="328" name="1278/Output_0/Data__const1213_const" type="Const" version="opset1">
			<data element_type="i64" offset="20190" shape="" size="8"/>
			<output>
				<port id="1" precision="I64"/>
			</output>
		</layer>
		<layer id="329" name="624/input_rank/shape_of" type="ShapeOf" version="opset3">
			<data output_type="i64"/>
			<input>
				<port id="0">
					<dim>1</dim>
					<dim>64</dim>
					<dim>64</dim>
					<dim>32</dim>
				</port>
			</input>
			<output>
				<port id="1" precision="I64">
					<dim>4</dim>
				</port>
			</output>
		</layer>
		<layer id="330" name="624/input_rank/rank_of" type="ShapeOf" version="opset3">
			<data output_type="i64"/>
			<input>
				<port id="0">
					<dim>4</dim>
				</port>
			</input>
			<output>
				<port id="1" precision="I64">
					<dim>1</dim>
				</port>
			</output>
		</layer>
		<layer id="331" name="624/input_rank/0d_rank_of/value/Output_0/Data__const1216_const" type="Const" version="opset1">
			<data element_type="i64" offset="20198" shape="1" size="8"/>
			<output>
				<port id="1" precision="I64">
					<dim>1</dim>
				</port>
			</output>
		</layer>
		<layer id="332" name="624/input_rank" type="Squeeze" version="opset1">
			<input>
				<port id="0">
					<dim>1</dim>
				</port>
				<port id="1">
					<dim>1</dim>
				</port>
			</input>
			<output>
				<port id="2" precision="I64"/>
			</output>
		</layer>
		<layer id="333" name="1280/Output_0/Data__const1218_const" type="Const" version="opset1">
			<data element_type="i64" offset="0" shape="" size="8"/>
			<output>
				<port id="1" precision="I64"/>
			</output>
		</layer>
		<layer id="334" name="624/global_pooling_reduce_axis" type="Range" version="opset4">
			<data output_type="i64"/>
			<input>
				<port id="0"/>
				<port id="1"/>
				<port id="2"/>
			</input>
			<output>
				<port id="3" precision="I64">
					<dim>2</dim>
				</port>
			</output>
		</layer>
		<layer id="335" name="624/reduce" type="ReduceMean" version="opset1">
			<data keep_dims="True"/>
			<input>
				<port id="0">
					<dim>1</dim>
					<dim>64</dim>
					<dim>64</dim>
					<dim>32</dim>
				</port>
				<port id="1">
					<dim>2</dim>
				</port>
			</input>
			<output>
				<port id="2" precision="FP16">
					<dim>1</dim>
					<dim>64</dim>
					<dim>1</dim>
					<dim>1</dim>
				</port>
			</output>
		</layer>
		<layer id="336" name="Copy_onnx_initializer_node_conv2.0.gate.fc1.weight/Output_0/Data_4075_const1221_const" type="Const" version="opset1">
			<data element_type="f16" offset="20206" shape="4,64,1,1" size="512"/>
			<output>
				<port id="1" precision="FP16">
					<dim>4</dim>
					<dim>64</dim>
					<dim>1</dim>
					<dim>1</dim>
				</port>
			</output>
		</layer>
		<layer id="337" name="625/WithoutBiases" type="Convolution" version="opset1">
			<data dilations="1,1" output_padding="0,0" pads_begin="0,0" pads_end="0,0" strides="1,1"/>
			<input>
				<port id="0">
					<dim>1</dim>
					<dim>64</dim>
					<dim>1</dim>
					<dim>1</dim>
				</port>
				<port id="1">
					<dim>4</dim>
					<dim>64</dim>
					<dim>1</dim>
					<dim>1</dim>
				</port>
			</input>
			<output>
				<port id="2" precision="FP16">
					<dim>1</dim>
					<dim>4</dim>
					<dim>1</dim>
					<dim>1</dim>
				</port>
			</output>
		</layer>
		<layer id="338" name="625/Dims12875/copy_const1223_const" type="Const" version="opset1">
			<data element_type="f16" offset="20718" shape="1,4,1,1" size="8"/>
			<output>
				<port id="1" precision="FP16">
					<dim>1</dim>
					<dim>4</dim>
					<dim>1</dim>
					<dim>1</dim>
				</port>
			</output>
		</layer>
		<layer id="339" name="625" type="Add" version="opset1">
			<input>
				<port id="0">
					<dim>1</dim>
					<dim>4</dim>
					<dim>1</dim>
					<dim>1</dim>
				</port>
				<port id="1">
					<dim>1</dim>
					<dim>4</dim>
					<dim>1</dim>
					<dim>1</dim>
				</port>
			</input>
			<output>
				<port id="2" precision="FP16">
					<dim>1</dim>
					<dim>4</dim>
					<dim>1</dim>
					<dim>1</dim>
				</port>
			</output>
		</layer>
		<layer id="340" name="626" type="ReLU" version="opset1">
			<input>
				<port id="0">
					<dim>1</dim>
					<dim>4</dim>
					<dim>1</dim>
					<dim>1</dim>
				</port>
			</input>
			<output>
				<port id="1" precision="FP16">
					<dim>1</dim>
					<dim>4</dim>
					<dim>1</dim>
					<dim>1</dim>
				</port>
			</output>
		</layer>
		<layer id="341" name="Copy_onnx_initializer_node_conv2.0.gate.fc2.weight/Output_0/Data_4083_const1226_const" type="Const" version="opset1">
			<data element_type="f16" offset="20726" shape="64,4,1,1" size="512"/>
			<output>
				<port id="1" precision="FP16">
					<dim>64</dim>
					<dim>4</dim>
					<dim>1</dim>
					<dim>1</dim>
				</port>
			</output>
		</layer>
		<layer id="342" name="627/WithoutBiases" type="Convolution" version="opset1">
			<data dilations="1,1" output_padding="0,0" pads_begin="0,0" pads_end="0,0" strides="1,1"/>
			<input>
				<port id="0">
					<dim>1</dim>
					<dim>4</dim>
					<dim>1</dim>
					<dim>1</dim>
				</port>
				<port id="1">
					<dim>64</dim>
					<dim>4</dim>
					<dim>1</dim>
					<dim>1</dim>
				</port>
			</input>
			<output>
				<port id="2" precision="FP16">
					<dim>1</dim>
					<dim>64</dim>
					<dim>1</dim>
					<dim>1</dim>
				</port>
			</output>
		</layer>
		<layer id="343" name="627/Dims12893/copy_const1228_const" type="Const" version="opset1">
			<data element_type="f16" offset="21238" shape="1,64,1,1" size="128"/>
			<output>
				<port id="1" precision="FP16">
					<dim>1</dim>
					<dim>64</dim>
					<dim>1</dim>
					<dim>1</dim>
				</port>
			</output>
		</layer>
		<layer id="344" name="627" type="Add" version="opset1">
			<input>
				<port id="0">
					<dim>1</dim>
					<dim>64</dim>
					<dim>1</dim>
					<dim>1</dim>
				</port>
				<port id="1">
					<dim>1</dim>
					<dim>64</dim>
					<dim>1</dim>
					<dim>1</dim>
				</port>
			</input>
			<output>
				<port id="2" precision="FP16">
					<dim>1</dim>
					<dim>64</dim>
					<dim>1</dim>
					<dim>1</dim>
				</port>
			</output>
		</layer>
		<layer id="345" name="628" type="Sigmoid" version="opset1">
			<input>
				<port id="0">
					<dim>1</dim>
					<dim>64</dim>
					<dim>1</dim>
					<dim>1</dim>
				</port>
			</input>
			<output>
				<port id="1" precision="FP16">
					<dim>1</dim>
					<dim>64</dim>
					<dim>1</dim>
					<dim>1</dim>
				</port>
			</output>
		</layer>
		<layer id="346" name="41454149_const" type="Const" version="opset1">
			<data element_type="f16" offset="9448" shape="" size="2"/>
			<output>
				<port id="1" precision="FP16"/>
			</output>
		</layer>
		<layer id="347" name="41464150_const" type="Const" version="opset1">
			<data element_type="f16" offset="49226" shape="" size="2"/>
			<output>
				<port id="1" precision="FP16"/>
			</output>
		</layer>
		<layer id="348" name="41474151_const" type="Const" version="opset1">
			<data element_type="f16" offset="9448" shape="" size="2"/>
			<output>
				<port id="1" precision="FP16"/>
			</output>
		</layer>
		<layer id="349" name="41484152_const" type="Const" version="opset1">
			<data element_type="f16" offset="49226" shape="" size="2"/>
			<output>
				<port id="1" precision="FP16"/>
			</output>
		</layer>
		<layer id="350" name="629/fq_input_1" type="FakeQuantize" version="opset1">
			<data levels="256"/>
			<input>
				<port id="0">
					<dim>1</dim>
					<dim>64</dim>
					<dim>1</dim>
					<dim>1</dim>
				</port>
				<port id="1"/>
				<port id="2"/>
				<port id="3"/>
				<port id="4"/>
			</input>
			<output>
				<port id="5" precision="FP16">
					<dim>1</dim>
					<dim>64</dim>
					<dim>1</dim>
					<dim>1</dim>
				</port>
			</output>
		</layer>
		<layer id="351" name="629" type="Multiply" version="opset1">
			<input>
				<port id="0">
					<dim>1</dim>
					<dim>64</dim>
					<dim>64</dim>
					<dim>32</dim>
				</port>
				<port id="1">
					<dim>1</dim>
					<dim>64</dim>
					<dim>1</dim>
					<dim>1</dim>
				</port>
			</input>
			<output>
				<port id="2" precision="FP16">
					<dim>1</dim>
					<dim>64</dim>
					<dim>64</dim>
					<dim>32</dim>
				</port>
			</output>
		</layer>
		<layer id="352" name="58955899_const" type="Const" version="opset1">
			<data element_type="f16" offset="9448" shape="" size="2"/>
			<output>
				<port id="1" precision="FP16"/>
			</output>
		</layer>
		<layer id="353" name="58965900_const" type="Const" version="opset1">
			<data element_type="f16" offset="49228" shape="" size="2"/>
			<output>
				<port id="1" precision="FP16"/>
			</output>
		</layer>
		<layer id="354" name="58975901_const" type="Const" version="opset1">
			<data element_type="f16" offset="9448" shape="" size="2"/>
			<output>
				<port id="1" precision="FP16"/>
			</output>
		</layer>
		<layer id="355" name="58985902_const" type="Const" version="opset1">
			<data element_type="f16" offset="49228" shape="" size="2"/>
			<output>
				<port id="1" precision="FP16"/>
			</output>
		</layer>
		<layer id="356" name="630/fq_input_1" type="FakeQuantize" version="opset1">
			<data levels="256"/>
			<input>
				<port id="0">
					<dim>1</dim>
					<dim>64</dim>
					<dim>64</dim>
					<dim>32</dim>
				</port>
				<port id="1"/>
				<port id="2"/>
				<port id="3"/>
				<port id="4"/>
			</input>
			<output>
				<port id="5" precision="FP16">
					<dim>1</dim>
					<dim>64</dim>
					<dim>64</dim>
					<dim>32</dim>
				</port>
			</output>
		</layer>
		<layer id="357" name="630" type="Add" version="opset1">
			<input>
				<port id="0">
					<dim>1</dim>
					<dim>64</dim>
					<dim>64</dim>
					<dim>32</dim>
				</port>
				<port id="1">
					<dim>1</dim>
					<dim>64</dim>
					<dim>64</dim>
					<dim>32</dim>
				</port>
			</input>
			<output>
				<port id="2" precision="FP16">
					<dim>1</dim>
					<dim>64</dim>
					<dim>64</dim>
					<dim>32</dim>
				</port>
			</output>
		</layer>
		<layer id="358" name="64156419_const" type="Const" version="opset1">
			<data element_type="f16" offset="9448" shape="" size="2"/>
			<output>
				<port id="1" precision="FP16"/>
			</output>
		</layer>
		<layer id="359" name="64166420_const" type="Const" version="opset1">
			<data element_type="f16" offset="49224" shape="" size="2"/>
			<output>
				<port id="1" precision="FP16"/>
			</output>
		</layer>
		<layer id="360" name="64176421_const" type="Const" version="opset1">
			<data element_type="f16" offset="9448" shape="" size="2"/>
			<output>
				<port id="1" precision="FP16"/>
			</output>
		</layer>
		<layer id="361" name="64186422_const" type="Const" version="opset1">
			<data element_type="f16" offset="49224" shape="" size="2"/>
			<output>
				<port id="1" precision="FP16"/>
			</output>
		</layer>
		<layer id="362" name="637/fq_input_0" type="FakeQuantize" version="opset1">
			<data levels="256"/>
			<input>
				<port id="0">
					<dim>1</dim>
					<dim>64</dim>
					<dim>64</dim>
					<dim>32</dim>
				</port>
				<port id="1"/>
				<port id="2"/>
				<port id="3"/>
				<port id="4"/>
			</input>
			<output>
				<port id="5" precision="FP16">
					<dim>1</dim>
					<dim>64</dim>
					<dim>64</dim>
					<dim>32</dim>
				</port>
			</output>
		</layer>
		<layer id="363" name="595/fq_weights_1/Convert_to_float/Cast_020218_const" type="Const" version="opset1">
			<data element_type="u8" offset="49230" shape="64,64,1,1" size="4096"/>
			<output>
				<port id="1" precision="U8">
					<dim>64</dim>
					<dim>64</dim>
					<dim>1</dim>
					<dim>1</dim>
				</port>
			</output>
		</layer>
		<layer id="364" name="595/fq_weights_1/Convert_to_float" type="Convert" version="opset1">
			<data destination_type="f16"/>
			<input>
				<port id="0">
					<dim>64</dim>
					<dim>64</dim>
					<dim>1</dim>
					<dim>1</dim>
				</port>
			</input>
			<output>
				<port id="1" precision="FP16">
					<dim>64</dim>
					<dim>64</dim>
					<dim>1</dim>
					<dim>1</dim>
				</port>
			</output>
		</layer>
		<layer id="365" name="595/fq_weights_1/Copy/out_low17613_const" type="Const" version="opset1">
			<data element_type="f16" offset="9448" shape="1" size="2"/>
			<output>
				<port id="1" precision="FP16">
					<dim>1</dim>
				</port>
			</output>
		</layer>
		<layer id="366" name="595/fq_weights_1/Copy/out_high17614_const" type="Const" version="opset1">
			<data element_type="f16" offset="9450" shape="1" size="2"/>
			<output>
				<port id="1" precision="FP16">
					<dim>1</dim>
				</port>
			</output>
		</layer>
		<layer id="367" name="65776581_const" type="Const" version="opset1">
			<data element_type="f16" offset="53326" shape="64,1,1,1" size="128"/>
			<output>
				<port id="1" precision="FP16">
					<dim>64</dim>
					<dim>1</dim>
					<dim>1</dim>
					<dim>1</dim>
				</port>
			</output>
		</layer>
		<layer id="368" name="65786582_const" type="Const" version="opset1">
			<data element_type="f16" offset="53454" shape="64,1,1,1" size="128"/>
			<output>
				<port id="1" precision="FP16">
					<dim>64</dim>
					<dim>1</dim>
					<dim>1</dim>
					<dim>1</dim>
				</port>
			</output>
		</layer>
		<layer id="369" name="595/fq_weights_1" type="FakeQuantize" version="opset1">
			<data levels="255"/>
			<input>
				<port id="0">
					<dim>64</dim>
					<dim>64</dim>
					<dim>1</dim>
					<dim>1</dim>
				</port>
				<port id="1">
					<dim>1</dim>
				</port>
				<port id="2">
					<dim>1</dim>
				</port>
				<port id="3">
					<dim>64</dim>
					<dim>1</dim>
					<dim>1</dim>
					<dim>1</dim>
				</port>
				<port id="4">
					<dim>64</dim>
					<dim>1</dim>
					<dim>1</dim>
					<dim>1</dim>
				</port>
			</input>
			<output>
				<port id="5" precision="FP16">
					<dim>64</dim>
					<dim>64</dim>
					<dim>1</dim>
					<dim>1</dim>
				</port>
			</output>
		</layer>
		<layer id="370" name="595" type="Convolution" version="opset1">
			<data dilations="1,1" output_padding="0,0" pads_begin="0,0" pads_end="0,0" strides="1,1"/>
			<input>
				<port id="0">
					<dim>1</dim>
					<dim>64</dim>
					<dim>64</dim>
					<dim>32</dim>
				</port>
				<port id="1">
					<dim>64</dim>
					<dim>64</dim>
					<dim>1</dim>
					<dim>1</dim>
				</port>
			</input>
			<output>
				<port id="2" precision="FP16">
					<dim>1</dim>
					<dim>64</dim>
					<dim>64</dim>
					<dim>32</dim>
				</port>
			</output>
		</layer>
		<layer id="371" name="26582660_const" type="Const" version="opset1">
			<data element_type="f16" offset="9708" shape="1,64,1,1" size="128"/>
			<output>
				<port id="1" precision="FP16">
					<dim>1</dim>
					<dim>64</dim>
					<dim>1</dim>
					<dim>1</dim>
				</port>
			</output>
		</layer>
		<layer id="372" name="595/add_" type="Add" version="opset1">
			<input>
				<port id="0">
					<dim>1</dim>
					<dim>64</dim>
					<dim>64</dim>
					<dim>32</dim>
				</port>
				<port id="1">
					<dim>1</dim>
					<dim>64</dim>
					<dim>1</dim>
					<dim>1</dim>
				</port>
			</input>
			<output>
				<port id="2" precision="FP16">
					<dim>1</dim>
					<dim>64</dim>
					<dim>64</dim>
					<dim>32</dim>
				</port>
			</output>
		</layer>
		<layer id="373" name="56855689_const" type="Const" version="opset1">
			<data element_type="f16" offset="53582" shape="1,64,1,1" size="128"/>
			<output>
				<port id="1" precision="FP16">
					<dim>1</dim>
					<dim>64</dim>
					<dim>1</dim>
					<dim>1</dim>
				</port>
			</output>
		</layer>
		<layer id="374" name="56865690_const" type="Const" version="opset1">
			<data element_type="f16" offset="53710" shape="1,64,1,1" size="128"/>
			<output>
				<port id="1" precision="FP16">
					<dim>1</dim>
					<dim>64</dim>
					<dim>1</dim>
					<dim>1</dim>
				</port>
			</output>
		</layer>
		<layer id="375" name="56875691_const" type="Const" version="opset1">
			<data element_type="f16" offset="53582" shape="1,64,1,1" size="128"/>
			<output>
				<port id="1" precision="FP16">
					<dim>1</dim>
					<dim>64</dim>
					<dim>1</dim>
					<dim>1</dim>
				</port>
			</output>
		</layer>
		<layer id="376" name="56885692_const" type="Const" version="opset1">
			<data element_type="f16" offset="53710" shape="1,64,1,1" size="128"/>
			<output>
				<port id="1" precision="FP16">
					<dim>1</dim>
					<dim>64</dim>
					<dim>1</dim>
					<dim>1</dim>
				</port>
			</output>
		</layer>
		<layer id="377" name="596/fq_input_0" type="FakeQuantize" version="opset1">
			<data levels="256"/>
			<input>
				<port id="0">
					<dim>1</dim>
					<dim>64</dim>
					<dim>64</dim>
					<dim>32</dim>
				</port>
				<port id="1">
					<dim>1</dim>
					<dim>64</dim>
					<dim>1</dim>
					<dim>1</dim>
				</port>
				<port id="2">
					<dim>1</dim>
					<dim>64</dim>
					<dim>1</dim>
					<dim>1</dim>
				</port>
				<port id="3">
					<dim>1</dim>
					<dim>64</dim>
					<dim>1</dim>
					<dim>1</dim>
				</port>
				<port id="4">
					<dim>1</dim>
					<dim>64</dim>
					<dim>1</dim>
					<dim>1</dim>
				</port>
			</input>
			<output>
				<port id="5" precision="FP16">
					<dim>1</dim>
					<dim>64</dim>
					<dim>64</dim>
					<dim>32</dim>
				</port>
			</output>
		</layer>
		<layer id="378" name="596/fq_weights_1/Convert_to_float/Cast_020276_const" type="Const" version="opset1">
			<data element_type="u8" offset="53838" shape="64,1,3,3" size="576"/>
			<output>
				<port id="1" precision="U8">
					<dim>64</dim>
					<dim>1</dim>
					<dim>3</dim>
					<dim>3</dim>
				</port>
			</output>
		</layer>
		<layer id="379" name="596/fq_weights_1/Convert_to_float" type="Convert" version="opset1">
			<data destination_type="f16"/>
			<input>
				<port id="0">
					<dim>64</dim>
					<dim>1</dim>
					<dim>3</dim>
					<dim>3</dim>
				</port>
			</input>
			<output>
				<port id="1" precision="FP16">
					<dim>64</dim>
					<dim>1</dim>
					<dim>3</dim>
					<dim>3</dim>
				</port>
			</output>
		</layer>
		<layer id="380" name="596/fq_weights_1/Copy/out_low17109_const" type="Const" version="opset1">
			<data element_type="f16" offset="9448" shape="1" size="2"/>
			<output>
				<port id="1" precision="FP16">
					<dim>1</dim>
				</port>
			</output>
		</layer>
		<layer id="381" name="596/fq_weights_1/Copy/out_high17110_const" type="Const" version="opset1">
			<data element_type="f16" offset="9450" shape="1" size="2"/>
			<output>
				<port id="1" precision="FP16">
					<dim>1</dim>
				</port>
			</output>
		</layer>
		<layer id="382" name="56975701_const" type="Const" version="opset1">
			<data element_type="f16" offset="54414" shape="64,1,1,1" size="128"/>
			<output>
				<port id="1" precision="FP16">
					<dim>64</dim>
					<dim>1</dim>
					<dim>1</dim>
					<dim>1</dim>
				</port>
			</output>
		</layer>
		<layer id="383" name="56985702_const" type="Const" version="opset1">
			<data element_type="f16" offset="54542" shape="64,1,1,1" size="128"/>
			<output>
				<port id="1" precision="FP16">
					<dim>64</dim>
					<dim>1</dim>
					<dim>1</dim>
					<dim>1</dim>
				</port>
			</output>
		</layer>
		<layer id="384" name="596/fq_weights_1" type="FakeQuantize" version="opset1">
			<data levels="255"/>
			<input>
				<port id="0">
					<dim>64</dim>
					<dim>1</dim>
					<dim>3</dim>
					<dim>3</dim>
				</port>
				<port id="1">
					<dim>1</dim>
				</port>
				<port id="2">
					<dim>1</dim>
				</port>
				<port id="3">
					<dim>64</dim>
					<dim>1</dim>
					<dim>1</dim>
					<dim>1</dim>
				</port>
				<port id="4">
					<dim>64</dim>
					<dim>1</dim>
					<dim>1</dim>
					<dim>1</dim>
				</port>
			</input>
			<output>
				<port id="5" precision="FP16">
					<dim>64</dim>
					<dim>1</dim>
					<dim>3</dim>
					<dim>3</dim>
				</port>
			</output>
		</layer>
		<layer id="385" name="22404/value22406_const" type="Const" version="opset1">
			<data element_type="i64" offset="20020" shape="5" size="40"/>
			<output>
				<port id="1" precision="I64">
					<dim>5</dim>
				</port>
			</output>
		</layer>
		<layer id="386" name="22404" type="Reshape" version="opset1">
			<data special_zero="True"/>
			<input>
				<port id="0">
					<dim>64</dim>
					<dim>1</dim>
					<dim>3</dim>
					<dim>3</dim>
				</port>
				<port id="1">
					<dim>5</dim>
				</port>
			</input>
			<output>
				<port id="2" precision="FP16">
					<dim>64</dim>
					<dim>1</dim>
					<dim>1</dim>
					<dim>3</dim>
					<dim>3</dim>
				</port>
			</output>
		</layer>
		<layer id="387" name="596" type="GroupConvolution" version="opset1">
			<data dilations="1,1" output_padding="0,0" pads_begin="1,1" pads_end="1,1" strides="1,1"/>
			<input>
				<port id="0">
					<dim>1</dim>
					<dim>64</dim>
					<dim>64</dim>
					<dim>32</dim>
				</port>
				<port id="1">
					<dim>64</dim>
					<dim>1</dim>
					<dim>1</dim>
					<dim>3</dim>
					<dim>3</dim>
				</port>
			</input>
			<output>
				<port id="2" precision="FP16">
					<dim>1</dim>
					<dim>64</dim>
					<dim>64</dim>
					<dim>32</dim>
				</port>
			</output>
		</layer>
		<layer id="388" name="data_add_2113421139/copy_const1237_const" type="Const" version="opset1">
			<data element_type="f16" offset="54670" shape="1,64,1,1" size="128"/>
			<output>
				<port id="1" precision="FP16">
					<dim>1</dim>
					<dim>64</dim>
					<dim>1</dim>
					<dim>1</dim>
				</port>
			</output>
		</layer>
		<layer id="389" name="597/variance/Fused_Add_" type="Add" version="opset1">
			<input>
				<port id="0">
					<dim>1</dim>
					<dim>64</dim>
					<dim>64</dim>
					<dim>32</dim>
				</port>
				<port id="1">
					<dim>1</dim>
					<dim>64</dim>
					<dim>1</dim>
					<dim>1</dim>
				</port>
			</input>
			<output>
				<port id="2" precision="FP16">
					<dim>1</dim>
					<dim>64</dim>
					<dim>64</dim>
					<dim>32</dim>
				</port>
			</output>
		</layer>
		<layer id="390" name="598" type="ReLU" version="opset1">
			<input>
				<port id="0">
					<dim>1</dim>
					<dim>64</dim>
					<dim>64</dim>
					<dim>32</dim>
				</port>
			</input>
			<output>
				<port id="1" precision="FP16">
					<dim>1</dim>
					<dim>64</dim>
					<dim>64</dim>
					<dim>32</dim>
				</port>
			</output>
		</layer>
		<layer id="391" name="43754379_const" type="Const" version="opset1">
			<data element_type="f16" offset="9448" shape="" size="2"/>
			<output>
				<port id="1" precision="FP16"/>
			</output>
		</layer>
		<layer id="392" name="43764380_const" type="Const" version="opset1">
			<data element_type="f16" offset="54798" shape="" size="2"/>
			<output>
				<port id="1" precision="FP16"/>
			</output>
		</layer>
		<layer id="393" name="43774381_const" type="Const" version="opset1">
			<data element_type="f16" offset="9448" shape="" size="2"/>
			<output>
				<port id="1" precision="FP16"/>
			</output>
		</layer>
		<layer id="394" name="43784382_const" type="Const" version="opset1">
			<data element_type="f16" offset="54798" shape="" size="2"/>
			<output>
				<port id="1" precision="FP16"/>
			</output>
		</layer>
		<layer id="395" name="599/fq_input_0" type="FakeQuantize" version="opset1">
			<data levels="256"/>
			<input>
				<port id="0">
					<dim>1</dim>
					<dim>64</dim>
					<dim>64</dim>
					<dim>32</dim>
				</port>
				<port id="1"/>
				<port id="2"/>
				<port id="3"/>
				<port id="4"/>
			</input>
			<output>
				<port id="5" precision="FP16">
					<dim>1</dim>
					<dim>64</dim>
					<dim>64</dim>
					<dim>32</dim>
				</port>
			</output>
		</layer>
		<layer id="396" name="599/fq_weights_1/Convert_to_float/Cast_020258_const" type="Const" version="opset1">
			<data element_type="u8" offset="54800" shape="64,64,1,1" size="4096"/>
			<output>
				<port id="1" precision="U8">
					<dim>64</dim>
					<dim>64</dim>
					<dim>1</dim>
					<dim>1</dim>
				</port>
			</output>
		</layer>
		<layer id="397" name="599/fq_weights_1/Convert_to_float" type="Convert" version="opset1">
			<data destination_type="f16"/>
			<input>
				<port id="0">
					<dim>64</dim>
					<dim>64</dim>
					<dim>1</dim>
					<dim>1</dim>
				</port>
			</input>
			<output>
				<port id="1" precision="FP16">
					<dim>64</dim>
					<dim>64</dim>
					<dim>1</dim>
					<dim>1</dim>
				</port>
			</output>
		</layer>
		<layer id="398" name="599/fq_weights_1/Copy/out_low17845_const" type="Const" version="opset1">
			<data element_type="f16" offset="9448" shape="1" size="2"/>
			<output>
				<port id="1" precision="FP16">
					<dim>1</dim>
				</port>
			</output>
		</layer>
		<layer id="399" name="599/fq_weights_1/Copy/out_high17846_const" type="Const" version="opset1">
			<data element_type="f16" offset="9450" shape="1" size="2"/>
			<output>
				<port id="1" precision="FP16">
					<dim>1</dim>
				</port>
			</output>
		</layer>
		<layer id="400" name="43874391_const" type="Const" version="opset1">
			<data element_type="f16" offset="58896" shape="64,1,1,1" size="128"/>
			<output>
				<port id="1" precision="FP16">
					<dim>64</dim>
					<dim>1</dim>
					<dim>1</dim>
					<dim>1</dim>
				</port>
			</output>
		</layer>
		<layer id="401" name="43884392_const" type="Const" version="opset1">
			<data element_type="f16" offset="59024" shape="64,1,1,1" size="128"/>
			<output>
				<port id="1" precision="FP16">
					<dim>64</dim>
					<dim>1</dim>
					<dim>1</dim>
					<dim>1</dim>
				</port>
			</output>
		</layer>
		<layer id="402" name="599/fq_weights_1" type="FakeQuantize" version="opset1">
			<data levels="255"/>
			<input>
				<port id="0">
					<dim>64</dim>
					<dim>64</dim>
					<dim>1</dim>
					<dim>1</dim>
				</port>
				<port id="1">
					<dim>1</dim>
				</port>
				<port id="2">
					<dim>1</dim>
				</port>
				<port id="3">
					<dim>64</dim>
					<dim>1</dim>
					<dim>1</dim>
					<dim>1</dim>
				</port>
				<port id="4">
					<dim>64</dim>
					<dim>1</dim>
					<dim>1</dim>
					<dim>1</dim>
				</port>
			</input>
			<output>
				<port id="5" precision="FP16">
					<dim>64</dim>
					<dim>64</dim>
					<dim>1</dim>
					<dim>1</dim>
				</port>
			</output>
		</layer>
		<layer id="403" name="599" type="Convolution" version="opset1">
			<data dilations="1,1" output_padding="0,0" pads_begin="0,0" pads_end="0,0" strides="1,1"/>
			<input>
				<port id="0">
					<dim>1</dim>
					<dim>64</dim>
					<dim>64</dim>
					<dim>32</dim>
				</port>
				<port id="1">
					<dim>64</dim>
					<dim>64</dim>
					<dim>1</dim>
					<dim>1</dim>
				</port>
			</input>
			<output>
				<port id="2" precision="FP16">
					<dim>1</dim>
					<dim>64</dim>
					<dim>64</dim>
					<dim>32</dim>
				</port>
			</output>
		</layer>
		<layer id="404" name="26622664_const" type="Const" version="opset1">
			<data element_type="f16" offset="9708" shape="1,64,1,1" size="128"/>
			<output>
				<port id="1" precision="FP16">
					<dim>1</dim>
					<dim>64</dim>
					<dim>1</dim>
					<dim>1</dim>
				</port>
			</output>
		</layer>
		<layer id="405" name="599/add_" type="Add" version="opset1">
			<input>
				<port id="0">
					<dim>1</dim>
					<dim>64</dim>
					<dim>64</dim>
					<dim>32</dim>
				</port>
				<port id="1">
					<dim>1</dim>
					<dim>64</dim>
					<dim>1</dim>
					<dim>1</dim>
				</port>
			</input>
			<output>
				<port id="2" precision="FP16">
					<dim>1</dim>
					<dim>64</dim>
					<dim>64</dim>
					<dim>32</dim>
				</port>
			</output>
		</layer>
		<layer id="406" name="49454949_const" type="Const" version="opset1">
			<data element_type="f16" offset="59152" shape="1,64,1,1" size="128"/>
			<output>
				<port id="1" precision="FP16">
					<dim>1</dim>
					<dim>64</dim>
					<dim>1</dim>
					<dim>1</dim>
				</port>
			</output>
		</layer>
		<layer id="407" name="49464950_const" type="Const" version="opset1">
			<data element_type="f16" offset="59280" shape="1,64,1,1" size="128"/>
			<output>
				<port id="1" precision="FP16">
					<dim>1</dim>
					<dim>64</dim>
					<dim>1</dim>
					<dim>1</dim>
				</port>
			</output>
		</layer>
		<layer id="408" name="49474951_const" type="Const" version="opset1">
			<data element_type="f16" offset="59152" shape="1,64,1,1" size="128"/>
			<output>
				<port id="1" precision="FP16">
					<dim>1</dim>
					<dim>64</dim>
					<dim>1</dim>
					<dim>1</dim>
				</port>
			</output>
		</layer>
		<layer id="409" name="49484952_const" type="Const" version="opset1">
			<data element_type="f16" offset="59280" shape="1,64,1,1" size="128"/>
			<output>
				<port id="1" precision="FP16">
					<dim>1</dim>
					<dim>64</dim>
					<dim>1</dim>
					<dim>1</dim>
				</port>
			</output>
		</layer>
		<layer id="410" name="600/fq_input_0" type="FakeQuantize" version="opset1">
			<data levels="256"/>
			<input>
				<port id="0">
					<dim>1</dim>
					<dim>64</dim>
					<dim>64</dim>
					<dim>32</dim>
				</port>
				<port id="1">
					<dim>1</dim>
					<dim>64</dim>
					<dim>1</dim>
					<dim>1</dim>
				</port>
				<port id="2">
					<dim>1</dim>
					<dim>64</dim>
					<dim>1</dim>
					<dim>1</dim>
				</port>
				<port id="3">
					<dim>1</dim>
					<dim>64</dim>
					<dim>1</dim>
					<dim>1</dim>
				</port>
				<port id="4">
					<dim>1</dim>
					<dim>64</dim>
					<dim>1</dim>
					<dim>1</dim>
				</port>
			</input>
			<output>
				<port id="5" precision="FP16">
					<dim>1</dim>
					<dim>64</dim>
					<dim>64</dim>
					<dim>32</dim>
				</port>
			</output>
		</layer>
		<layer id="411" name="600/fq_weights_1/Convert_to_float/Cast_020168_const" type="Const" version="opset1">
			<data element_type="u8" offset="59408" shape="64,1,3,3" size="576"/>
			<output>
				<port id="1" precision="U8">
					<dim>64</dim>
					<dim>1</dim>
					<dim>3</dim>
					<dim>3</dim>
				</port>
			</output>
		</layer>
		<layer id="412" name="600/fq_weights_1/Convert_to_float" type="Convert" version="opset1">
			<data destination_type="f16"/>
			<input>
				<port id="0">
					<dim>64</dim>
					<dim>1</dim>
					<dim>3</dim>
					<dim>3</dim>
				</port>
			</input>
			<output>
				<port id="1" precision="FP16">
					<dim>64</dim>
					<dim>1</dim>
					<dim>3</dim>
					<dim>3</dim>
				</port>
			</output>
		</layer>
		<layer id="413" name="600/fq_weights_1/Copy/out_low17117_const" type="Const" version="opset1">
			<data element_type="f16" offset="9448" shape="1" size="2"/>
			<output>
				<port id="1" precision="FP16">
					<dim>1</dim>
				</port>
			</output>
		</layer>
		<layer id="414" name="600/fq_weights_1/Copy/out_high17118_const" type="Const" version="opset1">
			<data element_type="f16" offset="9450" shape="1" size="2"/>
			<output>
				<port id="1" precision="FP16">
					<dim>1</dim>
				</port>
			</output>
		</layer>
		<layer id="415" name="49574961_const" type="Const" version="opset1">
			<data element_type="f16" offset="59984" shape="64,1,1,1" size="128"/>
			<output>
				<port id="1" precision="FP16">
					<dim>64</dim>
					<dim>1</dim>
					<dim>1</dim>
					<dim>1</dim>
				</port>
			</output>
		</layer>
		<layer id="416" name="49584962_const" type="Const" version="opset1">
			<data element_type="f16" offset="60112" shape="64,1,1,1" size="128"/>
			<output>
				<port id="1" precision="FP16">
					<dim>64</dim>
					<dim>1</dim>
					<dim>1</dim>
					<dim>1</dim>
				</port>
			</output>
		</layer>
		<layer id="417" name="600/fq_weights_1" type="FakeQuantize" version="opset1">
			<data levels="255"/>
			<input>
				<port id="0">
					<dim>64</dim>
					<dim>1</dim>
					<dim>3</dim>
					<dim>3</dim>
				</port>
				<port id="1">
					<dim>1</dim>
				</port>
				<port id="2">
					<dim>1</dim>
				</port>
				<port id="3">
					<dim>64</dim>
					<dim>1</dim>
					<dim>1</dim>
					<dim>1</dim>
				</port>
				<port id="4">
					<dim>64</dim>
					<dim>1</dim>
					<dim>1</dim>
					<dim>1</dim>
				</port>
			</input>
			<output>
				<port id="5" precision="FP16">
					<dim>64</dim>
					<dim>1</dim>
					<dim>3</dim>
					<dim>3</dim>
				</port>
			</output>
		</layer>
		<layer id="418" name="22580/value22582_const" type="Const" version="opset1">
			<data element_type="i64" offset="20020" shape="5" size="40"/>
			<output>
				<port id="1" precision="I64">
					<dim>5</dim>
				</port>
			</output>
		</layer>
		<layer id="419" name="22580" type="Reshape" version="opset1">
			<data special_zero="True"/>
			<input>
				<port id="0">
					<dim>64</dim>
					<dim>1</dim>
					<dim>3</dim>
					<dim>3</dim>
				</port>
				<port id="1">
					<dim>5</dim>
				</port>
			</input>
			<output>
				<port id="2" precision="FP16">
					<dim>64</dim>
					<dim>1</dim>
					<dim>1</dim>
					<dim>3</dim>
					<dim>3</dim>
				</port>
			</output>
		</layer>
		<layer id="420" name="600" type="GroupConvolution" version="opset1">
			<data dilations="1,1" output_padding="0,0" pads_begin="1,1" pads_end="1,1" strides="1,1"/>
			<input>
				<port id="0">
					<dim>1</dim>
					<dim>64</dim>
					<dim>64</dim>
					<dim>32</dim>
				</port>
				<port id="1">
					<dim>64</dim>
					<dim>1</dim>
					<dim>1</dim>
					<dim>3</dim>
					<dim>3</dim>
				</port>
			</input>
			<output>
				<port id="2" precision="FP16">
					<dim>1</dim>
					<dim>64</dim>
					<dim>64</dim>
					<dim>32</dim>
				</port>
			</output>
		</layer>
		<layer id="421" name="data_add_2114221147/copy_const1244_const" type="Const" version="opset1">
			<data element_type="f16" offset="60240" shape="1,64,1,1" size="128"/>
			<output>
				<port id="1" precision="FP16">
					<dim>1</dim>
					<dim>64</dim>
					<dim>1</dim>
					<dim>1</dim>
				</port>
			</output>
		</layer>
		<layer id="422" name="601/variance/Fused_Add_" type="Add" version="opset1">
			<input>
				<port id="0">
					<dim>1</dim>
					<dim>64</dim>
					<dim>64</dim>
					<dim>32</dim>
				</port>
				<port id="1">
					<dim>1</dim>
					<dim>64</dim>
					<dim>1</dim>
					<dim>1</dim>
				</port>
			</input>
			<output>
				<port id="2" precision="FP16">
					<dim>1</dim>
					<dim>64</dim>
					<dim>64</dim>
					<dim>32</dim>
				</port>
			</output>
		</layer>
		<layer id="423" name="602" type="ReLU" version="opset1">
			<input>
				<port id="0">
					<dim>1</dim>
					<dim>64</dim>
					<dim>64</dim>
…
		<edge from-layer="2758" from-port="1" to-layer="2760" to-port="3"/>
		<edge from-layer="2759" from-port="1" to-layer="2760" to-port="4"/>
		<edge from-layer="2761" from-port="1" to-layer="2762" to-port="0"/>
		<edge from-layer="2762" from-port="1" to-layer="2767" to-port="0"/>
		<edge from-layer="2763" from-port="1" to-layer="2767" to-port="1"/>
		<edge from-layer="2764" from-port="1" to-layer="2767" to-port="2"/>
		<edge from-layer="2765" from-port="1" to-layer="2767" to-port="3"/>
		<edge from-layer="2766" from-port="1" to-layer="2767" to-port="4"/>
		<edge from-layer="2760" from-port="5" to-layer="2768" to-port="0"/>
		<edge from-layer="2767" from-port="5" to-layer="2768" to-port="1"/>
		<edge from-layer="2768" from-port="2" to-layer="2770" to-port="0"/>
		<edge from-layer="2769" from-port="1" to-layer="2770" to-port="1"/>
		<edge from-layer="2770" from-port="2" to-layer="2771" to-port="0"/>
		<edge from-layer="2771" from-port="1" to-layer="2776" to-port="0"/>
		<edge from-layer="2772" from-port="1" to-layer="2776" to-port="1"/>
		<edge from-layer="2773" from-port="1" to-layer="2776" to-port="2"/>
		<edge from-layer="2774" from-port="1" to-layer="2776" to-port="3"/>
		<edge from-layer="2775" from-port="1" to-layer="2776" to-port="4"/>
		<edge from-layer="2777" from-port="1" to-layer="2778" to-port="0"/>
		<edge from-layer="2778" from-port="1" to-layer="2783" to-port="0"/>
		<edge from-layer="2779" from-port="1" to-layer="2783" to-port="1"/>
		<edge from-layer="2780" from-port="1" to-layer="2783" to-port="2"/>
		<edge from-layer="2781" from-port="1" to-layer="2783" to-port="3"/>
		<edge from-layer="2782" from-port="1" to-layer="2783" to-port="4"/>
		<edge from-layer="2776" from-port="5" to-layer="2784" to-port="0"/>
		<edge from-layer="2783" from-port="5" to-layer="2784" to-port="1"/>
		<edge from-layer="2784" from-port="2" to-layer="2786" to-port="0"/>
		<edge from-layer="2785" from-port="1" to-layer="2786" to-port="1"/>
		<edge from-layer="2786" from-port="2" to-layer="2791" to-port="0"/>
		<edge from-layer="2787" from-port="1" to-layer="2791" to-port="1"/>
		<edge from-layer="2788" from-port="1" to-layer="2791" to-port="2"/>
		<edge from-layer="2789" from-port="1" to-layer="2791" to-port="3"/>
		<edge from-layer="2790" from-port="1" to-layer="2791" to-port="4"/>
		<edge from-layer="2792" from-port="1" to-layer="2793" to-port="0"/>
		<edge from-layer="2793" from-port="1" to-layer="2798" to-port="0"/>
		<edge from-layer="2794" from-port="1" to-layer="2798" to-port="1"/>
		<edge from-layer="2795" from-port="1" to-layer="2798" to-port="2"/>
		<edge from-layer="2796" from-port="1" to-layer="2798" to-port="3"/>
		<edge from-layer="2797" from-port="1" to-layer="2798" to-port="4"/>
		<edge from-layer="2798" from-port="5" to-layer="2800" to-port="0"/>
		<edge from-layer="2799" from-port="1" to-layer="2800" to-port="1"/>
		<edge from-layer="2791" from-port="5" to-layer="2801" to-port="0"/>
		<edge from-layer="2800" from-port="2" to-layer="2801" to-port="1"/>
		<edge from-layer="2801" from-port="2" to-layer="2803" to-port="0"/>
		<edge from-layer="2802" from-port="1" to-layer="2803" to-port="1"/>
		<edge from-layer="2803" from-port="2" to-layer="2804" to-port="0"/>
		<edge from-layer="2804" from-port="1" to-layer="2809" to-port="0"/>
		<edge from-layer="2805" from-port="1" to-layer="2809" to-port="1"/>
		<edge from-layer="2806" from-port="1" to-layer="2809" to-port="2"/>
		<edge from-layer="2807" from-port="1" to-layer="2809" to-port="3"/>
		<edge from-layer="2808" from-port="1" to-layer="2809" to-port="4"/>
		<edge from-layer="2804" from-port="1" to-layer="2811" to-port="0"/>
		<edge from-layer="2811" from-port="1" to-layer="2812" to-port="0"/>
		<edge from-layer="2812" from-port="1" to-layer="2814" to-port="0"/>
		<edge from-layer="2813" from-port="1" to-layer="2814" to-port="1"/>
		<edge from-layer="2810" from-port="1" to-layer="2816" to-port="0"/>
		<edge from-layer="2814" from-port="2" to-layer="2816" to-port="1"/>
		<edge from-layer="2815" from-port="1" to-layer="2816" to-port="2"/>
		<edge from-layer="2809" from-port="5" to-layer="2817" to-port="0"/>
		<edge from-layer="2816" from-port="3" to-layer="2817" to-port="1"/>
		<edge from-layer="2817" from-port="2" to-layer="2822" to-port="0"/>
		<edge from-layer="2818" from-port="1" to-layer="2822" to-port="1"/>
		<edge from-layer="2819" from-port="1" to-layer="2822" to-port="2"/>
		<edge from-layer="2820" from-port="1" to-layer="2822" to-port="3"/>
		<edge from-layer="2821" from-port="1" to-layer="2822" to-port="4"/>
		<edge from-layer="2822" from-port="5" to-layer="2824" to-port="0"/>
		<edge from-layer="2823" from-port="1" to-layer="2824" to-port="1"/>
		<edge from-layer="2824" from-port="2" to-layer="2825" to-port="0"/>
		<edge from-layer="2825" from-port="1" to-layer="2827" to-port="0"/>
		<edge from-layer="2826" from-port="1" to-layer="2827" to-port="1"/>
		<edge from-layer="2827" from-port="2" to-layer="2829" to-port="0"/>
		<edge from-layer="2828" from-port="1" to-layer="2829" to-port="1"/>
		<edge from-layer="2829" from-port="2" to-layer="2834" to-port="0"/>
		<edge from-layer="2830" from-port="1" to-layer="2834" to-port="1"/>
		<edge from-layer="2831" from-port="1" to-layer="2834" to-port="2"/>
		<edge from-layer="2832" from-port="1" to-layer="2834" to-port="3"/>
		<edge from-layer="2833" from-port="1" to-layer="2834" to-port="4"/>
		<edge from-layer="2817" from-port="2" to-layer="2835" to-port="0"/>
		<edge from-layer="2834" from-port="5" to-layer="2836" to-port="0"/>
		<edge from-layer="2835" from-port="1" to-layer="2836" to-port="1"/>
		<edge from-layer="2836" from-port="2" to-layer="2838" to-port="0"/>
		<edge from-layer="2837" from-port="1" to-layer="2838" to-port="1"/>
		<edge from-layer="2838" from-port="2" to-layer="2840" to-port="0"/>
		<edge from-layer="2839" from-port="1" to-layer="2840" to-port="1"/>
		<edge from-layer="2840" from-port="2" to-layer="2841" to-port="0"/>
		<edge from-layer="2841" from-port="1" to-layer="2846" to-port="0"/>
		<edge from-layer="2842" from-port="1" to-layer="2846" to-port="1"/>
		<edge from-layer="2843" from-port="1" to-layer="2846" to-port="2"/>
		<edge from-layer="2844" from-port="1" to-layer="2846" to-port="3"/>
		<edge from-layer="2845" from-port="1" to-layer="2846" to-port="4"/>
		<edge from-layer="2809" from-port="5" to-layer="2847" to-port="0"/>
		<edge from-layer="2846" from-port="5" to-layer="2847" to-port="1"/>
		<edge from-layer="2847" from-port="2" to-layer="2852" to-port="0"/>
		<edge from-layer="2848" from-port="1" to-layer="2852" to-port="1"/>
		<edge from-layer="2849" from-port="1" to-layer="2852" to-port="2"/>
		<edge from-layer="2850" from-port="1" to-layer="2852" to-port="3"/>
		<edge from-layer="2851" from-port="1" to-layer="2852" to-port="4"/>
		<edge from-layer="2853" from-port="1" to-layer="2854" to-port="0"/>
		<edge from-layer="2854" from-port="1" to-layer="2859" to-port="0"/>
		<edge from-layer="2855" from-port="1" to-layer="2859" to-port="1"/>
		<edge from-layer="2856" from-port="1" to-layer="2859" to-port="2"/>
		<edge from-layer="2857" from-port="1" to-layer="2859" to-port="3"/>
		<edge from-layer="2858" from-port="1" to-layer="2859" to-port="4"/>
		<edge from-layer="2776" from-port="5" to-layer="2860" to-port="0"/>
		<edge from-layer="2859" from-port="5" to-layer="2860" to-port="1"/>
		<edge from-layer="2860" from-port="2" to-layer="2862" to-port="0"/>
		<edge from-layer="2861" from-port="1" to-layer="2862" to-port="1"/>
		<edge from-layer="2862" from-port="2" to-layer="2867" to-port="0"/>
		<edge from-layer="2863" from-port="1" to-layer="2867" to-port="1"/>
		<edge from-layer="2864" from-port="1" to-layer="2867" to-port="2"/>
		<edge from-layer="2865" from-port="1" to-layer="2867" to-port="3"/>
		<edge from-layer="2866" from-port="1" to-layer="2867" to-port="4"/>
		<edge from-layer="2868" from-port="1" to-layer="2869" to-port="0"/>
		<edge from-layer="2869" from-port="1" to-layer="2874" to-port="0"/>
		<edge from-layer="2870" from-port="1" to-layer="2874" to-port="1"/>
		<edge from-layer="2871" from-port="1" to-layer="2874" to-port="2"/>
		<edge from-layer="2872" from-port="1" to-layer="2874" to-port="3"/>
		<edge from-layer="2873" from-port="1" to-layer="2874" to-port="4"/>
		<edge from-layer="2874" from-port="5" to-layer="2876" to-port="0"/>
		<edge from-layer="2875" from-port="1" to-layer="2876" to-port="1"/>
		<edge from-layer="2867" from-port="5" to-layer="2877" to-port="0"/>
		<edge from-layer="2876" from-port="2" to-layer="2877" to-port="1"/>
		<edge from-layer="2877" from-port="2" to-layer="2879" to-port="0"/>
		<edge from-layer="2878" from-port="1" to-layer="2879" to-port="1"/>
		<edge from-layer="2879" from-port="2" to-layer="2880" to-port="0"/>
		<edge from-layer="2880" from-port="1" to-layer="2885" to-port="0"/>
		<edge from-layer="2881" from-port="1" to-layer="2885" to-port="1"/>
		<edge from-layer="2882" from-port="1" to-layer="2885" to-port="2"/>
		<edge from-layer="2883" from-port="1" to-layer="2885" to-port="3"/>
		<edge from-layer="2884" from-port="1" to-layer="2885" to-port="4"/>
		<edge from-layer="2886" from-port="1" to-layer="2887" to-port="0"/>
		<edge from-layer="2887" from-port="1" to-layer="2892" to-port="0"/>
		<edge from-layer="2888" from-port="1" to-layer="2892" to-port="1"/>
		<edge from-layer="2889" from-port="1" to-layer="2892" to-port="2"/>
		<edge from-layer="2890" from-port="1" to-layer="2892" to-port="3"/>
		<edge from-layer="2891" from-port="1" to-layer="2892" to-port="4"/>
		<edge from-layer="2885" from-port="5" to-layer="2893" to-port="0"/>
		<edge from-layer="2892" from-port="5" to-layer="2893" to-port="1"/>
		<edge from-layer="2893" from-port="2" to-layer="2895" to-port="0"/>
		<edge from-layer="2894" from-port="1" to-layer="2895" to-port="1"/>
		<edge from-layer="2895" from-port="2" to-layer="2900" to-port="0"/>
		<edge from-layer="2896" from-port="1" to-layer="2900" to-port="1"/>
		<edge from-layer="2897" from-port="1" to-layer="2900" to-port="2"/>
		<edge from-layer="2898" from-port="1" to-layer="2900" to-port="3"/>
		<edge from-layer="2899" from-port="1" to-layer="2900" to-port="4"/>
		<edge from-layer="2901" from-port="1" to-layer="2902" to-port="0"/>
		<edge from-layer="2902" from-port="1" to-layer="2907" to-port="0"/>
		<edge from-layer="2903" from-port="1" to-layer="2907" to-port="1"/>
		<edge from-layer="2904" from-port="1" to-layer="2907" to-port="2"/>
		<edge from-layer="2905" from-port="1" to-layer="2907" to-port="3"/>
		<edge from-layer="2906" from-port="1" to-layer="2907" to-port="4"/>
		<edge from-layer="2907" from-port="5" to-layer="2909" to-port="0"/>
		<edge from-layer="2908" from-port="1" to-layer="2909" to-port="1"/>
		<edge from-layer="2900" from-port="5" to-layer="2910" to-port="0"/>
		<edge from-layer="2909" from-port="2" to-layer="2910" to-port="1"/>
		<edge from-layer="2910" from-port="2" to-layer="2912" to-port="0"/>
		<edge from-layer="2911" from-port="1" to-layer="2912" to-port="1"/>
		<edge from-layer="2912" from-port="2" to-layer="2913" to-port="0"/>
		<edge from-layer="2913" from-port="1" to-layer="2918" to-port="0"/>
		<edge from-layer="2914" from-port="1" to-layer="2918" to-port="1"/>
		<edge from-layer="2915" from-port="1" to-layer="2918" to-port="2"/>
		<edge from-layer="2916" from-port="1" to-layer="2918" to-port="3"/>
		<edge from-layer="2917" from-port="1" to-layer="2918" to-port="4"/>
		<edge from-layer="2913" from-port="1" to-layer="2920" to-port="0"/>
		<edge from-layer="2920" from-port="1" to-layer="2921" to-port="0"/>
		<edge from-layer="2921" from-port="1" to-layer="2923" to-port="0"/>
		<edge from-layer="2922" from-port="1" to-layer="2923" to-port="1"/>
		<edge from-layer="2919" from-port="1" to-layer="2925" to-port="0"/>
		<edge from-layer="2923" from-port="2" to-layer="2925" to-port="1"/>
		<edge from-layer="2924" from-port="1" to-layer="2925" to-port="2"/>
		<edge from-layer="2918" from-port="5" to-layer="2926" to-port="0"/>
		<edge from-layer="2925" from-port="3" to-layer="2926" to-port="1"/>
		<edge from-layer="2926" from-port="2" to-layer="2931" to-port="0"/>
		<edge from-layer="2927" from-port="1" to-layer="2931" to-port="1"/>
		<edge from-layer="2928" from-port="1" to-layer="2931" to-port="2"/>
		<edge from-layer="2929" from-port="1" to-layer="2931" to-port="3"/>
		<edge from-layer="2930" from-port="1" to-layer="2931" to-port="4"/>
		<edge from-layer="2931" from-port="5" to-layer="2933" to-port="0"/>
		<edge from-layer="2932" from-port="1" to-layer="2933" to-port="1"/>
		<edge from-layer="2933" from-port="2" to-layer="2934" to-port="0"/>
		<edge from-layer="2934" from-port="1" to-layer="2936" to-port="0"/>
		<edge from-layer="2935" from-port="1" to-layer="2936" to-port="1"/>
		<edge from-layer="2936" from-port="2" to-layer="2938" to-port="0"/>
		<edge from-layer="2937" from-port="1" to-layer="2938" to-port="1"/>
		<edge from-layer="2938" from-port="2" to-layer="2943" to-port="0"/>
		<edge from-layer="2939" from-port="1" to-layer="2943" to-port="1"/>
		<edge from-layer="2940" from-port="1" to-layer="2943" to-port="2"/>
		<edge from-layer="2941" from-port="1" to-layer="2943" to-port="3"/>
		<edge from-layer="2942" from-port="1" to-layer="2943" to-port="4"/>
		<edge from-layer="2926" from-port="2" to-layer="2944" to-port="0"/>
		<edge from-layer="2943" from-port="5" to-layer="2945" to-port="0"/>
		<edge from-layer="2944" from-port="1" to-layer="2945" to-port="1"/>
		<edge from-layer="2945" from-port="2" to-layer="2947" to-port="0"/>
		<edge from-layer="2946" from-port="1" to-layer="2947" to-port="1"/>
		<edge from-layer="2947" from-port="2" to-layer="2949" to-port="0"/>
		<edge from-layer="2948" from-port="1" to-layer="2949" to-port="1"/>
		<edge from-layer="2949" from-port="2" to-layer="2950" to-port="0"/>
		<edge from-layer="2950" from-port="1" to-layer="2955" to-port="0"/>
		<edge from-layer="2951" from-port="1" to-layer="2955" to-port="1"/>
		<edge from-layer="2952" from-port="1" to-layer="2955" to-port="2"/>
		<edge from-layer="2953" from-port="1" to-layer="2955" to-port="3"/>
		<edge from-layer="2954" from-port="1" to-layer="2955" to-port="4"/>
		<edge from-layer="2918" from-port="5" to-layer="2956" to-port="0"/>
		<edge from-layer="2955" from-port="5" to-layer="2956" to-port="1"/>
		<edge from-layer="2956" from-port="2" to-layer="2961" to-port="0"/>
		<edge from-layer="2957" from-port="1" to-layer="2961" to-port="1"/>
		<edge from-layer="2958" from-port="1" to-layer="2961" to-port="2"/>
		<edge from-layer="2959" from-port="1" to-layer="2961" to-port="3"/>
		<edge from-layer="2960" from-port="1" to-layer="2961" to-port="4"/>
		<edge from-layer="2852" from-port="5" to-layer="2962" to-port="0"/>
		<edge from-layer="2961" from-port="5" to-layer="2962" to-port="1"/>
		<edge from-layer="2962" from-port="2" to-layer="2967" to-port="0"/>
		<edge from-layer="2963" from-port="1" to-layer="2967" to-port="1"/>
		<edge from-layer="2964" from-port="1" to-layer="2967" to-port="2"/>
		<edge from-layer="2965" from-port="1" to-layer="2967" to-port="3"/>
		<edge from-layer="2966" from-port="1" to-layer="2967" to-port="4"/>
		<edge from-layer="2968" from-port="1" to-layer="2969" to-port="0"/>
		<edge from-layer="2969" from-port="1" to-layer="2974" to-port="0"/>
		<edge from-layer="2970" from-port="1" to-layer="2974" to-port="1"/>
		<edge from-layer="2971" from-port="1" to-layer="2974" to-port="2"/>
		<edge from-layer="2972" from-port="1" to-layer="2974" to-port="3"/>
		<edge from-layer="2973" from-port="1" to-layer="2974" to-port="4"/>
		<edge from-layer="2776" from-port="5" to-layer="2975" to-port="0"/>
		<edge from-layer="2974" from-port="5" to-layer="2975" to-port="1"/>
		<edge from-layer="2975" from-port="2" to-layer="2977" to-port="0"/>
		<edge from-layer="2976" from-port="1" to-layer="2977" to-port="1"/>
		<edge from-layer="2977" from-port="2" to-layer="2982" to-port="0"/>
		<edge from-layer="2978" from-port="1" to-layer="2982" to-port="1"/>
		<edge from-layer="2979" from-port="1" to-layer="2982" to-port="2"/>
		<edge from-layer="2980" from-port="1" to-layer="2982" to-port="3"/>
		<edge from-layer="2981" from-port="1" to-layer="2982" to-port="4"/>
		<edge from-layer="2983" from-port="1" to-layer="2984" to-port="0"/>
		<edge from-layer="2984" from-port="1" to-layer="2989" to-port="0"/>
		<edge from-layer="2985" from-port="1" to-layer="2989" to-port="1"/>
		<edge from-layer="2986" from-port="1" to-layer="2989" to-port="2"/>
		<edge from-layer="2987" from-port="1" to-layer="2989" to-port="3"/>
		<edge from-layer="2988" from-port="1" to-layer="2989" to-port="4"/>
		<edge from-layer="2989" from-port="5" to-layer="2991" to-port="0"/>
		<edge from-layer="2990" from-port="1" to-layer="2991" to-port="1"/>
		<edge from-layer="2982" from-port="5" to-layer="2992" to-port="0"/>
		<edge from-layer="2991" from-port="2" to-layer="2992" to-port="1"/>
		<edge from-layer="2992" from-port="2" to-layer="2994" to-port="0"/>
		<edge from-layer="2993" from-port="1" to-layer="2994" to-port="1"/>
		<edge from-layer="2994" from-port="2" to-layer="2995" to-port="0"/>
		<edge from-layer="2995" from-port="1" to-layer="3000" to-port="0"/>
		<edge from-layer="2996" from-port="1" to-layer="3000" to-port="1"/>
		<edge from-layer="2997" from-port="1" to-layer="3000" to-port="2"/>
		<edge from-layer="2998" from-port="1" to-layer="3000" to-port="3"/>
		<edge from-layer="2999" from-port="1" to-layer="3000" to-port="4"/>
		<edge from-layer="3001" from-port="1" to-layer="3002" to-port="0"/>
		<edge from-layer="3002" from-port="1" to-layer="3007" to-port="0"/>
		<edge from-layer="3003" from-port="1" to-layer="3007" to-port="1"/>
		<edge from-layer="3004" from-port="1" to-layer="3007" to-port="2"/>
		<edge from-layer="3005" from-port="1" to-layer="3007" to-port="3"/>
		<edge from-layer="3006" from-port="1" to-layer="3007" to-port="4"/>
		<edge from-layer="3000" from-port="5" to-layer="3008" to-port="0"/>
		<edge from-layer="3007" from-port="5" to-layer="3008" to-port="1"/>
		<edge from-layer="3008" from-port="2" to-layer="3010" to-port="0"/>
		<edge from-layer="3009" from-port="1" to-layer="3010" to-port="1"/>
		<edge from-layer="3010" from-port="2" to-layer="3015" to-port="0"/>
		<edge from-layer="3011" from-port="1" to-layer="3015" to-port="1"/>
		<edge from-layer="3012" from-port="1" to-layer="3015" to-port="2"/>
		<edge from-layer="3013" from-port="1" to-layer="3015" to-port="3"/>
		<edge from-layer="3014" from-port="1" to-layer="3015" to-port="4"/>
		<edge from-layer="3016" from-port="1" to-layer="3017" to-port="0"/>
		<edge from-layer="3017" from-port="1" to-layer="3022" to-port="0"/>
		<edge from-layer="3018" from-port="1" to-layer="3022" to-port="1"/>
		<edge from-layer="3019" from-port="1" to-layer="3022" to-port="2"/>
		<edge from-layer="3020" from-port="1" to-layer="3022" to-port="3"/>
		<edge from-layer="3021" from-port="1" to-layer="3022" to-port="4"/>
		<edge from-layer="3022" from-port="5" to-layer="3024" to-port="0"/>
		<edge from-layer="3023" from-port="1" to-layer="3024" to-port="1"/>
		<edge from-layer="3015" from-port="5" to-layer="3025" to-port="0"/>
		<edge from-layer="3024" from-port="2" to-layer="3025" to-port="1"/>
		<edge from-layer="3025" from-port="2" to-layer="3027" to-port="0"/>
		<edge from-layer="3026" from-port="1" to-layer="3027" to-port="1"/>
		<edge from-layer="3027" from-port="2" to-layer="3028" to-port="0"/>
		<edge from-layer="3028" from-port="1" to-layer="3033" to-port="0"/>
		<edge from-layer="3029" from-port="1" to-layer="3033" to-port="1"/>
		<edge from-layer="3030" from-port="1" to-layer="3033" to-port="2"/>
		<edge from-layer="3031" from-port="1" to-layer="3033" to-port="3"/>
		<edge from-layer="3032" from-port="1" to-layer="3033" to-port="4"/>
		<edge from-layer="3034" from-port="1" to-layer="3035" to-port="0"/>
		<edge from-layer="3035" from-port="1" to-layer="3040" to-port="0"/>
		<edge from-layer="3036" from-port="1" to-layer="3040" to-port="1"/>
		<edge from-layer="3037" from-port="1" to-layer="3040" to-port="2"/>
		<edge from-layer="3038" from-port="1" to-layer="3040" to-port="3"/>
		<edge from-layer="3039" from-port="1" to-layer="3040" to-port="4"/>
		<edge from-layer="3033" from-port="5" to-layer="3041" to-port="0"/>
		<edge from-layer="3040" from-port="5" to-layer="3041" to-port="1"/>
		<edge from-layer="3041" from-port="2" to-layer="3043" to-port="0"/>
		<edge from-layer="3042" from-port="1" to-layer="3043" to-port="1"/>
		<edge from-layer="3043" from-port="2" to-layer="3048" to-port="0"/>
		<edge from-layer="3044" from-port="1" to-layer="3048" to-port="1"/>
		<edge from-layer="3045" from-port="1" to-layer="3048" to-port="2"/>
		<edge from-layer="3046" from-port="1" to-layer="3048" to-port="3"/>
		<edge from-layer="3047" from-port="1" to-layer="3048" to-port="4"/>
		<edge from-layer="3049" from-port="1" to-layer="3050" to-port="0"/>
		<edge from-layer="3050" from-port="1" to-layer="3055" to-port="0"/>
		<edge from-layer="3051" from-port="1" to-layer="3055" to-port="1"/>
		<edge from-layer="3052" from-port="1" to-layer="3055" to-port="2"/>
		<edge from-layer="3053" from-port="1" to-layer="3055" to-port="3"/>
		<edge from-layer="3054" from-port="1" to-layer="3055" to-port="4"/>
		<edge from-layer="3055" from-port="5" to-layer="3057" to-port="0"/>
		<edge from-layer="3056" from-port="1" to-layer="3057" to-port="1"/>
		<edge from-layer="3048" from-port="5" to-layer="3058" to-port="0"/>
		<edge from-layer="3057" from-port="2" to-layer="3058" to-port="1"/>
		<edge from-layer="3058" from-port="2" to-layer="3060" to-port="0"/>
		<edge from-layer="3059" from-port="1" to-layer="3060" to-port="1"/>
		<edge from-layer="3060" from-port="2" to-layer="3061" to-port="0"/>
		<edge from-layer="3061" from-port="1" to-layer="3066" to-port="0"/>
		<edge from-layer="3062" from-port="1" to-layer="3066" to-port="1"/>
		<edge from-layer="3063" from-port="1" to-layer="3066" to-port="2"/>
		<edge from-layer="3064" from-port="1" to-layer="3066" to-port="3"/>
		<edge from-layer="3065" from-port="1" to-layer="3066" to-port="4"/>
		<edge from-layer="3061" from-port="1" to-layer="3068" to-port="0"/>
		<edge from-layer="3068" from-port="1" to-layer="3069" to-port="0"/>
		<edge from-layer="3069" from-port="1" to-layer="3071" to-port="0"/>
		<edge from-layer="3070" from-port="1" to-layer="3071" to-port="1"/>
		<edge from-layer="3067" from-port="1" to-layer="3073" to-port="0"/>
		<edge from-layer="3071" from-port="2" to-layer="3073" to-port="1"/>
		<edge from-layer="3072" from-port="1" to-layer="3073" to-port="2"/>
		<edge from-layer="3066" from-port="5" to-layer="3074" to-port="0"/>
		<edge from-layer="3073" from-port="3" to-layer="3074" to-port="1"/>
		<edge from-layer="3074" from-port="2" to-layer="3079" to-port="0"/>
		<edge from-layer="3075" from-port="1" to-layer="3079" to-port="1"/>
		<edge from-layer="3076" from-port="1" to-layer="3079" to-port="2"/>
		<edge from-layer="3077" from-port="1" to-layer="3079" to-port="3"/>
		<edge from-layer="3078" from-port="1" to-layer="3079" to-port="4"/>
		<edge from-layer="3079" from-port="5" to-layer="3081" to-port="0"/>
		<edge from-layer="3080" from-port="1" to-layer="3081" to-port="1"/>
		<edge from-layer="3081" from-port="2" to-layer="3082" to-port="0"/>
		<edge from-layer="3082" from-port="1" to-layer="3084" to-port="0"/>
		<edge from-layer="3083" from-port="1" to-layer="3084" to-port="1"/>
		<edge from-layer="3084" from-port="2" to-layer="3086" to-port="0"/>
		<edge from-layer="3085" from-port="1" to-layer="3086" to-port="1"/>
		<edge from-layer="3086" from-port="2" to-layer="3091" to-port="0"/>
		<edge from-layer="3087" from-port="1" to-layer="3091" to-port="1"/>
		<edge from-layer="3088" from-port="1" to-layer="3091" to-port="2"/>
		<edge from-layer="3089" from-port="1" to-layer="3091" to-port="3"/>
		<edge from-layer="3090" from-port="1" to-layer="3091" to-port="4"/>
		<edge from-layer="3074" from-port="2" to-layer="3092" to-port="0"/>
		<edge from-layer="3091" from-port="5" to-layer="3093" to-port="0"/>
		<edge from-layer="3092" from-port="1" to-layer="3093" to-port="1"/>
		<edge from-layer="3093" from-port="2" to-layer="3095" to-port="0"/>
		<edge from-layer="3094" from-port="1" to-layer="3095" to-port="1"/>
		<edge from-layer="3095" from-port="2" to-layer="3097" to-port="0"/>
		<edge from-layer="3096" from-port="1" to-layer="3097" to-port="1"/>
		<edge from-layer="3097" from-port="2" to-layer="3098" to-port="0"/>
		<edge from-layer="3098" from-port="1" to-layer="3103" to-port="0"/>
		<edge from-layer="3099" from-port="1" to-layer="3103" to-port="1"/>
		<edge from-layer="3100" from-port="1" to-layer="3103" to-port="2"/>
		<edge from-layer="3101" from-port="1" to-layer="3103" to-port="3"/>
		<edge from-layer="3102" from-port="1" to-layer="3103" to-port="4"/>
		<edge from-layer="3066" from-port="5" to-layer="3104" to-port="0"/>
		<edge from-layer="3103" from-port="5" to-layer="3104" to-port="1"/>
		<edge from-layer="3104" from-port="2" to-layer="3109" to-port="0"/>
		<edge from-layer="3105" from-port="1" to-layer="3109" to-port="1"/>
		<edge from-layer="3106" from-port="1" to-layer="3109" to-port="2"/>
		<edge from-layer="3107" from-port="1" to-layer="3109" to-port="3"/>
		<edge from-layer="3108" from-port="1" to-layer="3109" to-port="4"/>
		<edge from-layer="2967" from-port="5" to-layer="3110" to-port="0"/>
		<edge from-layer="3109" from-port="5" to-layer="3110" to-port="1"/>
		<edge from-layer="3110" from-port="2" to-layer="3115" to-port="0"/>
		<edge from-layer="3111" from-port="1" to-layer="3115" to-port="1"/>
		<edge from-layer="3112" from-port="1" to-layer="3115" to-port="2"/>
		<edge from-layer="3113" from-port="1" to-layer="3115" to-port="3"/>
		<edge from-layer="3114" from-port="1" to-layer="3115" to-port="4"/>
		<edge from-layer="3116" from-port="1" to-layer="3117" to-port="0"/>
		<edge from-layer="3117" from-port="1" to-layer="3122" to-port="0"/>
		<edge from-layer="3118" from-port="1" to-layer="3122" to-port="1"/>
		<edge from-layer="3119" from-port="1" to-layer="3122" to-port="2"/>
		<edge from-layer="3120" from-port="1" to-layer="3122" to-port="3"/>
		<edge from-layer="3121" from-port="1" to-layer="3122" to-port="4"/>
		<edge from-layer="2776" from-port="5" to-layer="3123" to-port="0"/>
		<edge from-layer="3122" from-port="5" to-layer="3123" to-port="1"/>
		<edge from-layer="3123" from-port="2" to-layer="3125" to-port="0"/>
		<edge from-layer="3124" from-port="1" to-layer="3125" to-port="1"/>
		<edge from-layer="3125" from-port="2" to-layer="3130" to-port="0"/>
		<edge from-layer="3126" from-port="1" to-layer="3130" to-port="1"/>
		<edge from-layer="3127" from-port="1" to-layer="3130" to-port="2"/>
		<edge from-layer="3128" from-port="1" to-layer="3130" to-port="3"/>
		<edge from-layer="3129" from-port="1" to-layer="3130" to-port="4"/>
		<edge from-layer="3131" from-port="1" to-layer="3132" to-port="0"/>
		<edge from-layer="3132" from-port="1" to-layer="3137" to-port="0"/>
		<edge from-layer="3133" from-port="1" to-layer="3137" to-port="1"/>
		<edge from-layer="3134" from-port="1" to-layer="3137" to-port="2"/>
		<edge from-layer="3135" from-port="1" to-layer="3137" to-port="3"/>
		<edge from-layer="3136" from-port="1" to-layer="3137" to-port="4"/>
		<edge from-layer="3137" from-port="5" to-layer="3139" to-port="0"/>
		<edge from-layer="3138" from-port="1" to-layer="3139" to-port="1"/>
		<edge from-layer="3130" from-port="5" to-layer="3140" to-port="0"/>
		<edge from-layer="3139" from-port="2" to-layer="3140" to-port="1"/>
		<edge from-layer="3140" from-port="2" to-layer="3142" to-port="0"/>
		<edge from-layer="3141" from-port="1" to-layer="3142" to-port="1"/>
		<edge from-layer="3142" from-port="2" to-layer="3143" to-port="0"/>
		<edge from-layer="3143" from-port="1" to-layer="3148" to-port="0"/>
		<edge from-layer="3144" from-port="1" to-layer="3148" to-port="1"/>
		<edge from-layer="3145" from-port="1" to-layer="3148" to-port="2"/>
		<edge from-layer="3146" from-port="1" to-layer="3148" to-port="3"/>
		<edge from-layer="3147" from-port="1" to-layer="3148" to-port="4"/>
		<edge from-layer="3149" from-port="1" to-layer="3150" to-port="0"/>
		<edge from-layer="3150" from-port="1" to-layer="3155" to-port="0"/>
		<edge from-layer="3151" from-port="1" to-layer="3155" to-port="1"/>
		<edge from-layer="3152" from-port="1" to-layer="3155" to-port="2"/>
		<edge from-layer="3153" from-port="1" to-layer="3155" to-port="3"/>
		<edge from-layer="3154" from-port="1" to-layer="3155" to-port="4"/>
		<edge from-layer="3148" from-port="5" to-layer="3156" to-port="0"/>
		<edge from-layer="3155" from-port="5" to-layer="3156" to-port="1"/>
		<edge from-layer="3156" from-port="2" to-layer="3158" to-port="0"/>
		<edge from-layer="3157" from-port="1" to-layer="3158" to-port="1"/>
		<edge from-layer="3158" from-port="2" to-layer="3163" to-port="0"/>
		<edge from-layer="3159" from-port="1" to-layer="3163" to-port="1"/>
		<edge from-layer="3160" from-port="1" to-layer="3163" to-port="2"/>
		<edge from-layer="3161" from-port="1" to-layer="3163" to-port="3"/>
		<edge from-layer="3162" from-port="1" to-layer="3163" to-port="4"/>
		<edge from-layer="3164" from-port="1" to-layer="3165" to-port="0"/>
		<edge from-layer="3165" from-port="1" to-layer="3170" to-port="0"/>
		<edge from-layer="3166" from-port="1" to-layer="3170" to-port="1"/>
		<edge from-layer="3167" from-port="1" to-layer="3170" to-port="2"/>
		<edge from-layer="3168" from-port="1" to-layer="3170" to-port="3"/>
		<edge from-layer="3169" from-port="1" to-layer="3170" to-port="4"/>
		<edge from-layer="3170" from-port="5" to-layer="3172" to-port="0"/>
		<edge from-layer="3171" from-port="1" to-layer="3172" to-port="1"/>
		<edge from-layer="3163" from-port="5" to-layer="3173" to-port="0"/>
		<edge from-layer="3172" from-port="2" to-layer="3173" to-port="1"/>
		<edge from-layer="3173" from-port="2" to-layer="3175" to-port="0"/>
		<edge from-layer="3174" from-port="1" to-layer="3175" to-port="1"/>
		<edge from-layer="3175" from-port="2" to-layer="3176" to-port="0"/>
		<edge from-layer="3176" from-port="1" to-layer="3181" to-port="0"/>
		<edge from-layer="3177" from-port="1" to-layer="3181" to-port="1"/>
		<edge from-layer="3178" from-port="1" to-layer="3181" to-port="2"/>
		<edge from-layer="3179" from-port="1" to-layer="3181" to-port="3"/>
		<edge from-layer="3180" from-port="1" to-layer="3181" to-port="4"/>
		<edge from-layer="3182" from-port="1" to-layer="3183" to-port="0"/>
		<edge from-layer="3183" from-port="1" to-layer="3188" to-port="0"/>
		<edge from-layer="3184" from-port="1" to-layer="3188" to-port="1"/>
		<edge from-layer="3185" from-port="1" to-layer="3188" to-port="2"/>
		<edge from-layer="3186" from-port="1" to-layer="3188" to-port="3"/>
		<edge from-layer="3187" from-port="1" to-layer="3188" to-port="4"/>
		<edge from-layer="3181" from-port="5" to-layer="3189" to-port="0"/>
		<edge from-layer="3188" from-port="5" to-layer="3189" to-port="1"/>
		<edge from-layer="3189" from-port="2" to-layer="3191" to-port="0"/>
		<edge from-layer="3190" from-port="1" to-layer="3191" to-port="1"/>
		<edge from-layer="3191" from-port="2" to-layer="3196" to-port="0"/>
		<edge from-layer="3192" from-port="1" to-layer="3196" to-port="1"/>
		<edge from-layer="3193" from-port="1" to-layer="3196" to-port="2"/>
		<edge from-layer="3194" from-port="1" to-layer="3196" to-port="3"/>
		<edge from-layer="3195" from-port="1" to-layer="3196" to-port="4"/>
		<edge from-layer="3197" from-port="1" to-layer="3198" to-port="0"/>
		<edge from-layer="3198" from-port="1" to-layer="3203" to-port="0"/>
		<edge from-layer="3199" from-port="1" to-layer="3203" to-port="1"/>
		<edge from-layer="3200" from-port="1" to-layer="3203" to-port="2"/>
		<edge from-layer="3201" from-port="1" to-layer="3203" to-port="3"/>
		<edge from-layer="3202" from-port="1" to-layer="3203" to-port="4"/>
		<edge from-layer="3203" from-port="5" to-layer="3205" to-port="0"/>
		<edge from-layer="3204" from-port="1" to-layer="3205" to-port="1"/>
		<edge from-layer="3196" from-port="5" to-layer="3206" to-port="0"/>
		<edge from-layer="3205" from-port="2" to-layer="3206" to-port="1"/>
		<edge from-layer="3206" from-port="2" to-layer="3208" to-port="0"/>
		<edge from-layer="3207" from-port="1" to-layer="3208" to-port="1"/>
		<edge from-layer="3208" from-port="2" to-layer="3209" to-port="0"/>
		<edge from-layer="3209" from-port="1" to-layer="3214" to-port="0"/>
		<edge from-layer="3210" from-port="1" to-layer="3214" to-port="1"/>
		<edge from-layer="3211" from-port="1" to-layer="3214" to-port="2"/>
		<edge from-layer="3212" from-port="1" to-layer="3214" to-port="3"/>
		<edge from-layer="3213" from-port="1" to-layer="3214" to-port="4"/>
		<edge from-layer="3215" from-port="1" to-layer="3216" to-port="0"/>
		<edge from-layer="3216" from-port="1" to-layer="3221" to-port="0"/>
		<edge from-layer="3217" from-port="1" to-layer="3221" to-port="1"/>
		<edge from-layer="3218" from-port="1" to-layer="3221" to-port="2"/>
		<edge from-layer="3219" from-port="1" to-layer="3221" to-port="3"/>
		<edge from-layer="3220" from-port="1" to-layer="3221" to-port="4"/>
		<edge from-layer="3214" from-port="5" to-layer="3222" to-port="0"/>
		<edge from-layer="3221" from-port="5" to-layer="3222" to-port="1"/>
		<edge from-layer="3222" from-port="2" to-layer="3224" to-port="0"/>
		<edge from-layer="3223" from-port="1" to-layer="3224" to-port="1"/>
		<edge from-layer="3224" from-port="2" to-layer="3229" to-port="0"/>
		<edge from-layer="3225" from-port="1" to-layer="3229" to-port="1"/>
		<edge from-layer="3226" from-port="1" to-layer="3229" to-port="2"/>
		<edge from-layer="3227" from-port="1" to-layer="3229" to-port="3"/>
		<edge from-layer="3228" from-port="1" to-layer="3229" to-port="4"/>
		<edge from-layer="3230" from-port="1" to-layer="3231" to-port="0"/>
		<edge from-layer="3231" from-port="1" to-layer="3236" to-port="0"/>
		<edge from-layer="3232" from-port="1" to-layer="3236" to-port="1"/>
		<edge from-layer="3233" from-port="1" to-layer="3236" to-port="2"/>
		<edge from-layer="3234" from-port="1" to-layer="3236" to-port="3"/>
		<edge from-layer="3235" from-port="1" to-layer="3236" to-port="4"/>
		<edge from-layer="3236" from-port="5" to-layer="3238" to-port="0"/>
		<edge from-layer="3237" from-port="1" to-layer="3238" to-port="1"/>
		<edge from-layer="3229" from-port="5" to-layer="3239" to-port="0"/>
		<edge from-layer="3238" from-port="2" to-layer="3239" to-port="1"/>
		<edge from-layer="3239" from-port="2" to-layer="3241" to-port="0"/>
		<edge from-layer="3240" from-port="1" to-layer="3241" to-port="1"/>
		<edge from-layer="3241" from-port="2" to-layer="3242" to-port="0"/>
		<edge from-layer="3242" from-port="1" to-layer="3247" to-port="0"/>
		<edge from-layer="3243" from-port="1" to-layer="3247" to-port="1"/>
		<edge from-layer="3244" from-port="1" to-layer="3247" to-port="2"/>
		<edge from-layer="3245" from-port="1" to-layer="3247" to-port="3"/>
		<edge from-layer="3246" from-port="1" to-layer="3247" to-port="4"/>
		<edge from-layer="3242" from-port="1" to-layer="3249" to-port="0"/>
		<edge from-layer="3249" from-port="1" to-layer="3250" to-port="0"/>
		<edge from-layer="3250" from-port="1" to-layer="3252" to-port="0"/>
		<edge from-layer="3251" from-port="1" to-layer="3252" to-port="1"/>
		<edge from-layer="3248" from-port="1" to-layer="3254" to-port="0"/>
		<edge from-layer="3252" from-port="2" to-layer="3254" to-port="1"/>
		<edge from-layer="3253" from-port="1" to-layer="3254" to-port="2"/>
		<edge from-layer="3247" from-port="5" to-layer="3255" to-port="0"/>
		<edge from-layer="3254" from-port="3" to-layer="3255" to-port="1"/>
		<edge from-layer="3255" from-port="2" to-layer="3260" to-port="0"/>
		<edge from-layer="3256" from-port="1" to-layer="3260" to-port="1"/>
		<edge from-layer="3257" from-port="1" to-layer="3260" to-port="2"/>
		<edge from-layer="3258" from-port="1" to-layer="3260" to-port="3"/>
		<edge from-layer="3259" from-port="1" to-layer="3260" to-port="4"/>
		<edge from-layer="3260" from-port="5" to-layer="3262" to-port="0"/>
		<edge from-layer="3261" from-port="1" to-layer="3262" to-port="1"/>
		<edge from-layer="3262" from-port="2" to-layer="3263" to-port="0"/>
		<edge from-layer="3263" from-port="1" to-layer="3265" to-port="0"/>
		<edge from-layer="3264" from-port="1" to-layer="3265" to-port="1"/>
		<edge from-layer="3265" from-port="2" to-layer="3267" to-port="0"/>
		<edge from-layer="3266" from-port="1" to-layer="3267" to-port="1"/>
		<edge from-layer="3267" from-port="2" to-layer="3272" to-port="0"/>
		<edge from-layer="3268" from-port="1" to-layer="3272" to-port="1"/>
		<edge from-layer="3269" from-port="1" to-layer="3272" to-port="2"/>
		<edge from-layer="3270" from-port="1" to-layer="3272" to-port="3"/>
		<edge from-layer="3271" from-port="1" to-layer="3272" to-port="4"/>
		<edge from-layer="3255" from-port="2" to-layer="3273" to-port="0"/>
		<edge from-layer="3272" from-port="5" to-layer="3274" to-port="0"/>
		<edge from-layer="3273" from-port="1" to-layer="3274" to-port="1"/>
		<edge from-layer="3274" from-port="2" to-layer="3276" to-port="0"/>
		<edge from-layer="3275" from-port="1" to-layer="3276" to-port="1"/>
		<edge from-layer="3276" from-port="2" to-layer="3278" to-port="0"/>
		<edge from-layer="3277" from-port="1" to-layer="3278" to-port="1"/>
		<edge from-layer="3278" from-port="2" to-layer="3279" to-port="0"/>
		<edge from-layer="3279" from-port="1" to-layer="3284" to-port="0"/>
		<edge from-layer="3280" from-port="1" to-layer="3284" to-port="1"/>
		<edge from-layer="3281" from-port="1" to-layer="3284" to-port="2"/>
		<edge from-layer="3282" from-port="1" to-layer="3284" to-port="3"/>
		<edge from-layer="3283" from-port="1" to-layer="3284" to-port="4"/>
		<edge from-layer="3247" from-port="5" to-layer="3285" to-port="0"/>
		<edge from-layer="3284" from-port="5" to-layer="3285" to-port="1"/>
		<edge from-layer="3285" from-port="2" to-layer="3290" to-port="0"/>
		<edge from-layer="3286" from-port="1" to-layer="3290" to-port="1"/>
		<edge from-layer="3287" from-port="1" to-layer="3290" to-port="2"/>
		<edge from-layer="3288" from-port="1" to-layer="3290" to-port="3"/>
		<edge from-layer="3289" from-port="1" to-layer="3290" to-port="4"/>
		<edge from-layer="3115" from-port="5" to-layer="3291" to-port="0"/>
		<edge from-layer="3290" from-port="5" to-layer="3291" to-port="1"/>
		<edge from-layer="3291" from-port="2" to-layer="3296" to-port="0"/>
		<edge from-layer="3292" from-port="1" to-layer="3296" to-port="1"/>
		<edge from-layer="3293" from-port="1" to-layer="3296" to-port="2"/>
		<edge from-layer="3294" from-port="1" to-layer="3296" to-port="3"/>
		<edge from-layer="3295" from-port="1" to-layer="3296" to-port="4"/>
		<edge from-layer="3297" from-port="1" to-layer="3298" to-port="0"/>
		<edge from-layer="3298" from-port="1" to-layer="3303" to-port="0"/>
		<edge from-layer="3299" from-port="1" to-layer="3303" to-port="1"/>
		<edge from-layer="3300" from-port="1" to-layer="3303" to-port="2"/>
		<edge from-layer="3301" from-port="1" to-layer="3303" to-port="3"/>
		<edge from-layer="3302" from-port="1" to-layer="3303" to-port="4"/>
		<edge from-layer="3296" from-port="5" to-layer="3304" to-port="0"/>
		<edge from-layer="3303" from-port="5" to-layer="3304" to-port="1"/>
		<edge from-layer="3304" from-port="2" to-layer="3306" to-port="0"/>
		<edge from-layer="3305" from-port="1" to-layer="3306" to-port="1"/>
		<edge from-layer="3306" from-port="2" to-layer="3311" to-port="0"/>
		<edge from-layer="3307" from-port="1" to-layer="3311" to-port="1"/>
		<edge from-layer="3308" from-port="1" to-layer="3311" to-port="2"/>
		<edge from-layer="3309" from-port="1" to-layer="3311" to-port="3"/>
		<edge from-layer="3310" from-port="1" to-layer="3311" to-port="4"/>
		<edge from-layer="3311" from-port="5" to-layer="3312" to-port="0"/>
		<edge from-layer="2760" from-port="5" to-layer="3312" to-port="1"/>
		<edge from-layer="3312" from-port="2" to-layer="3313" to-port="0"/>
		<edge from-layer="3313" from-port="1" to-layer="3318" to-port="0"/>
		<edge from-layer="3314" from-port="1" to-layer="3318" to-port="1"/>
		<edge from-layer="3315" from-port="1" to-layer="3318" to-port="2"/>
		<edge from-layer="3316" from-port="1" to-layer="3318" to-port="3"/>
		<edge from-layer="3317" from-port="1" to-layer="3318" to-port="4"/>
		<edge from-layer="3319" from-port="1" to-layer="3320" to-port="0"/>
		<edge from-layer="3320" from-port="1" to-layer="3325" to-port="0"/>
		<edge from-layer="3321" from-port="1" to-layer="3325" to-port="1"/>
		<edge from-layer="3322" from-port="1" to-layer="3325" to-port="2"/>
		<edge from-layer="3323" from-port="1" to-layer="3325" to-port="3"/>
		<edge from-layer="3324" from-port="1" to-layer="3325" to-port="4"/>
		<edge from-layer="3318" from-port="5" to-layer="3326" to-port="0"/>
		<edge from-layer="3325" from-port="5" to-layer="3326" to-port="1"/>
		<edge from-layer="3326" from-port="2" to-layer="3328" to-port="0"/>
		<edge from-layer="3327" from-port="1" to-layer="3328" to-port="1"/>
		<edge from-layer="3328" from-port="2" to-layer="3329" to-port="0"/>
		<edge from-layer="3329" from-port="1" to-layer="3334" to-port="0"/>
		<edge from-layer="3330" from-port="1" to-layer="3334" to-port="1"/>
		<edge from-layer="3331" from-port="1" to-layer="3334" to-port="2"/>
		<edge from-layer="3332" from-port="1" to-layer="3334" to-port="3"/>
		<edge from-layer="3333" from-port="1" to-layer="3334" to-port="4"/>
		<edge from-layer="3335" from-port="1" to-layer="3336" to-port="0"/>
		<edge from-layer="3336" from-port="1" to-layer="3341" to-port="0"/>
		<edge from-layer="3337" from-port="1" to-layer="3341" to-port="1"/>
		<edge from-layer="3338" from-port="1" to-layer="3341" to-port="2"/>
		<edge from-layer="3339" from-port="1" to-layer="3341" to-port="3"/>
		<edge from-layer="3340" from-port="1" to-layer="3341" to-port="4"/>
		<edge from-layer="3341" from-port="5" to-layer="3343" to-port="0"/>
		<edge from-layer="3342" from-port="1" to-layer="3343" to-port="1"/>
		<edge from-layer="3334" from-port="5" to-layer="3344" to-port="0"/>
		<edge from-layer="3343" from-port="2" to-layer="3344" to-port="1"/>
		<edge from-layer="3344" from-port="2" to-layer="3346" to-port="0"/>
		<edge from-layer="3345" from-port="1" to-layer="3346" to-port="1"/>
		<edge from-layer="3346" from-port="2" to-layer="3351" to-port="0"/>
		<edge from-layer="3347" from-port="1" to-layer="3351" to-port="1"/>
		<edge from-layer="3348" from-port="1" to-layer="3351" to-port="2"/>
		<edge from-layer="3349" from-port="1" to-layer="3351" to-port="3"/>
		<edge from-layer="3350" from-port="1" to-layer="3351" to-port="4"/>
		<edge from-layer="3346" from-port="2" to-layer="3352" to-port="0"/>
		<edge from-layer="3352" from-port="1" to-layer="3355" to-port="0"/>
		<edge from-layer="3353" from-port="1" to-layer="3355" to-port="1"/>
		<edge from-layer="3354" from-port="1" to-layer="3355" to-port="2"/>
		<edge from-layer="3355" from-port="3" to-layer="3357" to-port="0"/>
		<edge from-layer="3356" from-port="1" to-layer="3357" to-port="1"/>
		<edge from-layer="3357" from-port="2" to-layer="3359" to-port="0"/>
		<edge from-layer="3358" from-port="1" to-layer="3359" to-port="1"/>
		<edge from-layer="3351" from-port="5" to-layer="3360" to-port="0"/>
		<edge from-layer="3359" from-port="2" to-layer="3360" to-port="1"/>
		<edge from-layer="3361" from-port="1" to-layer="3362" to-port="0"/>
		<edge from-layer="3362" from-port="1" to-layer="3367" to-port="0"/>
		<edge from-layer="3363" from-port="1" to-layer="3367" to-port="1"/>
		<edge from-layer="3364" from-port="1" to-layer="3367" to-port="2"/>
		<edge from-layer="3365" from-port="1" to-layer="3367" to-port="3"/>
		<edge from-layer="3366" from-port="1" to-layer="3367" to-port="4"/>
		<edge from-layer="3360" from-port="2" to-layer="3368" to-port="0"/>
		<edge from-layer="3367" from-port="5" to-layer="3368" to-port="1"/>
		<edge from-layer="3368" from-port="2" to-layer="3370" to-port="0"/>
		<edge from-layer="3369" from-port="1" to-layer="3370" to-port="1"/>
		<edge from-layer="3370" from-port="2" to-layer="3375" to-port="0"/>
		<edge from-layer="3371" from-port="1" to-layer="3375" to-port="1"/>
		<edge from-layer="3372" from-port="1" to-layer="3375" to-port="2"/>
		<edge from-layer="3373" from-port="1" to-layer="3375" to-port="3"/>
		<edge from-layer="3374" from-port="1" to-layer="3375" to-port="4"/>
		<edge from-layer="3360" from-port="2" to-layer="3376" to-port="0"/>
		<edge from-layer="3376" from-port="1" to-layer="3379" to-port="0"/>
		<edge from-layer="3377" from-port="1" to-layer="3379" to-port="1"/>
		<edge from-layer="3378" from-port="1" to-layer="3379" to-port="2"/>
		<edge from-layer="3379" from-port="3" to-layer="3381" to-port="0"/>
		<edge from-layer="3380" from-port="1" to-layer="3381" to-port="1"/>
		<edge from-layer="3381" from-port="2" to-layer="3384" to-port="0"/>
		<edge from-layer="3382" from-port="1" to-layer="3384" to-port="1"/>
		<edge from-layer="3383" from-port="1" to-layer="3384" to-port="2"/>
		<edge from-layer="3375" from-port="5" to-layer="3385" to-port="0"/>
		<edge from-layer="3384" from-port="3" to-layer="3385" to-port="1"/>
		<edge from-layer="3385" from-port="2" to-layer="3387" to-port="0"/>
		<edge from-layer="3386" from-port="1" to-layer="3387" to-port="1"/>
		<edge from-layer="3387" from-port="2" to-layer="3389" to-port="0"/>
		<edge from-layer="3388" from-port="1" to-layer="3389" to-port="1"/>
		<edge from-layer="3389" from-port="2" to-layer="3391" to-port="0"/>
		<edge from-layer="3390" from-port="1" to-layer="3391" to-port="1"/>
		<edge from-layer="3391" from-port="2" to-layer="3392" to-port="0"/>
		<edge from-layer="3392" from-port="1" to-layer="3395" to-port="0"/>
		<edge from-layer="3393" from-port="1" to-layer="3395" to-port="1"/>
		<edge from-layer="3394" from-port="1" to-layer="3395" to-port="2"/>
		<edge from-layer="3395" from-port="3" to-layer="3397" to-port="0"/>
		<edge from-layer="3396" from-port="1" to-layer="3397" to-port="1"/>
		<edge from-layer="3397" from-port="2" to-layer="3399" to-port="0"/>
		<edge from-layer="3398" from-port="1" to-layer="3399" to-port="1"/>
		<edge from-layer="3391" from-port="2" to-layer="3400" to-port="0"/>
		<edge from-layer="3399" from-port="2" to-layer="3400" to-port="1"/>
		<edge from-layer="3400" from-port="2" to-layer="3401" to-port="0"/>
	</edges>
	<meta_data>
		<MO_version value="unknown version"/>
		<cli_parameters>
			<caffe_parser_path value="DIR"/>
			<data_type value="FP16"/>
			<disable_nhwc_to_nchw value="False"/>
			<disable_omitting_optional value="False"/>
			<disable_resnet_optimization value="False"/>
			<disable_weights_compression value="False"/>
			<enable_concat_optimization value="False"/>
			<enable_flattening_nested_params value="False"/>
			<enable_ssd_gluoncv value="False"/>
			<extensions value="DIR"/>
			<framework value="onnx"/>
			<freeze_placeholder_with_value value="{}"/>
			<generate_deprecated_IR_V7 value="False"/>
			<input value="data"/>
			<input_model value="DIR/person-reidentification-retail-0277.onnx"/>
			<input_model_is_text value="False"/>
			<input_shape value="[1,3,256,128]"/>
			<k value="DIR/CustomLayersMapping.xml"/>
			<keep_shape_ops value="True"/>
			<legacy_mxnet_model value="False"/>
			<log_level value="ERROR"/>
			<mean_scale_values value="{'data': {'mean': array([123.675, 116.28 , 103.53 ]), 'scale': array([58.395, 57.12 , 57.375])}}"/>
			<mean_values value="data[123.675,116.28,103.53]"/>
			<model_name value="person-reidentification-retail-0277"/>
			<output value="['reid_embedding']"/>
			<output_dir value="DIR"/>
			<placeholder_data_types value="{}"/>
			<placeholder_shapes value="{'data': array([  1,   3, 256, 128])}"/>
			<progress value="False"/>
			<remove_memory value="False"/>
			<remove_output_softmax value="False"/>
			<reverse_input_channels value="True"/>
			<save_params_from_nd value="False"/>
			<scale_values value="data[58.395,57.12,57.375]"/>
			<silent value="False"/>
			<static_shape value="False"/>
			<stream_output value="False"/>
			<unset unset_cli_parameters="batch, counts, disable_fusing, disable_gfusing, finegrain_fusing, input_checkpoint, input_meta_graph, input_proto, input_symbol, mean_file, mean_file_offsets, move_to_preprocess, nd_prefix_name, pretrained_model_name, saved_model_dir, saved_model_tags, scale, tensorboard_logdir, tensorflow_custom_layer_libraries, tensorflow_custom_operations_config_update, tensorflow_object_detection_api_pipeline_config, tensorflow_use_custom_operations_config, transformations_config"/>
		</cli_parameters>
	</meta_data>
	<quantization_parameters>
		<config>{
		'compression': {
			'algorithms': [
				{
					'name': 'DefaultQuantization',
					'params': {
						'preset': 'performance',
						'stat_subset_size': 300
					}
				}
			],
			'target_device': 'CPU'
		},
		'engine': {
			'models': [
				{
					'name': 'person-reidentification-retail-0277',
					'launchers': [
						{
							'framework': 'dlsdk',
							'adapter': 'reid',
							'device': 'CPU'
						}
					],
					'datasets': [
						{
							'name': 'market1501',
							'data_source': 'PATH',
							'annotation_conversion': {
								'converter': 'market1501_reid',
								'data_dir': 'PATH'
							},
							'annotation': 'market1501_reid.pickle',
							'preprocessing': [
								{
									'type': 'resize',
									'dst_width': 128,
									'dst_height': 256,
									'use_pillow': true,
									'interpolation': 'BILINEAR'
								}
							],
							'metrics': [
								{
									'name': 'rank@1',
									'type': 'cmc',
									'top_k': 1
								},
								{
									'type': 'reid_map'
								}
							]
						}
					]
				}
			],
			'stat_requests_number': null,
			'eval_requests_number': null,
			'type': 'accuracy_checker'
		}
	}</config>
		<version value="1.0"/>
		<cli_params value="{'evaluate': False, 'output_dir': 'PATH', 'direct_dump': True, 'log_level': 'INFO', 'pbar': False, 'stream_output': False, 'keep_uncompressed_weights': False}"/>
	</quantization_parameters>
</net>
