<?xml version="1.0"?>
<net name="MobileNet-SSD" version="6" batch="1">
	<layers>
		<layer name="data" type="Input" precision="FP32" id="0">
			<output>
				<port id="0" precision="FP32">
					<dim>1</dim>
					<dim>3</dim>
					<dim>300</dim>
					<dim>300</dim>
				</port>
			</output>
		</layer>
		<layer name="Mul1_/Fused_Mul_/FusedScaleShift_" type="ScaleShift" precision="FP32" id="1">
			<data broadcast="0" />
			<input>
				<port id="0">
					<dim>1</dim>
					<dim>3</dim>
					<dim>300</dim>
					<dim>300</dim>
				</port>
			</input>
			<output>
				<port id="1" precision="FP32">
					<dim>1</dim>
					<dim>3</dim>
					<dim>300</dim>
					<dim>300</dim>
				</port>
			</output>
			<blobs>
				<biases offset="0" size="12" />
				<weights offset="12" size="12" />
			</blobs>
		</layer>
		<layer name="conv0" type="Convolution" precision="FP32" id="2">
			<data dilations="1,1" group="1" kernel="3,3" output="32" pads_begin="1,1" pads_end="1,1" quantization_level="I8" strides="2,2" />
			<input>
				<port id="0">
					<dim>1</dim>
					<dim>3</dim>
					<dim>300</dim>
					<dim>300</dim>
				</port>
			</input>
			<output>
				<port id="1" precision="FP32">
					<dim>1</dim>
					<dim>32</dim>
					<dim>150</dim>
					<dim>150</dim>
				</port>
			</output>
			<blobs>
				<biases offset="24" size="128" />
				<weights offset="152" size="3456" />
			</blobs>
		</layer>
		<layer name="conv0/relu" type="ReLU" precision="FP32" id="3">
			<input>
				<port id="0">
					<dim>1</dim>
					<dim>32</dim>
					<dim>150</dim>
					<dim>150</dim>
				</port>
			</input>
			<output>
				<port id="1" precision="FP32">
					<dim>1</dim>
					<dim>32</dim>
					<dim>150</dim>
					<dim>150</dim>
				</port>
			</output>
		</layer>
		<layer name="conv1/dw" type="Convolution" precision="FP32" id="4">
			<data dilations="1,1" group="32" kernel="3,3" output="32" pads_begin="1,1" pads_end="1,1" quantization_level="FP32" strides="1,1" />
			<input>
				<port id="0">
					<dim>1</dim>
					<dim>32</dim>
					<dim>150</dim>
					<dim>150</dim>
				</port>
			</input>
			<output>
				<port id="1" precision="FP32">
					<dim>1</dim>
					<dim>32</dim>
					<dim>150</dim>
					<dim>150</dim>
				</port>
			</output>
			<blobs>
				<biases offset="3608" size="128" />
				<weights offset="3736" size="1152" />
			</blobs>
		</layer>
		<layer name="conv1/dw/relu" type="ReLU" precision="FP32" id="5">
			<input>
				<port id="0">
					<dim>1</dim>
					<dim>32</dim>
					<dim>150</dim>
					<dim>150</dim>
				</port>
			</input>
			<output>
				<port id="1" precision="FP32">
					<dim>1</dim>
					<dim>32</dim>
					<dim>150</dim>
					<dim>150</dim>
				</port>
			</output>
		</layer>
		<layer name="conv1" type="Convolution" precision="FP32" id="6">
			<data dilations="1,1" group="1" kernel="1,1" output="64" pads_begin="0,0" pads_end="0,0" quantization_level="I8" strides="1,1" />
			<input>
				<port id="0">
					<dim>1</dim>
					<dim>32</dim>
					<dim>150</dim>
					<dim>150</dim>
				</port>
			</input>
			<output>
				<port id="1" precision="FP32">
					<dim>1</dim>
					<dim>64</dim>
					<dim>150</dim>
					<dim>150</dim>
				</port>
			</output>
			<blobs>
				<biases offset="4888" size="256" />
				<weights offset="5144" size="8192" />
			</blobs>
		</layer>
		<layer name="conv1/relu" type="ReLU" precision="FP32" id="7">
			<input>
				<port id="0">
					<dim>1</dim>
					<dim>64</dim>
					<dim>150</dim>
					<dim>150</dim>
				</port>
			</input>
			<output>
				<port id="1" precision="FP32">
					<dim>1</dim>
					<dim>64</dim>
					<dim>150</dim>
					<dim>150</dim>
				</port>
			</output>
		</layer>
		<layer name="conv2/dw" type="Convolution" precision="FP32" id="8">
			<data dilations="1,1" group="64" kernel="3,3" output="64" pads_begin="1,1" pads_end="1,1" quantization_level="I8" strides="2,2" />
			<input>
				<port id="0">
					<dim>1</dim>
					<dim>64</dim>
					<dim>150</dim>
					<dim>150</dim>
				</port>
			</input>
			<output>
				<port id="1" precision="FP32">
					<dim>1</dim>
					<dim>64</dim>
					<dim>75</dim>
					<dim>75</dim>
				</port>
			</output>
			<blobs>
				<biases offset="13336" size="256" />
				<weights offset="13592" size="2304" />
			</blobs>
		</layer>
		<layer name="conv2/dw/relu" type="ReLU" precision="FP32" id="9">
			<input>
				<port id="0">
					<dim>1</dim>
					<dim>64</dim>
					<dim>75</dim>
					<dim>75</dim>
				</port>
			</input>
			<output>
				<port id="1" precision="FP32">
					<dim>1</dim>
					<dim>64</dim>
					<dim>75</dim>
					<dim>75</dim>
				</port>
			</output>
		</layer>
		<layer name="conv2" type="Convolution" precision="FP32" id="10">
			<data dilations="1,1" group="1" kernel="1,1" output="128" pads_begin="0,0" pads_end="0,0" quantization_level="I8" strides="1,1" />
			<input>
				<port id="0">
					<dim>1</dim>
					<dim>64</dim>
					<dim>75</dim>
					<dim>75</dim>
				</port>
			</input>
			<output>
				<port id="1" precision="FP32">
					<dim>1</dim>
					<dim>128</dim>
					<dim>75</dim>
					<dim>75</dim>
				</port>
			</output>
			<blobs>
				<biases offset="15896" size="512" />
				<weights offset="16408" size="32768" />
			</blobs>
		</layer>
		<layer name="conv2/relu" type="ReLU" precision="FP32" id="11">
			<input>
				<port id="0">
					<dim>1</dim>
					<dim>128</dim>
					<dim>75</dim>
					<dim>75</dim>
				</port>
			</input>
			<output>
				<port id="1" precision="FP32">
					<dim>1</dim>
					<dim>128</dim>
					<dim>75</dim>
					<dim>75</dim>
				</port>
			</output>
		</layer>
		<layer name="conv3/dw" type="Convolution" precision="FP32" id="12">
			<data dilations="1,1" group="128" kernel="3,3" output="128" pads_begin="1,1" pads_end="1,1" quantization_level="I8" strides="1,1" />
			<input>
				<port id="0">
					<dim>1</dim>
					<dim>128</dim>
					<dim>75</dim>
					<dim>75</dim>
				</port>
			</input>
			<output>
				<port id="1" precision="FP32">
					<dim>1</dim>
					<dim>128</dim>
					<dim>75</dim>
					<dim>75</dim>
				</port>
			</output>
			<blobs>
				<biases offset="49176" size="512" />
				<weights offset="49688" size="4608" />
			</blobs>
		</layer>
		<layer name="conv3/dw/relu" type="ReLU" precision="FP32" id="13">
			<input>
				<port id="0">
					<dim>1</dim>
					<dim>128</dim>
					<dim>75</dim>
					<dim>75</dim>
				</port>
			</input>
			<output>
				<port id="1" precision="FP32">
					<dim>1</dim>
					<dim>128</dim>
					<dim>75</dim>
					<dim>75</dim>
				</port>
			</output>
		</layer>
		<layer name="conv3" type="Convolution" precision="FP32" id="14">
			<data dilations="1,1" group="1" kernel="1,1" output="128" pads_begin="0,0" pads_end="0,0" quantization_level="I8" strides="1,1" />
			<input>
				<port id="0">
					<dim>1</dim>
					<dim>128</dim>
					<dim>75</dim>
					<dim>75</dim>
				</port>
			</input>
			<output>
				<port id="1" precision="FP32">
					<dim>1</dim>
					<dim>128</dim>
					<dim>75</dim>
					<dim>75</dim>
				</port>
			</output>
			<blobs>
				<biases offset="54296" size="512" />
				<weights offset="54808" size="65536" />
			</blobs>
		</layer>
		<layer name="conv3/relu" type="ReLU" precision="FP32" id="15">
			<input>
				<port id="0">
					<dim>1</dim>
					<dim>128</dim>
					<dim>75</dim>
					<dim>75</dim>
				</port>
			</input>
			<output>
				<port id="1" precision="FP32">
					<dim>1</dim>
					<dim>128</dim>
					<dim>75</dim>
					<dim>75</dim>
				</port>
			</output>
		</layer>
		<layer name="conv4/dw" type="Convolution" precision="FP32" id="16">
			<data dilations="1,1" group="128" kernel="3,3" output="128" pads_begin="1,1" pads_end="1,1" quantization_level="I8" strides="2,2" />
			<input>
				<port id="0">
					<dim>1</dim>
					<dim>128</dim>
					<dim>75</dim>
					<dim>75</dim>
				</port>
			</input>
			<output>
				<port id="1" precision="FP32">
					<dim>1</dim>
					<dim>128</dim>
					<dim>38</dim>
					<dim>38</dim>
				</port>
			</output>
			<blobs>
				<biases offset="120344" size="512" />
				<weights offset="120856" size="4608" />
			</blobs>
		</layer>
		<layer name="conv4/dw/relu" type="ReLU" precision="FP32" id="17">
			<input>
				<port id="0">
					<dim>1</dim>
					<dim>128</dim>
					<dim>38</dim>
					<dim>38</dim>
				</port>
			</input>
			<output>
				<port id="1" precision="FP32">
					<dim>1</dim>
					<dim>128</dim>
					<dim>38</dim>
					<dim>38</dim>
				</port>
			</output>
		</layer>
		<layer name="conv4" type="Convolution" precision="FP32" id="18">
			<data dilations="1,1" group="1" kernel="1,1" output="256" pads_begin="0,0" pads_end="0,0" quantization_level="I8" strides="1,1" />
			<input>
				<port id="0">
					<dim>1</dim>
					<dim>128</dim>
					<dim>38</dim>
					<dim>38</dim>
				</port>
			</input>
			<output>
				<port id="1" precision="FP32">
					<dim>1</dim>
					<dim>256</dim>
					<dim>38</dim>
					<dim>38</dim>
				</port>
			</output>
			<blobs>
				<biases offset="125464" size="1024" />
				<weights offset="126488" size="131072" />
			</blobs>
		</layer>
		<layer name="conv4/relu" type="ReLU" precision="FP32" id="19">
			<input>
				<port id="0">
					<dim>1</dim>
					<dim>256</dim>
					<dim>38</dim>
					<dim>38</dim>
				</port>
			</input>
			<output>
				<port id="1" precision="FP32">
					<dim>1</dim>
					<dim>256</dim>
					<dim>38</dim>
					<dim>38</dim>
				</port>
			</output>
		</layer>
		<layer name="conv5/dw" type="Convolution" precision="FP32" id="20">
			<data dilations="1,1" group="256" kernel="3,3" output="256" pads_begin="1,1" pads_end="1,1" quantization_level="I8" strides="1,1" />
			<input>
				<port id="0">
					<dim>1</dim>
					<dim>256</dim>
					<dim>38</dim>
					<dim>38</dim>
				</port>
			</input>
			<output>
				<port id="1" precision="FP32">
					<dim>1</dim>
					<dim>256</dim>
					<dim>38</dim>
					<dim>38</dim>
				</port>
			</output>
			<blobs>
				<biases offset="257560" size="1024" />
				<weights offset="258584" size="9216" />
			</blobs>
		</layer>
		<layer name="conv5/dw/relu" type="ReLU" precision="FP32" id="21">
			<input>
				<port id="0">
					<dim>1</dim>
					<dim>256</dim>
					<dim>38</dim>
					<dim>38</dim>
				</port>
			</input>
			<output>
				<port id="1" precision="FP32">
					<dim>1</dim>
					<dim>256</dim>
					<dim>38</dim>
					<dim>38</dim>
				</port>
			</output>
		</layer>
		<layer name="conv5" type="Convolution" precision="FP32" id="22">
			<data dilations="1,1" group="1" kernel="1,1" output="256" pads_begin="0,0" pads_end="0,0" quantization_level="I8" strides="1,1" />
			<input>
				<port id="0">
					<dim>1</dim>
					<dim>256</dim>
					<dim>38</dim>
					<dim>38</dim>
				</port>
			</input>
			<output>
				<port id="1" precision="FP32">
					<dim>1</dim>
					<dim>256</dim>
					<dim>38</dim>
					<dim>38</dim>
				</port>
			</output>
			<blobs>
				<biases offset="267800" size="1024" />
				<weights offset="268824" size="262144" />
			</blobs>
		</layer>
		<layer name="conv5/relu" type="ReLU" precision="FP32" id="23">
			<input>
				<port id="0">
					<dim>1</dim>
					<dim>256</dim>
					<dim>38</dim>
					<dim>38</dim>
				</port>
			</input>
			<output>
				<port id="1" precision="FP32">
					<dim>1</dim>
					<dim>256</dim>
					<dim>38</dim>
					<dim>38</dim>
				</port>
			</output>
		</layer>
		<layer name="conv6/dw" type="Convolution" precision="FP32" id="24">
			<data dilations="1,1" group="256" kernel="3,3" output="256" pads_begin="1,1" pads_end="1,1" quantization_level="I8" strides="2,2" />
			<input>
				<port id="0">
					<dim>1</dim>
					<dim>256</dim>
					<dim>38</dim>
					<dim>38</dim>
				</port>
			</input>
			<output>
				<port id="1" precision="FP32">
					<dim>1</dim>
					<dim>256</dim>
					<dim>19</dim>
					<dim>19</dim>
				</port>
			</output>
			<blobs>
				<biases offset="530968" size="1024" />
				<weights offset="531992" size="9216" />
			</blobs>
		</layer>
		<layer name="conv6/dw/relu" type="ReLU" precision="FP32" id="25">
			<input>
				<port id="0">
					<dim>1</dim>
					<dim>256</dim>
					<dim>19</dim>
					<dim>19</dim>
				</port>
			</input>
			<output>
				<port id="1" precision="FP32">
					<dim>1</dim>
					<dim>256</dim>
					<dim>19</dim>
					<dim>19</dim>
				</port>
			</output>
		</layer>
		<layer name="conv6" type="Convolution" precision="FP32" id="26">
			<data dilations="1,1" group="1" kernel="1,1" output="512" pads_begin="0,0" pads_end="0,0" quantization_level="I8" strides="1,1" />
			<input>
				<port id="0">
					<dim>1</dim>
					<dim>256</dim>
					<dim>19</dim>
					<dim>19</dim>
				</port>
			</input>
			<output>
				<port id="1" precision="FP32">
					<dim>1</dim>
					<dim>512</dim>
					<dim>19</dim>
					<dim>19</dim>
				</port>
			</output>
			<blobs>
				<biases offset="541208" size="2048" />
				<weights offset="543256" size="524288" />
			</blobs>
		</layer>
		<layer name="conv6/relu" type="ReLU" precision="FP32" id="27">
			<input>
				<port id="0">
					<dim>1</dim>
					<dim>512</dim>
					<dim>19</dim>
					<dim>19</dim>
				</port>
			</input>
			<output>
				<port id="1" precision="FP32">
					<dim>1</dim>
					<dim>512</dim>
					<dim>19</dim>
					<dim>19</dim>
				</port>
			</output>
		</layer>
		<layer name="conv7/dw" type="Convolution" precision="FP32" id="28">
			<data dilations="1,1" group="512" kernel="3,3" output="512" pads_begin="1,1" pads_end="1,1" quantization_level="I8" strides="1,1" />
			<input>
				<port id="0">
					<dim>1</dim>
					<dim>512</dim>
					<dim>19</dim>
					<dim>19</dim>
				</port>
			</input>
			<output>
				<port id="1" precision="FP32">
					<dim>1</dim>
					<dim>512</dim>
					<dim>19</dim>
					<dim>19</dim>
				</port>
			</output>
			<blobs>
				<biases offset="1067544" size="2048" />
				<weights offset="1069592" size="18432" />
			</blobs>
		</layer>
		<layer name="conv7/dw/relu" type="ReLU" precision="FP32" id="29">
			<input>
				<port id="0">
					<dim>1</dim>
					<dim>512</dim>
					<dim>19</dim>
					<dim>19</dim>
				</port>
			</input>
			<output>
				<port id="1" precision="FP32">
					<dim>1</dim>
					<dim>512</dim>
					<dim>19</dim>
					<dim>19</dim>
				</port>
			</output>
		</layer>
		<layer name="conv7" type="Convolution" precision="FP32" id="30">
			<data dilations="1,1" group="1" kernel="1,1" output="512" pads_begin="0,0" pads_end="0,0" quantization_level="I8" strides="1,1" />
			<input>
				<port id="0">
					<dim>1</dim>
					<dim>512</dim>
					<dim>19</dim>
					<dim>19</dim>
				</port>
			</input>
			<output>
				<port id="1" precision="FP32">
					<dim>1</dim>
					<dim>512</dim>
					<dim>19</dim>
					<dim>19</dim>
				</port>
			</output>
			<blobs>
				<biases offset="1088024" size="2048" />
				<weights offset="1090072" size="1048576" />
			</blobs>
		</layer>
		<layer name="conv7/relu" type="ReLU" precision="FP32" id="31">
			<input>
				<port id="0">
					<dim>1</dim>
					<dim>512</dim>
					<dim>19</dim>
					<dim>19</dim>
				</port>
			</input>
			<output>
				<port id="1" precision="FP32">
					<dim>1</dim>
					<dim>512</dim>
					<dim>19</dim>
					<dim>19</dim>
				</port>
			</output>
		</layer>
		<layer name="conv8/dw" type="Convolution" precision="FP32" id="32">
			<data dilations="1,1" group="512" kernel="3,3" output="512" pads_begin="1,1" pads_end="1,1" quantization_level="I8" strides="1,1" />
			<input>
				<port id="0">
					<dim>1</dim>
					<dim>512</dim>
					<dim>19</dim>
					<dim>19</dim>
				</port>
			</input>
			<output>
				<port id="1" precision="FP32">
					<dim>1</dim>
					<dim>512</dim>
					<dim>19</dim>
					<dim>19</dim>
				</port>
			</output>
			<blobs>
				<biases offset="2138648" size="2048" />
				<weights offset="2140696" size="18432" />
			</blobs>
		</layer>
		<layer name="conv8/dw/relu" type="ReLU" precision="FP32" id="33">
			<input>
				<port id="0">
					<dim>1</dim>
					<dim>512</dim>
					<dim>19</dim>
					<dim>19</dim>
				</port>
			</input>
			<output>
				<port id="1" precision="FP32">
					<dim>1</dim>
					<dim>512</dim>
					<dim>19</dim>
					<dim>19</dim>
				</port>
			</output>
		</layer>
		<layer name="conv8" type="Convolution" precision="FP32" id="34">
			<data dilations="1,1" group="1" kernel="1,1" output="512" pads_begin="0,0" pads_end="0,0" quantization_level="I8" strides="1,1" />
			<input>
				<port id="0">
					<dim>1</dim>
					<dim>512</dim>
					<dim>19</dim>
					<dim>19</dim>
				</port>
			</input>
			<output>
				<port id="1" precision="FP32">
					<dim>1</dim>
					<dim>512</dim>
					<dim>19</dim>
					<dim>19</dim>
				</port>
			</output>
			<blobs>
				<biases offset="2159128" size="2048" />
				<weights offset="2161176" size="1048576" />
			</blobs>
		</layer>
		<layer name="conv8/relu" type="ReLU" precision="FP32" id="35">
			<input>
				<port id="0">
					<dim>1</dim>
					<dim>512</dim>
					<dim>19</dim>
					<dim>19</dim>
				</port>
			</input>
			<output>
				<port id="1" precision="FP32">
					<dim>1</dim>
					<dim>512</dim>
					<dim>19</dim>
					<dim>19</dim>
				</port>
			</output>
		</layer>
		<layer name="conv9/dw" type="Convolution" precision="FP32" id="36">
			<data dilations="1,1" group="512" kernel="3,3" output="512" pads_begin="1,1" pads_end="1,1" quantization_level="I8" strides="1,1" />
			<input>
				<port id="0">
					<dim>1</dim>
					<dim>512</dim>
					<dim>19</dim>
					<dim>19</dim>
				</port>
			</input>
			<output>
				<port id="1" precision="FP32">
					<dim>1</dim>
					<dim>512</dim>
					<dim>19</dim>
					<dim>19</dim>
				</port>
			</output>
			<blobs>
				<biases offset="3209752" size="2048" />
				<weights offset="3211800" size="18432" />
			</blobs>
		</layer>
		<layer name="conv9/dw/relu" type="ReLU" precision="FP32" id="37">
			<input>
				<port id="0">
					<dim>1</dim>
					<dim>512</dim>
					<dim>19</dim>
					<dim>19</dim>
				</port>
			</input>
			<output>
				<port id="1" precision="FP32">
					<dim>1</dim>
					<dim>512</dim>
					<dim>19</dim>
					<dim>19</dim>
				</port>
			</output>
		</layer>
		<layer name="conv9" type="Convolution" precision="FP32" id="38">
			<data dilations="1,1" group="1" kernel="1,1" output="512" pads_begin="0,0" pads_end="0,0" quantization_level="I8" strides="1,1" />
			<input>
				<port id="0">
					<dim>1</dim>
					<dim>512</dim>
					<dim>19</dim>
					<dim>19</dim>
				</port>
			</input>
			<output>
				<port id="1" precision="FP32">
					<dim>1</dim>
					<dim>512</dim>
					<dim>19</dim>
					<dim>19</dim>
				</port>
			</output>
			<blobs>
				<biases offset="3230232" size="2048" />
				<weights offset="3232280" size="1048576" />
			</blobs>
		</layer>
		<layer name="conv9/relu" type="ReLU" precision="FP32" id="39">
			<input>
				<port id="0">
					<dim>1</dim>
					<dim>512</dim>
					<dim>19</dim>
					<dim>19</dim>
				</port>
			</input>
			<output>
				<port id="1" precision="FP32">
					<dim>1</dim>
					<dim>512</dim>
					<dim>19</dim>
					<dim>19</dim>
				</port>
			</output>
		</layer>
		<layer name="conv10/dw" type="Convolution" precision="FP32" id="40">
			<data dilations="1,1" group="512" kernel="3,3" output="512" pads_begin="1,1" pads_end="1,1" quantization_level="I8" strides="1,1" />
			<input>
				<port id="0">
					<dim>1</dim>
					<dim>512</dim>
					<dim>19</dim>
					<dim>19</dim>
				</port>
			</input>
			<output>
				<port id="1" precision="FP32">
					<dim>1</dim>
					<dim>512</dim>
					<dim>19</dim>
					<dim>19</dim>
				</port>
			</output>
			<blobs>
				<biases offset="4280856" size="2048" />
				<weights offset="4282904" size="18432" />
			</blobs>
		</layer>
		<layer name="conv10/dw/relu" type="ReLU" precision="FP32" id="41">
			<input>
				<port id="0">
					<dim>1</dim>
					<dim>512</dim>
					<dim>19</dim>
					<dim>19</dim>
				</port>
			</input>
			<output>
				<port id="1" precision="FP32">
					<dim>1</dim>
					<dim>512</dim>
					<dim>19</dim>
					<dim>19</dim>
				</port>
			</output>
		</layer>
		<layer name="conv10" type="Convolution" precision="FP32" id="42">
			<data dilations="1,1" group="1" kernel="1,1" output="512" pads_begin="0,0" pads_end="0,0" quantization_level="I8" strides="1,1" />
			<input>
				<port id="0">
					<dim>1</dim>
					<dim>512</dim>
					<dim>19</dim>
					<dim>19</dim>
				</port>
			</input>
			<output>
				<port id="1" precision="FP32">
					<dim>1</dim>
					<dim>512</dim>
					<dim>19</dim>
					<dim>19</dim>
				</port>
			</output>
			<blobs>
				<biases offset="4301336" size="2048" />
				<weights offset="4303384" size="1048576" />
			</blobs>
		</layer>
		<layer name="conv10/relu" type="ReLU" precision="FP32" id="43">
			<input>
				<port id="0">
					<dim>1</dim>
					<dim>512</dim>
					<dim>19</dim>
					<dim>19</dim>
				</port>
			</input>
			<output>
				<port id="1" precision="FP32">
					<dim>1</dim>
					<dim>512</dim>
					<dim>19</dim>
					<dim>19</dim>
				</port>
			</output>
		</layer>
		<layer name="conv11/dw" type="Convolution" precision="FP32" id="44">
			<data dilations="1,1" group="512" kernel="3,3" output="512" pads_begin="1,1" pads_end="1,1" quantization_level="I8" strides="1,1" />
			<input>
				<port id="0">
					<dim>1</dim>
					<dim>512</dim>
					<dim>19</dim>
					<dim>19</dim>
				</port>
			</input>
			<output>
				<port id="1" precision="FP32">
					<dim>1</dim>
					<dim>512</dim>
					<dim>19</dim>
					<dim>19</dim>
				</port>
			</output>
			<blobs>
				<biases offset="5351960" size="2048" />
				<weights offset="5354008" size="18432" />
			</blobs>
		</layer>
		<layer name="conv11/dw/relu" type="ReLU" precision="FP32" id="45">
			<input>
				<port id="0">
					<dim>1</dim>
					<dim>512</dim>
					<dim>19</dim>
					<dim>19</dim>
				</port>
			</input>
			<output>
				<port id="1" precision="FP32">
					<dim>1</dim>
					<dim>512</dim>
					<dim>19</dim>
					<dim>19</dim>
				</port>
			</output>
		</layer>
		<layer name="conv11" type="Convolution" precision="FP32" id="46">
			<data dilations="1,1" group="1" kernel="1,1" output="512" pads_begin="0,0" pads_end="0,0" quantization_level="I8" strides="1,1" />
			<input>
				<port id="0">
					<dim>1</dim>
					<dim>512</dim>
					<dim>19</dim>
					<dim>19</dim>
				</port>
			</input>
			<output>
				<port id="1" precision="FP32">
					<dim>1</dim>
					<dim>512</dim>
					<dim>19</dim>
					<dim>19</dim>
				</port>
			</output>
			<blobs>
				<biases offset="5372440" size="2048" />
				<weights offset="5374488" size="1048576" />
			</blobs>
		</layer>
		<layer name="conv11/relu" type="ReLU" precision="FP32" id="47">
			<input>
				<port id="0">
					<dim>1</dim>
					<dim>512</dim>
					<dim>19</dim>
					<dim>19</dim>
				</port>
			</input>
			<output>
				<port id="1" precision="FP32">
					<dim>1</dim>
					<dim>512</dim>
					<dim>19</dim>
					<dim>19</dim>
				</port>
			</output>
		</layer>
		<layer name="conv12/dw" type="Convolution" precision="FP32" id="48">
			<data dilations="1,1" group="512" kernel="3,3" output="512" pads_begin="1,1" pads_end="1,1" quantization_level="I8" strides="2,2" />
			<input>
				<port id="0">
					<dim>1</dim>
					<dim>512</dim>
					<dim>19</dim>
					<dim>19</dim>
				</port>
			</input>
			<output>
				<port id="1" precision="FP32">
					<dim>1</dim>
					<dim>512</dim>
					<dim>10</dim>
					<dim>10</dim>
				</port>
			</output>
			<blobs>
				<biases offset="6423064" size="2048" />
				<weights offset="6425112" size="18432" />
			</blobs>
		</layer>
		<layer name="conv12/dw/relu" type="ReLU" precision="FP32" id="49">
			<input>
				<port id="0">
					<dim>1</dim>
					<dim>512</dim>
					<dim>10</dim>
					<dim>10</dim>
				</port>
			</input>
			<output>
				<port id="1" precision="FP32">
					<dim>1</dim>
					<dim>512</dim>
					<dim>10</dim>
					<dim>10</dim>
				</port>
			</output>
		</layer>
		<layer name="conv12" type="Convolution" precision="FP32" id="50">
			<data dilations="1,1" group="1" kernel="1,1" output="1024" pads_begin="0,0" pads_end="0,0" quantization_level="I8" strides="1,1" />
			<input>
				<port id="0">
					<dim>1</dim>
					<dim>512</dim>
					<dim>10</dim>
					<dim>10</dim>
				</port>
			</input>
			<output>
				<port id="1" precision="FP32">
					<dim>1</dim>
					<dim>1024</dim>
					<dim>10</dim>
					<dim>10</dim>
				</port>
			</output>
			<blobs>
				<biases offset="6443544" size="4096" />
				<weights offset="6447640" size="2097152" />
			</blobs>
		</layer>
		<layer name="conv12/relu" type="ReLU" precision="FP32" id="51">
			<input>
				<port id="0">
					<dim>1</dim>
					<dim>1024</dim>
					<dim>10</dim>
					<dim>10</dim>
				</port>
			</input>
			<output>
				<port id="1" precision="FP32">
					<dim>1</dim>
					<dim>1024</dim>
					<dim>10</dim>
					<dim>10</dim>
				</port>
			</output>
		</layer>
		<layer name="conv13/dw" type="Convolution" precision="FP32" id="52">
			<data dilations="1,1" group="1024" kernel="3,3" output="1024" pads_begin="1,1" pads_end="1,1" quantization_level="I8" strides="1,1" />
			<input>
				<port id="0">
					<dim>1</dim>
					<dim>1024</dim>
					<dim>10</dim>
					<dim>10</dim>
				</port>
			</input>
			<output>
				<port id="1" precision="FP32">
					<dim>1</dim>
					<dim>1024</dim>
					<dim>10</dim>
					<dim>10</dim>
				</port>
			</output>
			<blobs>
				<biases offset="8544792" size="4096" />
				<weights offset="8548888" size="36864" />
			</blobs>
		</layer>
		<layer name="conv13/dw/relu" type="ReLU" precision="FP32" id="53">
			<input>
				<port id="0">
					<dim>1</dim>
					<dim>1024</dim>
					<dim>10</dim>
					<dim>10</dim>
				</port>
			</input>
			<output>
				<port id="1" precision="FP32">
					<dim>1</dim>
					<dim>1024</dim>
					<dim>10</dim>
					<dim>10</dim>
				</port>
			</output>
		</layer>
		<layer name="conv13" type="Convolution" precision="FP32" id="54">
			<data dilations="1,1" group="1" kernel="1,1" output="1024" pads_begin="0,0" pads_end="0,0" quantization_level="I8" strides="1,1" />
			<input>
				<port id="0">
					<dim>1</dim>
					<dim>1024</dim>
					<dim>10</dim>
					<dim>10</dim>
				</port>
			</input>
			<output>
				<port id="1" precision="FP32">
					<dim>1</dim>
					<dim>1024</dim>
					<dim>10</dim>
					<dim>10</dim>
				</port>
			</output>
			<blobs>
				<biases offset="8585752" size="4096" />
				<weights offset="8589848" size="4194304" />
			</blobs>
		</layer>
		<layer name="conv13/relu" type="ReLU" precision="FP32" id="55">
			<input>
				<port id="0">
					<dim>1</dim>
					<dim>1024</dim>
					<dim>10</dim>
					<dim>10</dim>
				</port>
			</input>
			<output>
				<port id="1" precision="FP32">
					<dim>1</dim>
					<dim>1024</dim>
					<dim>10</dim>
					<dim>10</dim>
				</port>
			</output>
		</layer>
		<layer name="conv14_1" type="Convolution" precision="FP32" id="56">
			<data dilations="1,1" group="1" kernel="1,1" output="256" pads_begin="0,0" pads_end="0,0" quantization_level="I8" strides="1,1" />
			<input>
				<port id="0">
					<dim>1</dim>
					<dim>1024</dim>
					<dim>10</dim>
					<dim>10</dim>
				</port>
			</input>
			<output>
				<port id="1" precision="FP32">
					<dim>1</dim>
					<dim>256</dim>
					<dim>10</dim>
					<dim>10</dim>
				</port>
			</output>
			<blobs>
				<biases offset="12784152" size="1024" />
				<weights offset="12785176" size="1048576" />
			</blobs>
		</layer>
		<layer name="conv14_1/relu" type="ReLU" precision="FP32" id="57">
			<input>
				<port id="0">
					<dim>1</dim>
					<dim>256</dim>
					<dim>10</dim>
					<dim>10</dim>
				</port>
			</input>
			<output>
				<port id="1" precision="FP32">
					<dim>1</dim>
					<dim>256</dim>
					<dim>10</dim>
					<dim>10</dim>
				</port>
			</output>
		</layer>
		<layer name="conv14_2" type="Convolution" precision="FP32" id="58">
			<data dilations="1,1" group="1" kernel="3,3" output="512" pads_begin="1,1" pads_end="1,1" quantization_level="I8" strides="2,2" />
			<input>
				<port id="0">
					<dim>1</dim>
					<dim>256</dim>
					<dim>10</dim>
					<dim>10</dim>
				</port>
			</input>
			<output>
				<port id="1" precision="FP32">
					<dim>1</dim>
					<dim>512</dim>
					<dim>5</dim>
					<dim>5</dim>
				</port>
			</output>
			<blobs>
				<biases offset="13833752" size="2048" />
				<weights offset="13835800" size="4718592" />
			</blobs>
		</layer>
		<layer name="conv14_2/relu" type="ReLU" precision="FP32" id="59">
			<input>
				<port id="0">
					<dim>1</dim>
					<dim>512</dim>
					<dim>5</dim>
					<dim>5</dim>
				</port>
			</input>
			<output>
				<port id="1" precision="FP32">
					<dim>1</dim>
					<dim>512</dim>
					<dim>5</dim>
					<dim>5</dim>
				</port>
			</output>
		</layer>
		<layer name="conv15_1" type="Convolution" precision="FP32" id="60">
			<data dilations="1,1" group="1" kernel="1,1" output="128" pads_begin="0,0" pads_end="0,0" quantization_level="I8" strides="1,1" />
			<input>
				<port id="0">
					<dim>1</dim>
					<dim>512</dim>
					<dim>5</dim>
					<dim>5</dim>
				</port>
			</input>
			<output>
				<port id="1" precision="FP32">
					<dim>1</dim>
					<dim>128</dim>
					<dim>5</dim>
					<dim>5</dim>
				</port>
			</output>
			<blobs>
				<biases offset="18554392" size="512" />
				<weights offset="18554904" size="262144" />
			</blobs>
		</layer>
		<layer name="conv15_1/relu" type="ReLU" precision="FP32" id="61">
			<input>
				<port id="0">
					<dim>1</dim>
					<dim>128</dim>
					<dim>5</dim>
					<dim>5</dim>
				</port>
			</input>
			<output>
				<port id="1" precision="FP32">
					<dim>1</dim>
					<dim>128</dim>
					<dim>5</dim>
					<dim>5</dim>
				</port>
			</output>
		</layer>
		<layer name="conv15_2" type="Convolution" precision="FP32" id="62">
			<data dilations="1,1" group="1" kernel="3,3" output="256" pads_begin="1,1" pads_end="1,1" quantization_level="I8" strides="2,2" />
			<input>
				<port id="0">
					<dim>1</dim>
					<dim>128</dim>
					<dim>5</dim>
					<dim>5</dim>
				</port>
			</input>
			<output>
				<port id="1" precision="FP32">
					<dim>1</dim>
					<dim>256</dim>
					<dim>3</dim>
					<dim>3</dim>
				</port>
			</output>
			<blobs>
				<biases offset="18817048" size="1024" />
				<weights offset="18818072" size="1179648" />
			</blobs>
		</layer>
		<layer name="conv15_2/relu" type="ReLU" precision="FP32" id="63">
			<input>
				<port id="0">
					<dim>1</dim>
					<dim>256</dim>
					<dim>3</dim>
					<dim>3</dim>
				</port>
			</input>
			<output>
				<port id="1" precision="FP32">
					<dim>1</dim>
					<dim>256</dim>
					<dim>3</dim>
					<dim>3</dim>
				</port>
			</output>
		</layer>
		<layer name="conv16_1" type="Convolution" precision="FP32" id="64">
			<data dilations="1,1" group="1" kernel="1,1" output="128" pads_begin="0,0" pads_end="0,0" quantization_level="I8" strides="1,1" />
			<input>
				<port id="0">
					<dim>1</dim>
					<dim>256</dim>
					<dim>3</dim>
					<dim>3</dim>
				</port>
			</input>
			<output>
				<port id="1" precision="FP32">
					<dim>1</dim>
					<dim>128</dim>
					<dim>3</dim>
					<dim>3</dim>
				</port>
			</output>
			<blobs>
				<biases offset="19997720" size="512" />
				<weights offset="19998232" size="131072" />
			</blobs>
		</layer>
		<layer name="conv16_1/relu" type="ReLU" precision="FP32" id="65">
			<input>
				<port id="0">
					<dim>1</dim>
					<dim>128</dim>
					<dim>3</dim>
					<dim>3</dim>
				</port>
			</input>
			<output>
				<port id="1" precision="FP32">
					<dim>1</dim>
					<dim>128</dim>
					<dim>3</dim>
					<dim>3</dim>
				</port>
			</output>
		</layer>
		<layer name="conv16_2" type="Convolution" precision="FP32" id="66">
			<data dilations="1,1" group="1" kernel="3,3" output="256" pads_begin="1,1" pads_end="1,1" quantization_level="I8" strides="2,2" />
			<input>
				<port id="0">
					<dim>1</dim>
					<dim>128</dim>
					<dim>3</dim>
					<dim>3</dim>
				</port>
			</input>
			<output>
				<port id="1" precision="FP32">
					<dim>1</dim>
					<dim>256</dim>
					<dim>2</dim>
					<dim>2</dim>
				</port>
			</output>
			<blobs>
				<biases offset="20129304" size="1024" />
				<weights offset="20130328" size="1179648" />
			</blobs>
		</layer>
		<layer name="conv16_2/relu" type="ReLU" precision="FP32" id="67">
			<input>
				<port id="0">
					<dim>1</dim>
					<dim>256</dim>
					<dim>2</dim>
					<dim>2</dim>
				</port>
			</input>
			<output>
				<port id="1" precision="FP32">
					<dim>1</dim>
					<dim>256</dim>
					<dim>2</dim>
					<dim>2</dim>
				</port>
			</output>
		</layer>
		<layer name="conv17_1" type="Convolution" precision="FP32" id="68">
			<data dilations="1,1" group="1" kernel="1,1" output="64" pads_begin="0,0" pads_end="0,0" quantization_level="I8" strides="1,1" />
			<input>
				<port id="0">
					<dim>1</dim>
					<dim>256</dim>
					<dim>2</dim>
					<dim>2</dim>
				</port>
			</input>
			<output>
				<port id="1" precision="FP32">
					<dim>1</dim>
					<dim>64</dim>
					<dim>2</dim>
					<dim>2</dim>
				</port>
			</output>
			<blobs>
				<biases offset="21309976" size="256" />
				<weights offset="21310232" size="65536" />
			</blobs>
		</layer>
		<layer name="conv17_1/relu" type="ReLU" precision="FP32" id="69">
			<input>
				<port id="0">
					<dim>1</dim>
					<dim>64</dim>
					<dim>2</dim>
					<dim>2</dim>
				</port>
			</input>
			<output>
				<port id="1" precision="FP32">
					<dim>1</dim>
					<dim>64</dim>
					<dim>2</dim>
					<dim>2</dim>
				</port>
			</output>
		</layer>
		<layer name="conv17_2" type="Convolution" precision="FP32" id="70">
			<data dilations="1,1" group="1" kernel="3,3" output="128" pads_begin="1,1" pads_end="1,1" quantization_level="I8" strides="2,2" />
			<input>
				<port id="0">
					<dim>1</dim>
					<dim>64</dim>
					<dim>2</dim>
					<dim>2</dim>
				</port>
			</input>
			<output>
				<port id="1" precision="FP32">
					<dim>1</dim>
					<dim>128</dim>
					<dim>1</dim>
					<dim>1</dim>
				</port>
			</output>
			<blobs>
				<biases offset="21375768" size="512" />
				<weights offset="21376280" size="294912" />
			</blobs>
		</layer>
		<layer name="conv17_2/relu" type="ReLU" precision="FP32" id="71">
			<input>
				<port id="0">
					<dim>1</dim>
					<dim>128</dim>
					<dim>1</dim>
					<dim>1</dim>
				</port>
			</input>
			<output>
				<port id="1" precision="FP32">
					<dim>1</dim>
					<dim>128</dim>
					<dim>1</dim>
					<dim>1</dim>
				</port>
			</output>
		</layer>
		<layer name="conv17_2_mbox_priorbox" type="PriorBox" precision="FP32" id="72">
			<data aspect_ratio="2.0,3.0" clip="0" density="" fixed_ratio="" fixed_size="" flip="1" max_size="300.0" min_size="285.0" offset="0.5" variance="0.10000000149011612,0.10000000149011612,0.20000000298023224,0.20000000298023224" />
			<input>
				<port id="0">
					<dim>1</dim>
					<dim>128</dim>
					<dim>1</dim>
					<dim>1</dim>
				</port>
				<port id="1">
					<dim>1</dim>
					<dim>3</dim>
					<dim>300</dim>
					<dim>300</dim>
				</port>
			</input>
			<output>
				<port id="2" precision="FP32">
					<dim>1</dim>
					<dim>2</dim>
					<dim>24</dim>
				</port>
			</output>
		</layer>
		<layer name="conv17_2_mbox_loc" type="Convolution" precision="FP32" id="73">
			<data dilations="1,1" group="1" kernel="1,1" output="24" pads_begin="0,0" pads_end="0,0" quantization_level="I8" strides="1,1" />
			<input>
				<port id="0">
					<dim>1</dim>
					<dim>128</dim>
					<dim>1</dim>
					<dim>1</dim>
				</port>
			</input>
			<output>
				<port id="1" precision="FP32">
					<dim>1</dim>
					<dim>24</dim>
					<dim>1</dim>
					<dim>1</dim>
				</port>
			</output>
			<blobs>
				<biases offset="21671192" size="96" />
				<weights offset="21671288" size="12288" />
			</blobs>
		</layer>
		<layer name="conv17_2_mbox_loc_perm" type="Permute" precision="FP32" id="74">
			<data order="0,2,3,1" />
			<input>
				<port id="0">
					<dim>1</dim>
					<dim>24</dim>
					<dim>1</dim>
					<dim>1</dim>
				</port>
			</input>
			<output>
				<port id="1" precision="FP32">
					<dim>1</dim>
					<dim>1</dim>
					<dim>1</dim>
					<dim>24</dim>
				</port>
			</output>
		</layer>
		<layer name="conv17_2_mbox_loc_flat" type="Flatten" precision="FP32" id="75">
			<data axis="1" end_axis="-1" />
			<input>
				<port id="0">
					<dim>1</dim>
					<dim>1</dim>
					<dim>1</dim>
					<dim>24</dim>
				</port>
			</input>
			<output>
				<port id="1" precision="FP32">
					<dim>1</dim>
					<dim>24</dim>
				</port>
			</output>
		</layer>
		<layer name="conv17_2_mbox_conf" type="Convolution" precision="FP32" id="76">
			<data dilations="1,1" group="1" kernel="1,1" output="126" pads_begin="0,0" pads_end="0,0" quantization_level="I8" strides="1,1" />
			<input>
				<port id="0">
					<dim>1</dim>
					<dim>128</dim>
					<dim>1</dim>
					<dim>1</dim>
				</port>
			</input>
			<output>
				<port id="1" precision="FP32">
					<dim>1</dim>
					<dim>126</dim>
					<dim>1</dim>
					<dim>1</dim>
				</port>
			</output>
			<blobs>
				<biases offset="21683576" size="504" />
				<weights offset="21684080" size="64512" />
			</blobs>
		</layer>
		<layer name="conv17_2_mbox_conf_perm" type="Permute" precision="FP32" id="77">
			<data order="0,2,3,1" />
			<input>
				<port id="0">
					<dim>1</dim>
					<dim>126</dim>
					<dim>1</dim>
					<dim>1</dim>
				</port>
			</input>
			<output>
				<port id="1" precision="FP32">
					<dim>1</dim>
					<dim>1</dim>
					<dim>1</dim>
					<dim>126</dim>
				</port>
			</output>
		</layer>
		<layer name="conv17_2_mbox_conf_flat" type="Flatten" precision="FP32" id="78">
			<data axis="1" end_axis="-1" />
			<input>
				<port id="0">
					<dim>1</dim>
					<dim>1</dim>
					<dim>1</dim>
					<dim>126</dim>
				</port>
			</input>
			<output>
				<port id="1" precision="FP32">
					<dim>1</dim>
					<dim>126</dim>
				</port>
			</output>
		</layer>
		<layer name="conv16_2_mbox_priorbox" type="PriorBox" precision="FP32" id="79">
			<data aspect_ratio="2.0,3.0" clip="0" density="" fixed_ratio="" fixed_size="" flip="1" max_size="285.0" min_size="240.0" offset="0.5" variance="0.10000000149011612,0.10000000149011612,0.20000000298023224,0.20000000298023224" />
			<input>
				<port id="0">
					<dim>1</dim>
					<dim>256</dim>
					<dim>2</dim>
					<dim>2</dim>
				</port>
				<port id="1">
					<dim>1</dim>
					<dim>3</dim>
					<dim>300</dim>
					<dim>300</dim>
				</port>
			</input>
			<output>
				<port id="2" precision="FP32">
					<dim>1</dim>
					<dim>2</dim>
					<dim>96</dim>
				</port>
			</output>
		</layer>
		<layer name="conv16_2_mbox_loc" type="Convolution" precision="FP32" id="80">
			<data dilations="1,1" group="1" kernel="1,1" output="24" pads_begin="0,0" pads_end="0,0" quantization_level="I8" strides="1,1" />
			<input>
				<port id="0">
					<dim>1</dim>
					<dim>256</dim>
					<dim>2</dim>
					<dim>2</dim>
				</port>
			</input>
			<output>
				<port id="1" precision="FP32">
					<dim>1</dim>
					<dim>24</dim>
					<dim>2</dim>
					<dim>2</dim>
				</port>
			</output>
			<blobs>
				<biases offset="21748592" size="96" />
				<weights offset="21748688" size="24576" />
			</blobs>
		</layer>
		<layer name="conv16_2_mbox_loc_perm" type="Permute" precision="FP32" id="81">
			<data order="0,2,3,1" />
			<input>
				<port id="0">
					<dim>1</dim>
					<dim>24</dim>
					<dim>2</dim>
					<dim>2</dim>
				</port>
			</input>
			<output>
				<port id="1" precision="FP32">
					<dim>1</dim>
					<dim>2</dim>
					<dim>2</dim>
					<dim>24</dim>
				</port>
			</output>
		</layer>
		<layer name="conv16_2_mbox_loc_flat" type="Flatten" precision="FP32" id="82">
			<data axis="1" end_axis="-1" />
			<input>
				<port id="0">
					<dim>1</dim>
					<dim>2</dim>
					<dim>2</dim>
					<dim>24</dim>
				</port>
			</input>
			<output>
				<port id="1" precision="FP32">
					<dim>1</dim>
					<dim>96</dim>
				</port>
			</output>
		</layer>
		<layer name="conv16_2_mbox_conf" type="Convolution" precision="FP32" id="83">
			<data dilations="1,1" group="1" kernel="1,1" output="126" pads_begin="0,0" pads_end="0,0" quantization_level="I8" strides="1,1" />
			<input>
				<port id="0">
					<dim>1</dim>
					<dim>256</dim>
					<dim>2</dim>
					<dim>2</dim>
				</port>
			</input>
			<output>
				<port id="1" precision="FP32">
					<dim>1</dim>
					<dim>126</dim>
					<dim>2</dim>
					<dim>2</dim>
				</port>
			</output>
			<blobs>
				<biases offset="21773264" size="504" />
				<weights offset="21773768" size="129024" />
			</blobs>
		</layer>
		<layer name="conv16_2_mbox_conf_perm" type="Permute" precision="FP32" id="84">
			<data order="0,2,3,1" />
			<input>
				<port id="0">
					<dim>1</dim>
					<dim>126</dim>
					<dim>2</dim>
					<dim>2</dim>
				</port>
			</input>
			<output>
				<port id="1" precision="FP32">
					<dim>1</dim>
					<dim>2</dim>
					<dim>2</dim>
					<dim>126</dim>
				</port>
			</output>
		</layer>
		<layer name="conv16_2_mbox_conf_flat" type="Flatten" precision="FP32" id="85">
			<data axis="1" end_axis="-1" />
			<input>
				<port id="0">
					<dim>1</dim>
					<dim>2</dim>
					<dim>2</dim>
					<dim>126</dim>
				</port>
			</input>
			<output>
				<port id="1" precision="FP32">
					<dim>1</dim>
					<dim>504</dim>
				</port>
			</output>
		</layer>
		<layer name="conv15_2_mbox_priorbox" type="PriorBox" precision="FP32" id="86">
			<data aspect_ratio="2.0,3.0" clip="0" density="" fixed_ratio="" fixed_size="" flip="1" max_size="240.0" min_size="195.0" offset="0.5" variance="0.10000000149011612,0.10000000149011612,0.20000000298023224,0.20000000298023224" />
			<input>
				<port id="0">
					<dim>1</dim>
					<dim>256</dim>
					<dim>3</dim>
					<dim>3</dim>
				</port>
				<port id="1">
					<dim>1</dim>
					<dim>3</dim>
					<dim>300</dim>
					<dim>300</dim>
				</port>
			</input>
			<output>
				<port id="2" precision="FP32">
					<dim>1</dim>
					<dim>2</dim>
					<dim>216</dim>
				</port>
			</output>
		</layer>
		<layer name="conv15_2_mbox_loc" type="Convolution" precision="FP32" id="87">
			<data dilations="1,1" group="1" kernel="1,1" output="24" pads_begin="0,0" pads_end="0,0" quantization_level="I8" strides="1,1" />
			<input>
				<port id="0">
					<dim>1</dim>
					<dim>256</dim>
					<dim>3</dim>
					<dim>3</dim>
				</port>
			</input>
			<output>
				<port id="1" precision="FP32">
					<dim>1</dim>
					<dim>24</dim>
					<dim>3</dim>
					<dim>3</dim>
				</port>
			</output>
			<blobs>
				<biases offset="21902792" size="96" />
				<weights offset="21902888" size="24576" />
			</blobs>
		</layer>
		<layer name="conv15_2_mbox_loc_perm" type="Permute" precision="FP32" id="88">
			<data order="0,2,3,1" />
			<input>
				<port id="0">
					<dim>1</dim>
					<dim>24</dim>
					<dim>3</dim>
					<dim>3</dim>
				</port>
			</input>
			<output>
				<port id="1" precision="FP32">
					<dim>1</dim>
					<dim>3</dim>
					<dim>3</dim>
					<dim>24</dim>
				</port>
			</output>
		</layer>
		<layer name="conv15_2_mbox_loc_flat" type="Flatten" precision="FP32" id="89">
			<data axis="1" end_axis="-1" />
			<input>
				<port id="0">
					<dim>1</dim>
					<dim>3</dim>
					<dim>3</dim>
					<dim>24</dim>
				</port>
			</input>
			<output>
				<port id="1" precision="FP32">
					<dim>1</dim>
					<dim>216</dim>
				</port>
			</output>
		</layer>
		<layer name="conv15_2_mbox_conf" type="Convolution" precision="FP32" id="90">
			<data dilations="1,1" group="1" kernel="1,1" output="126" pads_begin="0,0" pads_end="0,0" quantization_level="I8" strides="1,1" />
			<input>
				<port id="0">
					<dim>1</dim>
					<dim>256</dim>
					<dim>3</dim>
					<dim>3</dim>
				</port>
			</input>
			<output>
				<port id="1" precision="FP32">
					<dim>1</dim>
					<dim>126</dim>
					<dim>3</dim>
					<dim>3</dim>
				</port>
			</output>
			<blobs>
				<biases offset="21927464" size="504" />
				<weights offset="21927968" size="129024" />
			</blobs>
		</layer>
		<layer name="conv15_2_mbox_conf_perm" type="Permute" precision="FP32" id="91">
			<data order="0,2,3,1" />
			<input>
				<port id="0">
					<dim>1</dim>
					<dim>126</dim>
					<dim>3</dim>
					<dim>3</dim>
				</port>
			</input>
			<output>
				<port id="1" precision="FP32">
					<dim>1</dim>
					<dim>3</dim>
					<dim>3</dim>
					<dim>126</dim>
				</port>
			</output>
		</layer>
		<layer name="conv15_2_mbox_conf_flat" type="Flatten" precision="FP32" id="92">
			<data axis="1" end_axis="-1" />
			<input>
				<port id="0">
					<dim>1</dim>
					<dim>3</dim>
					<dim>3</dim>
					<dim>126</dim>
				</port>
			</input>
			<output>
				<port id="1" precision="FP32">
					<dim>1</dim>
					<dim>1134</dim>
				</port>
			</output>
		</layer>
		<layer name="conv14_2_mbox_priorbox" type="PriorBox" precision="FP32" id="93">
			<data aspect_ratio="2.0,3.0" clip="0" density="" fixed_ratio="" fixed_size="" flip="1" max_size="195.0" min_size="150.0" offset="0.5" variance="0.10000000149011612,0.10000000149011612,0.20000000298023224,0.20000000298023224" />
			<input>
				<port id="0">
					<dim>1</dim>
					<dim>512</dim>
					<dim>5</dim>
					<dim>5</dim>
				</port>
				<port id="1">
					<dim>1</dim>
					<dim>3</dim>
					<dim>300</dim>
					<dim>300</dim>
				</port>
			</input>
			<output>
				<port id="2" precision="FP32">
					<dim>1</dim>
					<dim>2</dim>
					<dim>600</dim>
				</port>
			</output>
		</layer>
		<layer name="conv14_2_mbox_loc" type="Convolution" precision="FP32" id="94">
			<data dilations="1,1" group="1" kernel="1,1" output="24" pads_begin="0,0" pads_end="0,0" quantization_level="I8" strides="1,1" />
			<input>
				<port id="0">
					<dim>1</dim>
					<dim>512</dim>
					<dim>5</dim>
					<dim>5</dim>
				</port>
			</input>
			<output>
				<port id="1" precision="FP32">
					<dim>1</dim>
					<dim>24</dim>
					<dim>5</dim>
					<dim>5</dim>
				</port>
			</output>
			<blobs>
				<biases offset="22056992" size="96" />
				<weights offset="22057088" size="49152" />
			</blobs>
		</layer>
		<layer name="conv14_2_mbox_loc_perm" type="Permute" precision="FP32" id="95">
			<data order="0,2,3,1" />
			<input>
				<port id="0">
					<dim>1</dim>
					<dim>24</dim>
					<dim>5</dim>
					<dim>5</dim>
				</port>
			</input>
			<output>
				<port id="1" precision="FP32">
					<dim>1</dim>
					<dim>5</dim>
					<dim>5</dim>
					<dim>24</dim>
				</port>
			</output>
		</layer>
		<layer name="conv14_2_mbox_loc_flat" type="Flatten" precision="FP32" id="96">
			<data axis="1" end_axis="-1" />
			<input>
				<port id="0">
					<dim>1</dim>
					<dim>5</dim>
					<dim>5</dim>
					<dim>24</dim>
				</port>
			</input>
			<output>
				<port id="1" precision="FP32">
					<dim>1</dim>
					<dim>600</dim>
				</port>
			</output>
		</layer>
		<layer name="conv14_2_mbox_conf" type="Convolution" precision="FP32" id="97">
			<data dilations="1,1" group="1" kernel="1,1" output="126" pads_begin="0,0" pads_end="0,0" quantization_level="I8" strides="1,1" />
			<input>
				<port id="0">
					<dim>1</dim>
					<dim>512</dim>
					<dim>5</dim>
					<dim>5</dim>
				</port>
			</input>
			<output>
				<port id="1" precision="FP32">
					<dim>1</dim>
					<dim>126</dim>
					<dim>5</dim>
					<dim>5</dim>
				</port>
			</output>
			<blobs>
				<biases offset="22106240" size="504" />
				<weights offset="22106744" size="258048" />
			</blobs>
		</layer>
		<layer name="conv14_2_mbox_conf_perm" type="Permute" precision="FP32" id="98">
			<data order="0,2,3,1" />
			<input>
				<port id="0">
					<dim>1</dim>
					<dim>126</dim>
					<dim>5</dim>
					<dim>5</dim>
				</port>
			</input>
			<output>
				<port id="1" precision="FP32">
					<dim>1</dim>
					<dim>5</dim>
					<dim>5</dim>
					<dim>126</dim>
				</port>
			</output>
		</layer>
		<layer name="conv14_2_mbox_conf_flat" type="Flatten" precision="FP32" id="99">
			<data axis="1" end_axis="-1" />
			<input>
				<port id="0">
					<dim>1</dim>
					<dim>5</dim>
					<dim>5</dim>
					<dim>126</dim>
				</port>
			</input>
			<output>
				<port id="1" precision="FP32">
					<dim>1</dim>
					<dim>3150</dim>
				</port>
			</output>
		</layer>
		<layer name="conv13_mbox_priorbox" type="PriorBox" precision="FP32" id="100">
			<data aspect_ratio="2.0,3.0" clip="0" density="" fixed_ratio="" fixed_size="" flip="1" max_size="150.0" min_size="105.0" offset="0.5" variance="0.10000000149011612,0.10000000149011612,0.20000000298023224,0.20000000298023224" />
			<input>
				<port id="0">
					<dim>1</dim>
					<dim>1024</dim>
					<dim>10</dim>
					<dim>10</dim>
				</port>
				<port id="1">
					<dim>1</dim>
					<dim>3</dim>
					<dim>300</dim>
					<dim>300</dim>
				</port>
			</input>
			<output>
				<port id="2" precision="FP32">
					<dim>1</dim>
					<dim>2</dim>
					<dim>2400</dim>
				</port>
			</output>
		</layer>
		<layer name="conv13_mbox_loc" type="Convolution" precision="FP32" id="101">
			<data dilations="1,1" group="1" kernel="1,1" output="24" pads_begin="0,0" pads_end="0,0" quantization_level="I8" strides="1,1" />
			<input>
				<port id="0">
					<dim>1</dim>
					<dim>1024</dim>
					<dim>10</dim>
					<dim>10</dim>
				</port>
			</input>
			<output>
				<port id="1" precision="FP32">
					<dim>1</dim>
					<dim>24</dim>
					<dim>10</dim>
					<dim>10</dim>
				</port>
			</output>
			<blobs>
				<biases offset="22364792" size="96" />
				<weights offset="22364888" size="98304" />
			</blobs>
		</layer>
		<layer name="conv13_mbox_loc_perm" type="Permute" precision="FP32" id="102">
			<data order="0,2,3,1" />
			<input>
				<port id="0">
					<dim>1</dim>
					<dim>24</dim>
					<dim>10</dim>
					<dim>10</dim>
				</port>
			</input>
			<output>
				<port id="1" precision="FP32">
					<dim>1</dim>
					<dim>10</dim>
					<dim>10</dim>
					<dim>24</dim>
				</port>
			</output>
		</layer>
		<layer name="conv13_mbox_loc_flat" type="Flatten" precision="FP32" id="103">
			<data axis="1" end_axis="-1" />
			<input>
				<port id="0">
					<dim>1</dim>
					<dim>10</dim>
					<dim>10</dim>
					<dim>24</dim>
				</port>
			</input>
			<output>
				<port id="1" precision="FP32">
					<dim>1</dim>
					<dim>2400</dim>
				</port>
			</output>
		</layer>
		<layer name="conv13_mbox_conf" type="Convolution" precision="FP32" id="104">
			<data dilations="1,1" group="1" kernel="1,1" output="126" pads_begin="0,0" pads_end="0,0" quantization_level="I8" strides="1,1" />
			<input>
				<port id="0">
					<dim>1</dim>
					<dim>1024</dim>
					<dim>10</dim>
					<dim>10</dim>
				</port>
			</input>
			<output>
				<port id="1" precision="FP32">
					<dim>1</dim>
					<dim>126</dim>
					<dim>10</dim>
					<dim>10</dim>
				</port>
			</output>
			<blobs>
				<biases offset="22463192" size="504" />
				<weights offset="22463696" size="516096" />
			</blobs>
		</layer>
		<layer name="conv13_mbox_conf_perm" type="Permute" precision="FP32" id="105">
			<data order="0,2,3,1" />
			<input>
				<port id="0">
					<dim>1</dim>
					<dim>126</dim>
					<dim>10</dim>
					<dim>10</dim>
				</port>
			</input>
			<output>
				<port id="1" precision="FP32">
					<dim>1</dim>
					<dim>10</dim>
					<dim>10</dim>
					<dim>126</dim>
				</port>
			</output>
		</layer>
		<layer name="conv13_mbox_conf_flat" type="Flatten" precision="FP32" id="106">
			<data axis="1" end_axis="-1" />
			<input>
				<port id="0">
					<dim>1</dim>
					<dim>10</dim>
					<dim>10</dim>
					<dim>126</dim>
				</port>
			</input>
			<output>
				<port id="1" precision="FP32">
					<dim>1</dim>
					<dim>12600</dim>
				</port>
			</output>
		</layer>
		<layer name="conv11_mbox_priorbox" type="PriorBox" precision="FP32" id="107">
			<data aspect_ratio="2.0" clip="0" density="" fixed_ratio="" fixed_size="" flip="1" max_size="" min_size="60.0" offset="0.5" variance="0.10000000149011612,0.10000000149011612,0.20000000298023224,0.20000000298023224" />
			<input>
				<port id="0">
					<dim>1</dim>
					<dim>512</dim>
					<dim>19</dim>
					<dim>19</dim>
				</port>
				<port id="1">
					<dim>1</dim>
					<dim>3</dim>
					<dim>300</dim>
					<dim>300</dim>
				</port>
			</input>
			<output>
				<port id="2" precision="FP32">
					<dim>1</dim>
					<dim>2</dim>
					<dim>4332</dim>
				</port>
			</output>
		</layer>
		<layer name="mbox_priorbox" type="Concat" precision="FP32" id="108">
			<data axis="2" />
			<input>
				<port id="0">
					<dim>1</dim>
					<dim>2</dim>
					<dim>4332</dim>
				</port>
				<port id="1">
					<dim>1</dim>
					<dim>2</dim>
					<dim>2400</dim>
				</port>
				<port id="2">
					<dim>1</dim>
					<dim>2</dim>
					<dim>600</dim>
				</port>
				<port id="3">
					<dim>1</dim>
					<dim>2</dim>
					<dim>216</dim>
				</port>
				<port id="4">
					<dim>1</dim>
					<dim>2</dim>
					<dim>96</dim>
				</port>
				<port id="5">
					<dim>1</dim>
					<dim>2</dim>
					<dim>24</dim>
				</port>
			</input>
			<output>
				<port id="6" precision="FP32">
					<dim>1</dim>
					<dim>2</dim>
					<dim>7668</dim>
				</port>
			</output>
		</layer>
		<layer name="conv11_mbox_loc" type="Convolution" precision="FP32" id="109">
			<data dilations="1,1" group="1" kernel="1,1" output="12" pads_begin="0,0" pads_end="0,0" quantization_level="I8" strides="1,1" />
			<input>
				<port id="0">
					<dim>1</dim>
					<dim>512</dim>
					<dim>19</dim>
					<dim>19</dim>
				</port>
			</input>
			<output>
				<port id="1" precision="FP32">
					<dim>1</dim>
					<dim>12</dim>
					<dim>19</dim>
					<dim>19</dim>
				</port>
			</output>
			<blobs>
				<biases offset="22979792" size="48" />
				<weights offset="22979840" size="24576" />
			</blobs>
		</layer>
		<layer name="conv11_mbox_loc_perm" type="Permute" precision="FP32" id="110">
			<data order="0,2,3,1" />
			<input>
				<port id="0">
					<dim>1</dim>
					<dim>12</dim>
					<dim>19</dim>
					<dim>19</dim>
				</port>
			</input>
			<output>
				<port id="1" precision="FP32">
					<dim>1</dim>
					<dim>19</dim>
					<dim>19</dim>
					<dim>12</dim>
				</port>
			</output>
		</layer>
		<layer name="conv11_mbox_loc_flat" type="Flatten" precision="FP32" id="111">
			<data axis="1" end_axis="-1" />
			<input>
				<port id="0">
					<dim>1</dim>
					<dim>19</dim>
					<dim>19</dim>
					<dim>12</dim>
				</port>
			</input>
			<output>
				<port id="1" precision="FP32">
					<dim>1</dim>
					<dim>4332</dim>
				</port>
			</output>
		</layer>
		<layer name="mbox_loc" type="Concat" precision="FP32" id="112">
			<data axis="1" />
			<input>
				<port id="0">
					<dim>1</dim>
					<dim>4332</dim>
				</port>
				<port id="1">
					<dim>1</dim>
					<dim>2400</dim>
				</port>
				<port id="2">
					<dim>1</dim>
					<dim>600</dim>
				</port>
				<port id="3">
					<dim>1</dim>
					<dim>216</dim>
				</port>
				<port id="4">
					<dim>1</dim>
					<dim>96</dim>
				</port>
				<port id="5">
					<dim>1</dim>
					<dim>24</dim>
				</port>
			</input>
			<output>
				<port id="6" precision="FP32">
					<dim>1</dim>
					<dim>7668</dim>
				</port>
			</output>
		</layer>
		<layer name="conv11_mbox_conf" type="Convolution" precision="FP32" id="113">
			<data dilations="1,1" group="1" kernel="1,1" output="63" pads_begin="0,0" pads_end="0,0" quantization_level="I8" strides="1,1" />
			<input>
				<port id="0">
					<dim>1</dim>
					<dim>512</dim>
					<dim>19</dim>
					<dim>19</dim>
				</port>
			</input>
			<output>
				<port id="1" precision="FP32">
					<dim>1</dim>
					<dim>63</dim>
					<dim>19</dim>
					<dim>19</dim>
				</port>
			</output>
			<blobs>
				<biases offset="23004416" size="252" />
				<weights offset="23004668" size="129024" />
			</blobs>
		</layer>
		<layer name="conv11_mbox_conf_perm" type="Permute" precision="FP32" id="114">
			<data order="0,2,3,1" />
			<input>
				<port id="0">
					<dim>1</dim>
					<dim>63</dim>
					<dim>19</dim>
					<dim>19</dim>
				</port>
			</input>
			<output>
				<port id="1" precision="FP32">
					<dim>1</dim>
					<dim>19</dim>
					<dim>19</dim>
					<dim>63</dim>
				</port>
			</output>
		</layer>
		<layer name="conv11_mbox_conf_flat" type="Flatten" precision="FP32" id="115">
			<data axis="1" end_axis="-1" />
			<input>
				<port id="0">
					<dim>1</dim>
					<dim>19</dim>
					<dim>19</dim>
					<dim>63</dim>
				</port>
			</input>
			<output>
				<port id="1" precision="FP32">
					<dim>1</dim>
					<dim>22743</dim>
				</port>
			</output>
		</layer>
		<layer name="mbox_conf" type="Concat" precision="FP32" id="116">
			<data axis="1" />
			<input>
				<port id="0">
					<dim>1</dim>
					<dim>22743</dim>
				</port>
				<port id="1">
					<dim>1</dim>
					<dim>12600</dim>
				</port>
				<port id="2">
					<dim>1</dim>
					<dim>3150</dim>
				</port>
				<port id="3">
					<dim>1</dim>
					<dim>1134</dim>
				</port>
				<port id="4">
					<dim>1</dim>
					<dim>504</dim>
				</port>
				<port id="5">
					<dim>1</dim>
					<dim>126</dim>
				</port>
			</input>
			<output>
				<port id="6" precision="FP32">
					<dim>1</dim>
					<dim>40257</dim>
				</port>
			</output>
		</layer>
		<layer name="122/Output_0/Data__const" type="Const" precision="I32" id="117">
			<output>
				<port id="0" precision="I32">
					<dim>3</dim>
				</port>
			</output>
			<blobs>
				<custom offset="23133692" size="12" />
			</blobs>
		</layer>
		<layer name="mbox_conf_reshape" type="Reshape" precision="FP32" id="118">
			<data axis="0" dim="" num_axes="-1" />
			<input>
				<port id="0">
					<dim>1</dim>
					<dim>40257</dim>
				</port>
				<port id="1">
					<dim>3</dim>
				</port>
			</input>
			<output>
				<port id="2" precision="FP32">
					<dim>1</dim>
					<dim>1917</dim>
					<dim>21</dim>
				</port>
			</output>
		</layer>
		<layer name="mbox_conf_softmax" type="SoftMax" precision="FP32" id="119">
			<data axis="2" />
			<input>
				<port id="0">
					<dim>1</dim>
					<dim>1917</dim>
					<dim>21</dim>
				</port>
			</input>
			<output>
				<port id="1" precision="FP32">
					<dim>1</dim>
					<dim>1917</dim>
					<dim>21</dim>
				</port>
			</output>
		</layer>
		<layer name="mbox_conf_flatten" type="Flatten" precision="FP32" id="120">
			<data axis="1" end_axis="-1" />
			<input>
				<port id="0">
					<dim>1</dim>
					<dim>1917</dim>
					<dim>21</dim>
				</port>
			</input>
			<output>
				<port id="1" precision="FP32">
					<dim>1</dim>
					<dim>40257</dim>
				</port>
			</output>
		</layer>
		<layer name="detection_out" type="DetectionOutput" precision="FP32" id="121">
			<data background_label_id="0" code_type="caffe.PriorBoxParameter.CENTER_SIZE" confidence_threshold="0.25" eta="1.0" input_height="1" input_width="1" keep_top_k="100" nms_threshold="0.44999998807907104" normalized="1" num_classes="21" share_location="1" top_k="100" variance_encoded_in_target="0" visualize="False" />
			<input>
				<port id="0">
					<dim>1</dim>
					<dim>7668</dim>
				</port>
				<port id="1">
					<dim>1</dim>
					<dim>40257</dim>
				</port>
				<port id="2">
					<dim>1</dim>
					<dim>2</dim>
					<dim>7668</dim>
				</port>
			</input>
			<output>
				<port id="3" precision="FP32">
					<dim>1</dim>
					<dim>1</dim>
					<dim>100</dim>
					<dim>7</dim>
				</port>
			</output>
		</layer>
	</layers>
	<edges>
		<edge from-layer="0" from-port="0" to-layer="1" to-port="0" />
		<edge from-layer="1" from-port="1" to-layer="2" to-port="0" />
		<edge from-layer="1" from-port="1" to-layer="107" to-port="1" />
		<edge from-layer="1" from-port="1" to-layer="100" to-port="1" />
		<edge from-layer="1" from-port="1" to-layer="93" to-port="1" />
		<edge from-layer="1" from-port="1" to-layer="86" to-port="1" />
		<edge from-layer="1" from-port="1" to-layer="79" to-port="1" />
		<edge from-layer="1" from-port="1" to-layer="72" to-port="1" />
		<edge from-layer="2" from-port="1" to-layer="3" to-port="0" />
		<edge from-layer="3" from-port="1" to-layer="4" to-port="0" />
		<edge from-layer="4" from-port="1" to-layer="5" to-port="0" />
		<edge from-layer="5" from-port="1" to-layer="6" to-port="0" />
		<edge from-layer="6" from-port="1" to-layer="7" to-port="0" />
		<edge from-layer="7" from-port="1" to-layer="8" to-port="0" />
		<edge from-layer="8" from-port="1" to-layer="9" to-port="0" />
		<edge from-layer="9" from-port="1" to-layer="10" to-port="0" />
		<edge from-layer="10" from-port="1" to-layer="11" to-port="0" />
		<edge from-layer="11" from-port="1" to-layer="12" to-port="0" />
		<edge from-layer="12" from-port="1" to-layer="13" to-port="0" />
		<edge from-layer="13" from-port="1" to-layer="14" to-port="0" />
		<edge from-layer="14" from-port="1" to-layer="15" to-port="0" />
		<edge from-layer="15" from-port="1" to-layer="16" to-port="0" />
		<edge from-layer="16" from-port="1" to-layer="17" to-port="0" />
		<edge from-layer="17" from-port="1" to-layer="18" to-port="0" />
		<edge from-layer="18" from-port="1" to-layer="19" to-port="0" />
		<edge from-layer="19" from-port="1" to-layer="20" to-port="0" />
		<edge from-layer="20" from-port="1" to-layer="21" to-port="0" />
		<edge from-layer="21" from-port="1" to-layer="22" to-port="0" />
		<edge from-layer="22" from-port="1" to-layer="23" to-port="0" />
		<edge from-layer="23" from-port="1" to-layer="24" to-port="0" />
		<edge from-layer="24" from-port="1" to-layer="25" to-port="0" />
		<edge from-layer="25" from-port="1" to-layer="26" to-port="0" />
		<edge from-layer="26" from-port="1" to-layer="27" to-port="0" />
		<edge from-layer="27" from-port="1" to-layer="28" to-port="0" />
		<edge from-layer="28" from-port="1" to-layer="29" to-port="0" />
		<edge from-layer="29" from-port="1" to-layer="30" to-port="0" />
		<edge from-layer="30" from-port="1" to-layer="31" to-port="0" />
		<edge from-layer="31" from-port="1" to-layer="32" to-port="0" />
		<edge from-layer="32" from-port="1" to-layer="33" to-port="0" />
		<edge from-layer="33" from-port="1" to-layer="34" to-port="0" />
		<edge from-layer="34" from-port="1" to-layer="35" to-port="0" />
		<edge from-layer="35" from-port="1" to-layer="36" to-port="0" />
		<edge from-layer="36" from-port="1" to-layer="37" to-port="0" />
		<edge from-layer="37" from-port="1" to-layer="38" to-port="0" />
		<edge from-layer="38" from-port="1" to-layer="39" to-port="0" />
		<edge from-layer="39" from-port="1" to-layer="40" to-port="0" />
		<edge from-layer="40" from-port="1" to-layer="41" to-port="0" />
		<edge from-layer="41" from-port="1" to-layer="42" to-port="0" />
		<edge from-layer="42" from-port="1" to-layer="43" to-port="0" />
		<edge from-layer="43" from-port="1" to-layer="44" to-port="0" />
		<edge from-layer="44" from-port="1" to-layer="45" to-port="0" />
		<edge from-layer="45" from-port="1" to-layer="46" to-port="0" />
		<edge from-layer="46" from-port="1" to-layer="47" to-port="0" />
		<edge from-layer="47" from-port="1" to-layer="113" to-port="0" />
		<edge from-layer="47" from-port="1" to-layer="109" to-port="0" />
		<edge from-layer="47" from-port="1" to-layer="107" to-port="0" />
		<edge from-layer="47" from-port="1" to-layer="48" to-port="0" />
		<edge from-layer="48" from-port="1" to-layer="49" to-port="0" />
		<edge from-layer="49" from-port="1" to-layer="50" to-port="0" />
		<edge from-layer="50" from-port="1" to-layer="51" to-port="0" />
		<edge from-layer="51" from-port="1" to-layer="52" to-port="0" />
		<edge from-layer="52" from-port="1" to-layer="53" to-port="0" />
		<edge from-layer="53" from-port="1" to-layer="54" to-port="0" />
		<edge from-layer="54" from-port="1" to-layer="55" to-port="0" />
		<edge from-layer="55" from-port="1" to-layer="104" to-port="0" />
		<edge from-layer="55" from-port="1" to-layer="101" to-port="0" />
		<edge from-layer="55" from-port="1" to-layer="100" to-port="0" />
		<edge from-layer="55" from-port="1" to-layer="56" to-port="0" />
		<edge from-layer="56" from-port="1" to-layer="57" to-port="0" />
		<edge from-layer="57" from-port="1" to-layer="58" to-port="0" />
		<edge from-layer="58" from-port="1" to-layer="59" to-port="0" />
		<edge from-layer="59" from-port="1" to-layer="97" to-port="0" />
		<edge from-layer="59" from-port="1" to-layer="94" to-port="0" />
		<edge from-layer="59" from-port="1" to-layer="93" to-port="0" />
		<edge from-layer="59" from-port="1" to-layer="60" to-port="0" />
		<edge from-layer="60" from-port="1" to-layer="61" to-port="0" />
		<edge from-layer="61" from-port="1" to-layer="62" to-port="0" />
		<edge from-layer="62" from-port="1" to-layer="63" to-port="0" />
		<edge from-layer="63" from-port="1" to-layer="90" to-port="0" />
		<edge from-layer="63" from-port="1" to-layer="87" to-port="0" />
		<edge from-layer="63" from-port="1" to-layer="86" to-port="0" />
		<edge from-layer="63" from-port="1" to-layer="64" to-port="0" />
		<edge from-layer="64" from-port="1" to-layer="65" to-port="0" />
		<edge from-layer="65" from-port="1" to-layer="66" to-port="0" />
		<edge from-layer="66" from-port="1" to-layer="67" to-port="0" />
		<edge from-layer="67" from-port="1" to-layer="83" to-port="0" />
		<edge from-layer="67" from-port="1" to-layer="80" to-port="0" />
		<edge from-layer="67" from-port="1" to-layer="79" to-port="0" />
		<edge from-layer="67" from-port="1" to-layer="68" to-port="0" />
		<edge from-layer="68" from-port="1" to-layer="69" to-port="0" />
		<edge from-layer="69" from-port="1" to-layer="70" to-port="0" />
		<edge from-layer="70" from-port="1" to-layer="71" to-port="0" />
		<edge from-layer="71" from-port="1" to-layer="76" to-port="0" />
		<edge from-layer="71" from-port="1" to-layer="73" to-port="0" />
		<edge from-layer="71" from-port="1" to-layer="72" to-port="0" />
		<edge from-layer="72" from-port="2" to-layer="108" to-port="5" />
		<edge from-layer="73" from-port="1" to-layer="74" to-port="0" />
		<edge from-layer="74" from-port="1" to-layer="75" to-port="0" />
		<edge from-layer="75" from-port="1" to-layer="112" to-port="5" />
		<edge from-layer="76" from-port="1" to-layer="77" to-port="0" />
		<edge from-layer="77" from-port="1" to-layer="78" to-port="0" />
		<edge from-layer="78" from-port="1" to-layer="116" to-port="5" />
		<edge from-layer="79" from-port="2" to-layer="108" to-port="4" />
		<edge from-layer="80" from-port="1" to-layer="81" to-port="0" />
		<edge from-layer="81" from-port="1" to-layer="82" to-port="0" />
		<edge from-layer="82" from-port="1" to-layer="112" to-port="4" />
		<edge from-layer="83" from-port="1" to-layer="84" to-port="0" />
		<edge from-layer="84" from-port="1" to-layer="85" to-port="0" />
		<edge from-layer="85" from-port="1" to-layer="116" to-port="4" />
		<edge from-layer="86" from-port="2" to-layer="108" to-port="3" />
		<edge from-layer="87" from-port="1" to-layer="88" to-port="0" />
		<edge from-layer="88" from-port="1" to-layer="89" to-port="0" />
		<edge from-layer="89" from-port="1" to-layer="112" to-port="3" />
		<edge from-layer="90" from-port="1" to-layer="91" to-port="0" />
		<edge from-layer="91" from-port="1" to-layer="92" to-port="0" />
		<edge from-layer="92" from-port="1" to-layer="116" to-port="3" />
		<edge from-layer="93" from-port="2" to-layer="108" to-port="2" />
		<edge from-layer="94" from-port="1" to-layer="95" to-port="0" />
		<edge from-layer="95" from-port="1" to-layer="96" to-port="0" />
		<edge from-layer="96" from-port="1" to-layer="112" to-port="2" />
		<edge from-layer="97" from-port="1" to-layer="98" to-port="0" />
		<edge from-layer="98" from-port="1" to-layer="99" to-port="0" />
		<edge from-layer="99" from-port="1" to-layer="116" to-port="2" />
		<edge from-layer="100" from-port="2" to-layer="108" to-port="1" />
		<edge from-layer="101" from-port="1" to-layer="102" to-port="0" />
		<edge from-layer="102" from-port="1" to-layer="103" to-port="0" />
		<edge from-layer="103" from-port="1" to-layer="112" to-port="1" />
		<edge from-layer="104" from-port="1" to-layer="105" to-port="0" />
		<edge from-layer="105" from-port="1" to-layer="106" to-port="0" />
		<edge from-layer="106" from-port="1" to-layer="116" to-port="1" />
		<edge from-layer="107" from-port="2" to-layer="108" to-port="0" />
		<edge from-layer="108" from-port="6" to-layer="121" to-port="2" />
		<edge from-layer="109" from-port="1" to-layer="110" to-port="0" />
		<edge from-layer="110" from-port="1" to-layer="111" to-port="0" />
		<edge from-layer="111" from-port="1" to-layer="112" to-port="0" />
		<edge from-layer="112" from-port="6" to-layer="121" to-port="0" />
		<edge from-layer="113" from-port="1" to-layer="114" to-port="0" />
		<edge from-layer="114" from-port="1" to-layer="115" to-port="0" />
		<edge from-layer="115" from-port="1" to-layer="116" to-port="0" />
		<edge from-layer="116" from-port="6" to-layer="118" to-port="0" />
		<edge from-layer="117" from-port="0" to-layer="118" to-port="1" />
		<edge from-layer="118" from-port="2" to-layer="119" to-port="0" />
		<edge from-layer="119" from-port="1" to-layer="120" to-port="0" />
		<edge from-layer="120" from-port="1" to-layer="121" to-port="1" />
	</edges>
	<statistics>
		<layer>
			<name>Mul1_/Fused_Mul_/FusedScaleShift_</name>
			<min>-1.000000, -1.000000, -1.000000</min>
			<max>1.000000, 1.000000, 1.000000</max>
		</layer>
		<layer>
			<name>conv0</name>
			<min>… 0.256392</min>
			<max>… 2.393282</max>
		</layer>
		<layer>
			<name>conv0/relu</name>
			<min>… 0.256392</min>
			<max>… 2.393282</max>
		</layer>
		<layer>
			<name>conv1</name>
			<min>… -2.058241</min>
			<max>… 7.322083</max>
		</layer>
		<layer>
			<name>conv1/dw</name>
			<min>… -7.879635</min>
			<max>… 2.923725</max>
		</layer>
		<layer>
			<name>conv1/dw/relu</name>
			<min>… -0.000000</min>
			<max>… 2.923725</max>
		</layer>
		<layer>
			<name>conv1/relu</name>
			<min>… -0.000000</min>
			<max>… 7.322083</max>
		</layer>
		<layer>
			<name>conv10</name>
			<min>… -1.814632</min>
			<max>… 3.961711</max>
		</layer>
		<layer>
			<name>conv10/dw</name>
			<min>… -0.919279</min>
			<max>… 3.757083</max>
		</layer>
		<layer>
			<name>conv10/dw/relu</name>
			<min>… -0.000000</min>
			<max>… 3.757083</max>
		</layer>
		<layer>
			<name>conv10/relu</name>
			<min>… -0.000000</min>
			<max>… 3.961711</max>
		</layer>
		<layer>
			<name>conv11</name>
			<min>… -2.121944</min>
			<max>… 1.238891</max>
		</layer>
		<layer>
			<name>conv11/dw</name>
			<min>… -1.037725</min>
			<max>… 3.270321</max>
		</layer>
		<layer>
			<name>conv11/dw/relu</name>
			<min>… -0.000000</min>
			<max>… 3.270321</max>
		</layer>
		<layer>
			<name>conv11/relu</name>
			<min>… -0.000000</min>
			<max>… 1.238891</max>
		</layer>
		<layer>
			<name>conv11_mbox_conf</name>
			<min>… -211.310516</min>
			<max>… -10.988238</max>
		</layer>
		<layer>
			<name>conv11_mbox_conf_flat</name>
			<min>… -61.454269</min>
			<max>… -20.972942</max>
		</layer>
		<layer>
			<name>conv11_mbox_conf_perm</name>
			<min>… -130.974854</min>
			<max>… -8.463686</max>
		</layer>
		<layer>
			<name>conv11_mbox_loc</name>
			<min>-3.561202, -4.574605, -14.370260, -13.470193, -3.781775, -4.333259, -16.435389, -11.315825, -4.013800, -4.954127, -12.736541, -15.595197</min>
			<max>4.399690, 4.731824, 3.370175, 3.518982, 4.780505, 4.265268, 3.502989, 3.435252, 3.911578, 5.029058, 3.500514, 3.689996</max>
		</layer>
		<layer>
			<name>conv11_mbox_loc_flat</name>
			<min>… -10.024025</min>
			<max>… -0.494870</max>
		</layer>
		<layer>
			<name>conv11_mbox_loc_perm</name>
			<min>… -14.250062</min>
			<max>… 3.183131</max>
		</layer>
		<layer>
			<name>conv11_mbox_priorbox</name>
			<min>-0.115106</min>
			<max>1.115106</max>
		</layer>
		<layer>
			<name>conv12</name>
			<min>… 0.814991</min>
			<max>… 2.793629</max>
		</layer>
		<layer>
			<name>conv12/dw</name>
			<min>… 0.299151</min>
			<max>… 3.574316</max>
		</layer>
		<layer>
			<name>conv12/dw/relu</name>
			<min>… 0.299151</min>
			<max>… 3.574316</max>
		</layer>
		<layer>
			<name>conv12/relu</name>
			<min>… 0.814991</min>
			<max>… 2.793629</max>
		</layer>
		<layer>
			<name>conv13</name>
			<min>… -29.888596</min>
			<max>… -0.218727</max>
		</layer>
		<layer>
			<name>conv13/dw</name>
			<min>… -7.893506</min>
			<max>… 2.810250</max>
		</layer>
		<layer>
			<name>conv13/dw/relu</name>
			<min>… -0.000000</min>
			<max>… 2.810250</max>
		</layer>
		<layer>
			<name>conv13/relu</name>
			<min>… -0.000000</min>
			<max>… -0.000000</max>
		</layer>
		<layer>
			<name>conv13_mbox_conf</name>
			<min>… -349.074707</min>
			<max>… -7.297094</max>
		</layer>
		<layer>
			<name>conv13_mbox_conf_flat</name>
			<min>… -349.074707</min>
			<max>… -189.400269</max>
		</layer>
		<layer>
			<name>conv13_mbox_conf_perm</name>
			<min>-456.684875, -134.228195, -136.440170, -94.706184, -99.682648, -104.917160, -99.605408, -103.259209, -102.048439, -449.230774</min>
			<max>11.437018, 10.396035, -2.210290, -2.640885, -2.886590, -2.836853, -2.632874, -1.230786, 3.494538, 8.216577</max>
		</layer>
		<layer>
			<name>conv13_mbox_loc</name>
			<min>… -24.587389</min>
			<max>… 2.336012</max>
		</layer>
		<layer>
			<name>conv13_mbox_loc_flat</name>
			<min>… -24.587389</min>
			<max>… -10.006346</max>
		</layer>
		<layer>
			<name>conv13_mbox_loc_perm</name>
			<min>-31.401049, -5.331252, -4.179510, -4.340367, -4.279631, -4.179066, -4.168357, -4.092175, -4.665099, -26.238443</min>
			<max>17.889799, 3.470657, 3.834948, 3.982599, 4.061338, 3.982072, 3.889152, 3.890638, 3.447324, 12.466278</max>
		</layer>
		<layer>
			<name>conv13_mbox_priorbox</name>
			<min>-0.253109</min>
			<max>1.253109</max>
		</layer>
		<layer>
			<name>conv14_1</name>
			<min>… -2.248181</min>
			<max>… 0.857115</max>
		</layer>
		<layer>
			<name>conv14_1/relu</name>
			<min>… -0.000000</min>
			<max>… 0.857115</max>
		</layer>
		<layer>
			<name>conv14_2</name>
			<min>… -1.841013</min>
			<max>… 2.501200</max>
		</layer>
		<layer>
			<name>conv14_2/relu</name>
			<min>… -0.000000</min>
			<max>… 2.501200</max>
		</layer>
		<layer>
			<name>conv14_2_mbox_conf</name>
			<min>… -94.737183</min>
			<max>… -12.518420</max>
		</layer>
		<layer>
			<name>conv14_2_mbox_conf_flat</name>
			<min>… -80.816101</min>
			<max>… -17.846489</max>
		</layer>
		<layer>
			<name>conv14_2_mbox_conf_perm</name>
			<min>-104.928688, -72.433395, -95.223366, -93.190140, -113.618095</min>
			<max>-3.141049, -3.386429, -3.299911, -3.416593, -3.777447</max>
		</layer>
		<layer>
			<name>conv14_2_mbox_loc</name>
			<min>… -3.333128</min>
			<max>… 0.961375</max>
		</layer>
		<layer>
			<name>conv14_2_mbox_loc_flat</name>
			<min>… -2.903240</min>
			<max>… -1.429902</max>
		</layer>
		<layer>
			<name>conv14_2_mbox_loc_perm</name>
			<min>-3.028583, -3.181985, -3.685782, -3.778728, -3.482610</min>
			<max>3.395442, 3.770325, 3.797298, 3.526557, 3.183666</max>
		</layer>
		<layer>
			<name>conv14_2_mbox_priorbox</name>
			<min>-0.333013</min>
			<max>1.333013</max>
		</layer>
		<layer>
			<name>conv15_1</name>
			<min>… -1.209219</min>
			<max>… 1.274998</max>
		</layer>
		<layer>
			<name>conv15_1/relu</name>
			<min>… -0.000000</min>
			<max>… 1.274998</max>
		</layer>
		<layer>
			<name>conv15_2</name>
			<min>… -1.799345</min>
			<max>… 2.217036</max>
		</layer>
		<layer>
			<name>conv15_2/relu</name>
			<min>… -0.000000</min>
			<max>… 2.217036</max>
		</layer>
		<layer>
			<name>conv15_2_mbox_conf</name>
			<min>… -79.247231</min>
			<max>… -16.169661</max>
		</layer>
		<layer>
			<name>conv15_2_mbox_conf_flat</name>
			<min>… -48.963284</min>
			<max>… -20.501041</max>
		</layer>
		<layer>
			<name>conv15_2_mbox_conf_perm</name>
			<min>-95.137810, -83.571602, -76.999825</min>
			<max>-4.996047, -3.727013, -4.991717</max>
		</layer>
		<layer>
			<name>conv15_2_mbox_loc</name>
			<min>… -3.182152</min>
			<max>… -0.571433</max>
		</layer>
		<layer>
			<name>conv15_2_mbox_loc_flat</name>
			<min>… -2.561663</min>
			<max>… -1.372619</max>
		</layer>
		<layer>
			<name>conv15_2_mbox_loc_perm</name>
			<min>-2.952218, -3.723980, -3.563553</min>
			<max>3.341217, 3.979562, 2.366906</max>
		</layer>
		<layer>
			<name>conv15_2_mbox_priorbox</name>
			<min>-0.396250</min>
			<max>1.396250</max>
		</layer>
		<layer>
			<name>conv16_1</name>
			<min>… -1.279883</min>
			<max>… 1.211852</max>
		</layer>
		<layer>
			<name>conv16_1/relu</name>
			<min>… -0.000000</min>
			<max>… 1.211852</max>
		</layer>
		<layer>
			<name>conv16_2</name>
			<min>… -0.584462</min>
			<max>… 0.447834</max>
		</layer>
		<layer>
			<name>conv16_2/relu</name>
			<min>… -0.000000</min>
			<max>… 0.447834</max>
		</layer>
		<layer>
			<name>conv16_2_mbox_conf</name>
			<min>… -73.503540</min>
			<max>… -15.719955</max>
		</layer>
		<layer>
			<name>conv16_2_mbox_conf_flat</name>
			<min>… -64.498917</min>
			<max>… -18.033028</max>
		</layer>
		<layer>
			<name>conv16_2_mbox_conf_perm</name>
			<min>-85.688904, -89.477287</min>
			<max>-6.114758, -5.596048</max>
		</layer>
		<layer>
			<name>conv16_2_mbox_loc</name>
			<min>… -3.103169</min>
			<max>… -1.603068</max>
		</layer>
		<layer>
			<name>conv16_2_mbox_loc_flat</name>
			<min>… -2.948394</min>
			<max>… -1.666871</max>
		</layer>
		<layer>
			<name>conv16_2_mbox_loc_perm</name>
			<min>-2.946714, -3.178550</min>
			<max>2.572656, 2.281006</max>
		</layer>
		<layer>
			<name>conv16_2_mbox_priorbox</name>
			<min>-0.442820</min>
			<max>1.442820</max>
		</layer>
		<layer>
			<name>conv17_1</name>
			<min>… -0.678870</min>
			<max>… 1.090361</max>
		</layer>
		<layer>
			<name>conv17_1/relu</name>
			<min>… -0.000000</min>
			<max>… 1.090361</max>
		</layer>
		<layer>
			<name>conv17_2</name>
			<min>… -1.559220</min>
			<max>… 3.190864</max>
		</layer>
		<layer>
			<name>conv17_2/relu</name>
			<min>… -0.000000</min>
			<max>… 3.190864</max>
		</layer>
		<layer>
			<name>conv17_2_mbox_conf</name>
			<min>… -129.067719</min>
			<max>… -23.547522</max>
		</layer>
		<layer>
			<name>conv17_2_mbox_conf_flat</name>
			<min>… -129.067719</min>
			<max>… -23.547522</max>
		</layer>
		<layer>
			<name>conv17_2_mbox_conf_perm</name>
			<min>-142.369125</min>
			<max>-3.440852</max>
		</layer>
		<layer>
			<name>conv17_2_mbox_loc</name>
			<min>… -3.674513</min>
			<max>… -2.400749</max>
		</layer>
		<layer>
			<name>conv17_2_mbox_loc_flat</name>
			<min>… -3.674513</min>
			<max>… -2.400749</max>
		</layer>
		<layer>
			<name>conv17_2_mbox_loc_perm</name>
			<min>-3.724142</min>
			<max>2.276854</max>
		</layer>
		<layer>
			<name>conv17_2_mbox_priorbox</name>
			<min>-0.322724</min>
			<max>1.322724</max>
		</layer>
		<layer>
			<name>conv2</name>
			<min>… -1.510769</min>
			<max>… 8.087772</max>
		</layer>
		<layer>
			<name>conv2/dw</name>
			<min>… -9.418918</min>
			<max>… 10.575579</max>
		</layer>
		<layer>
			<name>conv2/dw/relu</name>
			<min>… -0.000000</min>
			<max>… 10.575579</max>
		</layer>
		<layer>
			<name>conv2/relu</name>
			<min>… -0.000000</min>
			<max>… 8.087772</max>
		</layer>
		<layer>
			<name>conv3</name>
			<min>… -12.227292</min>
			<max>… 8.422101</max>
		</layer>
		<layer>
			<name>conv3/dw</name>
			<min>… -11.817122</min>
			<max>… 13.749798</max>
		</layer>
		<layer>
			<name>conv3/dw/relu</name>
			<min>… -0.000000</min>
			<max>… 13.749798</max>
		</layer>
		<layer>
			<name>conv3/relu</name>
			<min>… -0.000000</min>
			<max>… 8.422101</max>
		</layer>
		<layer>
			<name>conv4</name>
			<min>… -2.665909</min>
			<max>… 5.014091</max>
		</layer>
		<layer>
			<name>conv4/dw</name>
			<min>… 0.224767</min>
			<max>… 9.122062</max>
		</layer>
		<layer>
			<name>conv4/dw/relu</name>
			<min>… 0.224767</min>
			<max>… 9.122062</max>
		</layer>
		<layer>
			<name>conv4/relu</name>
			<min>… -0.000000</min>
			<max>… 5.014091</max>
		</layer>
		<layer>
			<name>conv5</name>
			<min>… -6.292446</min>
			<max>… 7.284862</max>
		</layer>
		<layer>
			<name>conv5/dw</name>
			<min>… -8.782575</min>
			<max>… 9.004265</max>
		</layer>
		<layer>
			<name>conv5/dw/relu</name>
			<min>… -0.000000</min>
			<max>… 9.004265</max>
		</layer>
		<layer>
			<name>conv5/relu</name>
			<min>… -0.000000</min>
			<max>… 7.284862</max>
		</layer>
		<layer>
			<name>conv6</name>
			<min>… -1.246580</min>
			<max>… 4.141886</max>
		</layer>
		<layer>
			<name>conv6/dw</name>
			<min>… -1.588909</min>
			<max>… 4.319717</max>
		</layer>
		<layer>
			<name>conv6/dw/relu</name>
			<min>… -0.000000</min>
			<max>… 4.319717</max>
		</layer>
		<layer>
			<name>conv6/relu</name>
			<min>… -0.000000</min>
			<max>… 4.141886</max>
		</layer>
		<layer>
			<name>conv7</name>
			<min>… -0.905764</min>
			<max>… 3.148625</max>
		</layer>
		<layer>
			<name>conv7/dw</name>
			<min>… -0.264015</min>
			<max>… 5.551575</max>
		</layer>
		<layer>
			<name>conv7/dw/relu</name>
			<min>… -0.000000</min>
			<max>… 5.551575</max>
		</layer>
		<layer>
			<name>conv7/relu</name>
			<min>… -0.000000</min>
			<max>… 3.148625</max>
		</layer>
		<layer>
			<name>conv8</name>
			<min>… -5.250408</min>
			<max>… 7.060485</max>
		</layer>
		<layer>
			<name>conv8/dw</name>
			<min>… -0.227999</min>
			<max>… 4.662153</max>
		</layer>
		<layer>
			<name>conv8/dw/relu</name>
			<min>… -0.000000</min>
			<max>… 4.662153</max>
		</layer>
		<layer>
			<name>conv8/relu</name>
			<min>… -0.000000</min>
			<max>… 7.060485</max>
		</layer>
		<layer>
			<name>conv9</name>
			<min>… -4.684445</min>
			<max>… 5.217606</max>
		</layer>
		<layer>
			<name>conv9/dw</name>
			<min>… -4.356628</min>
			<max>… 9.059203</max>
		</layer>
		<layer>
			<name>conv9/dw/relu</name>
			<min>… -0.000000</min>
			<max>… 9.059203</max>
		</layer>
		<layer>
			<name>conv9/relu</name>
			<min>… -0.000000</min>
			<max>… 5.217606</max>
		</layer>
		<layer>
			<name>data</name>
			<min>0.000000, 0.000000, 0.000000</min>
			<max>255.000000, 255.000000, 255.000000</max>
		</layer>
		<layer>
			<name>detection_out</name>
			<min>-1.000000</min>
			<max>20.000000</max>
		</layer>
		<layer>
			<name>mbox_conf</name>
			<min>… -129.067719</min>
			<max>… -23.547522</max>
		</layer>
		<layer>
			<name>mbox_conf_flatten</name>
			<min>… 0.000000</min>
			<max>… 0.000040</max>
		</layer>
		<layer>
			<name>mbox_conf_reshape</name>
			<min>-459.760986</min>
			<max>11.636837</max>
		</layer>
		<layer>
			<name>mbox_conf_softmax</name>
			<min>0.000000</min>
			<max>1.000000</max>
		</layer>
		<layer>
			<name>mbox_loc</name>
			<min>… -3.674513</min>
			<max>… -2.400749</max>
		</layer>
		<layer>
			<name>mbox_priorbox</name>
			<min>-0.442820</min>
			<max>1.442820</max>
		</layer>
	</statistics>
</net>
