<?xml version="1.0" ?>
<net name="model_A_weights" version="10">
	<layers>
		<layer id="0" name="input_2" type="Parameter" version="opset1">
			<data element_type="f32" shape="1,3,768,1024"/>
			<output>
				<port id="0" precision="FP32">
					<dim>1</dim>
					<dim>3</dim>
					<dim>768</dim>
					<dim>1024</dim>
				</port>
			</output>
		</layer>
		<layer id="1" name="data_mul_35493553/copy_const98_const" type="Const" version="opset1">
			<data element_type="f32" offset="0" shape="1,3,1,1" size="12"/>
			<output>
				<port id="1" precision="FP32">
					<dim>1</dim>
					<dim>3</dim>
					<dim>1</dim>
					<dim>1</dim>
				</port>
			</output>
		</layer>
		<layer id="2" name="Mul_/Fused_Mul_" type="Multiply" version="opset1">
			<input>
				<port id="0">
					<dim>1</dim>
					<dim>3</dim>
					<dim>768</dim>
					<dim>1024</dim>
				</port>
				<port id="1">
					<dim>1</dim>
					<dim>3</dim>
					<dim>1</dim>
					<dim>1</dim>
				</port>
			</input>
			<output>
				<port id="2" precision="FP32">
					<dim>1</dim>
					<dim>3</dim>
					<dim>768</dim>
					<dim>1024</dim>
				</port>
			</output>
		</layer>
		<layer id="3" name="data_add_35503555/copy_const100_const" type="Const" version="opset1">
			<data element_type="f32" offset="12" shape="1,3,1,1" size="12"/>
			<output>
				<port id="1" precision="FP32">
					<dim>1</dim>
					<dim>3</dim>
					<dim>1</dim>
					<dim>1</dim>
				</port>
			</output>
		</layer>
		<layer id="4" name="Add_/Fused_Add_" type="Add" version="opset1">
			<input>
				<port id="0">
					<dim>1</dim>
					<dim>3</dim>
					<dim>768</dim>
					<dim>1024</dim>
				</port>
				<port id="1">
					<dim>1</dim>
					<dim>3</dim>
					<dim>1</dim>
					<dim>1</dim>
				</port>
			</input>
			<output>
				<port id="2" precision="FP32">
					<dim>1</dim>
					<dim>3</dim>
					<dim>768</dim>
					<dim>1024</dim>
				</port>
			</output>
		</layer>
		<layer id="5" name="544548_const" type="Const" version="opset1">
			<data element_type="f32" offset="24" shape="" size="4"/>
			<output>
				<port id="1" precision="FP32"/>
			</output>
		</layer>
		<layer id="6" name="545549_const" type="Const" version="opset1">
			<data element_type="f32" offset="28" shape="" size="4"/>
			<output>
				<port id="1" precision="FP32"/>
			</output>
		</layer>
		<layer id="7" name="546550_const" type="Const" version="opset1">
			<data element_type="f32" offset="24" shape="" size="4"/>
			<output>
				<port id="1" precision="FP32"/>
			</output>
		</layer>
		<layer id="8" name="547551_const" type="Const" version="opset1">
			<data element_type="f32" offset="28" shape="" size="4"/>
			<output>
				<port id="1" precision="FP32"/>
			</output>
		</layer>
		<layer id="9" name="block1_conv1/convolution/fq_input_0" type="FakeQuantize" version="opset1">
			<data levels="256"/>
			<input>
				<port id="0">
					<dim>1</dim>
					<dim>3</dim>
					<dim>768</dim>
					<dim>1024</dim>
				</port>
				<port id="1"/>
				<port id="2"/>
				<port id="3"/>
				<port id="4"/>
			</input>
			<output>
				<port id="5" precision="FP32">
					<dim>1</dim>
					<dim>3</dim>
					<dim>768</dim>
					<dim>1024</dim>
				</port>
			</output>
		</layer>
		<layer id="10" name="block1_conv1/convolution/fq_weights_1/Convert_to_float/Cast_01536_const" type="Const" version="opset1">
			<data element_type="u8" offset="32" shape="64,3,3,3" size="1728"/>
			<output>
				<port id="1" precision="U8">
					<dim>64</dim>
					<dim>3</dim>
					<dim>3</dim>
					<dim>3</dim>
				</port>
			</output>
		</layer>
		<layer id="11" name="block1_conv1/convolution/fq_weights_1/Convert_to_float" type="Convert" version="opset1">
			<data destination_type="f32"/>
			<input>
				<port id="0">
					<dim>64</dim>
					<dim>3</dim>
					<dim>3</dim>
					<dim>3</dim>
				</port>
			</input>
			<output>
				<port id="1" precision="FP32">
					<dim>64</dim>
					<dim>3</dim>
					<dim>3</dim>
					<dim>3</dim>
				</port>
			</output>
		</layer>
		<layer id="12" name="block1_conv1/convolution/fq_weights_1/Copy/out_low1275_const" type="Const" version="opset1">
			<data element_type="f32" offset="1760" shape="1" size="4"/>
			<output>
				<port id="1" precision="FP32">
					<dim>1</dim>
				</port>
			</output>
		</layer>
		<layer id="13" name="block1_conv1/convolution/fq_weights_1/Copy/out_high1276_const" type="Const" version="opset1">
			<data element_type="f32" offset="1764" shape="1" size="4"/>
			<output>
				<port id="1" precision="FP32">
					<dim>1</dim>
				</port>
			</output>
		</layer>
		<layer id="14" name="556560_const" type="Const" version="opset1">
			<data element_type="f32" offset="1768" shape="64,1,1,1" size="256"/>
			<output>
				<port id="1" precision="FP32">
					<dim>64</dim>
					<dim>1</dim>
					<dim>1</dim>
					<dim>1</dim>
				</port>
			</output>
		</layer>
		<layer id="15" name="557561_const" type="Const" version="opset1">
			<data element_type="f32" offset="2024" shape="64,1,1,1" size="256"/>
			<output>
				<port id="1" precision="FP32">
					<dim>64</dim>
					<dim>1</dim>
					<dim>1</dim>
					<dim>1</dim>
				</port>
			</output>
		</layer>
		<layer id="16" name="block1_conv1/convolution/fq_weights_1" type="FakeQuantize" version="opset1">
			<data levels="255"/>
			<input>
				<port id="0">
					<dim>64</dim>
					<dim>3</dim>
					<dim>3</dim>
					<dim>3</dim>
				</port>
				<port id="1">
					<dim>1</dim>
				</port>
				<port id="2">
					<dim>1</dim>
				</port>
				<port id="3">
					<dim>64</dim>
					<dim>1</dim>
					<dim>1</dim>
					<dim>1</dim>
				</port>
				<port id="4">
					<dim>64</dim>
					<dim>1</dim>
					<dim>1</dim>
					<dim>1</dim>
				</port>
			</input>
			<output>
				<port id="5" precision="FP32">
					<dim>64</dim>
					<dim>3</dim>
					<dim>3</dim>
					<dim>3</dim>
				</port>
			</output>
		</layer>
		<layer id="17" name="block1_conv1/convolution" type="Convolution" version="opset1">
			<data auto_pad="same_upper" dilations="1,1" output_padding="0,0" pads_begin="1,1" pads_end="1,1" strides="1,1"/>
			<input>
				<port id="0">
					<dim>1</dim>
					<dim>3</dim>
					<dim>768</dim>
					<dim>1024</dim>
				</port>
				<port id="1">
					<dim>64</dim>
					<dim>3</dim>
					<dim>3</dim>
					<dim>3</dim>
				</port>
			</input>
			<output>
				<port id="2" precision="FP32">
					<dim>1</dim>
					<dim>64</dim>
					<dim>768</dim>
					<dim>1024</dim>
				</port>
			</output>
		</layer>
		<layer id="18" name="block1_conv1/BiasAdd/ReadVariableOp/Output_0/Data_/copy_const104_const" type="Const" version="opset1">
			<data element_type="f32" offset="2280" shape="1,64,1,1" size="256"/>
			<output>
				<port id="1" precision="FP32">
					<dim>1</dim>
					<dim>64</dim>
					<dim>1</dim>
					<dim>1</dim>
				</port>
			</output>
		</layer>
		<layer id="19" name="block1_conv1/BiasAdd/Add" type="Add" version="opset1">
			<input>
				<port id="0">
					<dim>1</dim>
					<dim>64</dim>
					<dim>768</dim>
					<dim>1024</dim>
				</port>
				<port id="1">
					<dim>1</dim>
					<dim>64</dim>
					<dim>1</dim>
					<dim>1</dim>
				</port>
			</input>
			<output>
				<port id="2" precision="FP32">
					<dim>1</dim>
					<dim>64</dim>
					<dim>768</dim>
					<dim>1024</dim>
				</port>
			</output>
		</layer>
		<layer id="20" name="block1_conv1/Relu" type="ReLU" version="opset1">
			<input>
				<port id="0">
					<dim>1</dim>
					<dim>64</dim>
					<dim>768</dim>
					<dim>1024</dim>
				</port>
			</input>
			<output>
				<port id="1" precision="FP32">
					<dim>1</dim>
					<dim>64</dim>
					<dim>768</dim>
					<dim>1024</dim>
				</port>
			</output>
		</layer>
		<layer id="21" name="404408_const" type="Const" version="opset1">
			<data element_type="f32" offset="2536" shape="" size="4"/>
			<output>
				<port id="1" precision="FP32"/>
			</output>
		</layer>
		<layer id="22" name="405409_const" type="Const" version="opset1">
			<data element_type="f32" offset="2540" shape="" size="4"/>
			<output>
				<port id="1" precision="FP32"/>
			</output>
		</layer>
		<layer id="23" name="406410_const" type="Const" version="opset1">
			<data element_type="f32" offset="2536" shape="" size="4"/>
			<output>
				<port id="1" precision="FP32"/>
			</output>
		</layer>
		<layer id="24" name="407411_const" type="Const" version="opset1">
			<data element_type="f32" offset="2540" shape="" size="4"/>
			<output>
				<port id="1" precision="FP32"/>
			</output>
		</layer>
		<layer id="25" name="block1_conv2/convolution/fq_input_0" type="FakeQuantize" version="opset1">
			<data levels="256"/>
			<input>
				<port id="0">
					<dim>1</dim>
					<dim>64</dim>
					<dim>768</dim>
					<dim>1024</dim>
				</port>
				<port id="1"/>
				<port id="2"/>
				<port id="3"/>
				<port id="4"/>
			</input>
			<output>
				<port id="5" precision="FP32">
					<dim>1</dim>
					<dim>64</dim>
					<dim>768</dim>
					<dim>1024</dim>
				</port>
			</output>
		</layer>
		<layer id="26" name="block1_conv2/convolution/fq_weights_1/Convert_to_float/Cast_01516_const" type="Const" version="opset1">
			<data element_type="u8" offset="2544" shape="64,64,3,3" size="36864"/>
			<output>
				<port id="1" precision="U8">
					<dim>64</dim>
					<dim>64</dim>
					<dim>3</dim>
					<dim>3</dim>
				</port>
			</output>
		</layer>
		<layer id="27" name="block1_conv2/convolution/fq_weights_1/Convert_to_float" type="Convert" version="opset1">
			<data destination_type="f32"/>
			<input>
				<port id="0">
					<dim>64</dim>
					<dim>64</dim>
					<dim>3</dim>
					<dim>3</dim>
				</port>
			</input>
			<output>
				<port id="1" precision="FP32">
					<dim>64</dim>
					<dim>64</dim>
					<dim>3</dim>
					<dim>3</dim>
				</port>
			</output>
		</layer>
		<layer id="28" name="block1_conv2/convolution/fq_weights_1/Copy/out_low1267_const" type="Const" version="opset1">
			<data element_type="f32" offset="39408" shape="1" size="4"/>
			<output>
				<port id="1" precision="FP32">
					<dim>1</dim>
				</port>
			</output>
		</layer>
		<layer id="29" name="block1_conv2/convolution/fq_weights_1/Copy/out_high1268_const" type="Const" version="opset1">
			<data element_type="f32" offset="1764" shape="1" size="4"/>
			<output>
				<port id="1" precision="FP32">
					<dim>1</dim>
				</port>
			</output>
		</layer>
		<layer id="30" name="416420_const" type="Const" version="opset1">
			<data element_type="f32" offset="39412" shape="64,1,1,1" size="256"/>
			<output>
				<port id="1" precision="FP32">
					<dim>64</dim>
					<dim>1</dim>
					<dim>1</dim>
					<dim>1</dim>
				</port>
			</output>
		</layer>
		<layer id="31" name="417421_const" type="Const" version="opset1">
			<data element_type="f32" offset="39668" shape="64,1,1,1" size="256"/>
			<output>
				<port id="1" precision="FP32">
					<dim>64</dim>
					<dim>1</dim>
					<dim>1</dim>
					<dim>1</dim>
				</port>
			</output>
		</layer>
		<layer id="32" name="block1_conv2/convolution/fq_weights_1" type="FakeQuantize" version="opset1">
			<data levels="255"/>
			<input>
				<port id="0">
					<dim>64</dim>
					<dim>64</dim>
					<dim>3</dim>
					<dim>3</dim>
				</port>
				<port id="1">
					<dim>1</dim>
				</port>
				<port id="2">
					<dim>1</dim>
				</port>
				<port id="3">
					<dim>64</dim>
					<dim>1</dim>
					<dim>1</dim>
					<dim>1</dim>
				</port>
				<port id="4">
					<dim>64</dim>
					<dim>1</dim>
					<dim>1</dim>
					<dim>1</dim>
				</port>
			</input>
			<output>
				<port id="5" precision="FP32">
					<dim>64</dim>
					<dim>64</dim>
					<dim>3</dim>
					<dim>3</dim>
				</port>
			</output>
		</layer>
		<layer id="33" name="block1_conv2/convolution" type="Convolution" version="opset1">
			<data auto_pad="same_upper" dilations="1,1" output_padding="0,0" pads_begin="1,1" pads_end="1,1" strides="1,1"/>
			<input>
				<port id="0">
					<dim>1</dim>
					<dim>64</dim>
					<dim>768</dim>
					<dim>1024</dim>
				</port>
				<port id="1">
					<dim>64</dim>
					<dim>64</dim>
					<dim>3</dim>
					<dim>3</dim>
				</port>
			</input>
			<output>
				<port id="2" precision="FP32">
					<dim>1</dim>
					<dim>64</dim>
					<dim>768</dim>
					<dim>1024</dim>
				</port>
			</output>
		</layer>
		<layer id="34" name="block1_conv2/BiasAdd/ReadVariableOp/Output_0/Data_/copy_const109_const" type="Const" version="opset1">
			<data element_type="f32" offset="39924" shape="1,64,1,1" size="256"/>
			<output>
				<port id="1" precision="FP32">
					<dim>1</dim>
					<dim>64</dim>
					<dim>1</dim>
					<dim>1</dim>
				</port>
			</output>
		</layer>
		<layer id="35" name="block1_conv2/BiasAdd/Add" type="Add" version="opset1">
			<input>
				<port id="0">
					<dim>1</dim>
					<dim>64</dim>
					<dim>768</dim>
					<dim>1024</dim>
				</port>
				<port id="1">
					<dim>1</dim>
					<dim>64</dim>
					<dim>1</dim>
					<dim>1</dim>
				</port>
			</input>
			<output>
				<port id="2" precision="FP32">
					<dim>1</dim>
					<dim>64</dim>
					<dim>768</dim>
					<dim>1024</dim>
				</port>
			</output>
		</layer>
		<layer id="36" name="block1_conv2/Relu" type="ReLU" version="opset1">
			<input>
				<port id="0">
					<dim>1</dim>
					<dim>64</dim>
					<dim>768</dim>
					<dim>1024</dim>
				</port>
			</input>
			<output>
				<port id="1" precision="FP32">
					<dim>1</dim>
					<dim>64</dim>
					<dim>768</dim>
					<dim>1024</dim>
				</port>
			</output>
		</layer>
		<layer id="37" name="817821_const" type="Const" version="opset1">
			<data element_type="f32" offset="40180" shape="" size="4"/>
			<output>
				<port id="1" precision="FP32"/>
			</output>
		</layer>
		<layer id="38" name="818822_const" type="Const" version="opset1">
			<data element_type="f32" offset="40184" shape="" size="4"/>
			<output>
				<port id="1" precision="FP32"/>
			</output>
		</layer>
		<layer id="39" name="819823_const" type="Const" version="opset1">
			<data element_type="f32" offset="40180" shape="" size="4"/>
			<output>
				<port id="1" precision="FP32"/>
			</output>
		</layer>
		<layer id="40" name="820824_const" type="Const" version="opset1">
			<data element_type="f32" offset="40184" shape="" size="4"/>
			<output>
				<port id="1" precision="FP32"/>
			</output>
		</layer>
		<layer id="41" name="block1_pool/MaxPool/fq_input_0" type="FakeQuantize" version="opset1">
			<data levels="256"/>
			<input>
				<port id="0">
					<dim>1</dim>
					<dim>64</dim>
					<dim>768</dim>
					<dim>1024</dim>
				</port>
				<port id="1"/>
				<port id="2"/>
				<port id="3"/>
				<port id="4"/>
			</input>
			<output>
				<port id="5" precision="FP32">
					<dim>1</dim>
					<dim>64</dim>
					<dim>768</dim>
					<dim>1024</dim>
				</port>
			</output>
		</layer>
		<layer id="42" name="block1_pool/MaxPool" type="MaxPool" version="opset1">
			<data auto_pad="valid" kernel="2,2" pads_begin="0,0" pads_end="0,0" strides="2,2"/>
			<input>
				<port id="0">
					<dim>1</dim>
					<dim>64</dim>
					<dim>768</dim>
					<dim>1024</dim>
				</port>
			</input>
			<output>
				<port id="1" precision="FP32">
					<dim>1</dim>
					<dim>64</dim>
					<dim>384</dim>
					<dim>512</dim>
				</port>
			</output>
		</layer>
		<layer id="43" name="block2_conv1/convolution/fq_weights_1/Convert_to_float/Cast_01514_const" type="Const" version="opset1">
			<data element_type="u8" offset="40188" shape="128,64,3,3" size="73728"/>
			<output>
				<port id="1" precision="U8">
					<dim>128</dim>
					<dim>64</dim>
					<dim>3</dim>
					<dim>3</dim>
				</port>
			</output>
		</layer>
		<layer id="44" name="block2_conv1/convolution/fq_weights_1/Convert_to_float" type="Convert" version="opset1">
			<data destination_type="f32"/>
			<input>
				<port id="0">
					<dim>128</dim>
					<dim>64</dim>
					<dim>3</dim>
					<dim>3</dim>
				</port>
			</input>
			<output>
				<port id="1" precision="FP32">
					<dim>128</dim>
					<dim>64</dim>
					<dim>3</dim>
					<dim>3</dim>
				</port>
			</output>
		</layer>
		<layer id="45" name="block2_conv1/convolution/fq_weights_1/Copy/out_low1195_const" type="Const" version="opset1">
			<data element_type="f32" offset="113916" shape="1" size="4"/>
			<output>
				<port id="1" precision="FP32">
					<dim>1</dim>
				</port>
			</output>
		</layer>
		<layer id="46" name="block2_conv1/convolution/fq_weights_1/Copy/out_high1196_const" type="Const" version="opset1">
			<data element_type="f32" offset="1764" shape="1" size="4"/>
			<output>
				<port id="1" precision="FP32">
					<dim>1</dim>
				</port>
			</output>
		</layer>
		<layer id="47" name="596600_const" type="Const" version="opset1">
			<data element_type="f32" offset="113920" shape="128,1,1,1" size="512"/>
			<output>
				<port id="1" precision="FP32">
					<dim>128</dim>
					<dim>1</dim>
					<dim>1</dim>
					<dim>1</dim>
				</port>
			</output>
		</layer>
		<layer id="48" name="597601_const" type="Const" version="opset1">
			<data element_type="f32" offset="114432" shape="128,1,1,1" size="512"/>
			<output>
				<port id="1" precision="FP32">
					<dim>128</dim>
					<dim>1</dim>
					<dim>1</dim>
					<dim>1</dim>
				</port>
			</output>
		</layer>
		<layer id="49" name="block2_conv1/convolution/fq_weights_1" type="FakeQuantize" version="opset1">
			<data levels="255"/>
			<input>
				<port id="0">
					<dim>128</dim>
					<dim>64</dim>
					<dim>3</dim>
					<dim>3</dim>
				</port>
				<port id="1">
					<dim>1</dim>
				</port>
				<port id="2">
					<dim>1</dim>
				</port>
				<port id="3">
					<dim>128</dim>
					<dim>1</dim>
					<dim>1</dim>
					<dim>1</dim>
				</port>
				<port id="4">
					<dim>128</dim>
					<dim>1</dim>
					<dim>1</dim>
					<dim>1</dim>
				</port>
			</input>
			<output>
				<port id="5" precision="FP32">
					<dim>128</dim>
					<dim>64</dim>
					<dim>3</dim>
					<dim>3</dim>
				</port>
			</output>
		</layer>
		<layer id="50" name="block2_conv1/convolution" type="Convolution" version="opset1">
			<data auto_pad="same_upper" dilations="1,1" output_padding="0,0" pads_begin="1,1" pads_end="1,1" strides="1,1"/>
			<input>
				<port id="0">
					<dim>1</dim>
					<dim>64</dim>
					<dim>384</dim>
					<dim>512</dim>
				</port>
				<port id="1">
					<dim>128</dim>
					<dim>64</dim>
					<dim>3</dim>
					<dim>3</dim>
				</port>
			</input>
			<output>
				<port id="2" precision="FP32">
					<dim>1</dim>
					<dim>128</dim>
					<dim>384</dim>
					<dim>512</dim>
				</port>
			</output>
		</layer>
		<layer id="51" name="block2_conv1/BiasAdd/ReadVariableOp/Output_0/Data_/copy_const115_const" type="Const" version="opset1">
			<data element_type="f32" offset="114944" shape="1,128,1,1" size="512"/>
			<output>
				<port id="1" precision="FP32">
					<dim>1</dim>
					<dim>128</dim>
					<dim>1</dim>
					<dim>1</dim>
				</port>
			</output>
		</layer>
		<layer id="52" name="block2_conv1/BiasAdd/Add" type="Add" version="opset1">
			<input>
				<port id="0">
					<dim>1</dim>
					<dim>128</dim>
					<dim>384</dim>
					<dim>512</dim>
				</port>
				<port id="1">
					<dim>1</dim>
					<dim>128</dim>
					<dim>1</dim>
					<dim>1</dim>
				</port>
			</input>
			<output>
				<port id="2" precision="FP32">
					<dim>1</dim>
					<dim>128</dim>
					<dim>384</dim>
					<dim>512</dim>
				</port>
			</output>
		</layer>
		<layer id="53" name="block2_conv1/Relu" type="ReLU" version="opset1">
			<input>
				<port id="0">
					<dim>1</dim>
					<dim>128</dim>
					<dim>384</dim>
					<dim>512</dim>
				</port>
			</input>
			<output>
				<port id="1" precision="FP32">
					<dim>1</dim>
					<dim>128</dim>
					<dim>384</dim>
					<dim>512</dim>
				</port>
			</output>
		</layer>
		<layer id="54" name="524528_const" type="Const" version="opset1">
			<data element_type="f32" offset="115456" shape="" size="4"/>
			<output>
				<port id="1" precision="FP32"/>
			</output>
		</layer>
		<layer id="55" name="525529_const" type="Const" version="opset1">
			<data element_type="f32" offset="115460" shape="" size="4"/>
			<output>
				<port id="1" precision="FP32"/>
			</output>
		</layer>
		<layer id="56" name="526530_const" type="Const" version="opset1">
			<data element_type="f32" offset="115456" shape="" size="4"/>
			<output>
				<port id="1" precision="FP32"/>
			</output>
		</layer>
		<layer id="57" name="527531_const" type="Const" version="opset1">
			<data element_type="f32" offset="115460" shape="" size="4"/>
			<output>
				<port id="1" precision="FP32"/>
			</output>
		</layer>
		<layer id="58" name="block2_conv2/convolution/fq_input_0" type="FakeQuantize" version="opset1">
			<data levels="256"/>
			<input>
				<port id="0">
					<dim>1</dim>
					<dim>128</dim>
					<dim>384</dim>
					<dim>512</dim>
				</port>
				<port id="1"/>
				<port id="2"/>
				<port id="3"/>
				<port id="4"/>
			</input>
			<output>
				<port id="5" precision="FP32">
					<dim>1</dim>
					<dim>128</dim>
					<dim>384</dim>
					<dim>512</dim>
				</port>
			</output>
		</layer>
		<layer id="59" name="block2_conv2/convolution/fq_weights_1/Convert_to_float/Cast_01528_const" type="Const" version="opset1">
			<data element_type="u8" offset="115464" shape="128,128,3,3" size="147456"/>
			<output>
				<port id="1" precision="U8">
					<dim>128</dim>
					<dim>128</dim>
					<dim>3</dim>
					<dim>3</dim>
				</port>
			</output>
		</layer>
		<layer id="60" name="block2_conv2/convolution/fq_weights_1/Convert_to_float" type="Convert" version="opset1">
			<data destination_type="f32"/>
			<input>
				<port id="0">
					<dim>128</dim>
					<dim>128</dim>
					<dim>3</dim>
					<dim>3</dim>
				</port>
			</input>
			<output>
				<port id="1" precision="FP32">
					<dim>128</dim>
					<dim>128</dim>
					<dim>3</dim>
					<dim>3</dim>
				</port>
			</output>
		</layer>
		<layer id="61" name="block2_conv2/convolution/fq_weights_1/Copy/out_low1307_const" type="Const" version="opset1">
			<data element_type="f32" offset="262920" shape="1" size="4"/>
			<output>
				<port id="1" precision="FP32">
					<dim>1</dim>
				</port>
			</output>
		</layer>
		<layer id="62" name="block2_conv2/convolution/fq_weights_1/Copy/out_high1308_const" type="Const" version="opset1">
			<data element_type="f32" offset="1764" shape="1" size="4"/>
			<output>
				<port id="1" precision="FP32">
					<dim>1</dim>
				</port>
			</output>
		</layer>
		<layer id="63" name="536540_const" type="Const" version="opset1">
			<data element_type="f32" offset="262924" shape="128,1,1,1" size="512"/>
			<output>
				<port id="1" precision="FP32">
					<dim>128</dim>
					<dim>1</dim>
					<dim>1</dim>
					<dim>1</dim>
				</port>
			</output>
		</layer>
		<layer id="64" name="537541_const" type="Const" version="opset1">
			<data element_type="f32" offset="263436" shape="128,1,1,1" size="512"/>
			<output>
				<port id="1" precision="FP32">
					<dim>128</dim>
					<dim>1</dim>
					<dim>1</dim>
					<dim>1</dim>
				</port>
			</output>
		</layer>
		<layer id="65" name="block2_conv2/convolution/fq_weights_1" type="FakeQuantize" version="opset1">
			<data levels="255"/>
			<input>
				<port id="0">
					<dim>128</dim>
					<dim>128</dim>
					<dim>3</dim>
					<dim>3</dim>
				</port>
				<port id="1">
					<dim>1</dim>
				</port>
				<port id="2">
					<dim>1</dim>
				</port>
				<port id="3">
					<dim>128</dim>
					<dim>1</dim>
					<dim>1</dim>
					<dim>1</dim>
				</port>
				<port id="4">
					<dim>128</dim>
					<dim>1</dim>
					<dim>1</dim>
					<dim>1</dim>
				</port>
			</input>
			<output>
				<port id="5" precision="FP32">
					<dim>128</dim>
					<dim>128</dim>
					<dim>3</dim>
					<dim>3</dim>
				</port>
			</output>
		</layer>
		<layer id="66" name="block2_conv2/convolution" type="Convolution" version="opset1">
			<data auto_pad="same_upper" dilations="1,1" output_padding="0,0" pads_begin="1,1" pads_end="1,1" strides="1,1"/>
			<input>
				<port id="0">
					<dim>1</dim>
					<dim>128</dim>
					<dim>384</dim>
					<dim>512</dim>
				</port>
				<port id="1">
					<dim>128</dim>
					<dim>128</dim>
					<dim>3</dim>
					<dim>3</dim>
				</port>
			</input>
			<output>
				<port id="2" precision="FP32">
					<dim>1</dim>
					<dim>128</dim>
					<dim>384</dim>
					<dim>512</dim>
				</port>
			</output>
		</layer>
		<layer id="67" name="block2_conv2/BiasAdd/ReadVariableOp/Output_0/Data_/copy_const120_const" type="Const" version="opset1">
			<data element_type="f32" offset="263948" shape="1,128,1,1" size="512"/>
			<output>
				<port id="1" precision="FP32">
					<dim>1</dim>
					<dim>128</dim>
					<dim>1</dim>
					<dim>1</dim>
				</port>
			</output>
		</layer>
		<layer id="68" name="block2_conv2/BiasAdd/Add" type="Add" version="opset1">
			<input>
				<port id="0">
					<dim>1</dim>
					<dim>128</dim>
					<dim>384</dim>
					<dim>512</dim>
				</port>
				<port id="1">
					<dim>1</dim>
					<dim>128</dim>
					<dim>1</dim>
					<dim>1</dim>
				</port>
			</input>
			<output>
				<port id="2" precision="FP32">
					<dim>1</dim>
					<dim>128</dim>
					<dim>384</dim>
					<dim>512</dim>
				</port>
			</output>
		</layer>
		<layer id="69" name="block2_conv2/Relu" type="ReLU" version="opset1">
			<input>
				<port id="0">
					<dim>1</dim>
					<dim>128</dim>
					<dim>384</dim>
					<dim>512</dim>
				</port>
			</input>
			<output>
				<port id="1" precision="FP32">
					<dim>1</dim>
					<dim>128</dim>
					<dim>384</dim>
					<dim>512</dim>
				</port>
			</output>
		</layer>
		<layer id="70" name="827831_const" type="Const" version="opset1">
			<data element_type="f32" offset="264460" shape="" size="4"/>
			<output>
				<port id="1" precision="FP32"/>
			</output>
		</layer>
		<layer id="71" name="828832_const" type="Const" version="opset1">
			<data element_type="f32" offset="264464" shape="" size="4"/>
			<output>
				<port id="1" precision="FP32"/>
			</output>
		</layer>
		<layer id="72" name="829833_const" type="Const" version="opset1">
			<data element_type="f32" offset="264460" shape="" size="4"/>
			<output>
				<port id="1" precision="FP32"/>
			</output>
		</layer>
		<layer id="73" name="830834_const" type="Const" version="opset1">
			<data element_type="f32" offset="264464" shape="" size="4"/>
			<output>
				<port id="1" precision="FP32"/>
			</output>
		</layer>
		<layer id="74" name="block2_pool/MaxPool/fq_input_0" type="FakeQuantize" version="opset1">
			<data levels="256"/>
			<input>
				<port id="0">
					<dim>1</dim>
					<dim>128</dim>
					<dim>384</dim>
					<dim>512</dim>
				</port>
				<port id="1"/>
				<port id="2"/>
				<port id="3"/>
				<port id="4"/>
			</input>
			<output>
				<port id="5" precision="FP32">
					<dim>1</dim>
					<dim>128</dim>
					<dim>384</dim>
					<dim>512</dim>
				</port>
			</output>
		</layer>
		<layer id="75" name="block2_pool/MaxPool" type="MaxPool" version="opset1">
			<data auto_pad="valid" kernel="2,2" pads_begin="0,0" pads_end="0,0" strides="2,2"/>
			<input>
				<port id="0">
					<dim>1</dim>
					<dim>128</dim>
					<dim>384</dim>
					<dim>512</dim>
				</port>
			</input>
			<output>
				<port id="1" precision="FP32">
					<dim>1</dim>
					<dim>128</dim>
					<dim>192</dim>
					<dim>256</dim>
				</port>
			</output>
		</layer>
		<layer id="76" name="block3_conv1/convolution/fq_weights_1/Convert_to_float/Cast_01520_const" type="Const" version="opset1">
			<data element_type="u8" offset="264468" shape="256,128,3,3" size="294912"/>
			<output>
				<port id="1" precision="U8">
					<dim>256</dim>
					<dim>128</dim>
					<dim>3</dim>
					<dim>3</dim>
				</port>
			</output>
		</layer>
		<layer id="77" name="block3_conv1/convolution/fq_weights_1/Convert_to_float" type="Convert" version="opset1">
			<data destination_type="f32"/>
			<input>
				<port id="0">
					<dim>256</dim>
					<dim>128</dim>
					<dim>3</dim>
					<dim>3</dim>
				</port>
			</input>
			<output>
				<port id="1" precision="FP32">
					<dim>256</dim>
					<dim>128</dim>
					<dim>3</dim>
					<dim>3</dim>
				</port>
			</output>
		</layer>
		<layer id="78" name="block3_conv1/convolution/fq_weights_1/Copy/out_low1299_const" type="Const" version="opset1">
			<data element_type="f32" offset="559380" shape="1" size="4"/>
			<output>
				<port id="1" precision="FP32">
					<dim>1</dim>
				</port>
			</output>
		</layer>
		<layer id="79" name="block3_conv1/convolution/fq_weights_1/Copy/out_high1300_const" type="Const" version="opset1">
			<data element_type="f32" offset="1764" shape="1" size="4"/>
			<output>
				<port id="1" precision="FP32">
					<dim>1</dim>
				</port>
			</output>
		</layer>
		<layer id="80" name="316320_const" type="Const" version="opset1">
			<data element_type="f32" offset="559384" shape="256,1,1,1" size="1024"/>
			<output>
				<port id="1" precision="FP32">
					<dim>256</dim>
					<dim>1</dim>
					<dim>1</dim>
					<dim>1</dim>
				</port>
			</output>
		</layer>
		<layer id="81" name="317321_const" type="Const" version="opset1">
			<data element_type="f32" offset="560408" shape="256,1,1,1" size="1024"/>
			<output>
				<port id="1" precision="FP32">
					<dim>256</dim>
					<dim>1</dim>
					<dim>1</dim>
					<dim>1</dim>
				</port>
			</output>
		</layer>
		<layer id="82" name="block3_conv1/convolution/fq_weights_1" type="FakeQuantize" version="opset1">
			<data levels="255"/>
			<input>
				<port id="0">
					<dim>256</dim>
					<dim>128</dim>
					<dim>3</dim>
					<dim>3</dim>
				</port>
				<port id="1">
					<dim>1</dim>
				</port>
				<port id="2">
					<dim>1</dim>
				</port>
				<port id="3">
					<dim>256</dim>
					<dim>1</dim>
					<dim>1</dim>
					<dim>1</dim>
				</port>
				<port id="4">
					<dim>256</dim>
					<dim>1</dim>
					<dim>1</dim>
					<dim>1</dim>
				</port>
			</input>
			<output>
				<port id="5" precision="FP32">
					<dim>256</dim>
					<dim>128</dim>
					<dim>3</dim>
					<dim>3</dim>
				</port>
			</output>
		</layer>
		<layer id="83" name="block3_conv1/convolution" type="Convolution" version="opset1">
			<data auto_pad="same_upper" dilations="1,1" output_padding="0,0" pads_begin="1,1" pads_end="1,1" strides="1,1"/>
			<input>
				<port id="0">
					<dim>1</dim>
					<dim>128</dim>
					<dim>192</dim>
					<dim>256</dim>
				</port>
				<port id="1">
					<dim>256</dim>
					<dim>128</dim>
					<dim>3</dim>
					<dim>3</dim>
				</port>
			</input>
			<output>
				<port id="2" precision="FP32">
					<dim>1</dim>
					<dim>256</dim>
					<dim>192</dim>
					<dim>256</dim>
				</port>
			</output>
		</layer>
		<layer id="84" name="block3_conv1/BiasAdd/ReadVariableOp/Output_0/Data_/copy_const126_const" type="Const" version="opset1">
			<data element_type="f32" offset="561432" shape="1,256,1,1" size="1024"/>
			<output>
				<port id="1" precision="FP32">
					<dim>1</dim>
					<dim>256</dim>
					<dim>1</dim>
					<dim>1</dim>
				</port>
			</output>
		</layer>
		<layer id="85" name="block3_conv1/BiasAdd/Add" type="Add" version="opset1">
			<input>
				<port id="0">
					<dim>1</dim>
					<dim>256</dim>
					<dim>192</dim>
					<dim>256</dim>
				</port>
				<port id="1">
					<dim>1</dim>
					<dim>256</dim>
					<dim>1</dim>
					<dim>1</dim>
				</port>
			</input>
			<output>
				<port id="2" precision="FP32">
					<dim>1</dim>
					<dim>256</dim>
					<dim>192</dim>
					<dim>256</dim>
				</port>
			</output>
		</layer>
		<layer id="86" name="block3_conv1/Relu" type="ReLU" version="opset1">
			<input>
				<port id="0">
					<dim>1</dim>
					<dim>256</dim>
					<dim>192</dim>
					<dim>256</dim>
				</port>
			</input>
			<output>
				<port id="1" precision="FP32">
					<dim>1</dim>
					<dim>256</dim>
					<dim>192</dim>
					<dim>256</dim>
				</port>
			</output>
		</layer>
		<layer id="87" name="344348_const" type="Const" version="opset1">
			<data element_type="f32" offset="562456" shape="" size="4"/>
			<output>
				<port id="1" precision="FP32"/>
			</output>
		</layer>
		<layer id="88" name="345349_const" type="Const" version="opset1">
			<data element_type="f32" offset="562460" shape="" size="4"/>
			<output>
				<port id="1" precision="FP32"/>
			</output>
		</layer>
		<layer id="89" name="346350_const" type="Const" version="opset1">
			<data element_type="f32" offset="562456" shape="" size="4"/>
			<output>
				<port id="1" precision="FP32"/>
			</output>
		</layer>
		<layer id="90" name="347351_const" type="Const" version="opset1">
			<data element_type="f32" offset="562460" shape="" size="4"/>
			<output>
				<port id="1" precision="FP32"/>
			</output>
		</layer>
		<layer id="91" name="block3_conv2/convolution/fq_input_0" type="FakeQuantize" version="opset1">
			<data levels="256"/>
			<input>
				<port id="0">
					<dim>1</dim>
					<dim>256</dim>
					<dim>192</dim>
					<dim>256</dim>
				</port>
				<port id="1"/>
				<port id="2"/>
				<port id="3"/>
				<port id="4"/>
			</input>
			<output>
				<port id="5" precision="FP32">
					<dim>1</dim>
					<dim>256</dim>
					<dim>192</dim>
					<dim>256</dim>
				</port>
			</output>
		</layer>
		<layer id="92" name="block3_conv2/convolution/fq_weights_1/Convert_to_float/Cast_01534_const" type="Const" version="opset1">
			<data element_type="u8" offset="562464" shape="256,256,3,3" size="589824"/>
			<output>
				<port id="1" precision="U8">
					<dim>256</dim>
					<dim>256</dim>
					<dim>3</dim>
					<dim>3</dim>
				</port>
			</output>
		</layer>
		<layer id="93" name="block3_conv2/convolution/fq_weights_1/Convert_to_float" type="Convert" version="opset1">
			<data destination_type="f32"/>
			<input>
				<port id="0">
					<dim>256</dim>
					<dim>256</dim>
					<dim>3</dim>
					<dim>3</dim>
				</port>
			</input>
			<output>
				<port id="1" precision="FP32">
					<dim>256</dim>
					<dim>256</dim>
					<dim>3</dim>
					<dim>3</dim>
				</port>
			</output>
		</layer>
		<layer id="94" name="block3_conv2/convolution/fq_weights_1/Copy/out_low1291_const" type="Const" version="opset1">
			<data element_type="f32" offset="1152288" shape="1" size="4"/>
			<output>
				<port id="1" precision="FP32">
					<dim>1</dim>
				</port>
			</output>
		</layer>
		<layer id="95" name="block3_conv2/convolution/fq_weights_1/Copy/out_high1292_const" type="Const" version="opset1">
			<data element_type="f32" offset="1764" shape="1" size="4"/>
			<output>
				<port id="1" precision="FP32">
					<dim>1</dim>
				</port>
			</output>
		</layer>
		<layer id="96" name="356360_const" type="Const" version="opset1">
			<data element_type="f32" offset="1152292" shape="256,1,1,1" size="1024"/>
			<output>
				<port id="1" precision="FP32">
					<dim>256</dim>
					<dim>1</dim>
					<dim>1</dim>
					<dim>1</dim>
				</port>
			</output>
		</layer>
		<layer id="97" name="357361_const" type="Const" version="opset1">
			<data element_type="f32" offset="1153316" shape="256,1,1,1" size="1024"/>
			<output>
				<port id="1" precision="FP32">
					<dim>256</dim>
					<dim>1</dim>
					<dim>1</dim>
					<dim>1</dim>
				</port>
			</output>
		</layer>
		<layer id="98" name="block3_conv2/convolution/fq_weights_1" type="FakeQuantize" version="opset1">
			<data levels="255"/>
			<input>
				<port id="0">
					<dim>256</dim>
					<dim>256</dim>
					<dim>3</dim>
					<dim>3</dim>
				</port>
				<port id="1">
					<dim>1</dim>
				</port>
				<port id="2">
					<dim>1</dim>
				</port>
				<port id="3">
					<dim>256</dim>
					<dim>1</dim>
					<dim>1</dim>
					<dim>1</dim>
				</port>
				<port id="4">
					<dim>256</dim>
					<dim>1</dim>
					<dim>1</dim>
					<dim>1</dim>
				</port>
			</input>
			<output>
				<port id="5" precision="FP32">
					<dim>256</dim>
					<dim>256</dim>
					<dim>3</dim>
					<dim>3</dim>
				</port>
			</output>
		</layer>
		<layer id="99" name="block3_conv2/convolution" type="Convolution" version="opset1">
			<data auto_pad="same_upper" dilations="1,1" output_padding="0,0" pads_begin="1,1" pads_end="1,1" strides="1,1"/>
			<input>
				<port id="0">
					<dim>1</dim>
					<dim>256</dim>
					<dim>192</dim>
					<dim>256</dim>
				</port>
				<port id="1">
					<dim>256</dim>
					<dim>256</dim>
					<dim>3</dim>
					<dim>3</dim>
				</port>
			</input>
			<output>
				<port id="2" precision="FP32">
					<dim>1</dim>
					<dim>256</dim>
					<dim>192</dim>
					<dim>256</dim>
				</port>
			</output>
		</layer>
		<layer id="100" name="block3_conv2/BiasAdd/ReadVariableOp/Output_0/Data_/copy_const131_const" type="Const" version="opset1">
			<data element_type="f32" offset="1154340" shape="1,256,1,1" size="1024"/>
			<output>
				<port id="1" precision="FP32">
					<dim>1</dim>
					<dim>256</dim>
					<dim>1</dim>
					<dim>1</dim>
				</port>
			</output>
		</layer>
		<layer id="101" name="block3_conv2/BiasAdd/Add" type="Add" version="opset1">
			<input>
				<port id="0">
					<dim>1</dim>
					<dim>256</dim>
					<dim>192</dim>
					<dim>256</dim>
				</port>
				<port id="1">
					<dim>1</dim>
					<dim>256</dim>
					<dim>1</dim>
					<dim>1</dim>
				</port>
			</input>
			<output>
				<port id="2" precision="FP32">
					<dim>1</dim>
					<dim>256</dim>
					<dim>192</dim>
					<dim>256</dim>
				</port>
			</output>
		</layer>
		<layer id="102" name="block3_conv2/Relu" type="ReLU" version="opset1">
			<input>
				<port id="0">
					<dim>1</dim>
					<dim>256</dim>
					<dim>192</dim>
					<dim>256</dim>
				</port>
			</input>
			<output>
				<port id="1" precision="FP32">
					<dim>1</dim>
					<dim>256</dim>
					<dim>192</dim>
					<dim>256</dim>
				</port>
			</output>
		</layer>
		<layer id="103" name="384388_const" type="Const" version="opset1">
			<data element_type="f32" offset="1155364" shape="" size="4"/>
			<output>
				<port id="1" precision="FP32"/>
			</output>
		</layer>
		<layer id="104" name="385389_const" type="Const" version="opset1">
			<data element_type="f32" offset="1155368" shape="" size="4"/>
			<output>
				<port id="1" precision="FP32"/>
			</output>
		</layer>
		<layer id="105" name="386390_const" type="Const" version="opset1">
			<data element_type="f32" offset="1155364" shape="" size="4"/>
			<output>
				<port id="1" precision="FP32"/>
			</output>
		</layer>
		<layer id="106" name="387391_const" type="Const" version="opset1">
			<data element_type="f32" offset="1155368" shape="" size="4"/>
			<output>
				<port id="1" precision="FP32"/>
			</output>
		</layer>
		<layer id="107" name="block3_conv3/convolution/fq_input_0" type="FakeQuantize" version="opset1">
			<data levels="256"/>
			<input>
				<port id="0">
					<dim>1</dim>
					<dim>256</dim>
					<dim>192</dim>
					<dim>256</dim>
				</port>
				<port id="1"/>
				<port id="2"/>
				<port id="3"/>
				<port id="4"/>
			</input>
			<output>
				<port id="5" precision="FP32">
					<dim>1</dim>
					<dim>256</dim>
					<dim>192</dim>
					<dim>256</dim>
				</port>
			</output>
		</layer>
		<layer id="108" name="block3_conv3/convolution/fq_weights_1/Convert_to_float/Cast_01524_const" type="Const" version="opset1">
			<data element_type="u8" offset="1155372" shape="256,256,3,3" size="589824"/>
			<output>
				<port id="1" precision="U8">
					<dim>256</dim>
					<dim>256</dim>
					<dim>3</dim>
					<dim>3</dim>
				</port>
			</output>
		</layer>
		<layer id="109" name="block3_conv3/convolution/fq_weights_1/Convert_to_float" type="Convert" version="opset1">
			<data destination_type="f32"/>
			<input>
				<port id="0">
					<dim>256</dim>
					<dim>256</dim>
					<dim>3</dim>
					<dim>3</dim>
				</port>
			</input>
			<output>
				<port id="1" precision="FP32">
					<dim>256</dim>
					<dim>256</dim>
					<dim>3</dim>
					<dim>3</dim>
				</port>
			</output>
		</layer>
		<layer id="110" name="block3_conv3/convolution/fq_weights_1/Copy/out_low1251_const" type="Const" version="opset1">
			<data element_type="f32" offset="1745196" shape="1" size="4"/>
			<output>
				<port id="1" precision="FP32">
					<dim>1</dim>
				</port>
			</output>
		</layer>
		<layer id="111" name="block3_conv3/convolution/fq_weights_1/Copy/out_high1252_const" type="Const" version="opset1">
			<data element_type="f32" offset="1764" shape="1" size="4"/>
			<output>
				<port id="1" precision="FP32">
					<dim>1</dim>
				</port>
			</output>
		</layer>
		<layer id="112" name="396400_const" type="Const" version="opset1">
			<data element_type="f32" offset="1745200" shape="256,1,1,1" size="1024"/>
			<output>
				<port id="1" precision="FP32">
					<dim>256</dim>
					<dim>1</dim>
					<dim>1</dim>
					<dim>1</dim>
				</port>
			</output>
		</layer>
		<layer id="113" name="397401_const" type="Const" version="opset1">
			<data element_type="f32" offset="1746224" shape="256,1,1,1" size="1024"/>
			<output>
				<port id="1" precision="FP32">
					<dim>256</dim>
					<dim>1</dim>
					<dim>1</dim>
					<dim>1</dim>
				</port>
			</output>
		</layer>
		<layer id="114" name="block3_conv3/convolution/fq_weights_1" type="FakeQuantize" version="opset1">
			<data levels="255"/>
			<input>
				<port id="0">
					<dim>256</dim>
					<dim>256</dim>
					<dim>3</dim>
					<dim>3</dim>
				</port>
				<port id="1">
					<dim>1</dim>
				</port>
				<port id="2">
					<dim>1</dim>
				</port>
				<port id="3">
					<dim>256</dim>
					<dim>1</dim>
					<dim>1</dim>
					<dim>1</dim>
				</port>
				<port id="4">
					<dim>256</dim>
					<dim>1</dim>
					<dim>1</dim>
					<dim>1</dim>
				</port>
			</input>
			<output>
				<port id="5" precision="FP32">
					<dim>256</dim>
					<dim>256</dim>
					<dim>3</dim>
					<dim>3</dim>
				</port>
			</output>
		</layer>
		<layer id="115" name="block3_conv3/convolution" type="Convolution" version="opset1">
			<data auto_pad="same_upper" dilations="1,1" output_padding="0,0" pads_begin="1,1" pads_end="1,1" strides="1,1"/>
			<input>
				<port id="0">
					<dim>1</dim>
					<dim>256</dim>
					<dim>192</dim>
					<dim>256</dim>
				</port>
				<port id="1">
					<dim>256</dim>
					<dim>256</dim>
					<dim>3</dim>
					<dim>3</dim>
				</port>
			</input>
			<output>
				<port id="2" precision="FP32">
					<dim>1</dim>
					<dim>256</dim>
					<dim>192</dim>
					<dim>256</dim>
				</port>
			</output>
		</layer>
		<layer id="116" name="block3_conv3/BiasAdd/ReadVariableOp/Output_0/Data_/copy_const136_const" type="Const" version="opset1">
			<data element_type="f32" offset="1747248" shape="1,256,1,1" size="1024"/>
			<output>
				<port id="1" precision="FP32">
					<dim>1</dim>
					<dim>256</dim>
					<dim>1</dim>
					<dim>1</dim>
				</port>
			</output>
		</layer>
		<layer id="117" name="block3_conv3/BiasAdd/Add" type="Add" version="opset1">
			<input>
				<port id="0">
					<dim>1</dim>
					<dim>256</dim>
					<dim>192</dim>
					<dim>256</dim>
				</port>
				<port id="1">
					<dim>1</dim>
					<dim>256</dim>
					<dim>1</dim>
					<dim>1</dim>
				</port>
			</input>
			<output>
				<port id="2" precision="FP32">
					<dim>1</dim>
					<dim>256</dim>
					<dim>192</dim>
					<dim>256</dim>
				</port>
			</output>
		</layer>
		<layer id="118" name="block3_conv3/Relu" type="ReLU" version="opset1">
			<input>
				<port id="0">
					<dim>1</dim>
					<dim>256</dim>
					<dim>192</dim>
					<dim>256</dim>
				</port>
			</input>
			<output>
				<port id="1" precision="FP32">
					<dim>1</dim>
					<dim>256</dim>
					<dim>192</dim>
					<dim>256</dim>
				</port>
			</output>
		</layer>
		<layer id="119" name="837841_const" type="Const" version="opset1">
			<data element_type="f32" offset="1748272" shape="" size="4"/>
			<output>
				<port id="1" precision="FP32"/>
			</output>
		</layer>
		<layer id="120" name="838842_const" type="Const" version="opset1">
			<data element_type="f32" offset="1748276" shape="" size="4"/>
			<output>
				<port id="1" precision="FP32"/>
			</output>
		</layer>
		<layer id="121" name="839843_const" type="Const" version="opset1">
			<data element_type="f32" offset="1748272" shape="" size="4"/>
			<output>
				<port id="1" precision="FP32"/>
			</output>
		</layer>
		<layer id="122" name="840844_const" type="Const" version="opset1">
			<data element_type="f32" offset="1748276" shape="" size="4"/>
			<output>
				<port id="1" precision="FP32"/>
			</output>
		</layer>
		<layer id="123" name="block3_pool/MaxPool/fq_input_0" type="FakeQuantize" version="opset1">
			<data levels="256"/>
			<input>
				<port id="0">
					<dim>1</dim>
					<dim>256</dim>
					<dim>192</dim>
					<dim>256</dim>
				</port>
				<port id="1"/>
				<port id="2"/>
				<port id="3"/>
				<port id="4"/>
			</input>
			<output>
				<port id="5" precision="FP32">
					<dim>1</dim>
					<dim>256</dim>
					<dim>192</dim>
					<dim>256</dim>
				</port>
			</output>
		</layer>
		<layer id="124" name="block3_pool/MaxPool" type="MaxPool" version="opset1">
			<data auto_pad="valid" kernel="2,2" pads_begin="0,0" pads_end="0,0" strides="2,2"/>
			<input>
				<port id="0">
					<dim>1</dim>
					<dim>256</dim>
					<dim>192</dim>
					<dim>256</dim>
				</port>
			</input>
			<output>
				<port id="1" precision="FP32">
					<dim>1</dim>
					<dim>256</dim>
					<dim>96</dim>
					<dim>128</dim>
				</port>
			</output>
		</layer>
		<layer id="125" name="block4_conv1/convolution/fq_weights_1/Convert_to_float/Cast_01504_const" type="Const" version="opset1">
			<data element_type="u8" offset="1748280" shape="512,256,3,3" size="1179648"/>
			<output>
				<port id="1" precision="U8">
					<dim>512</dim>
					<dim>256</dim>
					<dim>3</dim>
					<dim>3</dim>
				</port>
			</output>
		</layer>
		<layer id="126" name="block4_conv1/convolution/fq_weights_1/Convert_to_float" type="Convert" version="opset1">
			<data destination_type="f32"/>
			<input>
				<port id="0">
					<dim>512</dim>
					<dim>256</dim>
					<dim>3</dim>
					<dim>3</dim>
				</port>
			</input>
			<output>
				<port id="1" precision="FP32">
					<dim>512</dim>
					<dim>256</dim>
					<dim>3</dim>
					<dim>3</dim>
				</port>
			</output>
		</layer>
		<layer id="127" name="block4_conv1/convolution/fq_weights_1/Copy/out_low1211_const" type="Const" version="opset1">
			<data element_type="f32" offset="2927928" shape="1" size="4"/>
			<output>
				<port id="1" precision="FP32">
					<dim>1</dim>
				</port>
			</output>
		</layer>
		<layer id="128" name="block4_conv1/convolution/fq_weights_1/Copy/out_high1212_const" type="Const" version="opset1">
			<data element_type="f32" offset="1764" shape="1" size="4"/>
			<output>
				<port id="1" precision="FP32">
					<dim>1</dim>
				</port>
			</output>
		</layer>
		<layer id="129" name="456460_const" type="Const" version="opset1">
			<data element_type="f32" offset="2927932" shape="512,1,1,1" size="2048"/>
			<output>
				<port id="1" precision="FP32">
					<dim>512</dim>
					<dim>1</dim>
					<dim>1</dim>
					<dim>1</dim>
				</port>
			</output>
		</layer>
		<layer id="130" name="457461_const" type="Const" version="opset1">
			<data element_type="f32" offset="2929980" shape="512,1,1,1" size="2048"/>
			<output>
				<port id="1" precision="FP32">
					<dim>512</dim>
					<dim>1</dim>
					<dim>1</dim>
					<dim>1</dim>
				</port>
			</output>
		</layer>
		<layer id="131" name="block4_conv1/convolution/fq_weights_1" type="FakeQuantize" version="opset1">
			<data levels="255"/>
			<input>
				<port id="0">
					<dim>512</dim>
					<dim>256</dim>
					<dim>3</dim>
					<dim>3</dim>
				</port>
				<port id="1">
					<dim>1</dim>
				</port>
				<port id="2">
					<dim>1</dim>
				</port>
				<port id="3">
					<dim>512</dim>
					<dim>1</dim>
					<dim>1</dim>
					<dim>1</dim>
				</port>
				<port id="4">
					<dim>512</dim>
					<dim>1</dim>
					<dim>1</dim>
					<dim>1</dim>
				</port>
			</input>
			<output>
				<port id="5" precision="FP32">
					<dim>512</dim>
					<dim>256</dim>
					<dim>3</dim>
					<dim>3</dim>
				</port>
			</output>
		</layer>
		<layer id="132" name="block4_conv1/convolution" type="Convolution" version="opset1">
			<data auto_pad="same_upper" dilations="1,1" output_padding="0,0" pads_begin="1,1" pads_end="1,1" strides="1,1"/>
			<input>
				<port id="0">
					<dim>1</dim>
					<dim>256</dim>
					<dim>96</dim>
					<dim>128</dim>
				</port>
				<port id="1">
					<dim>512</dim>
					<dim>256</dim>
					<dim>3</dim>
					<dim>3</dim>
				</port>
			</input>
			<output>
				<port id="2" precision="FP32">
					<dim>1</dim>
					<dim>512</dim>
					<dim>96</dim>
					<dim>128</dim>
				</port>
			</output>
		</layer>
		<layer id="133" name="block4_conv1/BiasAdd/ReadVariableOp/Output_0/Data_/copy_const142_const" type="Const" version="opset1">
			<data element_type="f32" offset="2932028" shape="1,512,1,1" size="2048"/>
			<output>
				<port id="1" precision="FP32">
					<dim>1</dim>
					<dim>512</dim>
					<dim>1</dim>
					<dim>1</dim>
				</port>
			</output>
		</layer>
		<layer id="134" name="block4_conv1/BiasAdd/Add" type="Add" version="opset1">
			<input>
				<port id="0">
					<dim>1</dim>
					<dim>512</dim>
					<dim>96</dim>
					<dim>128</dim>
				</port>
				<port id="1">
					<dim>1</dim>
					<dim>512</dim>
					<dim>1</dim>
					<dim>1</dim>
				</port>
			</input>
			<output>
				<port id="2" precision="FP32">
					<dim>1</dim>
					<dim>512</dim>
					<dim>96</dim>
					<dim>128</dim>
				</port>
			</output>
		</layer>
		<layer id="135" name="block4_conv1/Relu" type="ReLU" version="opset1">
			<input>
				<port id="0">
					<dim>1</dim>
					<dim>512</dim>
					<dim>96</dim>
					<dim>128</dim>
				</port>
			</input>
			<output>
				<port id="1" precision="FP32">
					<dim>1</dim>
					<dim>512</dim>
					<dim>96</dim>
					<dim>128</dim>
				</port>
			</output>
		</layer>
		<layer id="136" name="624628_const" type="Const" version="opset1">
			<data element_type="f32" offset="2934076" shape="" size="4"/>
			<output>
				<port id="1" precision="FP32"/>
			</output>
		</layer>
		<layer id="137" name="625629_const" type="Const" version="opset1">
			<data element_type="f32" offset="2934080" shape="" size="4"/>
			<output>
				<port id="1" precision="FP32"/>
			</output>
		</layer>
		<layer id="138" name="626630_const" type="Const" version="opset1">
			<data element_type="f32" offset="2934076" shape="" size="4"/>
			<output>
				<port id="1" precision="FP32"/>
			</output>
		</layer>
		<layer id="139" name="627631_const" type="Const" version="opset1">
			<data element_type="f32" offset="2934080" shape="" size="4"/>
			<output>
				<port id="1" precision="FP32"/>
			</output>
		</layer>
		<layer id="140" name="block4_conv2/convolution/fq_input_0" type="FakeQuantize" version="opset1">
			<data levels="256"/>
			<input>
				<port id="0">
					<dim>1</dim>
					<dim>512</dim>
					<dim>96</dim>
					<dim>128</dim>
				</port>
				<port id="1"/>
				<port id="2"/>
				<port id="3"/>
				<port id="4"/>
			</input>
			<output>
				<port id="5" precision="FP32">
					<dim>1</dim>
					<dim>512</dim>
					<dim>96</dim>
					<dim>128</dim>
				</port>
			</output>
		</layer>
		<layer id="141" name="block4_conv2/convolution/fq_weights_1/Convert_to_float/Cast_01508_const" type="Const" version="opset1">
			<data element_type="u8" offset="2934084" shape="512,512,3,3" size="2359296"/>
			<output>
				<port id="1" precision="U8">
					<dim>512</dim>
					<dim>512</dim>
					<dim>3</dim>
					<dim>3</dim>
				</port>
			</output>
		</layer>
		<layer id="142" name="block4_conv2/convolution/fq_weights_1/Convert_to_float" type="Convert" version="opset1">
			<data destination_type="f32"/>
			<input>
				<port id="0">
					<dim>512</dim>
					<dim>512</dim>
					<dim>3</dim>
					<dim>3</dim>
				</port>
			</input>
			<output>
				<port id="1" precision="FP32">
					<dim>512</dim>
					<dim>512</dim>
					<dim>3</dim>
					<dim>3</dim>
				</port>
			</output>
		</layer>
		<layer id="143" name="block4_conv2/convolution/fq_weights_1/Copy/out_low1235_const" type="Const" version="opset1">
			<data element_type="f32" offset="5293380" shape="1" size="4"/>
			<output>
				<port id="1" precision="FP32">
					<dim>1</dim>
				</port>
			</output>
		</layer>
		<layer id="144" name="block4_conv2/convolution/fq_weights_1/Copy/out_high1236_const" type="Const" version="opset1">
			<data element_type="f32" offset="1764" shape="1" size="4"/>
			<output>
				<port id="1" precision="FP32">
					<dim>1</dim>
				</port>
			</output>
		</layer>
		<layer id="145" name="636640_const" type="Const" version="opset1">
			<data element_type="f32" offset="5293384" shape="512,1,1,1" size="2048"/>
			<output>
				<port id="1" precision="FP32">
					<dim>512</dim>
					<dim>1</dim>
					<dim>1</dim>
					<dim>1</dim>
				</port>
			</output>
		</layer>
		<layer id="146" name="637641_const" type="Const" version="opset1">
			<data element_type="f32" offset="5295432" shape="512,1,1,1" size="2048"/>
			<output>
				<port id="1" precision="FP32">
					<dim>512</dim>
					<dim>1</dim>
					<dim>1</dim>
					<dim>1</dim>
				</port>
			</output>
		</layer>
		<layer id="147" name="block4_conv2/convolution/fq_weights_1" type="FakeQuantize" version="opset1">
			<data levels="255"/>
			<input>
				<port id="0">
					<dim>512</dim>
					<dim>512</dim>
					<dim>3</dim>
					<dim>3</dim>
				</port>
				<port id="1">
					<dim>1</dim>
				</port>
				<port id="2">
					<dim>1</dim>
				</port>
				<port id="3">
					<dim>512</dim>
					<dim>1</dim>
					<dim>1</dim>
					<dim>1</dim>
				</port>
				<port id="4">
					<dim>512</dim>
					<dim>1</dim>
					<dim>1</dim>
					<dim>1</dim>
				</port>
			</input>
			<output>
				<port id="5" precision="FP32">
					<dim>512</dim>
					<dim>512</dim>
					<dim>3</dim>
					<dim>3</dim>
				</port>
			</output>
		</layer>
		<layer id="148" name="block4_conv2/convolution" type="Convolution" version="opset1">
			<data auto_pad="same_upper" dilations="1,1" output_padding="0,0" pads_begin="1,1" pads_end="1,1" strides="1,1"/>
			<input>
				<port id="0">
					<dim>1</dim>
					<dim>512</dim>
					<dim>96</dim>
					<dim>128</dim>
				</port>
				<port id="1">
					<dim>512</dim>
					<dim>512</dim>
					<dim>3</dim>
					<dim>3</dim>
				</port>
			</input>
			<output>
				<port id="2" precision="FP32">
					<dim>1</dim>
					<dim>512</dim>
					<dim>96</dim>
					<dim>128</dim>
				</port>
			</output>
		</layer>
		<layer id="149" name="block4_conv2/BiasAdd/ReadVariableOp/Output_0/Data_/copy_const147_const" type="Const" version="opset1">
			<data element_type="f32" offset="5297480" shape="1,512,1,1" size="2048"/>
			<output>
				<port id="1" precision="FP32">
					<dim>1</dim>
					<dim>512</dim>
					<dim>1</dim>
					<dim>1</dim>
				</port>
			</output>
		</layer>
		<layer id="150" name="block4_conv2/BiasAdd/Add" type="Add" version="opset1">
			<input>
				<port id="0">
					<dim>1</dim>
					<dim>512</dim>
					<dim>96</dim>
					<dim>128</dim>
				</port>
				<port id="1">
					<dim>1</dim>
					<dim>512</dim>
					<dim>1</dim>
					<dim>1</dim>
				</port>
			</input>
			<output>
				<port id="2" precision="FP32">
					<dim>1</dim>
					<dim>512</dim>
					<dim>96</dim>
					<dim>128</dim>
				</port>
			</output>
		</layer>
		<layer id="151" name="block4_conv2/Relu" type="ReLU" version="opset1">
			<input>
				<port id="0">
					<dim>1</dim>
					<dim>512</dim>
					<dim>96</dim>
					<dim>128</dim>
				</port>
			</input>
			<output>
				<port id="1" precision="FP32">
					<dim>1</dim>
					<dim>512</dim>
					<dim>96</dim>
					<dim>128</dim>
				</port>
			</output>
		</layer>
		<layer id="152" name="324328_const" type="Const" version="opset1">
			<data element_type="f32" offset="5299528" shape="" size="4"/>
			<output>
				<port id="1" precision="FP32"/>
			</output>
		</layer>
		<layer id="153" name="325329_const" type="Const" version="opset1">
			<data element_type="f32" offset="5299532" shape="" size="4"/>
			<output>
				<port id="1" precision="FP32"/>
			</output>
		</layer>
		<layer id="154" name="326330_const" type="Const" version="opset1">
			<data element_type="f32" offset="5299528" shape="" size="4"/>
			<output>
				<port id="1" precision="FP32"/>
			</output>
		</layer>
		<layer id="155" name="327331_const" type="Const" version="opset1">
			<data element_type="f32" offset="5299532" shape="" size="4"/>
			<output>
				<port id="1" precision="FP32"/>
			</output>
		</layer>
		<layer id="156" name="block4_conv3/convolution/fq_input_0" type="FakeQuantize" version="opset1">
			<data levels="256"/>
			<input>
				<port id="0">
					<dim>1</dim>
					<dim>512</dim>
					<dim>96</dim>
					<dim>128</dim>
				</port>
				<port id="1"/>
				<port id="2"/>
				<port id="3"/>
				<port id="4"/>
			</input>
			<output>
				<port id="5" precision="FP32">
					<dim>1</dim>
					<dim>512</dim>
					<dim>96</dim>
					<dim>128</dim>
				</port>
			</output>
		</layer>
		<layer id="157" name="block4_conv3/convolution/fq_weights_1/Convert_to_float/Cast_01522_const" type="Const" version="opset1">
			<data element_type="u8" offset="5299536" shape="512,512,3,3" size="2359296"/>
			<output>
				<port id="1" precision="U8">
					<dim>512</dim>
					<dim>512</dim>
					<dim>3</dim>
					<dim>3</dim>
				</port>
			</output>
		</layer>
		<layer id="158" name="block4_conv3/convolution/fq_weights_1/Convert_to_float" type="Convert" version="opset1">
			<data destination_type="f32"/>
			<input>
				<port id="0">
					<dim>512</dim>
					<dim>512</dim>
					<dim>3</dim>
					<dim>3</dim>
				</port>
			</input>
			<output>
				<port id="1" precision="FP32">
					<dim>512</dim>
					<dim>512</dim>
					<dim>3</dim>
					<dim>3</dim>
				</port>
			</output>
		</layer>
		<layer id="159" name="block4_conv3/convolution/fq_weights_1/Copy/out_low1219_const" type="Const" version="opset1">
			<data element_type="f32" offset="7658832" shape="1" size="4"/>
			<output>
				<port id="1" precision="FP32">
					<dim>1</dim>
				</port>
			</output>
		</layer>
		<layer id="160" name="block4_conv3/convolution/fq_weights_1/Copy/out_high1220_const" type="Const" version="opset1">
			<data element_type="f32" offset="1764" shape="1" size="4"/>
			<output>
				<port id="1" precision="FP32">
					<dim>1</dim>
				</port>
			</output>
		</layer>
		<layer id="161" name="336340_const" type="Const" version="opset1">
			<data element_type="f32" offset="7658836" shape="512,1,1,1" size="2048"/>
			<output>
				<port id="1" precision="FP32">
					<dim>512</dim>
					<dim>1</dim>
					<dim>1</dim>
					<dim>1</dim>
				</port>
			</output>
		</layer>
		<layer id="162" name="337341_const" type="Const" version="opset1">
			<data element_type="f32" offset="7660884" shape="512,1,1,1" size="2048"/>
			<output>
				<port id="1" precision="FP32">
					<dim>512</dim>
					<dim>1</dim>
					<dim>1</dim>
					<dim>1</dim>
				</port>
			</output>
		</layer>
		<layer id="163" name="block4_conv3/convolution/fq_weights_1" type="FakeQuantize" version="opset1">
			<data levels="255"/>
			<input>
				<port id="0">
					<dim>512</dim>
					<dim>512</dim>
					<dim>3</dim>
					<dim>3</dim>
				</port>
				<port id="1">
					<dim>1</dim>
				</port>
				<port id="2">
					<dim>1</dim>
				</port>
				<port id="3">
					<dim>512</dim>
					<dim>1</dim>
					<dim>1</dim>
					<dim>1</dim>
				</port>
				<port id="4">
					<dim>512</dim>
					<dim>1</dim>
					<dim>1</dim>
					<dim>1</dim>
				</port>
			</input>
			<output>
				<port id="5" precision="FP32">
					<dim>512</dim>
					<dim>512</dim>
					<dim>3</dim>
					<dim>3</dim>
				</port>
			</output>
		</layer>
		<layer id="164" name="block4_conv3/convolution" type="Convolution" version="opset1">
			<data auto_pad="same_upper" dilations="1,1" output_padding="0,0" pads_begin="1,1" pads_end="1,1" strides="1,1"/>
			<input>
				<port id="0">
					<dim>1</dim>
					<dim>512</dim>
					<dim>96</dim>
					<dim>128</dim>
				</port>
				<port id="1">
					<dim>512</dim>
					<dim>512</dim>
					<dim>3</dim>
					<dim>3</dim>
				</port>
			</input>
			<output>
				<port id="2" precision="FP32">
					<dim>1</dim>
					<dim>512</dim>
					<dim>96</dim>
					<dim>128</dim>
				</port>
			</output>
		</layer>
		<layer id="165" name="block4_conv3/BiasAdd/ReadVariableOp/Output_0/Data_/copy_const152_const" type="Const" version="opset1">
			<data element_type="f32" offset="7662932" shape="1,512,1,1" size="2048"/>
			<output>
				<port id="1" precision="FP32">
					<dim>1</dim>
					<dim>512</dim>
					<dim>1</dim>
					<dim>1</dim>
				</port>
			</output>
		</layer>
		<layer id="166" name="block4_conv3/BiasAdd/Add" type="Add" version="opset1">
			<input>
				<port id="0">
					<dim>1</dim>
					<dim>512</dim>
					<dim>96</dim>
					<dim>128</dim>
				</port>
				<port id="1">
					<dim>1</dim>
					<dim>512</dim>
					<dim>1</dim>
					<dim>1</dim>
				</port>
			</input>
			<output>
				<port id="2" precision="FP32">
					<dim>1</dim>
					<dim>512</dim>
					<dim>96</dim>
					<dim>128</dim>
				</port>
			</output>
		</layer>
		<layer id="167" name="block4_conv3/Relu" type="ReLU" version="opset1">
			<input>
				<port id="0">
					<dim>1</dim>
					<dim>512</dim>
					<dim>96</dim>
					<dim>128</dim>
				</port>
			</input>
			<output>
				<port id="1" precision="FP32">
					<dim>1</dim>
					<dim>512</dim>
					<dim>96</dim>
					<dim>128</dim>
				</port>
			</output>
		</layer>
		<layer id="168" name="484488_const" type="Const" version="opset1">
			<data element_type="f32" offset="7664980" shape="" size="4"/>
			<output>
				<port id="1" precision="FP32"/>
			</output>
		</layer>
		<layer id="169" name="485489_const" type="Const" version="opset1">
			<data element_type="f32" offset="7664984" shape="" size="4"/>
			<output>
				<port id="1" precision="FP32"/>
			</output>
		</layer>
		<layer id="170" name="486490_const" type="Const" version="opset1">
			<data element_type="f32" offset="7664980" shape="" size="4"/>
			<output>
				<port id="1" precision="FP32"/>
			</output>
		</layer>
		<layer id="171" name="487491_const" type="Const" version="opset1">
			<data element_type="f32" offset="7664984" shape="" size="4"/>
			<output>
				<port id="1" precision="FP32"/>
			</output>
		</layer>
		<layer id="172" name="conv2d_1/convolution/fq_input_0" type="FakeQuantize" version="opset1">
			<data levels="256"/>
			<input>
				<port id="0">
					<dim>1</dim>
					<dim>512</dim>
					<dim>96</dim>
					<dim>128</dim>
				</port>
				<port id="1"/>
				<port id="2"/>
				<port id="3"/>
				<port id="4"/>
			</input>
			<output>
				<port id="5" precision="FP32">
					<dim>1</dim>
					<dim>512</dim>
					<dim>96</dim>
					<dim>128</dim>
				</port>
			</output>
		</layer>
		<layer id="173" name="conv2d_1/convolution/fq_weights_1/Convert_to_float/Cast_01526_const" type="Const" version="opset1">
			<data element_type="u8" offset="7664988" shape="512,512,3,3" size="2359296"/>
			<output>
				<port id="1" precision="U8">
					<dim>512</dim>
					<dim>512</dim>
					<dim>3</dim>
					<dim>3</dim>
				</port>
			</output>
		</layer>
		<layer id="174" name="conv2d_1/convolution/fq_weights_1/Convert_to_float" type="Convert" version="opset1">
			<data destination_type="f32"/>
			<input>
				<port id="0">
					<dim>512</dim>
					<dim>512</dim>
					<dim>3</dim>
					<dim>3</dim>
				</port>
			</input>
			<output>
				<port id="1" precision="FP32">
					<dim>512</dim>
					<dim>512</dim>
					<dim>3</dim>
					<dim>3</dim>
				</port>
			</output>
		</layer>
		<layer id="175" name="conv2d_1/convolution/fq_weights_1/Copy/out_low1227_const" type="Const" version="opset1">
			<data element_type="f32" offset="10024284" shape="1" size="4"/>
			<output>
				<port id="1" precision="FP32">
					<dim>1</dim>
				</port>
			</output>
		</layer>
		<layer id="176" name="conv2d_1/convolution/fq_weights_1/Copy/out_high1228_const" type="Const" version="opset1">
			<data element_type="f32" offset="1764" shape="1" size="4"/>
			<output>
				<port id="1" precision="FP32">
					<dim>1</dim>
				</port>
			</output>
		</layer>
		<layer id="177" name="496500_const" type="Const" version="opset1">
			<data element_type="f32" offset="10024288" shape="512,1,1,1" size="2048"/>
			<output>
				<port id="1" precision="FP32">
					<dim>512</dim>
					<dim>1</dim>
					<dim>1</dim>
					<dim>1</dim>
				</port>
			</output>
		</layer>
		<layer id="178" name="497501_const" type="Const" version="opset1">
			<data element_type="f32" offset="10026336" shape="512,1,1,1" size="2048"/>
			<output>
				<port id="1" precision="FP32">
					<dim>512</dim>
					<dim>1</dim>
					<dim>1</dim>
					<dim>1</dim>
				</port>
			</output>
		</layer>
		<layer id="179" name="conv2d_1/convolution/fq_weights_1" type="FakeQuantize" version="opset1">
			<data levels="255"/>
			<input>
				<port id="0">
					<dim>512</dim>
					<dim>512</dim>
					<dim>3</dim>
					<dim>3</dim>
				</port>
				<port id="1">
					<dim>1</dim>
				</port>
				<port id="2">
					<dim>1</dim>
				</port>
				<port id="3">
					<dim>512</dim>
					<dim>1</dim>
					<dim>1</dim>
					<dim>1</dim>
				</port>
				<port id="4">
					<dim>512</dim>
					<dim>1</dim>
					<dim>1</dim>
					<dim>1</dim>
				</port>
			</input>
			<output>
				<port id="5" precision="FP32">
					<dim>512</dim>
					<dim>512</dim>
					<dim>3</dim>
					<dim>3</dim>
				</port>
			</output>
		</layer>
		<layer id="180" name="conv2d_1/convolution" type="Convolution" version="opset1">
			<data dilations="2,2" output_padding="0,0" pads_begin="2,2" pads_end="2,2" strides="1,1"/>
			<input>
				<port id="0">
					<dim>1</dim>
					<dim>512</dim>
					<dim>96</dim>
					<dim>128</dim>
				</port>
				<port id="1">
					<dim>512</dim>
					<dim>512</dim>
					<dim>3</dim>
					<dim>3</dim>
				</port>
			</input>
			<output>
				<port id="2" precision="FP32">
					<dim>1</dim>
					<dim>512</dim>
					<dim>96</dim>
					<dim>128</dim>
				</port>
			</output>
		</layer>
		<layer id="181" name="conv2d_1/BiasAdd/ReadVariableOp/Output_0/Data_/copy_const157_const" type="Const" version="opset1">
			<data element_type="f32" offset="10028384" shape="1,512,1,1" size="2048"/>
			<output>
				<port id="1" precision="FP32">
					<dim>1</dim>
					<dim>512</dim>
					<dim>1</dim>
					<dim>1</dim>
				</port>
			</output>
		</layer>
		<layer id="182" name="conv2d_1/BiasAdd/Add" type="Add" version="opset1">
			<input>
				<port id="0">
					<dim>1</dim>
					<dim>512</dim>
					<dim>96</dim>
					<dim>128</dim>
				</port>
				<port id="1">
					<dim>1</dim>
					<dim>512</dim>
					<dim>1</dim>
					<dim>1</dim>
				</port>
			</input>
			<output>
				<port id="2" precision="FP32">
					<dim>1</dim>
					<dim>512</dim>
					<dim>96</dim>
					<dim>128</dim>
				</port>
			</output>
		</layer>
		<layer id="183" name="conv2d_1/Relu" type="ReLU" version="opset1">
			<input>
				<port id="0">
					<dim>1</dim>
					<dim>512</dim>
					<dim>96</dim>
					<dim>128</dim>
				</port>
			</input>
			<output>
				<port id="1" precision="FP32">
					<dim>1</dim>
					<dim>512</dim>
					<dim>96</dim>
					<dim>128</dim>
				</port>
			</output>
		</layer>
		<layer id="184" name="364368_const" type="Const" version="opset1">
			<data element_type="f32" offset="10030432" shape="" size="4"/>
			<output>
				<port id="1" precision="FP32"/>
			</output>
		</layer>
		<layer id="185" name="365369_const" type="Const" version="opset1">
			<data element_type="f32" offset="10030436" shape="" size="4"/>
			<output>
				<port id="1" precision="FP32"/>
			</output>
		</layer>
		<layer id="186" name="366370_const" type="Const" version="opset1">
			<data element_type="f32" offset="10030432" shape="" size="4"/>
			<output>
				<port id="1" precision="FP32"/>
			</output>
		</layer>
		<layer id="187" name="367371_const" type="Const" version="opset1">
			<data element_type="f32" offset="10030436" shape="" size="4"/>
			<output>
				<port id="1" precision="FP32"/>
			</output>
		</layer>
		<layer id="188" name="conv2d_2/convolution/fq_input_0" type="FakeQuantize" version="opset1">
			<data levels="256"/>
			<input>
				<port id="0">
					<dim>1</dim>
					<dim>512</dim>
					<dim>96</dim>
					<dim>128</dim>
				</port>
				<port id="1"/>
				<port id="2"/>
				<port id="3"/>
				<port id="4"/>
			</input>
			<output>
				<port id="5" precision="FP32">
					<dim>1</dim>
					<dim>512</dim>
					<dim>96</dim>
					<dim>128</dim>
				</port>
			</output>
		</layer>
		<layer id="189" name="conv2d_2/convolution/fq_weights_1/Convert_to_float/Cast_01502_const" type="Const" version="opset1">
			<data element_type="u8" offset="10030440" shape="512,512,3,3" size="2359296"/>
			<output>
				<port id="1" precision="U8">
					<dim>512</dim>
					<dim>512</dim>
					<dim>3</dim>
					<dim>3</dim>
				</port>
			</output>
		</layer>
		<layer id="190" name="conv2d_2/convolution/fq_weights_1/Convert_to_float" type="Convert" version="opset1">
			<data destination_type="f32"/>
			<input>
				<port id="0">
					<dim>512</dim>
					<dim>512</dim>
					<dim>3</dim>
					<dim>3</dim>
				</port>
			</input>
			<output>
				<port id="1" precision="FP32">
					<dim>512</dim>
					<dim>512</dim>
					<dim>3</dim>
					<dim>3</dim>
				</port>
			</output>
		</layer>
		<layer id="191" name="conv2d_2/convolution/fq_weights_1/Copy/out_low1283_const" type="Const" version="opset1">
			<data element_type="f32" offset="12389736" shape="1" size="4"/>
			<output>
				<port id="1" precision="FP32">
					<dim>1</dim>
				</port>
			</output>
		</layer>
		<layer id="192" name="conv2d_2/convolution/fq_weights_1/Copy/out_high1284_const" type="Const" version="opset1">
			<data element_type="f32" offset="1764" shape="1" size="4"/>
			<output>
				<port id="1" precision="FP32">
					<dim>1</dim>
				</port>
			</output>
		</layer>
		<layer id="193" name="376380_const" type="Const" version="opset1">
			<data element_type="f32" offset="12389740" shape="512,1,1,1" size="2048"/>
			<output>
				<port id="1" precision="FP32">
					<dim>512</dim>
					<dim>1</dim>
					<dim>1</dim>
					<dim>1</dim>
				</port>
			</output>
		</layer>
		<layer id="194" name="377381_const" type="Const" version="opset1">
			<data element_type="f32" offset="12391788" shape="512,1,1,1" size="2048"/>
			<output>
				<port id="1" precision="FP32">
					<dim>512</dim>
					<dim>1</dim>
					<dim>1</dim>
					<dim>1</dim>
				</port>
			</output>
		</layer>
		<layer id="195" name="conv2d_2/convolution/fq_weights_1" type="FakeQuantize" version="opset1">
			<data levels="255"/>
			<input>
				<port id="0">
					<dim>512</dim>
					<dim>512</dim>
					<dim>3</dim>
					<dim>3</dim>
				</port>
				<port id="1">
					<dim>1</dim>
				</port>
				<port id="2">
					<dim>1</dim>
				</port>
				<port id="3">
					<dim>512</dim>
					<dim>1</dim>
					<dim>1</dim>
					<dim>1</dim>
				</port>
				<port id="4">
					<dim>512</dim>
					<dim>1</dim>
					<dim>1</dim>
					<dim>1</dim>
				</port>
			</input>
			<output>
				<port id="5" precision="FP32">
					<dim>512</dim>
					<dim>512</dim>
					<dim>3</dim>
					<dim>3</dim>
				</port>
			</output>
		</layer>
		<layer id="196" name="conv2d_2/convolution" type="Convolution" version="opset1">
			<data dilations="2,2" output_padding="0,0" pads_begin="2,2" pads_end="2,2" strides="1,1"/>
			<input>
				<port id="0">
					<dim>1</dim>
					<dim>512</dim>
					<dim>96</dim>
					<dim>128</dim>
				</port>
				<port id="1">
					<dim>512</dim>
					<dim>512</dim>
					<dim>3</dim>
					<dim>3</dim>
				</port>
			</input>
			<output>
				<port id="2" precision="FP32">
					<dim>1</dim>
					<dim>512</dim>
					<dim>96</dim>
					<dim>128</dim>
				</port>
			</output>
		</layer>
		<layer id="197" name="conv2d_2/BiasAdd/ReadVariableOp/Output_0/Data_/copy_const162_const" type="Const" version="opset1">
			<data element_type="f32" offset="12393836" shape="1,512,1,1" size="2048"/>
			<output>
				<port id="1" precision="FP32">
					<dim>1</dim>
					<dim>512</dim>
					<dim>1</dim>
					<dim>1</dim>
				</port>
			</output>
		</layer>
		<layer id="198" name="conv2d_2/BiasAdd/Add" type="Add" version="opset1">
			<input>
				<port id="0">
					<dim>1</dim>
					<dim>512</dim>
					<dim>96</dim>
					<dim>128</dim>
				</port>
				<port id="1">
					<dim>1</dim>
					<dim>512</dim>
					<dim>1</dim>
					<dim>1</dim>
				</port>
			</input>
			<output>
				<port id="2" precision="FP32">
					<dim>1</dim>
					<dim>512</dim>
					<dim>96</dim>
					<dim>128</dim>
				</port>
			</output>
		</layer>
		<layer id="199" name="conv2d_2/Relu" type="ReLU" version="opset1">
			<input>
				<port id="0">
					<dim>1</dim>
					<dim>512</dim>
					<dim>96</dim>
					<dim>128</dim>
				</port>
			</input>
			<output>
				<port id="1" precision="FP32">
					<dim>1</dim>
					<dim>512</dim>
					<dim>96</dim>
					<dim>128</dim>
				</port>
			</output>
		</layer>
		<layer id="200" name="504508_const" type="Const" version="opset1">
			<data element_type="f32" offset="12395884" shape="" size="4"/>
			<output>
				<port id="1" precision="FP32"/>
			</output>
		</layer>
		<layer id="201" name="505509_const" type="Const" version="opset1">
			<data element_type="f32" offset="12395888" shape="" size="4"/>
			<output>
				<port id="1" precision="FP32"/>
			</output>
		</layer>
		<layer id="202" name="506510_const" type="Const" version="opset1">
			<data element_type="f32" offset="12395884" shape="" size="4"/>
			<output>
				<port id="1" precision="FP32"/>
			</output>
		</layer>
		<layer id="203" name="507511_const" type="Const" version="opset1">
			<data element_type="f32" offset="12395888" shape="" size="4"/>
			<output>
				<port id="1" precision="FP32"/>
			</output>
		</layer>
		<layer id="204" name="conv2d_3/convolution/fq_input_0" type="FakeQuantize" version="opset1">
			<data levels="256"/>
			<input>
				<port id="0">
					<dim>1</dim>
					<dim>512</dim>
					<dim>96</dim>
					<dim>128</dim>
				</port>
				<port id="1"/>
				<port id="2"/>
				<port id="3"/>
				<port id="4"/>
			</input>
			<output>
				<port id="5" precision="FP32">
					<dim>1</dim>
					<dim>512</dim>
					<dim>96</dim>
					<dim>128</dim>
				</port>
			</output>
		</layer>
		<layer id="205" name="conv2d_3/convolution/fq_weights_1/Convert_to_float/Cast_01510_const" type="Const" version="opset1">
			<data element_type="u8" offset="12395892" shape="512,512,3,3" size="2359296"/>
			<output>
				<port id="1" precision="U8">
					<dim>512</dim>
					<dim>512</dim>
					<dim>3</dim>
					<dim>3</dim>
				</port>
			</output>
		</layer>
		<layer id="206" name="conv2d_3/convolution/fq_weights_1/Convert_to_float" type="Convert" version="opset1">
			<data destination_type="f32"/>
			<input>
				<port id="0">
					<dim>512</dim>
					<dim>512</dim>
					<dim>3</dim>
					<dim>3</dim>
				</port>
			</input>
			<output>
				<port id="1" precision="FP32">
					<dim>512</dim>
					<dim>512</dim>
					<dim>3</dim>
					<dim>3</dim>
				</port>
			</output>
		</layer>
		<layer id="207" name="conv2d_3/convolution/fq_weights_1/Copy/out_low1259_const" type="Const" version="opset1">
			<data element_type="f32" offset="14755188" shape="1" size="4"/>
			<output>
				<port id="1" precision="FP32">
					<dim>1</dim>
				</port>
			</output>
		</layer>
		<layer id="208" name="conv2d_3/convolution/fq_weights_1/Copy/out_high1260_const" type="Const" version="opset1">
			<data element_type="f32" offset="1764" shape="1" size="4"/>
			<output>
				<port id="1" precision="FP32">
					<dim>1</dim>
				</port>
			</output>
		</layer>
		<layer id="209" name="516520_const" type="Const" version="opset1">
			<data element_type="f32" offset="14755192" shape="512,1,1,1" size="2048"/>
			<output>
				<port id="1" precision="FP32">
					<dim>512</dim>
					<dim>1</dim>
					<dim>1</dim>
					<dim>1</dim>
				</port>
			</output>
		</layer>
		<layer id="210" name="517521_const" type="Const" version="opset1">
			<data element_type="f32" offset="14757240" shape="512,1,1,1" size="2048"/>
			<output>
				<port id="1" precision="FP32">
					<dim>512</dim>
					<dim>1</dim>
					<dim>1</dim>
					<dim>1</dim>
				</port>
			</output>
		</layer>
		<layer id="211" name="conv2d_3/convolution/fq_weights_1" type="FakeQuantize" version="opset1">
			<data levels="255"/>
			<input>
				<port id="0">
					<dim>512</dim>
					<dim>512</dim>
					<dim>3</dim>
					<dim>3</dim>
				</port>
				<port id="1">
					<dim>1</dim>
				</port>
				<port id="2">
					<dim>1</dim>
				</port>
				<port id="3">
					<dim>512</dim>
					<dim>1</dim>
					<dim>1</dim>
					<dim>1</dim>
				</port>
				<port id="4">
					<dim>512</dim>
					<dim>1</dim>
					<dim>1</dim>
					<dim>1</dim>
				</port>
			</input>
			<output>
				<port id="5" precision="FP32">
					<dim>512</dim>
					<dim>512</dim>
					<dim>3</dim>
					<dim>3</dim>
				</port>
			</output>
		</layer>
		<layer id="212" name="conv2d_3/convolution" type="Convolution" version="opset1">
			<data dilations="2,2" output_padding="0,0" pads_begin="2,2" pads_end="2,2" strides="1,1"/>
			<input>
				<port id="0">
					<dim>1</dim>
					<dim>512</dim>
					<dim>96</dim>
					<dim>128</dim>
				</port>
				<port id="1">
					<dim>512</dim>
					<dim>512</dim>
					<dim>3</dim>
					<dim>3</dim>
				</port>
			</input>
			<output>
				<port id="2" precision="FP32">
					<dim>1</dim>
					<dim>512</dim>
					<dim>96</dim>
					<dim>128</dim>
				</port>
			</output>
		</layer>
		<layer id="213" name="conv2d_3/BiasAdd/ReadVariableOp/Output_0/Data_/copy_const167_const" type="Const" version="opset1">
			<data element_type="f32" offset="14759288" shape="1,512,1,1" size="2048"/>
			<output>
				<port id="1" precision="FP32">
					<dim>1</dim>
					<dim>512</dim>
					<dim>1</dim>
					<dim>1</dim>
				</port>
			</output>
		</layer>
		<layer id="214" name="conv2d_3/BiasAdd/Add" type="Add" version="opset1">
			<input>
				<port id="0">
					<dim>1</dim>
					<dim>512</dim>
					<dim>96</dim>
					<dim>128</dim>
				</port>
				<port id="1">
					<dim>1</dim>
					<dim>512</dim>
					<dim>1</dim>
					<dim>1</dim>
				</port>
			</input>
			<output>
				<port id="2" precision="FP32">
					<dim>1</dim>
					<dim>512</dim>
					<dim>96</dim>
					<dim>128</dim>
				</port>
			</output>
		</layer>
		<layer id="215" name="conv2d_3/Relu" type="ReLU" version="opset1">
			<input>
				<port id="0">
					<dim>1</dim>
					<dim>512</dim>
					<dim>96</dim>
					<dim>128</dim>
				</port>
			</input>
			<output>
				<port id="1" precision="FP32">
					<dim>1</dim>
					<dim>512</dim>
					<dim>96</dim>
					<dim>128</dim>
				</port>
			</output>
		</layer>
		<layer id="216" name="424428_const" type="Const" version="opset1">
			<data element_type="f32" offset="14761336" shape="" size="4"/>
			<output>
				<port id="1" precision="FP32"/>
			</output>
		</layer>
		<layer id="217" name="425429_const" type="Const" version="opset1">
			<data element_type="f32" offset="14761340" shape="" size="4"/>
			<output>
				<port id="1" precision="FP32"/>
			</output>
		</layer>
		<layer id="218" name="426430_const" type="Const" version="opset1">
			<data element_type="f32" offset="14761336" shape="" size="4"/>
			<output>
				<port id="1" precision="FP32"/>
			</output>
		</layer>
		<layer id="219" name="427431_const" type="Const" version="opset1">
			<data element_type="f32" offset="14761340" shape="" size="4"/>
			<output>
				<port id="1" precision="FP32"/>
			</output>
		</layer>
		<layer id="220" name="conv2d_4/convolution/fq_input_0" type="FakeQuantize" version="opset1">
			<data levels="256"/>
			<input>
				<port id="0">
					<dim>1</dim>
					<dim>512</dim>
					<dim>96</dim>
					<dim>128</dim>
				</port>
				<port id="1"/>
				<port id="2"/>
				<port id="3"/>
				<port id="4"/>
			</input>
			<output>
				<port id="5" precision="FP32">
					<dim>1</dim>
					<dim>512</dim>
					<dim>96</dim>
					<dim>128</dim>
				</port>
			</output>
		</layer>
		<layer id="221" name="conv2d_4/convolution/fq_weights_1/Convert_to_float/Cast_01530_const" type="Const" version="opset1">
			<data element_type="u8" offset="14761344" shape="256,512,3,3" size="1179648"/>
			<output>
				<port id="1" precision="U8">
					<dim>256</dim>
					<dim>512</dim>
					<dim>3</dim>
					<dim>3</dim>
				</port>
			</output>
		</layer>
		<layer id="222" name="conv2d_4/convolution/fq_weights_1/Convert_to_float" type="Convert" version="opset1">
			<data destination_type="f32"/>
			<input>
				<port id="0">
					<dim>256</dim>
					<dim>512</dim>
					<dim>3</dim>
					<dim>3</dim>
				</port>
			</input>
			<output>
				<port id="1" precision="FP32">
					<dim>256</dim>
					<dim>512</dim>
					<dim>3</dim>
					<dim>3</dim>
				</port>
			</output>
		</layer>
		<layer id="223" name="conv2d_4/convolution/fq_weights_1/Copy/out_low1243_const" type="Const" version="opset1">
			<data element_type="f32" offset="15940992" shape="1" size="4"/>
			<output>
				<port id="1" precision="FP32">
					<dim>1</dim>
				</port>
			</output>
		</layer>
		<layer id="224" name="conv2d_4/convolution/fq_weights_1/Copy/out_high1244_const" type="Const" version="opset1">
			<data element_type="f32" offset="1764" shape="1" size="4"/>
			<output>
				<port id="1" precision="FP32">
					<dim>1</dim>
				</port>
			</output>
		</layer>
		<layer id="225" name="436440_const" type="Const" version="opset1">
			<data element_type="f32" offset="15940996" shape="256,1,1,1" size="1024"/>
			<output>
				<port id="1" precision="FP32">
					<dim>256</dim>
					<dim>1</dim>
					<dim>1</dim>
					<dim>1</dim>
				</port>
			</output>
		</layer>
		<layer id="226" name="437441_const" type="Const" version="opset1">
			<data element_type="f32" offset="15942020" shape="256,1,1,1" size="1024"/>
			<output>
				<port id="1" precision="FP32">
					<dim>256</dim>
					<dim>1</dim>
					<dim>1</dim>
					<dim>1</dim>
				</port>
			</output>
		</layer>
		<layer id="227" name="conv2d_4/convolution/fq_weights_1" type="FakeQuantize" version="opset1">
			<data levels="255"/>
			<input>
				<port id="0">
					<dim>256</dim>
					<dim>512</dim>
					<dim>3</dim>
					<dim>3</dim>
				</port>
				<port id="1">
					<dim>1</dim>
				</port>
				<port id="2">
					<dim>1</dim>
				</port>
				<port id="3">
					<dim>256</dim>
					<dim>1</dim>
					<dim>1</dim>
					<dim>1</dim>
				</port>
				<port id="4">
					<dim>256</dim>
					<dim>1</dim>
					<dim>1</dim>
					<dim>1</dim>
				</port>
			</input>
			<output>
				<port id="5" precision="FP32">
					<dim>256</dim>
					<dim>512</dim>
					<dim>3</dim>
					<dim>3</dim>
				</port>
			</output>
		</layer>
		<layer id="228" name="conv2d_4/convolution" type="Convolution" version="opset1">
			<data dilations="2,2" output_padding="0,0" pads_begin="2,2" pads_end="2,2" strides="1,1"/>
			<input>
				<port id="0">
					<dim>1</dim>
					<dim>512</dim>
					<dim>96</dim>
					<dim>128</dim>
				</port>
				<port id="1">
					<dim>256</dim>
					<dim>512</dim>
					<dim>3</dim>
					<dim>3</dim>
				</port>
			</input>
			<output>
				<port id="2" precision="FP32">
					<dim>1</dim>
					<dim>256</dim>
					<dim>96</dim>
					<dim>128</dim>
				</port>
			</output>
		</layer>
		<layer id="229" name="conv2d_4/BiasAdd/ReadVariableOp/Output_0/Data_/copy_const172_const" type="Const" version="opset1">
			<data element_type="f32" offset="15943044" shape="1,256,1,1" size="1024"/>
			<output>
				<port id="1" precision="FP32">
					<dim>1</dim>
					<dim>256</dim>
					<dim>1</dim>
					<dim>1</dim>
				</port>
			</output>
		</layer>
		<layer id="230" name="conv2d_4/BiasAdd/Add" type="Add" version="opset1">
			<input>
				<port id="0">
					<dim>1</dim>
					<dim>256</dim>
					<dim>96</dim>
					<dim>128</dim>
				</port>
				<port id="1">
					<dim>1</dim>
					<dim>256</dim>
					<dim>1</dim>
					<dim>1</dim>
				</port>
			</input>
			<output>
				<port id="2" precision="FP32">
					<dim>1</dim>
					<dim>256</dim>
					<dim>96</dim>
					<dim>128</dim>
				</port>
			</output>
		</layer>
		<layer id="231" name="conv2d_4/Relu" type="ReLU" version="opset1">
			<input>
				<port id="0">
					<dim>1</dim>
					<dim>256</dim>
					<dim>96</dim>
					<dim>128</dim>
				</port>
			</input>
			<output>
				<port id="1" precision="FP32">
					<dim>1</dim>
					<dim>256</dim>
					<dim>96</dim>
					<dim>128</dim>
				</port>
			</output>
		</layer>
		<layer id="232" name="604608_const" type="Const" version="opset1">
			<data element_type="f32" offset="15944068" shape="" size="4"/>
			<output>
				<port id="1" precision="FP32"/>
			</output>
		</layer>
		<layer id="233" name="605609_const" type="Const" version="opset1">
			<data element_type="f32" offset="15944072" shape="" size="4"/>
			<output>
				<port id="1" precision="FP32"/>
			</output>
		</layer>
		<layer id="234" name="606610_const" type="Const" version="opset1">
			<data element_type="f32" offset="15944068" shape="" size="4"/>
			<output>
				<port id="1" precision="FP32"/>
			</output>
		</layer>
		<layer id="235" name="607611_const" type="Const" version="opset1">
			<data element_type="f32" offset="15944072" shape="" size="4"/>
			<output>
				<port id="1" precision="FP32"/>
			</output>
		</layer>
		<layer id="236" name="conv2d_5/convolution/fq_input_0" type="FakeQuantize" version="opset1">
			<data levels="256"/>
			<input>
				<port id="0">
					<dim>1</dim>
					<dim>256</dim>
					<dim>96</dim>
					<dim>128</dim>
				</port>
				<port id="1"/>
				<port id="2"/>
				<port id="3"/>
				<port id="4"/>
			</input>
			<output>
				<port id="5" precision="FP32">
					<dim>1</dim>
					<dim>256</dim>
					<dim>96</dim>
					<dim>128</dim>
				</port>
			</output>
		</layer>
		<layer id="237" name="conv2d_5/convolution/fq_weights_1/Convert_to_float/Cast_01512_const" type="Const" version="opset1">
			<data element_type="u8" offset="15944076" shape="128,256,3,3" size="294912"/>
			<output>
				<port id="1" precision="U8">
					<dim>128</dim>
					<dim>256</dim>
					<dim>3</dim>
					<dim>3</dim>
				</port>
			</output>
		</layer>
		<layer id="238" name="conv2d_5/convolution/fq_weights_1/Convert_to_float" type="Convert" version="opset1">
			<data destination_type="f32"/>
			<input>
				<port id="0">
					<dim>128</dim>
					<dim>256</dim>
					<dim>3</dim>
					<dim>3</dim>
				</port>
			</input>
			<output>
				<port id="1" precision="FP32">
					<dim>128</dim>
					<dim>256</dim>
					<dim>3</dim>
					<dim>3</dim>
				</port>
			</output>
		</layer>
		<layer id="239" name="conv2d_5/convolution/fq_weights_1/Copy/out_low1323_const" type="Const" version="opset1">
			<data element_type="f32" offset="16238988" shape="1" size="4"/>
			<output>
				<port id="1" precision="FP32">
					<dim>1</dim>
				</port>
			</output>
		</layer>
		<layer id="240" name="conv2d_5/convolution/fq_weights_1/Copy/out_high1324_const" type="Const" version="opset1">
			<data element_type="f32" offset="1764" shape="1" size="4"/>
			<output>
				<port id="1" precision="FP32">
					<dim>1</dim>
				</port>
			</output>
		</layer>
		<layer id="241" name="616620_const" type="Const" version="opset1">
			<data element_type="f32" offset="16238992" shape="128,1,1,1" size="512"/>
			<output>
				<port id="1" precision="FP32">
					<dim>128</dim>
					<dim>1</dim>
					<dim>1</dim>
					<dim>1</dim>
				</port>
			</output>
		</layer>
		<layer id="242" name="617621_const" type="Const" version="opset1">
			<data element_type="f32" offset="16239504" shape="128,1,1,1" size="512"/>
			<output>
				<port id="1" precision="FP32">
					<dim>128</dim>
					<dim>1</dim>
					<dim>1</dim>
					<dim>1</dim>
				</port>
			</output>
		</layer>
		<layer id="243" name="conv2d_5/convolution/fq_weights_1" type="FakeQuantize" version="opset1">
			<data levels="255"/>
			<input>
				<port id="0">
					<dim>128</dim>
					<dim>256</dim>
					<dim>3</dim>
					<dim>3</dim>
				</port>
				<port id="1">
					<dim>1</dim>
				</port>
				<port id="2">
					<dim>1</dim>
				</port>
				<port id="3">
					<dim>128</dim>
					<dim>1</dim>
					<dim>1</dim>
					<dim>1</dim>
				</port>
				<port id="4">
					<dim>128</dim>
					<dim>1</dim>
					<dim>1</dim>
					<dim>1</dim>
				</port>
			</input>
			<output>
				<port id="5" precision="FP32">
					<dim>128</dim>
					<dim>256</dim>
					<dim>3</dim>
					<dim>3</dim>
				</port>
			</output>
		</layer>
		<layer id="244" name="conv2d_5/convolution" type="Convolution" version="opset1">
			<data dilations="2,2" output_padding="0,0" pads_begin="2,2" pads_end="2,2" strides="1,1"/>
			<input>
				<port id="0">
					<dim>1</dim>
					<dim>256</dim>
					<dim>96</dim>
					<dim>128</dim>
				</port>
				<port id="1">
					<dim>128</dim>
					<dim>256</dim>
					<dim>3</dim>
					<dim>3</dim>
				</port>
			</input>
			<output>
				<port id="2" precision="FP32">
					<dim>1</dim>
					<dim>128</dim>
					<dim>96</dim>
					<dim>128</dim>
				</port>
			</output>
		</layer>
		<layer id="245" name="conv2d_5/BiasAdd/ReadVariableOp/Output_0/Data_/copy_const177_const" type="Const" version="opset1">
			<data element_type="f32" offset="16240016" shape="1,128,1,1" size="512"/>
			<output>
				<port id="1" precision="FP32">
					<dim>1</dim>
					<dim>128</dim>
					<dim>1</dim>
					<dim>1</dim>
				</port>
			</output>
		</layer>
		<layer id="246" name="conv2d_5/BiasAdd/Add" type="Add" version="opset1">
			<input>
				<port id="0">
					<dim>1</dim>
					<dim>128</dim>
					<dim>96</dim>
					<dim>128</dim>
				</port>
				<port id="1">
					<dim>1</dim>
					<dim>128</dim>
					<dim>1</dim>
					<dim>1</dim>
				</port>
			</input>
			<output>
				<port id="2" precision="FP32">
					<dim>1</dim>
					<dim>128</dim>
					<dim>96</dim>
					<dim>128</dim>
				</port>
			</output>
		</layer>
		<layer id="247" name="conv2d_5/Relu" type="ReLU" version="opset1">
			<input>
				<port id="0">
					<dim>1</dim>
					<dim>128</dim>
					<dim>96</dim>
					<dim>128</dim>
				</port>
			</input>
			<output>
				<port id="1" precision="FP32">
					<dim>1</dim>
					<dim>128</dim>
					<dim>96</dim>
					<dim>128</dim>
				</port>
			</output>
		</layer>
		<layer id="248" name="464468_const" type="Const" version="opset1">
			<data element_type="f32" offset="16240528" shape="" size="4"/>
			<output>
				<port id="1" precision="FP32"/>
			</output>
		</layer>
		<layer id="249" name="465469_const" type="Const" version="opset1">
			<data element_type="f32" offset="16240532" shape="" size="4"/>
			<output>
				<port id="1" precision="FP32"/>
			</output>
		</layer>
		<layer id="250" name="466470_const" type="Const" version="opset1">
			<data element_type="f32" offset="16240528" shape="" size="4"/>
			<output>
				<port id="1" precision="FP32"/>
			</output>
		</layer>
		<layer id="251" name="467471_const" type="Const" version="opset1">
			<data element_type="f32" offset="16240532" shape="" size="4"/>
			<output>
				<port id="1" precision="FP32"/>
			</output>
		</layer>
		<layer id="252" name="conv2d_6/convolution/fq_input_0" type="FakeQuantize" version="opset1">
			<data levels="256"/>
			<input>
				<port id="0">
					<dim>1</dim>
					<dim>128</dim>
					<dim>96</dim>
					<dim>128</dim>
				</port>
				<port id="1"/>
				<port id="2"/>
				<port id="3"/>
				<port id="4"/>
			</input>
			<output>
				<port id="5" precision="FP32">
					<dim>1</dim>
					<dim>128</dim>
					<dim>96</dim>
					<dim>128</dim>
				</port>
			</output>
		</layer>
		<layer id="253" name="conv2d_6/convolution/fq_weights_1/Convert_to_float/Cast_01518_const" type="Const" version="opset1">
			<data element_type="u8" offset="16240536" shape="64,128,3,3" size="73728"/>
			<output>
				<port id="1" precision="U8">
					<dim>64</dim>
					<dim>128</dim>
					<dim>3</dim>
					<dim>3</dim>
				</port>
			</output>
		</layer>
		<layer id="254" name="conv2d_6/convolution/fq_weights_1/Convert_to_float" type="Convert" version="opset1">
			<data destination_type="f32"/>
			<input>
				<port id="0">
					<dim>64</dim>
					<dim>128</dim>
					<dim>3</dim>
					<dim>3</dim>
				</port>
			</input>
			<output>
				<port id="1" precision="FP32">
					<dim>64</dim>
					<dim>128</dim>
					<dim>3</dim>
					<dim>3</dim>
				</port>
			</output>
		</layer>
		<layer id="255" name="conv2d_6/convolution/fq_weights_1/Copy/out_low1315_const" type="Const" version="opset1">
			<data element_type="f32" offset="16314264" shape="1" size="4"/>
			<output>
				<port id="1" precision="FP32">
					<dim>1</dim>
				</port>
			</output>
		</layer>
		<layer id="256" name="conv2d_6/convolution/fq_weights_1/Copy/out_high1316_const" type="Const" version="opset1">
			<data element_type="f32" offset="1764" shape="1" size="4"/>
			<output>
				<port id="1" precision="FP32">
					<dim>1</dim>
				</port>
			</output>
		</layer>
		<layer id="257" name="476480_const" type="Const" version="opset1">
			<data element_type="f32" offset="16314268" shape="64,1,1,1" size="256"/>
			<output>
				<port id="1" precision="FP32">
					<dim>64</dim>
					<dim>1</dim>
					<dim>1</dim>
					<dim>1</dim>
				</port>
			</output>
		</layer>
		<layer id="258" name="477481_const" type="Const" version="opset1">
			<data element_type="f32" offset="16314524" shape="64,1,1,1" size="256"/>
			<output>
				<port id="1" precision="FP32">
					<dim>64</dim>
					<dim>1</dim>
					<dim>1</dim>
					<dim>1</dim>
				</port>
			</output>
		</layer>
		<layer id="259" name="conv2d_6/convolution/fq_weights_1" type="FakeQuantize" version="opset1">
			<data levels="255"/>
			<input>
				<port id="0">
					<dim>64</dim>
					<dim>128</dim>
					<dim>3</dim>
					<dim>3</dim>
				</port>
				<port id="1">
					<dim>1</dim>
				</port>
				<port id="2">
					<dim>1</dim>
				</port>
				<port id="3">
					<dim>64</dim>
					<dim>1</dim>
					<dim>1</dim>
					<dim>1</dim>
				</port>
				<port id="4">
					<dim>64</dim>
					<dim>1</dim>
					<dim>1</dim>
					<dim>1</dim>
				</port>
			</input>
			<output>
				<port id="5" precision="FP32">
					<dim>64</dim>
					<dim>128</dim>
					<dim>3</dim>
					<dim>3</dim>
				</port>
			</output>
		</layer>
		<layer id="260" name="conv2d_6/convolution" type="Convolution" version="opset1">
			<data dilations="2,2" output_padding="0,0" pads_begin="2,2" pads_end="2,2" strides="1,1"/>
			<input>
				<port id="0">
					<dim>1</dim>
					<dim>128</dim>
					<dim>96</dim>
					<dim>128</dim>
				</port>
				<port id="1">
					<dim>64</dim>
					<dim>128</dim>
					<dim>3</dim>
					<dim>3</dim>
				</port>
			</input>
			<output>
				<port id="2" precision="FP32">
					<dim>1</dim>
					<dim>64</dim>
					<dim>96</dim>
					<dim>128</dim>
				</port>
			</output>
		</layer>
		<layer id="261" name="conv2d_6/BiasAdd/ReadVariableOp/Output_0/Data_/copy_const182_const" type="Const" version="opset1">
			<data element_type="f32" offset="16314780" shape="1,64,1,1" size="256"/>
			<output>
				<port id="1" precision="FP32">
					<dim>1</dim>
					<dim>64</dim>
					<dim>1</dim>
					<dim>1</dim>
				</port>
			</output>
		</layer>
		<layer id="262" name="conv2d_6/BiasAdd/Add" type="Add" version="opset1">
			<input>
				<port id="0">
					<dim>1</dim>
					<dim>64</dim>
					<dim>96</dim>
					<dim>128</dim>
				</port>
				<port id="1">
					<dim>1</dim>
					<dim>64</dim>
					<dim>1</dim>
					<dim>1</dim>
				</port>
			</input>
			<output>
				<port id="2" precision="FP32">
					<dim>1</dim>
					<dim>64</dim>
					<dim>96</dim>
					<dim>128</dim>
				</port>
			</output>
		</layer>
		<layer id="263" name="conv2d_6/Relu" type="ReLU" version="opset1">
			<input>
				<port id="0">
					<dim>1</dim>
					<dim>64</dim>
					<dim>96</dim>
					<dim>128</dim>
				</port>
			</input>
			<output>
				<port id="1" precision="FP32">
					<dim>1</dim>
					<dim>64</dim>
					<dim>96</dim>
					<dim>128</dim>
				</port>
			</output>
		</layer>
		<layer id="264" name="564568_const" type="Const" version="opset1">
			<data element_type="f32" offset="16315036" shape="" size="4"/>
			<output>
				<port id="1" precision="FP32"/>
			</output>
		</layer>
		<layer id="265" name="565569_const" type="Const" version="opset1">
			<data element_type="f32" offset="16315040" shape="" size="4"/>
			<output>
				<port id="1" precision="FP32"/>
			</output>
		</layer>
		<layer id="266" name="566570_const" type="Const" version="opset1">
			<data element_type="f32" offset="16315036" shape="" size="4"/>
			<output>
				<port id="1" precision="FP32"/>
			</output>
		</layer>
		<layer id="267" name="567571_const" type="Const" version="opset1">
			<data element_type="f32" offset="16315040" shape="" size="4"/>
			<output>
				<port id="1" precision="FP32"/>
			</output>
		</layer>
		<layer id="268" name="y_out/convolution/fq_input_0" type="FakeQuantize" version="opset1">
			<data levels="256"/>
			<input>
				<port id="0">
					<dim>1</dim>
					<dim>64</dim>
					<dim>96</dim>
					<dim>128</dim>
				</port>
				<port id="1"/>
				<port id="2"/>
				<port id="3"/>
				<port id="4"/>
			</input>
			<output>
				<port id="5" precision="FP32">
					<dim>1</dim>
					<dim>64</dim>
					<dim>96</dim>
					<dim>128</dim>
				</port>
			</output>
		</layer>
		<layer id="269" name="y_out/convolution/fq_weights_1/Convert_to_float/Cast_01506_const" type="Const" version="opset1">
			<data element_type="u8" offset="16315044" shape="1,64,1,1" size="64"/>
			<output>
				<port id="1" precision="U8">
					<dim>1</dim>
					<dim>64</dim>
					<dim>1</dim>
					<dim>1</dim>
				</port>
			</output>
		</layer>
		<layer id="270" name="y_out/convolution/fq_weights_1/Convert_to_float" type="Convert" version="opset1">
			<data destination_type="f32"/>
			<input>
				<port id="0">
					<dim>1</dim>
					<dim>64</dim>
					<dim>1</dim>
					<dim>1</dim>
				</port>
			</input>
			<output>
				<port id="1" precision="FP32">
					<dim>1</dim>
					<dim>64</dim>
					<dim>1</dim>
					<dim>1</dim>
				</port>
			</output>
		</layer>
		<layer id="271" name="y_out/convolution/fq_weights_1/Copy/out_low1203_const" type="Const" version="opset1">
			<data element_type="f32" offset="16315108" shape="1" size="4"/>
			<output>
				<port id="1" precision="FP32">
					<dim>1</dim>
				</port>
			</output>
		</layer>
		<layer id="272" name="y_out/convolution/fq_weights_1/Copy/out_high1204_const" type="Const" version="opset1">
			<data element_type="f32" offset="1764" shape="1" size="4"/>
			<output>
				<port id="1" precision="FP32">
					<dim>1</dim>
				</port>
			</output>
		</layer>
		<layer id="273" name="576580_const" type="Const" version="opset1">
			<data element_type="f32" offset="16315112" shape="1,1,1,1" size="4"/>
			<output>
				<port id="1" precision="FP32">
					<dim>1</dim>
					<dim>1</dim>
					<dim>1</dim>
					<dim>1</dim>
				</port>
			</output>
		</layer>
		<layer id="274" name="577581_const" type="Const" version="opset1">
			<data element_type="f32" offset="16315116" shape="1,1,1,1" size="4"/>
			<output>
				<port id="1" precision="FP32">
					<dim>1</dim>
					<dim>1</dim>
					<dim>1</dim>
					<dim>1</dim>
				</port>
			</output>
		</layer>
		<layer id="275" name="y_out/convolution/fq_weights_1" type="FakeQuantize" version="opset1">
			<data levels="255"/>
			<input>
				<port id="0">
					<dim>1</dim>
					<dim>64</dim>
					<dim>1</dim>
					<dim>1</dim>
				</port>
				<port id="1">
					<dim>1</dim>
				</port>
				<port id="2">
					<dim>1</dim>
				</port>
				<port id="3">
					<dim>1</dim>
					<dim>1</dim>
					<dim>1</dim>
					<dim>1</dim>
				</port>
				<port id="4">
					<dim>1</dim>
					<dim>1</dim>
					<dim>1</dim>
					<dim>1</dim>
				</port>
			</input>
			<output>
				<port id="5" precision="FP32">
					<dim>1</dim>
					<dim>64</dim>
					<dim>1</dim>
					<dim>1</dim>
				</port>
			</output>
		</layer>
		<layer id="276" name="y_out/convolution" type="Convolution" version="opset1">
			<data auto_pad="valid" dilations="1,1" output_padding="0,0" pads_begin="0,0" pads_end="0,0" strides="1,1"/>
			<input>
				<port id="0">
					<dim>1</dim>
					<dim>64</dim>
					<dim>96</dim>
					<dim>128</dim>
				</port>
				<port id="1">
					<dim>1</dim>
					<dim>64</dim>
					<dim>1</dim>
					<dim>1</dim>
				</port>
			</input>
			<output>
				<port id="2" precision="FP32">
					<dim>1</dim>
					<dim>1</dim>
					<dim>96</dim>
					<dim>128</dim>
				</port>
			</output>
		</layer>
		<layer id="277" name="y_out/BiasAdd/ReadVariableOp/Output_0/Data_/copy_const187_const" type="Const" version="opset1">
			<data element_type="f32" offset="16315120" shape="1,1,1,1" size="4"/>
			<output>
				<port id="1" precision="FP32">
					<dim>1</dim>
					<dim>1</dim>
					<dim>1</dim>
					<dim>1</dim>
				</port>
			</output>
		</layer>
		<layer id="278" name="y_out/BiasAdd/Add" type="Add" version="opset1">
			<input>
				<port id="0">
					<dim>1</dim>
					<dim>1</dim>
					<dim>96</dim>
					<dim>128</dim>
				</port>
				<port id="1">
					<dim>1</dim>
					<dim>1</dim>
					<dim>1</dim>
					<dim>1</dim>
				</port>
			</input>
			<output>
				<port id="2" precision="FP32">
					<dim>1</dim>
					<dim>1</dim>
					<dim>96</dim>
					<dim>128</dim>
				</port>
			</output>
		</layer>
		<layer id="279" name="y_out/Relu" type="ReLU" version="opset1">
			<input>
				<port id="0">
					<dim>1</dim>
					<dim>1</dim>
					<dim>96</dim>
					<dim>128</dim>
				</port>
			</input>
			<output>
				<port id="1" precision="FP32">
					<dim>1</dim>
					<dim>1</dim>
					<dim>96</dim>
					<dim>128</dim>
				</port>
			</output>
		</layer>
		<layer id="280" name="y_out/Relu/Transpose/Cast_11532_const" type="Const" version="opset1">
			<data element_type="i64" offset="16315124" shape="4" size="32"/>
			<output>
				<port id="1" precision="I64">
					<dim>4</dim>
				</port>
			</output>
		</layer>
		<layer id="281" name="y_out/Relu/Transpose" type="Transpose" version="opset1">
			<input>
				<port id="0">
					<dim>1</dim>
					<dim>1</dim>
					<dim>96</dim>
					<dim>128</dim>
				</port>
				<port id="1">
					<dim>4</dim>
				</port>
			</input>
			<output>
				<port id="2" precision="FP32">
					<dim>1</dim>
					<dim>96</dim>
					<dim>128</dim>
					<dim>1</dim>
				</port>
			</output>
		</layer>
		<layer id="282" name="output_1/sink_port_0" type="Result" version="opset1">
			<input>
				<port id="0">
					<dim>1</dim>
					<dim>96</dim>
					<dim>128</dim>
					<dim>1</dim>
				</port>
			</input>
            <output>
                <port id="1" precision="FP32">
                    <dim>1</dim>
                    <dim>96</dim>
                    <dim>128</dim>
                    <dim>1</dim>
                </port>
             </output>
		</layer>
	</layers>
	<edges>
		<edge from-layer="0" from-port="0" to-layer="2" to-port="0"/>
		<edge from-layer="1" from-port="1" to-layer="2" to-port="1"/>
		<edge from-layer="2" from-port="2" to-layer="4" to-port="0"/>
		<edge from-layer="3" from-port="1" to-layer="4" to-port="1"/>
		<edge from-layer="4" from-port="2" to-layer="9" to-port="0"/>
		<edge from-layer="5" from-port="1" to-layer="9" to-port="1"/>
		<edge from-layer="6" from-port="1" to-layer="9" to-port="2"/>
		<edge from-layer="7" from-port="1" to-layer="9" to-port="3"/>
		<edge from-layer="8" from-port="1" to-layer="9" to-port="4"/>
		<edge from-layer="10" from-port="1" to-layer="11" to-port="0"/>
		<edge from-layer="11" from-port="1" to-layer="16" to-port="0"/>
		<edge from-layer="12" from-port="1" to-layer="16" to-port="1"/>
		<edge from-layer="13" from-port="1" to-layer="16" to-port="2"/>
		<edge from-layer="14" from-port="1" to-layer="16" to-port="3"/>
		<edge from-layer="15" from-port="1" to-layer="16" to-port="4"/>
		<edge from-layer="9" from-port="5" to-layer="17" to-port="0"/>
		<edge from-layer="16" from-port="5" to-layer="17" to-port="1"/>
		<edge from-layer="17" from-port="2" to-layer="19" to-port="0"/>
		<edge from-layer="18" from-port="1" to-layer="19" to-port="1"/>
		<edge from-layer="19" from-port="2" to-layer="20" to-port="0"/>
		<edge from-layer="20" from-port="1" to-layer="25" to-port="0"/>
		<edge from-layer="21" from-port="1" to-layer="25" to-port="1"/>
		<edge from-layer="22" from-port="1" to-layer="25" to-port="2"/>
		<edge from-layer="23" from-port="1" to-layer="25" to-port="3"/>
		<edge from-layer="24" from-port="1" to-layer="25" to-port="4"/>
		<edge from-layer="26" from-port="1" to-layer="27" to-port="0"/>
		<edge from-layer="27" from-port="1" to-layer="32" to-port="0"/>
		<edge from-layer="28" from-port="1" to-layer="32" to-port="1"/>
		<edge from-layer="29" from-port="1" to-layer="32" to-port="2"/>
		<edge from-layer="30" from-port="1" to-layer="32" to-port="3"/>
		<edge from-layer="31" from-port="1" to-layer="32" to-port="4"/>
		<edge from-layer="25" from-port="5" to-layer="33" to-port="0"/>
		<edge from-layer="32" from-port="5" to-layer="33" to-port="1"/>
		<edge from-layer="33" from-port="2" to-layer="35" to-port="0"/>
		<edge from-layer="34" from-port="1" to-layer="35" to-port="1"/>
		<edge from-layer="35" from-port="2" to-layer="36" to-port="0"/>
		<edge from-layer="36" from-port="1" to-layer="41" to-port="0"/>
		<edge from-layer="37" from-port="1" to-layer="41" to-port="1"/>
		<edge from-layer="38" from-port="1" to-layer="41" to-port="2"/>
		<edge from-layer="39" from-port="1" to-layer="41" to-port="3"/>
		<edge from-layer="40" from-port="1" to-layer="41" to-port="4"/>
		<edge from-layer="41" from-port="5" to-layer="42" to-port="0"/>
		<edge from-layer="43" from-port="1" to-layer="44" to-port="0"/>
		<edge from-layer="44" from-port="1" to-layer="49" to-port="0"/>
		<edge from-layer="45" from-port="1" to-layer="49" to-port="1"/>
		<edge from-layer="46" from-port="1" to-layer="49" to-port="2"/>
		<edge from-layer="47" from-port="1" to-layer="49" to-port="3"/>
		<edge from-layer="48" from-port="1" to-layer="49" to-port="4"/>
		<edge from-layer="42" from-port="1" to-layer="50" to-port="0"/>
		<edge from-layer="49" from-port="5" to-layer="50" to-port="1"/>
		<edge from-layer="50" from-port="2" to-layer="52" to-port="0"/>
		<edge from-layer="51" from-port="1" to-layer="52" to-port="1"/>
		<edge from-layer="52" from-port="2" to-layer="53" to-port="0"/>
		<edge from-layer="53" from-port="1" to-layer="58" to-port="0"/>
		<edge from-layer="54" from-port="1" to-layer="58" to-port="1"/>
		<edge from-layer="55" from-port="1" to-layer="58" to-port="2"/>
		<edge from-layer="56" from-port="1" to-layer="58" to-port="3"/>
		<edge from-layer="57" from-port="1" to-layer="58" to-port="4"/>
		<edge from-layer="59" from-port="1" to-layer="60" to-port="0"/>
		<edge from-layer="60" from-port="1" to-layer="65" to-port="0"/>
		<edge from-layer="61" from-port="1" to-layer="65" to-port="1"/>
		<edge from-layer="62" from-port="1" to-layer="65" to-port="2"/>
		<edge from-layer="63" from-port="1" to-layer="65" to-port="3"/>
		<edge from-layer="64" from-port="1" to-layer="65" to-port="4"/>
		<edge from-layer="58" from-port="5" to-layer="66" to-port="0"/>
		<edge from-layer="65" from-port="5" to-layer="66" to-port="1"/>
		<edge from-layer="66" from-port="2" to-layer="68" to-port="0"/>
		<edge from-layer="67" from-port="1" to-layer="68" to-port="1"/>
		<edge from-layer="68" from-port="2" to-layer="69" to-port="0"/>
		<edge from-layer="69" from-port="1" to-layer="74" to-port="0"/>
		<edge from-layer="70" from-port="1" to-layer="74" to-port="1"/>
		<edge from-layer="71" from-port="1" to-layer="74" to-port="2"/>
		<edge from-layer="72" from-port="1" to-layer="74" to-port="3"/>
		<edge from-layer="73" from-port="1" to-layer="74" to-port="4"/>
		<edge from-layer="74" from-port="5" to-layer="75" to-port="0"/>
		<edge from-layer="76" from-port="1" to-layer="77" to-port="0"/>
		<edge from-layer="77" from-port="1" to-layer="82" to-port="0"/>
		<edge from-layer="78" from-port="1" to-layer="82" to-port="1"/>
		<edge from-layer="79" from-port="1" to-layer="82" to-port="2"/>
		<edge from-layer="80" from-port="1" to-layer="82" to-port="3"/>
		<edge from-layer="81" from-port="1" to-layer="82" to-port="4"/>
		<edge from-layer="75" from-port="1" to-layer="83" to-port="0"/>
		<edge from-layer="82" from-port="5" to-layer="83" to-port="1"/>
		<edge from-layer="83" from-port="2" to-layer="85" to-port="0"/>
		<edge from-layer="84" from-port="1" to-layer="85" to-port="1"/>
		<edge from-layer="85" from-port="2" to-layer="86" to-port="0"/>
		<edge from-layer="86" from-port="1" to-layer="91" to-port="0"/>
		<edge from-layer="87" from-port="1" to-layer="91" to-port="1"/>
		<edge from-layer="88" from-port="1" to-layer="91" to-port="2"/>
		<edge from-layer="89" from-port="1" to-layer="91" to-port="3"/>
		<edge from-layer="90" from-port="1" to-layer="91" to-port="4"/>
		<edge from-layer="92" from-port="1" to-layer="93" to-port="0"/>
		<edge from-layer="93" from-port="1" to-layer="98" to-port="0"/>
		<edge from-layer="94" from-port="1" to-layer="98" to-port="1"/>
		<edge from-layer="95" from-port="1" to-layer="98" to-port="2"/>
		<edge from-layer="96" from-port="1" to-layer="98" to-port="3"/>
		<edge from-layer="97" from-port="1" to-layer="98" to-port="4"/>
		<edge from-layer="91" from-port="5" to-layer="99" to-port="0"/>
		<edge from-layer="98" from-port="5" to-layer="99" to-port="1"/>
		<edge from-layer="99" from-port="2" to-layer="101" to-port="0"/>
		<edge from-layer="100" from-port="1" to-layer="101" to-port="1"/>
		<edge from-layer="101" from-port="2" to-layer="102" to-port="0"/>
		<edge from-layer="102" from-port="1" to-layer="107" to-port="0"/>
		<edge from-layer="103" from-port="1" to-layer="107" to-port="1"/>
		<edge from-layer="104" from-port="1" to-layer="107" to-port="2"/>
		<edge from-layer="105" from-port="1" to-layer="107" to-port="3"/>
		<edge from-layer="106" from-port="1" to-layer="107" to-port="4"/>
		<edge from-layer="108" from-port="1" to-layer="109" to-port="0"/>
		<edge from-layer="109" from-port="1" to-layer="114" to-port="0"/>
		<edge from-layer="110" from-port="1" to-layer="114" to-port="1"/>
		<edge from-layer="111" from-port="1" to-layer="114" to-port="2"/>
		<edge from-layer="112" from-port="1" to-layer="114" to-port="3"/>
		<edge from-layer="113" from-port="1" to-layer="114" to-port="4"/>
		<edge from-layer="107" from-port="5" to-layer="115" to-port="0"/>
		<edge from-layer="114" from-port="5" to-layer="115" to-port="1"/>
		<edge from-layer="115" from-port="2" to-layer="117" to-port="0"/>
		<edge from-layer="116" from-port="1" to-layer="117" to-port="1"/>
		<edge from-layer="117" from-port="2" to-layer="118" to-port="0"/>
		<edge from-layer="118" from-port="1" to-layer="123" to-port="0"/>
		<edge from-layer="119" from-port="1" to-layer="123" to-port="1"/>
		<edge from-layer="120" from-port="1" to-layer="123" to-port="2"/>
		<edge from-layer="121" from-port="1" to-layer="123" to-port="3"/>
		<edge from-layer="122" from-port="1" to-layer="123" to-port="4"/>
		<edge from-layer="123" from-port="5" to-layer="124" to-port="0"/>
		<edge from-layer="125" from-port="1" to-layer="126" to-port="0"/>
		<edge from-layer="126" from-port="1" to-layer="131" to-port="0"/>
		<edge from-layer="127" from-port="1" to-layer="131" to-port="1"/>
		<edge from-layer="128" from-port="1" to-layer="131" to-port="2"/>
		<edge from-layer="129" from-port="1" to-layer="131" to-port="3"/>
		<edge from-layer="130" from-port="1" to-layer="131" to-port="4"/>
		<edge from-layer="124" from-port="1" to-layer="132" to-port="0"/>
		<edge from-layer="131" from-port="5" to-layer="132" to-port="1"/>
		<edge from-layer="132" from-port="2" to-layer="134" to-port="0"/>
		<edge from-layer="133" from-port="1" to-layer="134" to-port="1"/>
		<edge from-layer="134" from-port="2" to-layer="135" to-port="0"/>
		<edge from-layer="135" from-port="1" to-layer="140" to-port="0"/>
		<edge from-layer="136" from-port="1" to-layer="140" to-port="1"/>
		<edge from-layer="137" from-port="1" to-layer="140" to-port="2"/>
		<edge from-layer="138" from-port="1" to-layer="140" to-port="3"/>
		<edge from-layer="139" from-port="1" to-layer="140" to-port="4"/>
		<edge from-layer="141" from-port="1" to-layer="142" to-port="0"/>
		<edge from-layer="142" from-port="1" to-layer="147" to-port="0"/>
		<edge from-layer="143" from-port="1" to-layer="147" to-port="1"/>
		<edge from-layer="144" from-port="1" to-layer="147" to-port="2"/>
		<edge from-layer="145" from-port="1" to-layer="147" to-port="3"/>
		<edge from-layer="146" from-port="1" to-layer="147" to-port="4"/>
		<edge from-layer="140" from-port="5" to-layer="148" to-port="0"/>
		<edge from-layer="147" from-port="5" to-layer="148" to-port="1"/>
		<edge from-layer="148" from-port="2" to-layer="150" to-port="0"/>
		<edge from-layer="149" from-port="1" to-layer="150" to-port="1"/>
		<edge from-layer="150" from-port="2" to-layer="151" to-port="0"/>
		<edge from-layer="151" from-port="1" to-layer="156" to-port="0"/>
		<edge from-layer="152" from-port="1" to-layer="156" to-port="1"/>
		<edge from-layer="153" from-port="1" to-layer="156" to-port="2"/>
		<edge from-layer="154" from-port="1" to-layer="156" to-port="3"/>
		<edge from-layer="155" from-port="1" to-layer="156" to-port="4"/>
		<edge from-layer="157" from-port="1" to-layer="158" to-port="0"/>
		<edge from-layer="158" from-port="1" to-layer="163" to-port="0"/>
		<edge from-layer="159" from-port="1" to-layer="163" to-port="1"/>
		<edge from-layer="160" from-port="1" to-layer="163" to-port="2"/>
		<edge from-layer="161" from-port="1" to-layer="163" to-port="3"/>
		<edge from-layer="162" from-port="1" to-layer="163" to-port="4"/>
		<edge from-layer="156" from-port="5" to-layer="164" to-port="0"/>
		<edge from-layer="163" from-port="5" to-layer="164" to-port="1"/>
		<edge from-layer="164" from-port="2" to-layer="166" to-port="0"/>
		<edge from-layer="165" from-port="1" to-layer="166" to-port="1"/>
		<edge from-layer="166" from-port="2" to-layer="167" to-port="0"/>
		<edge from-layer="167" from-port="1" to-layer="172" to-port="0"/>
		<edge from-layer="168" from-port="1" to-layer="172" to-port="1"/>
		<edge from-layer="169" from-port="1" to-layer="172" to-port="2"/>
		<edge from-layer="170" from-port="1" to-layer="172" to-port="3"/>
		<edge from-layer="171" from-port="1" to-layer="172" to-port="4"/>
		<edge from-layer="173" from-port="1" to-layer="174" to-port="0"/>
		<edge from-layer="174" from-port="1" to-layer="179" to-port="0"/>
		<edge from-layer="175" from-port="1" to-layer="179" to-port="1"/>
		<edge from-layer="176" from-port="1" to-layer="179" to-port="2"/>
		<edge from-layer="177" from-port="1" to-layer="179" to-port="3"/>
		<edge from-layer="178" from-port="1" to-layer="179" to-port="4"/>
		<edge from-layer="172" from-port="5" to-layer="180" to-port="0"/>
		<edge from-layer="179" from-port="5" to-layer="180" to-port="1"/>
		<edge from-layer="180" from-port="2" to-layer="182" to-port="0"/>
		<edge from-layer="181" from-port="1" to-layer="182" to-port="1"/>
		<edge from-layer="182" from-port="2" to-layer="183" to-port="0"/>
		<edge from-layer="183" from-port="1" to-layer="188" to-port="0"/>
		<edge from-layer="184" from-port="1" to-layer="188" to-port="1"/>
		<edge from-layer="185" from-port="1" to-layer="188" to-port="2"/>
		<edge from-layer="186" from-port="1" to-layer="188" to-port="3"/>
		<edge from-layer="187" from-port="1" to-layer="188" to-port="4"/>
		<edge from-layer="189" from-port="1" to-layer="190" to-port="0"/>
		<edge from-layer="190" from-port="1" to-layer="195" to-port="0"/>
		<edge from-layer="191" from-port="1" to-layer="195" to-port="1"/>
		<edge from-layer="192" from-port="1" to-layer="195" to-port="2"/>
		<edge from-layer="193" from-port="1" to-layer="195" to-port="3"/>
		<edge from-layer="194" from-port="1" to-layer="195" to-port="4"/>
		<edge from-layer="188" from-port="5" to-layer="196" to-port="0"/>
		<edge from-layer="195" from-port="5" to-layer="196" to-port="1"/>
		<edge from-layer="196" from-port="2" to-layer="198" to-port="0"/>
		<edge from-layer="197" from-port="1" to-layer="198" to-port="1"/>
		<edge from-layer="198" from-port="2" to-layer="199" to-port="0"/>
		<edge from-layer="199" from-port="1" to-layer="204" to-port="0"/>
		<edge from-layer="200" from-port="1" to-layer="204" to-port="1"/>
		<edge from-layer="201" from-port="1" to-layer="204" to-port="2"/>
		<edge from-layer="202" from-port="1" to-layer="204" to-port="3"/>
		<edge from-layer="203" from-port="1" to-layer="204" to-port="4"/>
		<edge from-layer="205" from-port="1" to-layer="206" to-port="0"/>
		<edge from-layer="206" from-port="1" to-layer="211" to-port="0"/>
		<edge from-layer="207" from-port="1" to-layer="211" to-port="1"/>
		<edge from-layer="208" from-port="1" to-layer="211" to-port="2"/>
		<edge from-layer="209" from-port="1" to-layer="211" to-port="3"/>
		<edge from-layer="210" from-port="1" to-layer="211" to-port="4"/>
		<edge from-layer="204" from-port="5" to-layer="212" to-port="0"/>
		<edge from-layer="211" from-port="5" to-layer="212" to-port="1"/>
		<edge from-layer="212" from-port="2" to-layer="214" to-port="0"/>
		<edge from-layer="213" from-port="1" to-layer="214" to-port="1"/>
		<edge from-layer="214" from-port="2" to-layer="215" to-port="0"/>
		<edge from-layer="215" from-port="1" to-layer="220" to-port="0"/>
		<edge from-layer="216" from-port="1" to-layer="220" to-port="1"/>
		<edge from-layer="217" from-port="1" to-layer="220" to-port="2"/>
		<edge from-layer="218" from-port="1" to-layer="220" to-port="3"/>
		<edge from-layer="219" from-port="1" to-layer="220" to-port="4"/>
		<edge from-layer="221" from-port="1" to-layer="222" to-port="0"/>
		<edge from-layer="222" from-port="1" to-layer="227" to-port="0"/>
		<edge from-layer="223" from-port="1" to-layer="227" to-port="1"/>
		<edge from-layer="224" from-port="1" to-layer="227" to-port="2"/>
		<edge from-layer="225" from-port="1" to-layer="227" to-port="3"/>
		<edge from-layer="226" from-port="1" to-layer="227" to-port="4"/>
		<edge from-layer="220" from-port="5" to-layer="228" to-port="0"/>
		<edge from-layer="227" from-port="5" to-layer="228" to-port="1"/>
		<edge from-layer="228" from-port="2" to-layer="230" to-port="0"/>
		<edge from-layer="229" from-port="1" to-layer="230" to-port="1"/>
		<edge from-layer="230" from-port="2" to-layer="231" to-port="0"/>
		<edge from-layer="231" from-port="1" to-layer="236" to-port="0"/>
		<edge from-layer="232" from-port="1" to-layer="236" to-port="1"/>
		<edge from-layer="233" from-port="1" to-layer="236" to-port="2"/>
		<edge from-layer="234" from-port="1" to-layer="236" to-port="3"/>
		<edge from-layer="235" from-port="1" to-layer="236" to-port="4"/>
		<edge from-layer="237" from-port="1" to-layer="238" to-port="0"/>
		<edge from-layer="238" from-port="1" to-layer="243" to-port="0"/>
		<edge from-layer="239" from-port="1" to-layer="243" to-port="1"/>
		<edge from-layer="240" from-port="1" to-layer="243" to-port="2"/>
		<edge from-layer="241" from-port="1" to-layer="243" to-port="3"/>
		<edge from-layer="242" from-port="1" to-layer="243" to-port="4"/>
		<edge from-layer="236" from-port="5" to-layer="244" to-port="0"/>
		<edge from-layer="243" from-port="5" to-layer="244" to-port="1"/>
		<edge from-layer="244" from-port="2" to-layer="246" to-port="0"/>
		<edge from-layer="245" from-port="1" to-layer="246" to-port="1"/>
		<edge from-layer="246" from-port="2" to-layer="247" to-port="0"/>
		<edge from-layer="247" from-port="1" to-layer="252" to-port="0"/>
		<edge from-layer="248" from-port="1" to-layer="252" to-port="1"/>
		<edge from-layer="249" from-port="1" to-layer="252" to-port="2"/>
		<edge from-layer="250" from-port="1" to-layer="252" to-port="3"/>
		<edge from-layer="251" from-port="1" to-layer="252" to-port="4"/>
		<edge from-layer="253" from-port="1" to-layer="254" to-port="0"/>
		<edge from-layer="254" from-port="1" to-layer="259" to-port="0"/>
		<edge from-layer="255" from-port="1" to-layer="259" to-port="1"/>
		<edge from-layer="256" from-port="1" to-layer="259" to-port="2"/>
		<edge from-layer="257" from-port="1" to-layer="259" to-port="3"/>
		<edge from-layer="258" from-port="1" to-layer="259" to-port="4"/>
		<edge from-layer="252" from-port="5" to-layer="260" to-port="0"/>
		<edge from-layer="259" from-port="5" to-layer="260" to-port="1"/>
		<edge from-layer="260" from-port="2" to-layer="262" to-port="0"/>
		<edge from-layer="261" from-port="1" to-layer="262" to-port="1"/>
		<edge from-layer="262" from-port="2" to-layer="263" to-port="0"/>
		<edge from-layer="263" from-port="1" to-layer="268" to-port="0"/>
		<edge from-layer="264" from-port="1" to-layer="268" to-port="1"/>
		<edge from-layer="265" from-port="1" to-layer="268" to-port="2"/>
		<edge from-layer="266" from-port="1" to-layer="268" to-port="3"/>
		<edge from-layer="267" from-port="1" to-layer="268" to-port="4"/>
		<edge from-layer="269" from-port="1" to-layer="270" to-port="0"/>
		<edge from-layer="270" from-port="1" to-layer="275" to-port="0"/>
		<edge from-layer="271" from-port="1" to-layer="275" to-port="1"/>
		<edge from-layer="272" from-port="1" to-layer="275" to-port="2"/>
		<edge from-layer="273" from-port="1" to-layer="275" to-port="3"/>
		<edge from-layer="274" from-port="1" to-layer="275" to-port="4"/>
		<edge from-layer="268" from-port="5" to-layer="276" to-port="0"/>
		<edge from-layer="275" from-port="5" to-layer="276" to-port="1"/>
		<edge from-layer="276" from-port="2" to-layer="278" to-port="0"/>
		<edge from-layer="277" from-port="1" to-layer="278" to-port="1"/>
		<edge from-layer="278" from-port="2" to-layer="279" to-port="0"/>
		<edge from-layer="279" from-port="1" to-layer="281" to-port="0"/>
		<edge from-layer="280" from-port="1" to-layer="281" to-port="1"/>
		<edge from-layer="281" from-port="2" to-layer="282" to-port="0"/>
	</edges>
	<meta_data>
		<MO_version value="2020.2.0-60-g0bc66e26ff"/>
		<cli_parameters>
			<blobs_as_inputs value="True"/>
			<caffe_parser_path value="DIR"/>
			<data_type value="FP32"/>
			<disable_nhwc_to_nchw value="False"/>
			<disable_omitting_optional value="False"/>
			<disable_resnet_optimization value="False"/>
			<disable_weights_compression value="False"/>
			<enable_concat_optimization value="False"/>
			<enable_flattening_nested_params value="False"/>
			<enable_ssd_gluoncv value="False"/>
			<extensions value="DIR"/>
			<framework value="tf"/>
			<freeze_placeholder_with_value value="{}"/>
			<generate_deprecated_IR_V2 value="False"/>
			<generate_deprecated_IR_V7 value="False"/>
			<generate_experimental_IR_V10 value="True"/>
			<input_model value="DIR/model_A_weights.pb"/>
			<input_model_is_text value="False"/>
			<input_shape value="[1,768,1024,3]"/>
			<k value="DIR/CustomLayersMapping.xml"/>
			<keep_quantize_ops_in_IR value="True"/>
			<keep_shape_ops value="False"/>
			<legacy_mxnet_model value="False"/>
			<log_level value="ERROR"/>
			<mean_scale_values value="[(array([123.675, 116.28 , 103.53 ]), array([58.395, 57.12 , 57.375]))]"/>
			<mean_values value="[123.675,116.28,103.53]"/>
			<model_name value="model_A_weights"/>
			<move_to_preprocess value="False"/>
			<output_dir value="DIR"/>
			<placeholder_data_types value="{}"/>
			<placeholder_shapes value="[   1  768 1024    3]"/>
			<progress value="False"/>
			<remove_memory value="False"/>
			<remove_output_softmax value="False"/>
			<reverse_input_channels value="False"/>
			<save_params_from_nd value="False"/>
			<scale_values value="[58.395,57.12,57.375]"/>
			<silent value="False"/>
			<stream_output value="False"/>
			<unset unset_cli_parameters="batch, counts, disable_fusing, disable_gfusing, finegrain_fusing, input, input_checkpoint, input_meta_graph, input_proto, input_symbol, mean_file, mean_file_offsets, nd_prefix_name, output, pretrained_model_name, saved_model_dir, saved_model_tags, scale, tensorboard_logdir, tensorflow_custom_layer_libraries, tensorflow_custom_operations_config_update, tensorflow_object_detection_api_pipeline_config, tensorflow_use_custom_operations_config, transformations_config"/>
		</cli_parameters>
	</meta_data>
	<quantization_parameters>
		<config>{
		'compression': {
			'target_device': 'CPU',
			'algorithms': [
				{
					'name': 'DefaultQuantization',
					'params': {
						'preset': 'performance',
						'stat_subset_size': 300
					}
				}
			]
		},
		'engine': {
			'type': 'simplified',
			'data_source': 'PATH',
			'device': 'CPU'
		}
	}</config>
		<version value="1.0"/>
		<cli_params value="{'evaluate': False, 'output_dir': 'PATH', 'direct_dump': False, 'log_level': 'INFO', 'pbar': False, 'keep_uncompressed_weights': False}"/>
	</quantization_parameters>
</net>
