<?xml version="1.0"?>
<net name="ResMobNet_v4 (LReLU) with single SSD head" version="6" batch="1">
	<layers>
		<layer name="data" type="Input" precision="FP32" id="0">
			<output>
				<port id="0">
					<dim>1</dim>
					<dim>3</dim>
					<dim>320</dim>
					<dim>544</dim>
				</port>
			</output>
		</layer>
		<layer name="Mul_12401/Fused_Mul_/FusedScaleShift_" type="ScaleShift" precision="FP32" id="1">
			<data broadcast="0" />
			<input>
				<port id="0">
					<dim>1</dim>
					<dim>3</dim>
					<dim>320</dim>
					<dim>544</dim>
				</port>
			</input>
			<output>
				<port id="1">
					<dim>1</dim>
					<dim>3</dim>
					<dim>320</dim>
					<dim>544</dim>
				</port>
			</output>
			<blobs>
				<biases offset="0" size="12" />
				<weights offset="12" size="12" />
			</blobs>
		</layer>
		<layer name="init_block1/dim_inc/conv" type="Convolution" precision="FP32" id="2">
			<data dilations="1,1" group="1" kernel="3,3" output="32" pads_begin="1,1" pads_end="1,1" quantization_level="I8" strides="2,2" />
			<input>
				<port id="0">
					<dim>1</dim>
					<dim>3</dim>
					<dim>320</dim>
					<dim>544</dim>
				</port>
			</input>
			<output>
				<port id="1">
					<dim>1</dim>
					<dim>32</dim>
					<dim>160</dim>
					<dim>272</dim>
				</port>
			</output>
			<blobs>
				<biases offset="24" size="128" />
				<weights offset="152" size="3456" />
			</blobs>
		</layer>
		<layer name="init_block1/dim_inc/fn" type="ReLU" precision="FP32" id="3">
			<input>
				<port id="0">
					<dim>1</dim>
					<dim>32</dim>
					<dim>160</dim>
					<dim>272</dim>
				</port>
			</input>
			<output>
				<port id="1">
					<dim>1</dim>
					<dim>32</dim>
					<dim>160</dim>
					<dim>272</dim>
				</port>
			</output>
		</layer>
		<layer name="bottleneck1_1/dim_red/conv" type="Convolution" precision="FP32" id="4">
			<data dilations="1,1" group="1" kernel="1,1" output="8" pads_begin="0,0" pads_end="0,0" quantization_level="I8" strides="1,1" />
			<input>
				<port id="0">
					<dim>1</dim>
					<dim>32</dim>
					<dim>160</dim>
					<dim>272</dim>
				</port>
			</input>
			<output>
				<port id="1">
					<dim>1</dim>
					<dim>8</dim>
					<dim>160</dim>
					<dim>272</dim>
				</port>
			</output>
			<blobs>
				<biases offset="3608" size="32" />
				<weights offset="3640" size="1024" />
			</blobs>
		</layer>
		<layer name="bottleneck1_1/dim_red/fn" type="ReLU" precision="FP32" id="5">
			<data negative_slope="0.100000" />
			<input>
				<port id="0">
					<dim>1</dim>
					<dim>8</dim>
					<dim>160</dim>
					<dim>272</dim>
				</port>
			</input>
			<output>
				<port id="1">
					<dim>1</dim>
					<dim>8</dim>
					<dim>160</dim>
					<dim>272</dim>
				</port>
			</output>
		</layer>
		<layer name="bottleneck1_1/inner/dw1/conv" type="Convolution" precision="FP32" id="6">
			<data dilations="1,1" group="8" kernel="3,3" output="8" pads_begin="1,1" pads_end="1,1" quantization_level="I8" strides="1,1" />
			<input>
				<port id="0">
					<dim>1</dim>
					<dim>8</dim>
					<dim>160</dim>
					<dim>272</dim>
				</port>
			</input>
			<output>
				<port id="1">
					<dim>1</dim>
					<dim>8</dim>
					<dim>160</dim>
					<dim>272</dim>
				</port>
			</output>
			<blobs>
				<biases offset="4664" size="32" />
				<weights offset="4696" size="288" />
			</blobs>
		</layer>
		<layer name="bottleneck1_1/inner/dw1/fn" type="ReLU" precision="FP32" id="7">
			<data negative_slope="0.100000" />
			<input>
				<port id="0">
					<dim>1</dim>
					<dim>8</dim>
					<dim>160</dim>
					<dim>272</dim>
				</port>
			</input>
			<output>
				<port id="1">
					<dim>1</dim>
					<dim>8</dim>
					<dim>160</dim>
					<dim>272</dim>
				</port>
			</output>
		</layer>
		<layer name="bottleneck1_1/dim_inc/conv" type="Convolution" precision="FP32" id="8">
			<data dilations="1,1" group="1" kernel="1,1" output="32" pads_begin="0,0" pads_end="0,0" quantization_level="I8" strides="1,1" />
			<input>
				<port id="0">
					<dim>1</dim>
					<dim>8</dim>
					<dim>160</dim>
					<dim>272</dim>
				</port>
			</input>
			<output>
				<port id="1">
					<dim>1</dim>
					<dim>32</dim>
					<dim>160</dim>
					<dim>272</dim>
				</port>
			</output>
			<blobs>
				<biases offset="4984" size="128" />
				<weights offset="5112" size="1024" />
			</blobs>
		</layer>
		<layer name="bottleneck1_1/add" type="Eltwise" precision="FP32" id="9">
			<data operation="sum" />
			<input>
				<port id="0">
					<dim>1</dim>
					<dim>32</dim>
					<dim>160</dim>
					<dim>272</dim>
				</port>
				<port id="1">
					<dim>1</dim>
					<dim>32</dim>
					<dim>160</dim>
					<dim>272</dim>
				</port>
			</input>
			<output>
				<port id="2">
					<dim>1</dim>
					<dim>32</dim>
					<dim>160</dim>
					<dim>272</dim>
				</port>
			</output>
		</layer>
		<layer name="bottleneck1_1/fn" type="ReLU" precision="FP32" id="10">
			<data negative_slope="0.100000" />
			<input>
				<port id="0">
					<dim>1</dim>
					<dim>32</dim>
					<dim>160</dim>
					<dim>272</dim>
				</port>
			</input>
			<output>
				<port id="1">
					<dim>1</dim>
					<dim>32</dim>
					<dim>160</dim>
					<dim>272</dim>
				</port>
			</output>
		</layer>
		<layer name="bottleneck1_2/dim_red/conv" type="Convolution" precision="FP32" id="11">
			<data dilations="1,1" group="1" kernel="1,1" output="8" pads_begin="0,0" pads_end="0,0" quantization_level="I8" strides="1,1" />
			<input>
				<port id="0">
					<dim>1</dim>
					<dim>32</dim>
					<dim>160</dim>
					<dim>272</dim>
				</port>
			</input>
			<output>
				<port id="1">
					<dim>1</dim>
					<dim>8</dim>
					<dim>160</dim>
					<dim>272</dim>
				</port>
			</output>
			<blobs>
				<biases offset="6136" size="32" />
				<weights offset="6168" size="1024" />
			</blobs>
		</layer>
		<layer name="bottleneck1_2/dim_red/fn" type="ReLU" precision="FP32" id="12">
			<data negative_slope="0.100000" />
			<input>
				<port id="0">
					<dim>1</dim>
					<dim>8</dim>
					<dim>160</dim>
					<dim>272</dim>
				</port>
			</input>
			<output>
				<port id="1">
					<dim>1</dim>
					<dim>8</dim>
					<dim>160</dim>
					<dim>272</dim>
				</port>
			</output>
		</layer>
		<layer name="bottleneck1_2/inner/dw1/conv" type="Convolution" precision="FP32" id="13">
			<data dilations="1,1" group="8" kernel="3,3" output="8" pads_begin="1,1" pads_end="1,1" quantization_level="I8" strides="1,1" />
			<input>
				<port id="0">
					<dim>1</dim>
					<dim>8</dim>
					<dim>160</dim>
					<dim>272</dim>
				</port>
			</input>
			<output>
				<port id="1">
					<dim>1</dim>
					<dim>8</dim>
					<dim>160</dim>
					<dim>272</dim>
				</port>
			</output>
			<blobs>
				<biases offset="7192" size="32" />
				<weights offset="7224" size="288" />
			</blobs>
		</layer>
		<layer name="bottleneck1_2/inner/dw1/fn" type="ReLU" precision="FP32" id="14">
			<data negative_slope="0.100000" />
			<input>
				<port id="0">
					<dim>1</dim>
					<dim>8</dim>
					<dim>160</dim>
					<dim>272</dim>
				</port>
			</input>
			<output>
				<port id="1">
					<dim>1</dim>
					<dim>8</dim>
					<dim>160</dim>
					<dim>272</dim>
				</port>
			</output>
		</layer>
		<layer name="bottleneck1_2/dim_inc/conv" type="Convolution" precision="FP32" id="15">
			<data dilations="1,1" group="1" kernel="1,1" output="32" pads_begin="0,0" pads_end="0,0" quantization_level="I8" strides="1,1" />
			<input>
				<port id="0">
					<dim>1</dim>
					<dim>8</dim>
					<dim>160</dim>
					<dim>272</dim>
				</port>
			</input>
			<output>
				<port id="1">
					<dim>1</dim>
					<dim>32</dim>
					<dim>160</dim>
					<dim>272</dim>
				</port>
			</output>
			<blobs>
				<biases offset="7512" size="128" />
				<weights offset="7640" size="1024" />
			</blobs>
		</layer>
		<layer name="bottleneck1_2/add" type="Eltwise" precision="FP32" id="16">
			<data operation="sum" />
			<input>
				<port id="0">
					<dim>1</dim>
					<dim>32</dim>
					<dim>160</dim>
					<dim>272</dim>
				</port>
				<port id="1">
					<dim>1</dim>
					<dim>32</dim>
					<dim>160</dim>
					<dim>272</dim>
				</port>
			</input>
			<output>
				<port id="2">
					<dim>1</dim>
					<dim>32</dim>
					<dim>160</dim>
					<dim>272</dim>
				</port>
			</output>
		</layer>
		<layer name="bottleneck1_2/fn" type="ReLU" precision="FP32" id="17">
			<data negative_slope="0.100000" />
			<input>
				<port id="0">
					<dim>1</dim>
					<dim>32</dim>
					<dim>160</dim>
					<dim>272</dim>
				</port>
			</input>
			<output>
				<port id="1">
					<dim>1</dim>
					<dim>32</dim>
					<dim>160</dim>
					<dim>272</dim>
				</port>
			</output>
		</layer>
		<layer name="bottleneck1_3/dim_red/conv" type="Convolution" precision="FP32" id="18">
			<data dilations="1,1" group="1" kernel="1,1" output="8" pads_begin="0,0" pads_end="0,0" quantization_level="I8" strides="1,1" />
			<input>
				<port id="0">
					<dim>1</dim>
					<dim>32</dim>
					<dim>160</dim>
					<dim>272</dim>
				</port>
			</input>
			<output>
				<port id="1">
					<dim>1</dim>
					<dim>8</dim>
					<dim>160</dim>
					<dim>272</dim>
				</port>
			</output>
			<blobs>
				<biases offset="8664" size="32" />
				<weights offset="8696" size="1024" />
			</blobs>
		</layer>
		<layer name="bottleneck1_3/dim_red/fn" type="ReLU" precision="FP32" id="19">
			<data negative_slope="0.100000" />
			<input>
				<port id="0">
					<dim>1</dim>
					<dim>8</dim>
					<dim>160</dim>
					<dim>272</dim>
				</port>
			</input>
			<output>
				<port id="1">
					<dim>1</dim>
					<dim>8</dim>
					<dim>160</dim>
					<dim>272</dim>
				</port>
			</output>
		</layer>
		<layer name="bottleneck1_3/inner/dw1/conv" type="Convolution" precision="FP32" id="20">
			<data dilations="1,1" group="8" kernel="3,3" output="8" pads_begin="1,1" pads_end="1,1" quantization_level="I8" strides="1,1" />
			<input>
				<port id="0">
					<dim>1</dim>
					<dim>8</dim>
					<dim>160</dim>
					<dim>272</dim>
				</port>
			</input>
			<output>
				<port id="1">
					<dim>1</dim>
					<dim>8</dim>
					<dim>160</dim>
					<dim>272</dim>
				</port>
			</output>
			<blobs>
				<biases offset="9720" size="32" />
				<weights offset="9752" size="288" />
			</blobs>
		</layer>
		<layer name="bottleneck1_3/inner/dw1/fn" type="ReLU" precision="FP32" id="21">
			<data negative_slope="0.100000" />
			<input>
				<port id="0">
					<dim>1</dim>
					<dim>8</dim>
					<dim>160</dim>
					<dim>272</dim>
				</port>
			</input>
			<output>
				<port id="1">
					<dim>1</dim>
					<dim>8</dim>
					<dim>160</dim>
					<dim>272</dim>
				</port>
			</output>
		</layer>
		<layer name="bottleneck1_3/dim_inc/conv" type="Convolution" precision="FP32" id="22">
			<data dilations="1,1" group="1" kernel="1,1" output="32" pads_begin="0,0" pads_end="0,0" quantization_level="I8" strides="1,1" />
			<input>
				<port id="0">
					<dim>1</dim>
					<dim>8</dim>
					<dim>160</dim>
					<dim>272</dim>
				</port>
			</input>
			<output>
				<port id="1">
					<dim>1</dim>
					<dim>32</dim>
					<dim>160</dim>
					<dim>272</dim>
				</port>
			</output>
			<blobs>
				<biases offset="10040" size="128" />
				<weights offset="10168" size="1024" />
			</blobs>
		</layer>
		<layer name="bottleneck1_3/add" type="Eltwise" precision="FP32" id="23">
			<data operation="sum" />
			<input>
				<port id="0">
					<dim>1</dim>
					<dim>32</dim>
					<dim>160</dim>
					<dim>272</dim>
				</port>
				<port id="1">
					<dim>1</dim>
					<dim>32</dim>
					<dim>160</dim>
					<dim>272</dim>
				</port>
			</input>
			<output>
				<port id="2">
					<dim>1</dim>
					<dim>32</dim>
					<dim>160</dim>
					<dim>272</dim>
				</port>
			</output>
		</layer>
		<layer name="bottleneck1_3/fn" type="ReLU" precision="FP32" id="24">
			<data negative_slope="0.100000" />
			<input>
				<port id="0">
					<dim>1</dim>
					<dim>32</dim>
					<dim>160</dim>
					<dim>272</dim>
				</port>
			</input>
			<output>
				<port id="1">
					<dim>1</dim>
					<dim>32</dim>
					<dim>160</dim>
					<dim>272</dim>
				</port>
			</output>
		</layer>
		<layer name="bottleneck1_4/dim_red/conv" type="Convolution" precision="FP32" id="25">
			<data dilations="1,1" group="1" kernel="1,1" output="8" pads_begin="0,0" pads_end="0,0" quantization_level="I8" strides="1,1" />
			<input>
				<port id="0">
					<dim>1</dim>
					<dim>32</dim>
					<dim>160</dim>
					<dim>272</dim>
				</port>
			</input>
			<output>
				<port id="1">
					<dim>1</dim>
					<dim>8</dim>
					<dim>160</dim>
					<dim>272</dim>
				</port>
			</output>
			<blobs>
				<biases offset="11192" size="32" />
				<weights offset="11224" size="1024" />
			</blobs>
		</layer>
		<layer name="bottleneck1_4/dim_red/fn" type="ReLU" precision="FP32" id="26">
			<data negative_slope="0.100000" />
			<input>
				<port id="0">
					<dim>1</dim>
					<dim>8</dim>
					<dim>160</dim>
					<dim>272</dim>
				</port>
			</input>
			<output>
				<port id="1">
					<dim>1</dim>
					<dim>8</dim>
					<dim>160</dim>
					<dim>272</dim>
				</port>
			</output>
		</layer>
		<layer name="bottleneck1_4/inner/dw1/conv" type="Convolution" precision="FP32" id="27">
			<data dilations="1,1" group="8" kernel="3,3" output="8" pads_begin="1,1" pads_end="1,1" quantization_level="I8" strides="1,1" />
			<input>
				<port id="0">
					<dim>1</dim>
					<dim>8</dim>
					<dim>160</dim>
					<dim>272</dim>
				</port>
			</input>
			<output>
				<port id="1">
					<dim>1</dim>
					<dim>8</dim>
					<dim>160</dim>
					<dim>272</dim>
				</port>
			</output>
			<blobs>
				<biases offset="12248" size="32" />
				<weights offset="12280" size="288" />
			</blobs>
		</layer>
		<layer name="bottleneck1_4/inner/dw1/fn" type="ReLU" precision="FP32" id="28">
			<data negative_slope="0.100000" />
			<input>
				<port id="0">
					<dim>1</dim>
					<dim>8</dim>
					<dim>160</dim>
					<dim>272</dim>
				</port>
			</input>
			<output>
				<port id="1">
					<dim>1</dim>
					<dim>8</dim>
					<dim>160</dim>
					<dim>272</dim>
				</port>
			</output>
		</layer>
		<layer name="bottleneck1_4/dim_inc/conv" type="Convolution" precision="FP32" id="29">
			<data dilations="1,1" group="1" kernel="1,1" output="32" pads_begin="0,0" pads_end="0,0" quantization_level="I8" strides="1,1" />
			<input>
				<port id="0">
					<dim>1</dim>
					<dim>8</dim>
					<dim>160</dim>
					<dim>272</dim>
				</port>
			</input>
			<output>
				<port id="1">
					<dim>1</dim>
					<dim>32</dim>
					<dim>160</dim>
					<dim>272</dim>
				</port>
			</output>
			<blobs>
				<biases offset="12568" size="128" />
				<weights offset="12696" size="1024" />
			</blobs>
		</layer>
		<layer name="bottleneck1_4/add" type="Eltwise" precision="FP32" id="30">
			<data operation="sum" />
			<input>
				<port id="0">
					<dim>1</dim>
					<dim>32</dim>
					<dim>160</dim>
					<dim>272</dim>
				</port>
				<port id="1">
					<dim>1</dim>
					<dim>32</dim>
					<dim>160</dim>
					<dim>272</dim>
				</port>
			</input>
			<output>
				<port id="2">
					<dim>1</dim>
					<dim>32</dim>
					<dim>160</dim>
					<dim>272</dim>
				</port>
			</output>
		</layer>
		<layer name="bottleneck1_4/fn" type="ReLU" precision="FP32" id="31">
			<data negative_slope="0.100000" />
			<input>
				<port id="0">
					<dim>1</dim>
					<dim>32</dim>
					<dim>160</dim>
					<dim>272</dim>
				</port>
			</input>
			<output>
				<port id="1">
					<dim>1</dim>
					<dim>32</dim>
					<dim>160</dim>
					<dim>272</dim>
				</port>
			</output>
		</layer>
		<layer name="bottleneck2_0/skip/pooling" type="Pooling" precision="FP32" id="32">
			<data exclude-pad="true" kernel="2,2" pads_begin="0,0" pads_end="0,0" pool-method="max" rounding_type="ceil" strides="2,2" />
			<input>
				<port id="0">
					<dim>1</dim>
					<dim>32</dim>
					<dim>160</dim>
					<dim>272</dim>
				</port>
			</input>
			<output>
				<port id="1">
					<dim>1</dim>
					<dim>32</dim>
					<dim>80</dim>
					<dim>136</dim>
				</port>
			</output>
		</layer>
		<layer name="bottleneck2_0/skip/conv" type="Convolution" precision="FP32" id="33">
			<data dilations="1,1" group="1" kernel="1,1" output="64" pads_begin="0,0" pads_end="0,0" quantization_level="I8" strides="1,1" />
			<input>
				<port id="0">
					<dim>1</dim>
					<dim>32</dim>
					<dim>80</dim>
					<dim>136</dim>
				</port>
			</input>
			<output>
				<port id="1">
					<dim>1</dim>
					<dim>64</dim>
					<dim>80</dim>
					<dim>136</dim>
				</port>
			</output>
			<blobs>
				<biases offset="13720" size="256" />
				<weights offset="13976" size="8192" />
			</blobs>
		</layer>
		<layer name="bottleneck2_0/dim_red/conv" type="Convolution" precision="FP32" id="34">
			<data dilations="1,1" group="1" kernel="1,1" output="16" pads_begin="0,0" pads_end="0,0" quantization_level="I8" strides="1,1" />
			<input>
				<port id="0">
					<dim>1</dim>
					<dim>32</dim>
					<dim>160</dim>
					<dim>272</dim>
				</port>
			</input>
			<output>
				<port id="1">
					<dim>1</dim>
					<dim>16</dim>
					<dim>160</dim>
					<dim>272</dim>
				</port>
			</output>
			<blobs>
				<biases offset="22168" size="64" />
				<weights offset="22232" size="2048" />
			</blobs>
		</layer>
		<layer name="bottleneck2_0/dim_red/fn" type="ReLU" precision="FP32" id="35">
			<data negative_slope="0.100000" />
			<input>
				<port id="0">
					<dim>1</dim>
					<dim>16</dim>
					<dim>160</dim>
					<dim>272</dim>
				</port>
			</input>
			<output>
				<port id="1">
					<dim>1</dim>
					<dim>16</dim>
					<dim>160</dim>
					<dim>272</dim>
				</port>
			</output>
		</layer>
		<layer name="bottleneck2_0/inner/dw1/conv" type="Convolution" precision="FP32" id="36">
			<data dilations="1,1" group="16" kernel="3,3" output="16" pads_begin="1,1" pads_end="1,1" quantization_level="I8" strides="2,2" />
			<input>
				<port id="0">
					<dim>1</dim>
					<dim>16</dim>
					<dim>160</dim>
					<dim>272</dim>
				</port>
			</input>
			<output>
				<port id="1">
					<dim>1</dim>
					<dim>16</dim>
					<dim>80</dim>
					<dim>136</dim>
				</port>
			</output>
			<blobs>
				<biases offset="24280" size="64" />
				<weights offset="24344" size="576" />
			</blobs>
		</layer>
		<layer name="bottleneck2_0/inner/dw1/fn" type="ReLU" precision="FP32" id="37">
			<data negative_slope="0.100000" />
			<input>
				<port id="0">
					<dim>1</dim>
					<dim>16</dim>
					<dim>80</dim>
					<dim>136</dim>
				</port>
			</input>
			<output>
				<port id="1">
					<dim>1</dim>
					<dim>16</dim>
					<dim>80</dim>
					<dim>136</dim>
				</port>
			</output>
		</layer>
		<layer name="bottleneck2_0/dim_inc/conv" type="Convolution" precision="FP32" id="38">
			<data dilations="1,1" group="1" kernel="1,1" output="64" pads_begin="0,0" pads_end="0,0" quantization_level="I8" strides="1,1" />
			<input>
				<port id="0">
					<dim>1</dim>
					<dim>16</dim>
					<dim>80</dim>
					<dim>136</dim>
				</port>
			</input>
			<output>
				<port id="1">
					<dim>1</dim>
					<dim>64</dim>
					<dim>80</dim>
					<dim>136</dim>
				</port>
			</output>
			<blobs>
				<biases offset="24920" size="256" />
				<weights offset="25176" size="4096" />
			</blobs>
		</layer>
		<layer name="bottleneck2_0/add" type="Eltwise" precision="FP32" id="39">
			<data operation="sum" />
			<input>
				<port id="0">
					<dim>1</dim>
					<dim>64</dim>
					<dim>80</dim>
					<dim>136</dim>
				</port>
				<port id="1">
					<dim>1</dim>
					<dim>64</dim>
					<dim>80</dim>
					<dim>136</dim>
				</port>
			</input>
			<output>
				<port id="2">
					<dim>1</dim>
					<dim>64</dim>
					<dim>80</dim>
					<dim>136</dim>
				</port>
			</output>
		</layer>
		<layer name="bottleneck2_0/fn" type="ReLU" precision="FP32" id="40">
			<data negative_slope="0.100000" />
			<input>
				<port id="0">
					<dim>1</dim>
					<dim>64</dim>
					<dim>80</dim>
					<dim>136</dim>
				</port>
			</input>
			<output>
				<port id="1">
					<dim>1</dim>
					<dim>64</dim>
					<dim>80</dim>
					<dim>136</dim>
				</port>
			</output>
		</layer>
		<layer name="bottleneck2_1/dim_red/conv" type="Convolution" precision="FP32" id="41">
			<data dilations="1,1" group="1" kernel="1,1" output="16" pads_begin="0,0" pads_end="0,0" quantization_level="I8" strides="1,1" />
			<input>
				<port id="0">
					<dim>1</dim>
					<dim>64</dim>
					<dim>80</dim>
					<dim>136</dim>
				</port>
			</input>
			<output>
				<port id="1">
					<dim>1</dim>
					<dim>16</dim>
					<dim>80</dim>
					<dim>136</dim>
				</port>
			</output>
			<blobs>
				<biases offset="29272" size="64" />
				<weights offset="29336" size="4096" />
			</blobs>
		</layer>
		<layer name="bottleneck2_1/dim_red/fn" type="ReLU" precision="FP32" id="42">
			<data negative_slope="0.100000" />
			<input>
				<port id="0">
					<dim>1</dim>
					<dim>16</dim>
					<dim>80</dim>
					<dim>136</dim>
				</port>
			</input>
			<output>
				<port id="1">
					<dim>1</dim>
					<dim>16</dim>
					<dim>80</dim>
					<dim>136</dim>
				</port>
			</output>
		</layer>
		<layer name="bottleneck2_1/inner/dw1/conv" type="Convolution" precision="FP32" id="43">
			<data dilations="1,1" group="16" kernel="3,3" output="16" pads_begin="1,1" pads_end="1,1" quantization_level="I8" strides="1,1" />
			<input>
				<port id="0">
					<dim>1</dim>
					<dim>16</dim>
					<dim>80</dim>
					<dim>136</dim>
				</port>
			</input>
			<output>
				<port id="1">
					<dim>1</dim>
					<dim>16</dim>
					<dim>80</dim>
					<dim>136</dim>
				</port>
			</output>
			<blobs>
				<biases offset="33432" size="64" />
				<weights offset="33496" size="576" />
			</blobs>
		</layer>
		<layer name="bottleneck2_1/inner/dw1/fn" type="ReLU" precision="FP32" id="44">
			<data negative_slope="0.100000" />
			<input>
				<port id="0">
					<dim>1</dim>
					<dim>16</dim>
					<dim>80</dim>
					<dim>136</dim>
				</port>
			</input>
			<output>
				<port id="1">
					<dim>1</dim>
					<dim>16</dim>
					<dim>80</dim>
					<dim>136</dim>
				</port>
			</output>
		</layer>
		<layer name="bottleneck2_1/dim_inc/conv" type="Convolution" precision="FP32" id="45">
			<data dilations="1,1" group="1" kernel="1,1" output="64" pads_begin="0,0" pads_end="0,0" quantization_level="I8" strides="1,1" />
			<input>
				<port id="0">
					<dim>1</dim>
					<dim>16</dim>
					<dim>80</dim>
					<dim>136</dim>
				</port>
			</input>
			<output>
				<port id="1">
					<dim>1</dim>
					<dim>64</dim>
					<dim>80</dim>
					<dim>136</dim>
				</port>
			</output>
			<blobs>
				<biases offset="34072" size="256" />
				<weights offset="34328" size="4096" />
			</blobs>
		</layer>
		<layer name="bottleneck2_1/add" type="Eltwise" precision="FP32" id="46">
			<data operation="sum" />
			<input>
				<port id="0">
					<dim>1</dim>
					<dim>64</dim>
					<dim>80</dim>
					<dim>136</dim>
				</port>
				<port id="1">
					<dim>1</dim>
					<dim>64</dim>
					<dim>80</dim>
					<dim>136</dim>
				</port>
			</input>
			<output>
				<port id="2">
					<dim>1</dim>
					<dim>64</dim>
					<dim>80</dim>
					<dim>136</dim>
				</port>
			</output>
		</layer>
		<layer name="bottleneck2_1/fn" type="ReLU" precision="FP32" id="47">
			<data negative_slope="0.100000" />
			<input>
				<port id="0">
					<dim>1</dim>
					<dim>64</dim>
					<dim>80</dim>
					<dim>136</dim>
				</port>
			</input>
			<output>
				<port id="1">
					<dim>1</dim>
					<dim>64</dim>
					<dim>80</dim>
					<dim>136</dim>
				</port>
			</output>
		</layer>
		<layer name="bottleneck2_2/dim_red/conv" type="Convolution" precision="FP32" id="48">
			<data dilations="1,1" group="1" kernel="1,1" output="16" pads_begin="0,0" pads_end="0,0" quantization_level="I8" strides="1,1" />
			<input>
				<port id="0">
					<dim>1</dim>
					<dim>64</dim>
					<dim>80</dim>
					<dim>136</dim>
				</port>
			</input>
			<output>
				<port id="1">
					<dim>1</dim>
					<dim>16</dim>
					<dim>80</dim>
					<dim>136</dim>
				</port>
			</output>
			<blobs>
				<biases offset="38424" size="64" />
				<weights offset="38488" size="4096" />
			</blobs>
		</layer>
		<layer name="bottleneck2_2/dim_red/fn" type="ReLU" precision="FP32" id="49">
			<data negative_slope="0.100000" />
			<input>
				<port id="0">
					<dim>1</dim>
					<dim>16</dim>
					<dim>80</dim>
					<dim>136</dim>
				</port>
			</input>
			<output>
				<port id="1">
					<dim>1</dim>
					<dim>16</dim>
					<dim>80</dim>
					<dim>136</dim>
				</port>
			</output>
		</layer>
		<layer name="bottleneck2_2/inner/dw1/conv" type="Convolution" precision="FP32" id="50">
			<data dilations="1,1" group="16" kernel="3,3" output="16" pads_begin="1,1" pads_end="1,1" quantization_level="I8" strides="1,1" />
			<input>
				<port id="0">
					<dim>1</dim>
					<dim>16</dim>
					<dim>80</dim>
					<dim>136</dim>
				</port>
			</input>
			<output>
				<port id="1">
					<dim>1</dim>
					<dim>16</dim>
					<dim>80</dim>
					<dim>136</dim>
				</port>
			</output>
			<blobs>
				<biases offset="42584" size="64" />
				<weights offset="42648" size="576" />
			</blobs>
		</layer>
		<layer name="bottleneck2_2/inner/dw1/fn" type="ReLU" precision="FP32" id="51">
			<data negative_slope="0.100000" />
			<input>
				<port id="0">
					<dim>1</dim>
					<dim>16</dim>
					<dim>80</dim>
					<dim>136</dim>
				</port>
			</input>
			<output>
				<port id="1">
					<dim>1</dim>
					<dim>16</dim>
					<dim>80</dim>
					<dim>136</dim>
				</port>
			</output>
		</layer>
		<layer name="bottleneck2_2/dim_inc/conv" type="Convolution" precision="FP32" id="52">
			<data dilations="1,1" group="1" kernel="1,1" output="64" pads_begin="0,0" pads_end="0,0" quantization_level="I8" strides="1,1" />
			<input>
				<port id="0">
					<dim>1</dim>
					<dim>16</dim>
					<dim>80</dim>
					<dim>136</dim>
				</port>
			</input>
			<output>
				<port id="1">
					<dim>1</dim>
					<dim>64</dim>
					<dim>80</dim>
					<dim>136</dim>
				</port>
			</output>
			<blobs>
				<biases offset="43224" size="256" />
				<weights offset="43480" size="4096" />
			</blobs>
		</layer>
		<layer name="bottleneck2_2/add" type="Eltwise" precision="FP32" id="53">
			<data operation="sum" />
			<input>
				<port id="0">
					<dim>1</dim>
					<dim>64</dim>
					<dim>80</dim>
					<dim>136</dim>
				</port>
				<port id="1">
					<dim>1</dim>
					<dim>64</dim>
					<dim>80</dim>
					<dim>136</dim>
				</port>
			</input>
			<output>
				<port id="2">
					<dim>1</dim>
					<dim>64</dim>
					<dim>80</dim>
					<dim>136</dim>
				</port>
			</output>
		</layer>
		<layer name="bottleneck2_2/fn" type="ReLU" precision="FP32" id="54">
			<data negative_slope="0.100000" />
			<input>
				<port id="0">
					<dim>1</dim>
					<dim>64</dim>
					<dim>80</dim>
					<dim>136</dim>
				</port>
			</input>
			<output>
				<port id="1">
					<dim>1</dim>
					<dim>64</dim>
					<dim>80</dim>
					<dim>136</dim>
				</port>
			</output>
		</layer>
		<layer name="bottleneck2_3/dim_red/conv" type="Convolution" precision="FP32" id="55">
			<data dilations="1,1" group="1" kernel="1,1" output="16" pads_begin="0,0" pads_end="0,0" quantization_level="I8" strides="1,1" />
			<input>
				<port id="0">
					<dim>1</dim>
					<dim>64</dim>
					<dim>80</dim>
					<dim>136</dim>
				</port>
			</input>
			<output>
				<port id="1">
					<dim>1</dim>
					<dim>16</dim>
					<dim>80</dim>
					<dim>136</dim>
				</port>
			</output>
			<blobs>
				<biases offset="47576" size="64" />
				<weights offset="47640" size="4096" />
			</blobs>
		</layer>
		<layer name="bottleneck2_3/dim_red/fn" type="ReLU" precision="FP32" id="56">
			<data negative_slope="0.100000" />
			<input>
				<port id="0">
					<dim>1</dim>
					<dim>16</dim>
					<dim>80</dim>
					<dim>136</dim>
				</port>
			</input>
			<output>
				<port id="1">
					<dim>1</dim>
					<dim>16</dim>
					<dim>80</dim>
					<dim>136</dim>
				</port>
			</output>
		</layer>
		<layer name="bottleneck2_3/inner/dw1/conv" type="Convolution" precision="FP32" id="57">
			<data dilations="1,1" group="16" kernel="3,3" output="16" pads_begin="1,1" pads_end="1,1" quantization_level="I8" strides="1,1" />
			<input>
				<port id="0">
					<dim>1</dim>
					<dim>16</dim>
					<dim>80</dim>
					<dim>136</dim>
				</port>
			</input>
			<output>
				<port id="1">
					<dim>1</dim>
					<dim>16</dim>
					<dim>80</dim>
					<dim>136</dim>
				</port>
			</output>
			<blobs>
				<biases offset="51736" size="64" />
				<weights offset="51800" size="576" />
			</blobs>
		</layer>
		<layer name="bottleneck2_3/inner/dw1/fn" type="ReLU" precision="FP32" id="58">
			<data negative_slope="0.100000" />
			<input>
				<port id="0">
					<dim>1</dim>
					<dim>16</dim>
					<dim>80</dim>
					<dim>136</dim>
				</port>
			</input>
			<output>
				<port id="1">
					<dim>1</dim>
					<dim>16</dim>
					<dim>80</dim>
					<dim>136</dim>
				</port>
			</output>
		</layer>
		<layer name="bottleneck2_3/dim_inc/conv" type="Convolution" precision="FP32" id="59">
			<data dilations="1,1" group="1" kernel="1,1" output="64" pads_begin="0,0" pads_end="0,0" quantization_level="I8" strides="1,1" />
			<input>
				<port id="0">
					<dim>1</dim>
					<dim>16</dim>
					<dim>80</dim>
					<dim>136</dim>
				</port>
			</input>
			<output>
				<port id="1">
					<dim>1</dim>
					<dim>64</dim>
					<dim>80</dim>
					<dim>136</dim>
				</port>
			</output>
			<blobs>
				<biases offset="52376" size="256" />
				<weights offset="52632" size="4096" />
			</blobs>
		</layer>
		<layer name="bottleneck2_3/add" type="Eltwise" precision="FP32" id="60">
			<data operation="sum" />
			<input>
				<port id="0">
					<dim>1</dim>
					<dim>64</dim>
					<dim>80</dim>
					<dim>136</dim>
				</port>
				<port id="1">
					<dim>1</dim>
					<dim>64</dim>
					<dim>80</dim>
					<dim>136</dim>
				</port>
			</input>
			<output>
				<port id="2">
					<dim>1</dim>
					<dim>64</dim>
					<dim>80</dim>
					<dim>136</dim>
				</port>
			</output>
		</layer>
		<layer name="bottleneck2_3/fn" type="ReLU" precision="FP32" id="61">
			<data negative_slope="0.100000" />
			<input>
				<port id="0">
					<dim>1</dim>
					<dim>64</dim>
					<dim>80</dim>
					<dim>136</dim>
				</port>
			</input>
			<output>
				<port id="1">
					<dim>1</dim>
					<dim>64</dim>
					<dim>80</dim>
					<dim>136</dim>
				</port>
			</output>
		</layer>
		<layer name="bottleneck2_4/dim_red/conv" type="Convolution" precision="FP32" id="62">
			<data dilations="1,1" group="1" kernel="1,1" output="16" pads_begin="0,0" pads_end="0,0" quantization_level="I8" strides="1,1" />
			<input>
				<port id="0">
					<dim>1</dim>
					<dim>64</dim>
					<dim>80</dim>
					<dim>136</dim>
				</port>
			</input>
			<output>
				<port id="1">
					<dim>1</dim>
					<dim>16</dim>
					<dim>80</dim>
					<dim>136</dim>
				</port>
			</output>
			<blobs>
				<biases offset="56728" size="64" />
				<weights offset="56792" size="4096" />
			</blobs>
		</layer>
		<layer name="bottleneck2_4/dim_red/fn" type="ReLU" precision="FP32" id="63">
			<data negative_slope="0.100000" />
			<input>
				<port id="0">
					<dim>1</dim>
					<dim>16</dim>
					<dim>80</dim>
					<dim>136</dim>
				</port>
			</input>
			<output>
				<port id="1">
					<dim>1</dim>
					<dim>16</dim>
					<dim>80</dim>
					<dim>136</dim>
				</port>
			</output>
		</layer>
		<layer name="bottleneck2_4/inner/dw1/conv" type="Convolution" precision="FP32" id="64">
			<data dilations="1,1" group="16" kernel="3,3" output="16" pads_begin="1,1" pads_end="1,1" quantization_level="I8" strides="1,1" />
			<input>
				<port id="0">
					<dim>1</dim>
					<dim>16</dim>
					<dim>80</dim>
					<dim>136</dim>
				</port>
			</input>
			<output>
				<port id="1">
					<dim>1</dim>
					<dim>16</dim>
					<dim>80</dim>
					<dim>136</dim>
				</port>
			</output>
			<blobs>
				<biases offset="60888" size="64" />
				<weights offset="60952" size="576" />
			</blobs>
		</layer>
		<layer name="bottleneck2_4/inner/dw1/fn" type="ReLU" precision="FP32" id="65">
			<data negative_slope="0.100000" />
			<input>
				<port id="0">
					<dim>1</dim>
					<dim>16</dim>
					<dim>80</dim>
					<dim>136</dim>
				</port>
			</input>
			<output>
				<port id="1">
					<dim>1</dim>
					<dim>16</dim>
					<dim>80</dim>
					<dim>136</dim>
				</port>
			</output>
		</layer>
		<layer name="bottleneck2_4/dim_inc/conv" type="Convolution" precision="FP32" id="66">
			<data dilations="1,1" group="1" kernel="1,1" output="64" pads_begin="0,0" pads_end="0,0" quantization_level="I8" strides="1,1" />
			<input>
				<port id="0">
					<dim>1</dim>
					<dim>16</dim>
					<dim>80</dim>
					<dim>136</dim>
				</port>
			</input>
			<output>
				<port id="1">
					<dim>1</dim>
					<dim>64</dim>
					<dim>80</dim>
					<dim>136</dim>
				</port>
			</output>
			<blobs>
				<biases offset="61528" size="256" />
				<weights offset="61784" size="4096" />
			</blobs>
		</layer>
		<layer name="bottleneck2_4/add" type="Eltwise" precision="FP32" id="67">
			<data operation="sum" />
			<input>
				<port id="0">
					<dim>1</dim>
					<dim>64</dim>
					<dim>80</dim>
					<dim>136</dim>
				</port>
				<port id="1">
					<dim>1</dim>
					<dim>64</dim>
					<dim>80</dim>
					<dim>136</dim>
				</port>
			</input>
			<output>
				<port id="2">
					<dim>1</dim>
					<dim>64</dim>
					<dim>80</dim>
					<dim>136</dim>
				</port>
			</output>
		</layer>
		<layer name="bottleneck2_4/fn" type="ReLU" precision="FP32" id="68">
			<data negative_slope="0.100000" />
			<input>
				<port id="0">
					<dim>1</dim>
					<dim>64</dim>
					<dim>80</dim>
					<dim>136</dim>
				</port>
			</input>
			<output>
				<port id="1">
					<dim>1</dim>
					<dim>64</dim>
					<dim>80</dim>
					<dim>136</dim>
				</port>
			</output>
		</layer>
		<layer name="bottleneck2_5/dim_red/conv" type="Convolution" precision="FP32" id="69">
			<data dilations="1,1" group="1" kernel="1,1" output="16" pads_begin="0,0" pads_end="0,0" quantization_level="I8" strides="1,1" />
			<input>
				<port id="0">
					<dim>1</dim>
					<dim>64</dim>
					<dim>80</dim>
					<dim>136</dim>
				</port>
			</input>
			<output>
				<port id="1">
					<dim>1</dim>
					<dim>16</dim>
					<dim>80</dim>
					<dim>136</dim>
				</port>
			</output>
			<blobs>
				<biases offset="65880" size="64" />
				<weights offset="65944" size="4096" />
			</blobs>
		</layer>
		<layer name="bottleneck2_5/dim_red/fn" type="ReLU" precision="FP32" id="70">
			<data negative_slope="0.100000" />
			<input>
				<port id="0">
					<dim>1</dim>
					<dim>16</dim>
					<dim>80</dim>
					<dim>136</dim>
				</port>
			</input>
			<output>
				<port id="1">
					<dim>1</dim>
					<dim>16</dim>
					<dim>80</dim>
					<dim>136</dim>
				</port>
			</output>
		</layer>
		<layer name="bottleneck2_5/inner/dw1/conv" type="Convolution" precision="FP32" id="71">
			<data dilations="1,1" group="16" kernel="3,3" output="16" pads_begin="1,1" pads_end="1,1" quantization_level="I8" strides="1,1" />
			<input>
				<port id="0">
					<dim>1</dim>
					<dim>16</dim>
					<dim>80</dim>
					<dim>136</dim>
				</port>
			</input>
			<output>
				<port id="1">
					<dim>1</dim>
					<dim>16</dim>
					<dim>80</dim>
					<dim>136</dim>
				</port>
			</output>
			<blobs>
				<biases offset="70040" size="64" />
				<weights offset="70104" size="576" />
			</blobs>
		</layer>
		<layer name="bottleneck2_5/inner/dw1/fn" type="ReLU" precision="FP32" id="72">
			<data negative_slope="0.100000" />
			<input>
				<port id="0">
					<dim>1</dim>
					<dim>16</dim>
					<dim>80</dim>
					<dim>136</dim>
				</port>
			</input>
			<output>
				<port id="1">
					<dim>1</dim>
					<dim>16</dim>
					<dim>80</dim>
					<dim>136</dim>
				</port>
			</output>
		</layer>
		<layer name="bottleneck2_5/dim_inc/conv" type="Convolution" precision="FP32" id="73">
			<data dilations="1,1" group="1" kernel="1,1" output="64" pads_begin="0,0" pads_end="0,0" quantization_level="I8" strides="1,1" />
			<input>
				<port id="0">
					<dim>1</dim>
					<dim>16</dim>
					<dim>80</dim>
					<dim>136</dim>
				</port>
			</input>
			<output>
				<port id="1">
					<dim>1</dim>
					<dim>64</dim>
					<dim>80</dim>
					<dim>136</dim>
				</port>
			</output>
			<blobs>
				<biases offset="70680" size="256" />
				<weights offset="70936" size="4096" />
			</blobs>
		</layer>
		<layer name="bottleneck2_5/add" type="Eltwise" precision="FP32" id="74">
			<data operation="sum" />
			<input>
				<port id="0">
					<dim>1</dim>
					<dim>64</dim>
					<dim>80</dim>
					<dim>136</dim>
				</port>
				<port id="1">
					<dim>1</dim>
					<dim>64</dim>
					<dim>80</dim>
					<dim>136</dim>
				</port>
			</input>
			<output>
				<port id="2">
					<dim>1</dim>
					<dim>64</dim>
					<dim>80</dim>
					<dim>136</dim>
				</port>
			</output>
		</layer>
		<layer name="bottleneck2_5/fn" type="ReLU" precision="FP32" id="75">
			<data negative_slope="0.100000" />
			<input>
				<port id="0">
					<dim>1</dim>
					<dim>64</dim>
					<dim>80</dim>
					<dim>136</dim>
				</port>
			</input>
			<output>
				<port id="1">
					<dim>1</dim>
					<dim>64</dim>
					<dim>80</dim>
					<dim>136</dim>
				</port>
			</output>
		</layer>
		<layer name="bottleneck2_6/dim_red/conv" type="Convolution" precision="FP32" id="76">
			<data dilations="1,1" group="1" kernel="1,1" output="16" pads_begin="0,0" pads_end="0,0" quantization_level="I8" strides="1,1" />
			<input>
				<port id="0">
					<dim>1</dim>
					<dim>64</dim>
					<dim>80</dim>
					<dim>136</dim>
				</port>
			</input>
			<output>
				<port id="1">
					<dim>1</dim>
					<dim>16</dim>
					<dim>80</dim>
					<dim>136</dim>
				</port>
			</output>
			<blobs>
				<biases offset="75032" size="64" />
				<weights offset="75096" size="4096" />
			</blobs>
		</layer>
		<layer name="bottleneck2_6/dim_red/fn" type="ReLU" precision="FP32" id="77">
			<data negative_slope="0.100000" />
			<input>
				<port id="0">
					<dim>1</dim>
					<dim>16</dim>
					<dim>80</dim>
					<dim>136</dim>
				</port>
			</input>
			<output>
				<port id="1">
					<dim>1</dim>
					<dim>16</dim>
					<dim>80</dim>
					<dim>136</dim>
				</port>
			</output>
		</layer>
		<layer name="bottleneck2_6/inner/dw1/conv" type="Convolution" precision="FP32" id="78">
			<data dilations="1,1" group="16" kernel="3,3" output="16" pads_begin="1,1" pads_end="1,1" quantization_level="I8" strides="1,1" />
			<input>
				<port id="0">
					<dim>1</dim>
					<dim>16</dim>
					<dim>80</dim>
					<dim>136</dim>
				</port>
			</input>
			<output>
				<port id="1">
					<dim>1</dim>
					<dim>16</dim>
					<dim>80</dim>
					<dim>136</dim>
				</port>
			</output>
			<blobs>
				<biases offset="79192" size="64" />
				<weights offset="79256" size="576" />
			</blobs>
		</layer>
		<layer name="bottleneck2_6/inner/dw1/fn" type="ReLU" precision="FP32" id="79">
			<data negative_slope="0.100000" />
			<input>
				<port id="0">
					<dim>1</dim>
					<dim>16</dim>
					<dim>80</dim>
					<dim>136</dim>
				</port>
			</input>
			<output>
				<port id="1">
					<dim>1</dim>
					<dim>16</dim>
					<dim>80</dim>
					<dim>136</dim>
				</port>
			</output>
		</layer>
		<layer name="bottleneck2_6/dim_inc/conv" type="Convolution" precision="FP32" id="80">
			<data dilations="1,1" group="1" kernel="1,1" output="64" pads_begin="0,0" pads_end="0,0" quantization_level="I8" strides="1,1" />
			<input>
				<port id="0">
					<dim>1</dim>
					<dim>16</dim>
					<dim>80</dim>
					<dim>136</dim>
				</port>
			</input>
			<output>
				<port id="1">
					<dim>1</dim>
					<dim>64</dim>
					<dim>80</dim>
					<dim>136</dim>
				</port>
			</output>
			<blobs>
				<biases offset="79832" size="256" />
				<weights offset="80088" size="4096" />
			</blobs>
		</layer>
		<layer name="bottleneck2_6/add" type="Eltwise" precision="FP32" id="81">
			<data operation="sum" />
			<input>
				<port id="0">
					<dim>1</dim>
					<dim>64</dim>
					<dim>80</dim>
					<dim>136</dim>
				</port>
				<port id="1">
					<dim>1</dim>
					<dim>64</dim>
					<dim>80</dim>
					<dim>136</dim>
				</port>
			</input>
			<output>
				<port id="2">
					<dim>1</dim>
					<dim>64</dim>
					<dim>80</dim>
					<dim>136</dim>
				</port>
			</output>
		</layer>
		<layer name="bottleneck2_6/fn" type="ReLU" precision="FP32" id="82">
			<data negative_slope="0.100000" />
			<input>
				<port id="0">
					<dim>1</dim>
					<dim>64</dim>
					<dim>80</dim>
					<dim>136</dim>
				</port>
			</input>
			<output>
				<port id="1">
					<dim>1</dim>
					<dim>64</dim>
					<dim>80</dim>
					<dim>136</dim>
				</port>
			</output>
		</layer>
		<layer name="bottleneck2_7/dim_red/conv" type="Convolution" precision="FP32" id="83">
			<data dilations="1,1" group="1" kernel="1,1" output="16" pads_begin="0,0" pads_end="0,0" quantization_level="I8" strides="1,1" />
			<input>
				<port id="0">
					<dim>1</dim>
					<dim>64</dim>
					<dim>80</dim>
					<dim>136</dim>
				</port>
			</input>
			<output>
				<port id="1">
					<dim>1</dim>
					<dim>16</dim>
					<dim>80</dim>
					<dim>136</dim>
				</port>
			</output>
			<blobs>
				<biases offset="84184" size="64" />
				<weights offset="84248" size="4096" />
			</blobs>
		</layer>
		<layer name="bottleneck2_7/dim_red/fn" type="ReLU" precision="FP32" id="84">
			<data negative_slope="0.100000" />
			<input>
				<port id="0">
					<dim>1</dim>
					<dim>16</dim>
					<dim>80</dim>
					<dim>136</dim>
				</port>
			</input>
			<output>
				<port id="1">
					<dim>1</dim>
					<dim>16</dim>
					<dim>80</dim>
					<dim>136</dim>
				</port>
			</output>
		</layer>
		<layer name="bottleneck2_7/inner/dw1/conv" type="Convolution" precision="FP32" id="85">
			<data dilations="1,1" group="16" kernel="3,3" output="16" pads_begin="1,1" pads_end="1,1" quantization_level="I8" strides="1,1" />
			<input>
				<port id="0">
					<dim>1</dim>
					<dim>16</dim>
					<dim>80</dim>
					<dim>136</dim>
				</port>
			</input>
			<output>
				<port id="1">
					<dim>1</dim>
					<dim>16</dim>
					<dim>80</dim>
					<dim>136</dim>
				</port>
			</output>
			<blobs>
				<biases offset="88344" size="64" />
				<weights offset="88408" size="576" />
			</blobs>
		</layer>
		<layer name="bottleneck2_7/inner/dw1/fn" type="ReLU" precision="FP32" id="86">
			<data negative_slope="0.100000" />
			<input>
				<port id="0">
					<dim>1</dim>
					<dim>16</dim>
					<dim>80</dim>
					<dim>136</dim>
				</port>
			</input>
			<output>
				<port id="1">
					<dim>1</dim>
					<dim>16</dim>
					<dim>80</dim>
					<dim>136</dim>
				</port>
			</output>
		</layer>
		<layer name="bottleneck2_7/dim_inc/conv" type="Convolution" precision="FP32" id="87">
			<data dilations="1,1" group="1" kernel="1,1" output="64" pads_begin="0,0" pads_end="0,0" quantization_level="I8" strides="1,1" />
			<input>
				<port id="0">
					<dim>1</dim>
					<dim>16</dim>
					<dim>80</dim>
					<dim>136</dim>
				</port>
			</input>
			<output>
				<port id="1">
					<dim>1</dim>
					<dim>64</dim>
					<dim>80</dim>
					<dim>136</dim>
				</port>
			</output>
			<blobs>
				<biases offset="88984" size="256" />
				<weights offset="89240" size="4096" />
			</blobs>
		</layer>
		<layer name="bottleneck2_7/add" type="Eltwise" precision="FP32" id="88">
			<data operation="sum" />
			<input>
				<port id="0">
					<dim>1</dim>
					<dim>64</dim>
					<dim>80</dim>
					<dim>136</dim>
				</port>
				<port id="1">
					<dim>1</dim>
					<dim>64</dim>
					<dim>80</dim>
					<dim>136</dim>
				</port>
			</input>
			<output>
				<port id="2">
					<dim>1</dim>
					<dim>64</dim>
					<dim>80</dim>
					<dim>136</dim>
				</port>
			</output>
		</layer>
		<layer name="bottleneck2_7/fn" type="ReLU" precision="FP32" id="89">
			<data negative_slope="0.100000" />
			<input>
				<port id="0">
					<dim>1</dim>
					<dim>64</dim>
					<dim>80</dim>
					<dim>136</dim>
				</port>
			</input>
			<output>
				<port id="1">
					<dim>1</dim>
					<dim>64</dim>
					<dim>80</dim>
					<dim>136</dim>
				</port>
			</output>
		</layer>
		<layer name="bottleneck2_8/dim_red/conv" type="Convolution" precision="FP32" id="90">
			<data dilations="1,1" group="1" kernel="1,1" output="16" pads_begin="0,0" pads_end="0,0" quantization_level="I8" strides="1,1" />
			<input>
				<port id="0">
					<dim>1</dim>
					<dim>64</dim>
					<dim>80</dim>
					<dim>136</dim>
				</port>
			</input>
			<output>
				<port id="1">
					<dim>1</dim>
					<dim>16</dim>
					<dim>80</dim>
					<dim>136</dim>
				</port>
			</output>
			<blobs>
				<biases offset="93336" size="64" />
				<weights offset="93400" size="4096" />
			</blobs>
		</layer>
		<layer name="bottleneck2_8/dim_red/fn" type="ReLU" precision="FP32" id="91">
			<data negative_slope="0.100000" />
			<input>
				<port id="0">
					<dim>1</dim>
					<dim>16</dim>
					<dim>80</dim>
					<dim>136</dim>
				</port>
			</input>
			<output>
				<port id="1">
					<dim>1</dim>
					<dim>16</dim>
					<dim>80</dim>
					<dim>136</dim>
				</port>
			</output>
		</layer>
		<layer name="bottleneck2_8/inner/dw1/conv" type="Convolution" precision="FP32" id="92">
			<data dilations="1,1" group="16" kernel="3,3" output="16" pads_begin="1,1" pads_end="1,1" quantization_level="I8" strides="1,1" />
			<input>
				<port id="0">
					<dim>1</dim>
					<dim>16</dim>
					<dim>80</dim>
					<dim>136</dim>
				</port>
			</input>
			<output>
				<port id="1">
					<dim>1</dim>
					<dim>16</dim>
					<dim>80</dim>
					<dim>136</dim>
				</port>
			</output>
			<blobs>
				<biases offset="97496" size="64" />
				<weights offset="97560" size="576" />
			</blobs>
		</layer>
		<layer name="bottleneck2_8/inner/dw1/fn" type="ReLU" precision="FP32" id="93">
			<data negative_slope="0.100000" />
			<input>
				<port id="0">
					<dim>1</dim>
					<dim>16</dim>
					<dim>80</dim>
					<dim>136</dim>
				</port>
			</input>
			<output>
				<port id="1">
					<dim>1</dim>
					<dim>16</dim>
					<dim>80</dim>
					<dim>136</dim>
				</port>
			</output>
		</layer>
		<layer name="bottleneck2_8/dim_inc/conv" type="Convolution" precision="FP32" id="94">
			<data dilations="1,1" group="1" kernel="1,1" output="64" pads_begin="0,0" pads_end="0,0" quantization_level="I8" strides="1,1" />
			<input>
				<port id="0">
					<dim>1</dim>
					<dim>16</dim>
					<dim>80</dim>
					<dim>136</dim>
				</port>
			</input>
			<output>
				<port id="1">
					<dim>1</dim>
					<dim>64</dim>
					<dim>80</dim>
					<dim>136</dim>
				</port>
			</output>
			<blobs>
				<biases offset="98136" size="256" />
				<weights offset="98392" size="4096" />
			</blobs>
		</layer>
		<layer name="bottleneck2_8/add" type="Eltwise" precision="FP32" id="95">
			<data operation="sum" />
			<input>
				<port id="0">
					<dim>1</dim>
					<dim>64</dim>
					<dim>80</dim>
					<dim>136</dim>
				</port>
				<port id="1">
					<dim>1</dim>
					<dim>64</dim>
					<dim>80</dim>
					<dim>136</dim>
				</port>
			</input>
			<output>
				<port id="2">
					<dim>1</dim>
					<dim>64</dim>
					<dim>80</dim>
					<dim>136</dim>
				</port>
			</output>
		</layer>
		<layer name="bottleneck2_8/fn" type="ReLU" precision="FP32" id="96">
			<data negative_slope="0.100000" />
			<input>
				<port id="0">
					<dim>1</dim>
					<dim>64</dim>
					<dim>80</dim>
					<dim>136</dim>
				</port>
			</input>
			<output>
				<port id="1">
					<dim>1</dim>
					<dim>64</dim>
					<dim>80</dim>
					<dim>136</dim>
				</port>
			</output>
		</layer>
		<layer name="bottleneck3_0/skip/pooling" type="Pooling" precision="FP32" id="97">
			<data exclude-pad="true" kernel="2,2" pads_begin="0,0" pads_end="0,0" pool-method="max" rounding_type="ceil" strides="2,2" />
			<input>
				<port id="0">
					<dim>1</dim>
					<dim>64</dim>
					<dim>80</dim>
					<dim>136</dim>
				</port>
			</input>
			<output>
				<port id="1">
					<dim>1</dim>
					<dim>64</dim>
					<dim>40</dim>
					<dim>68</dim>
				</port>
			</output>
		</layer>
		<layer name="bottleneck3_0/skip/conv" type="Convolution" precision="FP32" id="98">
			<data dilations="1,1" group="1" kernel="1,1" output="128" pads_begin="0,0" pads_end="0,0" quantization_level="I8" strides="1,1" />
			<input>
				<port id="0">
					<dim>1</dim>
					<dim>64</dim>
					<dim>40</dim>
					<dim>68</dim>
				</port>
			</input>
			<output>
				<port id="1">
					<dim>1</dim>
					<dim>128</dim>
					<dim>40</dim>
					<dim>68</dim>
				</port>
			</output>
			<blobs>
				<biases offset="102488" size="512" />
				<weights offset="103000" size="32768" />
			</blobs>
		</layer>
		<layer name="bottleneck3_0/dim_red/conv" type="Convolution" precision="FP32" id="99">
			<data dilations="1,1" group="1" kernel="1,1" output="32" pads_begin="0,0" pads_end="0,0" quantization_level="I8" strides="1,1" />
			<input>
				<port id="0">
					<dim>1</dim>
					<dim>64</dim>
					<dim>80</dim>
					<dim>136</dim>
				</port>
			</input>
			<output>
				<port id="1">
					<dim>1</dim>
					<dim>32</dim>
					<dim>80</dim>
					<dim>136</dim>
				</port>
			</output>
			<blobs>
				<biases offset="135768" size="128" />
				<weights offset="135896" size="8192" />
			</blobs>
		</layer>
		<layer name="bottleneck3_0/dim_red/fn" type="ReLU" precision="FP32" id="100">
			<data negative_slope="0.100000" />
			<input>
				<port id="0">
					<dim>1</dim>
					<dim>32</dim>
					<dim>80</dim>
					<dim>136</dim>
				</port>
			</input>
			<output>
				<port id="1">
					<dim>1</dim>
					<dim>32</dim>
					<dim>80</dim>
					<dim>136</dim>
				</port>
			</output>
		</layer>
		<layer name="bottleneck3_0/inner/dw1/conv" type="Convolution" precision="FP32" id="101">
			<data dilations="1,1" group="32" kernel="3,3" output="32" pads_begin="1,1" pads_end="1,1" quantization_level="I8" strides="2,2" />
			<input>
				<port id="0">
					<dim>1</dim>
					<dim>32</dim>
					<dim>80</dim>
					<dim>136</dim>
				</port>
			</input>
			<output>
				<port id="1">
					<dim>1</dim>
					<dim>32</dim>
					<dim>40</dim>
					<dim>68</dim>
				</port>
			</output>
			<blobs>
				<biases offset="144088" size="128" />
				<weights offset="144216" size="1152" />
			</blobs>
		</layer>
		<layer name="bottleneck3_0/inner/dw1/fn" type="ReLU" precision="FP32" id="102">
			<data negative_slope="0.100000" />
			<input>
				<port id="0">
					<dim>1</dim>
					<dim>32</dim>
					<dim>40</dim>
					<dim>68</dim>
				</port>
			</input>
			<output>
				<port id="1">
					<dim>1</dim>
					<dim>32</dim>
					<dim>40</dim>
					<dim>68</dim>
				</port>
			</output>
		</layer>
		<layer name="bottleneck3_0/dim_inc/conv" type="Convolution" precision="FP32" id="103">
			<data dilations="1,1" group="1" kernel="1,1" output="128" pads_begin="0,0" pads_end="0,0" quantization_level="I8" strides="1,1" />
			<input>
				<port id="0">
					<dim>1</dim>
					<dim>32</dim>
					<dim>40</dim>
					<dim>68</dim>
				</port>
			</input>
			<output>
				<port id="1">
					<dim>1</dim>
					<dim>128</dim>
					<dim>40</dim>
					<dim>68</dim>
				</port>
			</output>
			<blobs>
				<biases offset="145368" size="512" />
				<weights offset="145880" size="16384" />
			</blobs>
		</layer>
		<layer name="bottleneck3_0/add" type="Eltwise" precision="FP32" id="104">
			<data operation="sum" />
			<input>
				<port id="0">
					<dim>1</dim>
					<dim>128</dim>
					<dim>40</dim>
					<dim>68</dim>
				</port>
				<port id="1">
					<dim>1</dim>
					<dim>128</dim>
					<dim>40</dim>
					<dim>68</dim>
				</port>
			</input>
			<output>
				<port id="2">
					<dim>1</dim>
					<dim>128</dim>
					<dim>40</dim>
					<dim>68</dim>
				</port>
			</output>
		</layer>
		<layer name="bottleneck3_0/fn" type="ReLU" precision="FP32" id="105">
			<data negative_slope="0.100000" />
			<input>
				<port id="0">
					<dim>1</dim>
					<dim>128</dim>
					<dim>40</dim>
					<dim>68</dim>
				</port>
			</input>
			<output>
				<port id="1">
					<dim>1</dim>
					<dim>128</dim>
					<dim>40</dim>
					<dim>68</dim>
				</port>
			</output>
		</layer>
		<layer name="bottleneck3_1/dim_red/conv" type="Convolution" precision="FP32" id="106">
			<data dilations="1,1" group="1" kernel="1,1" output="32" pads_begin="0,0" pads_end="0,0" quantization_level="I8" strides="1,1" />
			<input>
				<port id="0">
					<dim>1</dim>
					<dim>128</dim>
					<dim>40</dim>
					<dim>68</dim>
				</port>
			</input>
			<output>
				<port id="1">
					<dim>1</dim>
					<dim>32</dim>
					<dim>40</dim>
					<dim>68</dim>
				</port>
			</output>
			<blobs>
				<biases offset="162264" size="128" />
				<weights offset="162392" size="16384" />
			</blobs>
		</layer>
		<layer name="bottleneck3_1/dim_red/fn" type="ReLU" precision="FP32" id="107">
			<data negative_slope="0.100000" />
			<input>
				<port id="0">
					<dim>1</dim>
					<dim>32</dim>
					<dim>40</dim>
					<dim>68</dim>
				</port>
			</input>
			<output>
				<port id="1">
					<dim>1</dim>
					<dim>32</dim>
					<dim>40</dim>
					<dim>68</dim>
				</port>
			</output>
		</layer>
		<layer name="bottleneck3_1/inner/dw1/conv" type="Convolution" precision="FP32" id="108">
			<data dilations="1,1" group="32" kernel="3,3" output="32" pads_begin="1,1" pads_end="1,1" quantization_level="I8" strides="1,1" />
			<input>
				<port id="0">
					<dim>1</dim>
					<dim>32</dim>
					<dim>40</dim>
					<dim>68</dim>
				</port>
			</input>
			<output>
				<port id="1">
					<dim>1</dim>
					<dim>32</dim>
					<dim>40</dim>
					<dim>68</dim>
				</port>
			</output>
			<blobs>
				<biases offset="178776" size="128" />
				<weights offset="178904" size="1152" />
			</blobs>
		</layer>
		<layer name="bottleneck3_1/inner/dw1/fn" type="ReLU" precision="FP32" id="109">
			<data negative_slope="0.100000" />
			<input>
				<port id="0">
					<dim>1</dim>
					<dim>32</dim>
					<dim>40</dim>
					<dim>68</dim>
				</port>
			</input>
			<output>
				<port id="1">
					<dim>1</dim>
					<dim>32</dim>
					<dim>40</dim>
					<dim>68</dim>
				</port>
			</output>
		</layer>
		<layer name="bottleneck3_1/dim_inc/conv" type="Convolution" precision="FP32" id="110">
			<data dilations="1,1" group="1" kernel="1,1" output="128" pads_begin="0,0" pads_end="0,0" quantization_level="I8" strides="1,1" />
			<input>
				<port id="0">
					<dim>1</dim>
					<dim>32</dim>
					<dim>40</dim>
					<dim>68</dim>
				</port>
			</input>
			<output>
				<port id="1">
					<dim>1</dim>
					<dim>128</dim>
					<dim>40</dim>
					<dim>68</dim>
				</port>
			</output>
			<blobs>
				<biases offset="180056" size="512" />
				<weights offset="180568" size="16384" />
			</blobs>
		</layer>
		<layer name="bottleneck3_1/add" type="Eltwise" precision="FP32" id="111">
			<data operation="sum" />
			<input>
				<port id="0">
					<dim>1</dim>
					<dim>128</dim>
					<dim>40</dim>
					<dim>68</dim>
				</port>
				<port id="1">
					<dim>1</dim>
					<dim>128</dim>
					<dim>40</dim>
					<dim>68</dim>
				</port>
			</input>
			<output>
				<port id="2">
					<dim>1</dim>
					<dim>128</dim>
					<dim>40</dim>
					<dim>68</dim>
				</port>
			</output>
		</layer>
		<layer name="bottleneck3_1/fn" type="ReLU" precision="FP32" id="112">
			<data negative_slope="0.100000" />
			<input>
				<port id="0">
					<dim>1</dim>
					<dim>128</dim>
					<dim>40</dim>
					<dim>68</dim>
				</port>
			</input>
			<output>
				<port id="1">
					<dim>1</dim>
					<dim>128</dim>
					<dim>40</dim>
					<dim>68</dim>
				</port>
			</output>
		</layer>
		<layer name="bottleneck3_2/dim_red/conv" type="Convolution" precision="FP32" id="113">
			<data dilations="1,1" group="1" kernel="1,1" output="32" pads_begin="0,0" pads_end="0,0" quantization_level="I8" strides="1,1" />
			<input>
				<port id="0">
					<dim>1</dim>
					<dim>128</dim>
					<dim>40</dim>
					<dim>68</dim>
				</port>
			</input>
			<output>
				<port id="1">
					<dim>1</dim>
					<dim>32</dim>
					<dim>40</dim>
					<dim>68</dim>
				</port>
			</output>
			<blobs>
				<biases offset="196952" size="128" />
				<weights offset="197080" size="16384" />
			</blobs>
		</layer>
		<layer name="bottleneck3_2/dim_red/fn" type="ReLU" precision="FP32" id="114">
			<data negative_slope="0.100000" />
			<input>
				<port id="0">
					<dim>1</dim>
					<dim>32</dim>
					<dim>40</dim>
					<dim>68</dim>
				</port>
			</input>
			<output>
				<port id="1">
					<dim>1</dim>
					<dim>32</dim>
					<dim>40</dim>
					<dim>68</dim>
				</port>
			</output>
		</layer>
		<layer name="bottleneck3_2/inner/dw1/conv" type="Convolution" precision="FP32" id="115">
			<data dilations="1,1" group="32" kernel="3,3" output="32" pads_begin="1,1" pads_end="1,1" quantization_level="I8" strides="1,1" />
			<input>
				<port id="0">
					<dim>1</dim>
					<dim>32</dim>
					<dim>40</dim>
					<dim>68</dim>
				</port>
			</input>
			<output>
				<port id="1">
					<dim>1</dim>
					<dim>32</dim>
					<dim>40</dim>
					<dim>68</dim>
				</port>
			</output>
			<blobs>
				<biases offset="213464" size="128" />
				<weights offset="213592" size="1152" />
			</blobs>
		</layer>
		<layer name="bottleneck3_2/inner/dw1/fn" type="ReLU" precision="FP32" id="116">
			<data negative_slope="0.100000" />
			<input>
				<port id="0">
					<dim>1</dim>
					<dim>32</dim>
					<dim>40</dim>
					<dim>68</dim>
				</port>
			</input>
			<output>
				<port id="1">
					<dim>1</dim>
					<dim>32</dim>
					<dim>40</dim>
					<dim>68</dim>
				</port>
			</output>
		</layer>
		<layer name="bottleneck3_2/dim_inc/conv" type="Convolution" precision="FP32" id="117">
			<data dilations="1,1" group="1" kernel="1,1" output="128" pads_begin="0,0" pads_end="0,0" quantization_level="I8" strides="1,1" />
			<input>
				<port id="0">
					<dim>1</dim>
					<dim>32</dim>
					<dim>40</dim>
					<dim>68</dim>
				</port>
			</input>
			<output>
				<port id="1">
					<dim>1</dim>
					<dim>128</dim>
					<dim>40</dim>
					<dim>68</dim>
				</port>
			</output>
			<blobs>
				<biases offset="214744" size="512" />
				<weights offset="215256" size="16384" />
			</blobs>
		</layer>
		<layer name="bottleneck3_2/add" type="Eltwise" precision="FP32" id="118">
			<data operation="sum" />
			<input>
				<port id="0">
					<dim>1</dim>
					<dim>128</dim>
					<dim>40</dim>
					<dim>68</dim>
				</port>
				<port id="1">
					<dim>1</dim>
					<dim>128</dim>
					<dim>40</dim>
					<dim>68</dim>
				</port>
			</input>
			<output>
				<port id="2">
					<dim>1</dim>
					<dim>128</dim>
					<dim>40</dim>
					<dim>68</dim>
				</port>
			</output>
		</layer>
		<layer name="bottleneck3_2/fn" type="ReLU" precision="FP32" id="119">
			<data negative_slope="0.100000" />
			<input>
				<port id="0">
					<dim>1</dim>
					<dim>128</dim>
					<dim>40</dim>
					<dim>68</dim>
				</port>
			</input>
			<output>
				<port id="1">
					<dim>1</dim>
					<dim>128</dim>
					<dim>40</dim>
					<dim>68</dim>
				</port>
			</output>
		</layer>
		<layer name="bottleneck3_3/dim_red/conv" type="Convolution" precision="FP32" id="120">
			<data dilations="1,1" group="1" kernel="1,1" output="32" pads_begin="0,0" pads_end="0,0" quantization_level="I8" strides="1,1" />
			<input>
				<port id="0">
					<dim>1</dim>
					<dim>128</dim>
					<dim>40</dim>
					<dim>68</dim>
				</port>
			</input>
			<output>
				<port id="1">
					<dim>1</dim>
					<dim>32</dim>
					<dim>40</dim>
					<dim>68</dim>
				</port>
			</output>
			<blobs>
				<biases offset="231640" size="128" />
				<weights offset="231768" size="16384" />
			</blobs>
		</layer>
		<layer name="bottleneck3_3/dim_red/fn" type="ReLU" precision="FP32" id="121">
			<data negative_slope="0.100000" />
			<input>
				<port id="0">
					<dim>1</dim>
					<dim>32</dim>
					<dim>40</dim>
					<dim>68</dim>
				</port>
			</input>
			<output>
				<port id="1">
					<dim>1</dim>
					<dim>32</dim>
					<dim>40</dim>
					<dim>68</dim>
				</port>
			</output>
		</layer>
		<layer name="bottleneck3_3/inner/dw1/conv" type="Convolution" precision="FP32" id="122">
			<data dilations="1,1" group="32" kernel="3,3" output="32" pads_begin="1,1" pads_end="1,1" quantization_level="I8" strides="1,1" />
			<input>
				<port id="0">
					<dim>1</dim>
					<dim>32</dim>
					<dim>40</dim>
					<dim>68</dim>
				</port>
			</input>
			<output>
				<port id="1">
					<dim>1</dim>
					<dim>32</dim>
					<dim>40</dim>
					<dim>68</dim>
				</port>
			</output>
			<blobs>
				<biases offset="248152" size="128" />
				<weights offset="248280" size="1152" />
			</blobs>
		</layer>
		<layer name="bottleneck3_3/inner/dw1/fn" type="ReLU" precision="FP32" id="123">
			<data negative_slope="0.100000" />
			<input>
				<port id="0">
					<dim>1</dim>
					<dim>32</dim>
					<dim>40</dim>
					<dim>68</dim>
				</port>
			</input>
			<output>
				<port id="1">
					<dim>1</dim>
					<dim>32</dim>
					<dim>40</dim>
					<dim>68</dim>
				</port>
			</output>
		</layer>
		<layer name="bottleneck3_3/dim_inc/conv" type="Convolution" precision="FP32" id="124">
			<data dilations="1,1" group="1" kernel="1,1" output="128" pads_begin="0,0" pads_end="0,0" quantization_level="I8" strides="1,1" />
			<input>
				<port id="0">
					<dim>1</dim>
					<dim>32</dim>
					<dim>40</dim>
					<dim>68</dim>
				</port>
			</input>
			<output>
				<port id="1">
					<dim>1</dim>
					<dim>128</dim>
					<dim>40</dim>
					<dim>68</dim>
				</port>
			</output>
			<blobs>
				<biases offset="249432" size="512" />
				<weights offset="249944" size="16384" />
			</blobs>
		</layer>
		<layer name="bottleneck3_3/add" type="Eltwise" precision="FP32" id="125">
			<data operation="sum" />
			<input>
				<port id="0">
					<dim>1</dim>
					<dim>128</dim>
					<dim>40</dim>
					<dim>68</dim>
				</port>
				<port id="1">
					<dim>1</dim>
					<dim>128</dim>
					<dim>40</dim>
					<dim>68</dim>
				</port>
			</input>
			<output>
				<port id="2">
					<dim>1</dim>
					<dim>128</dim>
					<dim>40</dim>
					<dim>68</dim>
				</port>
			</output>
		</layer>
		<layer name="bottleneck3_3/fn" type="ReLU" precision="FP32" id="126">
			<data negative_slope="0.100000" />
			<input>
				<port id="0">
					<dim>1</dim>
					<dim>128</dim>
					<dim>40</dim>
					<dim>68</dim>
				</port>
			</input>
			<output>
				<port id="1">
					<dim>1</dim>
					<dim>128</dim>
					<dim>40</dim>
					<dim>68</dim>
				</port>
			</output>
		</layer>
		<layer name="bottleneck3_4/dim_red/conv" type="Convolution" precision="FP32" id="127">
			<data dilations="1,1" group="1" kernel="1,1" output="32" pads_begin="0,0" pads_end="0,0" quantization_level="I8" strides="1,1" />
			<input>
				<port id="0">
					<dim>1</dim>
					<dim>128</dim>
					<dim>40</dim>
					<dim>68</dim>
				</port>
			</input>
			<output>
				<port id="1">
					<dim>1</dim>
					<dim>32</dim>
					<dim>40</dim>
					<dim>68</dim>
				</port>
			</output>
			<blobs>
				<biases offset="266328" size="128" />
				<weights offset="266456" size="16384" />
			</blobs>
		</layer>
		<layer name="bottleneck3_4/dim_red/fn" type="ReLU" precision="FP32" id="128">
			<data negative_slope="0.100000" />
			<input>
				<port id="0">
					<dim>1</dim>
					<dim>32</dim>
					<dim>40</dim>
					<dim>68</dim>
				</port>
			</input>
			<output>
				<port id="1">
					<dim>1</dim>
					<dim>32</dim>
					<dim>40</dim>
					<dim>68</dim>
				</port>
			</output>
		</layer>
		<layer name="bottleneck3_4/inner/dw1/conv" type="Convolution" precision="FP32" id="129">
			<data dilations="1,1" group="32" kernel="3,3" output="32" pads_begin="1,1" pads_end="1,1" quantization_level="I8" strides="1,1" />
			<input>
				<port id="0">
					<dim>1</dim>
					<dim>32</dim>
					<dim>40</dim>
					<dim>68</dim>
				</port>
			</input>
			<output>
				<port id="1">
					<dim>1</dim>
					<dim>32</dim>
					<dim>40</dim>
					<dim>68</dim>
				</port>
			</output>
			<blobs>
				<biases offset="282840" size="128" />
				<weights offset="282968" size="1152" />
			</blobs>
		</layer>
		<layer name="bottleneck3_4/inner/dw1/fn" type="ReLU" precision="FP32" id="130">
			<data negative_slope="0.100000" />
			<input>
				<port id="0">
					<dim>1</dim>
					<dim>32</dim>
					<dim>40</dim>
					<dim>68</dim>
				</port>
			</input>
			<output>
				<port id="1">
					<dim>1</dim>
					<dim>32</dim>
					<dim>40</dim>
					<dim>68</dim>
				</port>
			</output>
		</layer>
		<layer name="bottleneck3_4/dim_inc/conv" type="Convolution" precision="FP32" id="131">
			<data dilations="1,1" group="1" kernel="1,1" output="128" pads_begin="0,0" pads_end="0,0" quantization_level="I8" strides="1,1" />
			<input>
				<port id="0">
					<dim>1</dim>
					<dim>32</dim>
					<dim>40</dim>
					<dim>68</dim>
				</port>
			</input>
			<output>
				<port id="1">
					<dim>1</dim>
					<dim>128</dim>
					<dim>40</dim>
					<dim>68</dim>
				</port>
			</output>
			<blobs>
				<biases offset="284120" size="512" />
				<weights offset="284632" size="16384" />
			</blobs>
		</layer>
		<layer name="bottleneck3_4/add" type="Eltwise" precision="FP32" id="132">
			<data operation="sum" />
			<input>
				<port id="0">
					<dim>1</dim>
					<dim>128</dim>
					<dim>40</dim>
					<dim>68</dim>
				</port>
				<port id="1">
					<dim>1</dim>
					<dim>128</dim>
					<dim>40</dim>
					<dim>68</dim>
				</port>
			</input>
			<output>
				<port id="2">
					<dim>1</dim>
					<dim>128</dim>
					<dim>40</dim>
					<dim>68</dim>
				</port>
			</output>
		</layer>
		<layer name="bottleneck3_4/fn" type="ReLU" precision="FP32" id="133">
			<data negative_slope="0.100000" />
			<input>
				<port id="0">
					<dim>1</dim>
					<dim>128</dim>
					<dim>40</dim>
					<dim>68</dim>
				</port>
			</input>
			<output>
				<port id="1">
					<dim>1</dim>
					<dim>128</dim>
					<dim>40</dim>
					<dim>68</dim>
				</port>
			</output>
		</layer>
		<layer name="bottleneck3_5/dim_red/conv" type="Convolution" precision="FP32" id="134">
			<data dilations="1,1" group="1" kernel="1,1" output="32" pads_begin="0,0" pads_end="0,0" quantization_level="I8" strides="1,1" />
			<input>
				<port id="0">
					<dim>1</dim>
					<dim>128</dim>
					<dim>40</dim>
					<dim>68</dim>
				</port>
			</input>
			<output>
				<port id="1">
					<dim>1</dim>
					<dim>32</dim>
					<dim>40</dim>
					<dim>68</dim>
				</port>
			</output>
			<blobs>
				<biases offset="301016" size="128" />
				<weights offset="301144" size="16384" />
			</blobs>
		</layer>
		<layer name="bottleneck3_5/dim_red/fn" type="ReLU" precision="FP32" id="135">
			<data negative_slope="0.100000" />
			<input>
				<port id="0">
					<dim>1</dim>
					<dim>32</dim>
					<dim>40</dim>
					<dim>68</dim>
				</port>
			</input>
			<output>
				<port id="1">
					<dim>1</dim>
					<dim>32</dim>
					<dim>40</dim>
					<dim>68</dim>
				</port>
			</output>
		</layer>
		<layer name="bottleneck3_5/inner/dw1/conv" type="Convolution" precision="FP32" id="136">
			<data dilations="1,1" group="32" kernel="3,3" output="32" pads_begin="1,1" pads_end="1,1" quantization_level="I8" strides="1,1" />
			<input>
				<port id="0">
					<dim>1</dim>
					<dim>32</dim>
					<dim>40</dim>
					<dim>68</dim>
				</port>
			</input>
			<output>
				<port id="1">
					<dim>1</dim>
					<dim>32</dim>
					<dim>40</dim>
					<dim>68</dim>
				</port>
			</output>
			<blobs>
				<biases offset="317528" size="128" />
				<weights offset="317656" size="1152" />
			</blobs>
		</layer>
		<layer name="bottleneck3_5/inner/dw1/fn" type="ReLU" precision="FP32" id="137">
			<data negative_slope="0.100000" />
			<input>
				<port id="0">
					<dim>1</dim>
					<dim>32</dim>
					<dim>40</dim>
					<dim>68</dim>
				</port>
			</input>
			<output>
				<port id="1">
					<dim>1</dim>
					<dim>32</dim>
					<dim>40</dim>
					<dim>68</dim>
				</port>
			</output>
		</layer>
		<layer name="bottleneck3_5/dim_inc/conv" type="Convolution" precision="FP32" id="138">
			<data dilations="1,1" group="1" kernel="1,1" output="128" pads_begin="0,0" pads_end="0,0" quantization_level="I8" strides="1,1" />
			<input>
				<port id="0">
					<dim>1</dim>
					<dim>32</dim>
					<dim>40</dim>
					<dim>68</dim>
				</port>
			</input>
			<output>
				<port id="1">
					<dim>1</dim>
					<dim>128</dim>
					<dim>40</dim>
					<dim>68</dim>
				</port>
			</output>
			<blobs>
				<biases offset="318808" size="512" />
				<weights offset="319320" size="16384" />
			</blobs>
		</layer>
		<layer name="bottleneck3_5/add" type="Eltwise" precision="FP32" id="139">
			<data operation="sum" />
			<input>
				<port id="0">
					<dim>1</dim>
					<dim>128</dim>
					<dim>40</dim>
					<dim>68</dim>
				</port>
				<port id="1">
					<dim>1</dim>
					<dim>128</dim>
					<dim>40</dim>
					<dim>68</dim>
				</port>
			</input>
			<output>
				<port id="2">
					<dim>1</dim>
					<dim>128</dim>
					<dim>40</dim>
					<dim>68</dim>
				</port>
			</output>
		</layer>
		<layer name="bottleneck3_5/fn" type="ReLU" precision="FP32" id="140">
			<data negative_slope="0.100000" />
			<input>
				<port id="0">
					<dim>1</dim>
					<dim>128</dim>
					<dim>40</dim>
					<dim>68</dim>
				</port>
			</input>
			<output>
				<port id="1">
					<dim>1</dim>
					<dim>128</dim>
					<dim>40</dim>
					<dim>68</dim>
				</port>
			</output>
		</layer>
		<layer name="bottleneck3_6/dim_red/conv" type="Convolution" precision="FP32" id="141">
			<data dilations="1,1" group="1" kernel="1,1" output="32" pads_begin="0,0" pads_end="0,0" quantization_level="I8" strides="1,1" />
			<input>
				<port id="0">
					<dim>1</dim>
					<dim>128</dim>
					<dim>40</dim>
					<dim>68</dim>
				</port>
			</input>
			<output>
				<port id="1">
					<dim>1</dim>
					<dim>32</dim>
					<dim>40</dim>
					<dim>68</dim>
				</port>
			</output>
			<blobs>
				<biases offset="335704" size="128" />
				<weights offset="335832" size="16384" />
			</blobs>
		</layer>
		<layer name="bottleneck3_6/dim_red/fn" type="ReLU" precision="FP32" id="142">
			<data negative_slope="0.100000" />
			<input>
				<port id="0">
					<dim>1</dim>
					<dim>32</dim>
					<dim>40</dim>
					<dim>68</dim>
				</port>
			</input>
			<output>
				<port id="1">
					<dim>1</dim>
					<dim>32</dim>
					<dim>40</dim>
					<dim>68</dim>
				</port>
			</output>
		</layer>
		<layer name="bottleneck3_6/inner/dw1/conv" type="Convolution" precision="FP32" id="143">
			<data dilations="1,1" group="32" kernel="3,3" output="32" pads_begin="1,1" pads_end="1,1" quantization_level="I8" strides="1,1" />
			<input>
				<port id="0">
					<dim>1</dim>
					<dim>32</dim>
					<dim>40</dim>
					<dim>68</dim>
				</port>
			</input>
			<output>
				<port id="1">
					<dim>1</dim>
					<dim>32</dim>
					<dim>40</dim>
					<dim>68</dim>
				</port>
			</output>
			<blobs>
				<biases offset="352216" size="128" />
				<weights offset="352344" size="1152" />
			</blobs>
		</layer>
		<layer name="bottleneck3_6/inner/dw1/fn" type="ReLU" precision="FP32" id="144">
			<data negative_slope="0.100000" />
			<input>
				<port id="0">
					<dim>1</dim>
					<dim>32</dim>
					<dim>40</dim>
					<dim>68</dim>
				</port>
			</input>
			<output>
				<port id="1">
					<dim>1</dim>
					<dim>32</dim>
					<dim>40</dim>
					<dim>68</dim>
				</port>
			</output>
		</layer>
		<layer name="bottleneck3_6/dim_inc/conv" type="Convolution" precision="FP32" id="145">
			<data dilations="1,1" group="1" kernel="1,1" output="128" pads_begin="0,0" pads_end="0,0" quantization_level="I8" strides="1,1" />
			<input>
				<port id="0">
					<dim>1</dim>
					<dim>32</dim>
					<dim>40</dim>
					<dim>68</dim>
				</port>
			</input>
			<output>
				<port id="1">
					<dim>1</dim>
					<dim>128</dim>
					<dim>40</dim>
					<dim>68</dim>
				</port>
			</output>
			<blobs>
				<biases offset="353496" size="512" />
				<weights offset="354008" size="16384" />
			</blobs>
		</layer>
		<layer name="bottleneck3_6/add" type="Eltwise" precision="FP32" id="146">
			<data operation="sum" />
			<input>
				<port id="0">
					<dim>1</dim>
					<dim>128</dim>
					<dim>40</dim>
					<dim>68</dim>
				</port>
				<port id="1">
					<dim>1</dim>
					<dim>128</dim>
					<dim>40</dim>
					<dim>68</dim>
				</port>
			</input>
			<output>
				<port id="2">
					<dim>1</dim>
					<dim>128</dim>
					<dim>40</dim>
					<dim>68</dim>
				</port>
			</output>
		</layer>
		<layer name="bottleneck3_6/fn" type="ReLU" precision="FP32" id="147">
			<data negative_slope="0.100000" />
			<input>
				<port id="0">
					<dim>1</dim>
					<dim>128</dim>
					<dim>40</dim>
					<dim>68</dim>
				</port>
			</input>
			<output>
				<port id="1">
					<dim>1</dim>
					<dim>128</dim>
					<dim>40</dim>
					<dim>68</dim>
				</port>
			</output>
		</layer>
		<layer name="bottleneck3_7/dim_red/conv" type="Convolution" precision="FP32" id="148">
			<data dilations="1,1" group="1" kernel="1,1" output="32" pads_begin="0,0" pads_end="0,0" quantization_level="I8" strides="1,1" />
			<input>
				<port id="0">
					<dim>1</dim>
					<dim>128</dim>
					<dim>40</dim>
					<dim>68</dim>
				</port>
			</input>
			<output>
				<port id="1">
					<dim>1</dim>
					<dim>32</dim>
					<dim>40</dim>
					<dim>68</dim>
				</port>
			</output>
			<blobs>
				<biases offset="370392" size="128" />
				<weights offset="370520" size="16384" />
			</blobs>
		</layer>
		<layer name="bottleneck3_7/dim_red/fn" type="ReLU" precision="FP32" id="149">
			<data negative_slope="0.100000" />
			<input>
				<port id="0">
					<dim>1</dim>
					<dim>32</dim>
					<dim>40</dim>
					<dim>68</dim>
				</port>
			</input>
			<output>
				<port id="1">
					<dim>1</dim>
					<dim>32</dim>
					<dim>40</dim>
					<dim>68</dim>
				</port>
			</output>
		</layer>
		<layer name="bottleneck3_7/inner/dw1/conv" type="Convolution" precision="FP32" id="150">
			<data dilations="1,1" group="32" kernel="3,3" output="32" pads_begin="1,1" pads_end="1,1" quantization_level="I8" strides="1,1" />
			<input>
				<port id="0">
					<dim>1</dim>
					<dim>32</dim>
					<dim>40</dim>
					<dim>68</dim>
				</port>
			</input>
			<output>
				<port id="1">
					<dim>1</dim>
					<dim>32</dim>
					<dim>40</dim>
					<dim>68</dim>
				</port>
			</output>
			<blobs>
				<biases offset="386904" size="128" />
				<weights offset="387032" size="1152" />
			</blobs>
		</layer>
		<layer name="bottleneck3_7/inner/dw1/fn" type="ReLU" precision="FP32" id="151">
			<data negative_slope="0.100000" />
			<input>
				<port id="0">
					<dim>1</dim>
					<dim>32</dim>
					<dim>40</dim>
					<dim>68</dim>
				</port>
			</input>
			<output>
				<port id="1">
					<dim>1</dim>
					<dim>32</dim>
					<dim>40</dim>
					<dim>68</dim>
				</port>
			</output>
		</layer>
		<layer name="bottleneck3_7/dim_inc/conv" type="Convolution" precision="FP32" id="152">
			<data dilations="1,1" group="1" kernel="1,1" output="128" pads_begin="0,0" pads_end="0,0" quantization_level="I8" strides="1,1" />
			<input>
				<port id="0">
					<dim>1</dim>
					<dim>32</dim>
					<dim>40</dim>
					<dim>68</dim>
				</port>
			</input>
			<output>
				<port id="1">
					<dim>1</dim>
					<dim>128</dim>
					<dim>40</dim>
					<dim>68</dim>
				</port>
			</output>
			<blobs>
				<biases offset="388184" size="512" />
				<weights offset="388696" size="16384" />
			</blobs>
		</layer>
		<layer name="bottleneck3_7/add" type="Eltwise" precision="FP32" id="153">
			<data operation="sum" />
			<input>
				<port id="0">
					<dim>1</dim>
					<dim>128</dim>
					<dim>40</dim>
					<dim>68</dim>
				</port>
				<port id="1">
					<dim>1</dim>
					<dim>128</dim>
					<dim>40</dim>
					<dim>68</dim>
				</port>
			</input>
			<output>
				<port id="2">
					<dim>1</dim>
					<dim>128</dim>
					<dim>40</dim>
					<dim>68</dim>
				</port>
			</output>
		</layer>
		<layer name="bottleneck3_7/fn" type="ReLU" precision="FP32" id="154">
			<data negative_slope="0.100000" />
			<input>
				<port id="0">
					<dim>1</dim>
					<dim>128</dim>
					<dim>40</dim>
					<dim>68</dim>
				</port>
			</input>
			<output>
				<port id="1">
					<dim>1</dim>
					<dim>128</dim>
					<dim>40</dim>
					<dim>68</dim>
				</port>
			</output>
		</layer>
		<layer name="bottleneck3_8/dim_red/conv" type="Convolution" precision="FP32" id="155">
			<data dilations="1,1" group="1" kernel="1,1" output="32" pads_begin="0,0" pads_end="0,0" quantization_level="I8" strides="1,1" />
			<input>
				<port id="0">
					<dim>1</dim>
					<dim>128</dim>
					<dim>40</dim>
					<dim>68</dim>
				</port>
			</input>
			<output>
				<port id="1">
					<dim>1</dim>
					<dim>32</dim>
					<dim>40</dim>
					<dim>68</dim>
				</port>
			</output>
			<blobs>
				<biases offset="405080" size="128" />
				<weights offset="405208" size="16384" />
			</blobs>
		</layer>
		<layer name="bottleneck3_8/dim_red/fn" type="ReLU" precision="FP32" id="156">
			<data negative_slope="0.100000" />
			<input>
				<port id="0">
					<dim>1</dim>
					<dim>32</dim>
					<dim>40</dim>
					<dim>68</dim>
				</port>
			</input>
			<output>
				<port id="1">
					<dim>1</dim>
					<dim>32</dim>
					<dim>40</dim>
					<dim>68</dim>
				</port>
			</output>
		</layer>
		<layer name="bottleneck3_8/inner/dw1/conv" type="Convolution" precision="FP32" id="157">
			<data dilations="1,1" group="32" kernel="3,3" output="32" pads_begin="1,1" pads_end="1,1" quantization_level="I8" strides="1,1" />
			<input>
				<port id="0">
					<dim>1</dim>
					<dim>32</dim>
					<dim>40</dim>
					<dim>68</dim>
				</port>
			</input>
			<output>
				<port id="1">
					<dim>1</dim>
					<dim>32</dim>
					<dim>40</dim>
					<dim>68</dim>
				</port>
			</output>
			<blobs>
				<biases offset="421592" size="128" />
				<weights offset="421720" size="1152" />
			</blobs>
		</layer>
		<layer name="bottleneck3_8/inner/dw1/fn" type="ReLU" precision="FP32" id="158">
			<data negative_slope="0.100000" />
			<input>
				<port id="0">
					<dim>1</dim>
					<dim>32</dim>
					<dim>40</dim>
					<dim>68</dim>
				</port>
			</input>
			<output>
				<port id="1">
					<dim>1</dim>
					<dim>32</dim>
					<dim>40</dim>
					<dim>68</dim>
				</port>
			</output>
		</layer>
		<layer name="bottleneck3_8/dim_inc/conv" type="Convolution" precision="FP32" id="159">
			<data dilations="1,1" group="1" kernel="1,1" output="128" pads_begin="0,0" pads_end="0,0" quantization_level="I8" strides="1,1" />
			<input>
				<port id="0">
					<dim>1</dim>
					<dim>32</dim>
					<dim>40</dim>
					<dim>68</dim>
				</port>
			</input>
			<output>
				<port id="1">
					<dim>1</dim>
					<dim>128</dim>
					<dim>40</dim>
					<dim>68</dim>
				</port>
			</output>
			<blobs>
				<biases offset="422872" size="512" />
				<weights offset="423384" size="16384" />
			</blobs>
		</layer>
		<layer name="bottleneck3_8/add" type="Eltwise" precision="FP32" id="160">
			<data operation="sum" />
			<input>
				<port id="0">
					<dim>1</dim>
					<dim>128</dim>
					<dim>40</dim>
					<dim>68</dim>
				</port>
				<port id="1">
					<dim>1</dim>
					<dim>128</dim>
					<dim>40</dim>
					<dim>68</dim>
				</port>
			</input>
			<output>
				<port id="2">
					<dim>1</dim>
					<dim>128</dim>
					<dim>40</dim>
					<dim>68</dim>
				</port>
			</output>
		</layer>
		<layer name="bottleneck3_8/fn" type="ReLU" precision="FP32" id="161">
			<data negative_slope="0.100000" />
			<input>
				<port id="0">
					<dim>1</dim>
					<dim>128</dim>
					<dim>40</dim>
					<dim>68</dim>
				</port>
			</input>
			<output>
				<port id="1">
					<dim>1</dim>
					<dim>128</dim>
					<dim>40</dim>
					<dim>68</dim>
				</port>
			</output>
		</layer>
		<layer name="bottleneck3_9/dim_red/conv" type="Convolution" precision="FP32" id="162">
			<data dilations="1,1" group="1" kernel="1,1" output="32" pads_begin="0,0" pads_end="0,0" quantization_level="I8" strides="1,1" />
			<input>
				<port id="0">
					<dim>1</dim>
					<dim>128</dim>
					<dim>40</dim>
					<dim>68</dim>
				</port>
			</input>
			<output>
				<port id="1">
					<dim>1</dim>
					<dim>32</dim>
					<dim>40</dim>
					<dim>68</dim>
				</port>
			</output>
			<blobs>
				<biases offset="439768" size="128" />
				<weights offset="439896" size="16384" />
			</blobs>
		</layer>
		<layer name="bottleneck3_9/dim_red/fn" type="ReLU" precision="FP32" id="163">
			<data negative_slope="0.100000" />
			<input>
				<port id="0">
					<dim>1</dim>
					<dim>32</dim>
					<dim>40</dim>
					<dim>68</dim>
				</port>
			</input>
			<output>
				<port id="1">
					<dim>1</dim>
					<dim>32</dim>
					<dim>40</dim>
					<dim>68</dim>
				</port>
			</output>
		</layer>
		<layer name="bottleneck3_9/inner/dw1/conv" type="Convolution" precision="FP32" id="164">
			<data dilations="1,1" group="32" kernel="3,3" output="32" pads_begin="1,1" pads_end="1,1" quantization_level="I8" strides="1,1" />
			<input>
				<port id="0">
					<dim>1</dim>
					<dim>32</dim>
					<dim>40</dim>
					<dim>68</dim>
				</port>
			</input>
			<output>
				<port id="1">
					<dim>1</dim>
					<dim>32</dim>
					<dim>40</dim>
					<dim>68</dim>
				</port>
			</output>
			<blobs>
				<biases offset="456280" size="128" />
				<weights offset="456408" size="1152" />
			</blobs>
		</layer>
		<layer name="bottleneck3_9/inner/dw1/fn" type="ReLU" precision="FP32" id="165">
			<data negative_slope="0.100000" />
			<input>
				<port id="0">
					<dim>1</dim>
					<dim>32</dim>
					<dim>40</dim>
					<dim>68</dim>
				</port>
			</input>
			<output>
				<port id="1">
					<dim>1</dim>
					<dim>32</dim>
					<dim>40</dim>
					<dim>68</dim>
				</port>
			</output>
		</layer>
		<layer name="bottleneck3_9/dim_inc/conv" type="Convolution" precision="FP32" id="166">
			<data dilations="1,1" group="1" kernel="1,1" output="128" pads_begin="0,0" pads_end="0,0" quantization_level="I8" strides="1,1" />
			<input>
				<port id="0">
					<dim>1</dim>
					<dim>32</dim>
					<dim>40</dim>
					<dim>68</dim>
				</port>
			</input>
			<output>
				<port id="1">
					<dim>1</dim>
					<dim>128</dim>
					<dim>40</dim>
					<dim>68</dim>
				</port>
			</output>
			<blobs>
				<biases offset="457560" size="512" />
				<weights offset="458072" size="16384" />
			</blobs>
		</layer>
		<layer name="bottleneck3_9/add" type="Eltwise" precision="FP32" id="167">
			<data operation="sum" />
			<input>
				<port id="0">
					<dim>1</dim>
					<dim>128</dim>
					<dim>40</dim>
					<dim>68</dim>
				</port>
				<port id="1">
					<dim>1</dim>
					<dim>128</dim>
					<dim>40</dim>
					<dim>68</dim>
				</port>
			</input>
			<output>
				<port id="2">
					<dim>1</dim>
					<dim>128</dim>
					<dim>40</dim>
					<dim>68</dim>
				</port>
			</output>
		</layer>
		<layer name="bottleneck3_9/fn" type="ReLU" precision="FP32" id="168">
			<data negative_slope="0.100000" />
			<input>
				<port id="0">
					<dim>1</dim>
					<dim>128</dim>
					<dim>40</dim>
					<dim>68</dim>
				</port>
			</input>
			<output>
				<port id="1">
					<dim>1</dim>
					<dim>128</dim>
					<dim>40</dim>
					<dim>68</dim>
				</port>
			</output>
		</layer>
		<layer name="bottleneck3_10/dim_red/conv" type="Convolution" precision="FP32" id="169">
			<data dilations="1,1" group="1" kernel="1,1" output="32" pads_begin="0,0" pads_end="0,0" quantization_level="I8" strides="1,1" />
			<input>
				<port id="0">
					<dim>1</dim>
					<dim>128</dim>
					<dim>40</dim>
					<dim>68</dim>
				</port>
			</input>
			<output>
				<port id="1">
					<dim>1</dim>
					<dim>32</dim>
					<dim>40</dim>
					<dim>68</dim>
				</port>
			</output>
			<blobs>
				<biases offset="474456" size="128" />
				<weights offset="474584" size="16384" />
			</blobs>
		</layer>
		<layer name="bottleneck3_10/dim_red/fn" type="ReLU" precision="FP32" id="170">
			<data negative_slope="0.100000" />
			<input>
				<port id="0">
					<dim>1</dim>
					<dim>32</dim>
					<dim>40</dim>
					<dim>68</dim>
				</port>
			</input>
			<output>
				<port id="1">
					<dim>1</dim>
					<dim>32</dim>
					<dim>40</dim>
					<dim>68</dim>
				</port>
			</output>
		</layer>
		<layer name="bottleneck3_10/inner/dw1/conv" type="Convolution" precision="FP32" id="171">
			<data dilations="1,1" group="32" kernel="3,3" output="32" pads_begin="1,1" pads_end="1,1" quantization_level="I8" strides="1,1" />
			<input>
				<port id="0">
					<dim>1</dim>
					<dim>32</dim>
					<dim>40</dim>
					<dim>68</dim>
				</port>
			</input>
			<output>
				<port id="1">
					<dim>1</dim>
					<dim>32</dim>
					<dim>40</dim>
					<dim>68</dim>
				</port>
			</output>
			<blobs>
				<biases offset="490968" size="128" />
				<weights offset="491096" size="1152" />
			</blobs>
		</layer>
		<layer name="bottleneck3_10/inner/dw1/fn" type="ReLU" precision="FP32" id="172">
			<data negative_slope="0.100000" />
			<input>
				<port id="0">
					<dim>1</dim>
					<dim>32</dim>
					<dim>40</dim>
					<dim>68</dim>
				</port>
			</input>
			<output>
				<port id="1">
					<dim>1</dim>
					<dim>32</dim>
					<dim>40</dim>
					<dim>68</dim>
				</port>
			</output>
		</layer>
		<layer name="bottleneck3_10/dim_inc/conv" type="Convolution" precision="FP32" id="173">
			<data dilations="1,1" group="1" kernel="1,1" output="128" pads_begin="0,0" pads_end="0,0" quantization_level="I8" strides="1,1" />
			<input>
				<port id="0">
					<dim>1</dim>
					<dim>32</dim>
					<dim>40</dim>
					<dim>68</dim>
				</port>
			</input>
			<output>
				<port id="1">
					<dim>1</dim>
					<dim>128</dim>
					<dim>40</dim>
					<dim>68</dim>
				</port>
			</output>
			<blobs>
				<biases offset="492248" size="512" />
				<weights offset="492760" size="16384" />
			</blobs>
		</layer>
		<layer name="bottleneck3_10/add" type="Eltwise" precision="FP32" id="174">
			<data operation="sum" />
			<input>
				<port id="0">
					<dim>1</dim>
					<dim>128</dim>
					<dim>40</dim>
					<dim>68</dim>
				</port>
				<port id="1">
					<dim>1</dim>
					<dim>128</dim>
					<dim>40</dim>
					<dim>68</dim>
				</port>
			</input>
			<output>
				<port id="2">
					<dim>1</dim>
					<dim>128</dim>
					<dim>40</dim>
					<dim>68</dim>
				</port>
			</output>
		</layer>
		<layer name="bottleneck3_10/fn" type="ReLU" precision="FP32" id="175">
			<data negative_slope="0.100000" />
			<input>
				<port id="0">
					<dim>1</dim>
					<dim>128</dim>
					<dim>40</dim>
					<dim>68</dim>
				</port>
			</input>
			<output>
				<port id="1">
					<dim>1</dim>
					<dim>128</dim>
					<dim>40</dim>
					<dim>68</dim>
				</port>
			</output>
		</layer>
		<layer name="bottleneck4_0/skip/pooling" type="Pooling" precision="FP32" id="176">
			<data exclude-pad="true" kernel="2,2" pads_begin="0,0" pads_end="0,0" pool-method="max" rounding_type="ceil" strides="2,2" />
			<input>
				<port id="0">
					<dim>1</dim>
					<dim>128</dim>
					<dim>40</dim>
					<dim>68</dim>
				</port>
			</input>
			<output>
				<port id="1">
					<dim>1</dim>
					<dim>128</dim>
					<dim>20</dim>
					<dim>34</dim>
				</port>
			</output>
		</layer>
		<layer name="bottleneck4_0/skip/conv" type="Convolution" precision="FP32" id="177">
			<data dilations="1,1" group="1" kernel="1,1" output="256" pads_begin="0,0" pads_end="0,0" quantization_level="I8" strides="1,1" />
			<input>
				<port id="0">
					<dim>1</dim>
					<dim>128</dim>
					<dim>20</dim>
					<dim>34</dim>
				</port>
			</input>
			<output>
				<port id="1">
					<dim>1</dim>
					<dim>256</dim>
					<dim>20</dim>
					<dim>34</dim>
				</port>
			</output>
			<blobs>
				<biases offset="509144" size="1024" />
				<weights offset="510168" size="131072" />
			</blobs>
		</layer>
		<layer name="bottleneck4_0/dim_red/conv" type="Convolution" precision="FP32" id="178">
			<data dilations="1,1" group="1" kernel="1,1" output="64" pads_begin="0,0" pads_end="0,0" quantization_level="I8" strides="1,1" />
			<input>
				<port id="0">
					<dim>1</dim>
					<dim>128</dim>
					<dim>40</dim>
					<dim>68</dim>
				</port>
			</input>
			<output>
				<port id="1">
					<dim>1</dim>
					<dim>64</dim>
					<dim>40</dim>
					<dim>68</dim>
				</port>
			</output>
			<blobs>
				<biases offset="641240" size="256" />
				<weights offset="641496" size="32768" />
			</blobs>
		</layer>
		<layer name="bottleneck4_0/dim_red/fn" type="ReLU" precision="FP32" id="179">
			<data negative_slope="0.100000" />
			<input>
				<port id="0">
					<dim>1</dim>
					<dim>64</dim>
					<dim>40</dim>
					<dim>68</dim>
				</port>
			</input>
			<output>
				<port id="1">
					<dim>1</dim>
					<dim>64</dim>
					<dim>40</dim>
					<dim>68</dim>
				</port>
			</output>
		</layer>
		<layer name="bottleneck4_0/inner/dw1/conv" type="Convolution" precision="FP32" id="180">
			<data dilations="1,1" group="64" kernel="3,3" output="64" pads_begin="1,1" pads_end="1,1" quantization_level="I8" strides="2,2" />
			<input>
				<port id="0">
					<dim>1</dim>
					<dim>64</dim>
					<dim>40</dim>
					<dim>68</dim>
				</port>
			</input>
			<output>
				<port id="1">
					<dim>1</dim>
					<dim>64</dim>
					<dim>20</dim>
					<dim>34</dim>
				</port>
			</output>
			<blobs>
				<biases offset="674264" size="256" />
				<weights offset="674520" size="2304" />
			</blobs>
		</layer>
		<layer name="bottleneck4_0/inner/dw1/fn" type="ReLU" precision="FP32" id="181">
			<data negative_slope="0.100000" />
			<input>
				<port id="0">
					<dim>1</dim>
					<dim>64</dim>
					<dim>20</dim>
					<dim>34</dim>
				</port>
			</input>
			<output>
				<port id="1">
					<dim>1</dim>
					<dim>64</dim>
					<dim>20</dim>
					<dim>34</dim>
				</port>
			</output>
		</layer>
		<layer name="bottleneck4_0/dim_inc/conv" type="Convolution" precision="FP32" id="182">
			<data dilations="1,1" group="1" kernel="1,1" output="256" pads_begin="0,0" pads_end="0,0" quantization_level="I8" strides="1,1" />
			<input>
				<port id="0">
					<dim>1</dim>
					<dim>64</dim>
					<dim>20</dim>
					<dim>34</dim>
				</port>
			</input>
			<output>
				<port id="1">
					<dim>1</dim>
					<dim>256</dim>
					<dim>20</dim>
					<dim>34</dim>
				</port>
			</output>
			<blobs>
				<biases offset="676824" size="1024" />
				<weights offset="677848" size="65536" />
			</blobs>
		</layer>
		<layer name="bottleneck4_0/add" type="Eltwise" precision="FP32" id="183">
			<data operation="sum" />
			<input>
				<port id="0">
					<dim>1</dim>
					<dim>256</dim>
					<dim>20</dim>
					<dim>34</dim>
				</port>
				<port id="1">
					<dim>1</dim>
					<dim>256</dim>
					<dim>20</dim>
					<dim>34</dim>
				</port>
			</input>
			<output>
				<port id="2">
					<dim>1</dim>
					<dim>256</dim>
					<dim>20</dim>
					<dim>34</dim>
				</port>
			</output>
		</layer>
		<layer name="bottleneck4_0/fn" type="ReLU" precision="FP32" id="184">
			<data negative_slope="0.100000" />
			<input>
				<port id="0">
					<dim>1</dim>
					<dim>256</dim>
					<dim>20</dim>
					<dim>34</dim>
				</port>
			</input>
			<output>
				<port id="1">
					<dim>1</dim>
					<dim>256</dim>
					<dim>20</dim>
					<dim>34</dim>
				</port>
			</output>
		</layer>
		<layer name="bottleneck4_1/dim_red/conv" type="Convolution" precision="FP32" id="185">
			<data dilations="1,1" group="1" kernel="1,1" output="64" pads_begin="0,0" pads_end="0,0" quantization_level="I8" strides="1,1" />
			<input>
				<port id="0">
					<dim>1</dim>
					<dim>256</dim>
					<dim>20</dim>
					<dim>34</dim>
				</port>
			</input>
			<output>
				<port id="1">
					<dim>1</dim>
					<dim>64</dim>
					<dim>20</dim>
					<dim>34</dim>
				</port>
			</output>
			<blobs>
				<biases offset="743384" size="256" />
				<weights offset="743640" size="65536" />
			</blobs>
		</layer>
		<layer name="bottleneck4_1/dim_red/fn" type="ReLU" precision="FP32" id="186">
			<data negative_slope="0.100000" />
			<input>
				<port id="0">
					<dim>1</dim>
					<dim>64</dim>
					<dim>20</dim>
					<dim>34</dim>
				</port>
			</input>
			<output>
				<port id="1">
					<dim>1</dim>
					<dim>64</dim>
					<dim>20</dim>
					<dim>34</dim>
				</port>
			</output>
		</layer>
		<layer name="bottleneck4_1/inner/dw1/conv" type="Convolution" precision="FP32" id="187">
			<data dilations="1,1" group="64" kernel="3,3" output="64" pads_begin="1,1" pads_end="1,1" quantization_level="I8" strides="1,1" />
			<input>
				<port id="0">
					<dim>1</dim>
					<dim>64</dim>
					<dim>20</dim>
					<dim>34</dim>
				</port>
			</input>
			<output>
				<port id="1">
					<dim>1</dim>
					<dim>64</dim>
					<dim>20</dim>
					<dim>34</dim>
				</port>
			</output>
			<blobs>
				<biases offset="809176" size="256" />
				<weights offset="809432" size="2304" />
			</blobs>
		</layer>
		<layer name="bottleneck4_1/inner/dw1/fn" type="ReLU" precision="FP32" id="188">
			<data negative_slope="0.100000" />
			<input>
				<port id="0">
					<dim>1</dim>
					<dim>64</dim>
					<dim>20</dim>
					<dim>34</dim>
				</port>
			</input>
			<output>
				<port id="1">
					<dim>1</dim>
					<dim>64</dim>
					<dim>20</dim>
					<dim>34</dim>
				</port>
			</output>
		</layer>
		<layer name="bottleneck4_1/dim_inc/conv" type="Convolution" precision="FP32" id="189">
			<data dilations="1,1" group="1" kernel="1,1" output="256" pads_begin="0,0" pads_end="0,0" quantization_level="I8" strides="1,1" />
			<input>
				<port id="0">
					<dim>1</dim>
					<dim>64</dim>
					<dim>20</dim>
					<dim>34</dim>
				</port>
			</input>
			<output>
				<port id="1">
					<dim>1</dim>
					<dim>256</dim>
					<dim>20</dim>
					<dim>34</dim>
				</port>
			</output>
			<blobs>
				<biases offset="811736" size="1024" />
				<weights offset="812760" size="65536" />
			</blobs>
		</layer>
		<layer name="bottleneck4_1/add" type="Eltwise" precision="FP32" id="190">
			<data operation="sum" />
			<input>
				<port id="0">
					<dim>1</dim>
					<dim>256</dim>
					<dim>20</dim>
					<dim>34</dim>
				</port>
				<port id="1">
					<dim>1</dim>
					<dim>256</dim>
					<dim>20</dim>
					<dim>34</dim>
				</port>
			</input>
			<output>
				<port id="2">
					<dim>1</dim>
					<dim>256</dim>
					<dim>20</dim>
					<dim>34</dim>
				</port>
			</output>
		</layer>
		<layer name="bottleneck4_1/fn" type="ReLU" precision="FP32" id="191">
			<data negative_slope="0.100000" />
			<input>
				<port id="0">
					<dim>1</dim>
					<dim>256</dim>
					<dim>20</dim>
					<dim>34</dim>
				</port>
			</input>
			<output>
				<port id="1">
					<dim>1</dim>
					<dim>256</dim>
					<dim>20</dim>
					<dim>34</dim>
				</port>
			</output>
		</layer>
		<layer name="bottleneck4_2/dim_red/conv" type="Convolution" precision="FP32" id="192">
			<data dilations="1,1" group="1" kernel="1,1" output="64" pads_begin="0,0" pads_end="0,0" quantization_level="I8" strides="1,1" />
			<input>
				<port id="0">
					<dim>1</dim>
					<dim>256</dim>
					<dim>20</dim>
					<dim>34</dim>
				</port>
			</input>
			<output>
				<port id="1">
					<dim>1</dim>
					<dim>64</dim>
					<dim>20</dim>
					<dim>34</dim>
				</port>
			</output>
			<blobs>
				<biases offset="878296" size="256" />
				<weights offset="878552" size="65536" />
			</blobs>
		</layer>
		<layer name="bottleneck4_2/dim_red/fn" type="ReLU" precision="FP32" id="193">
			<data negative_slope="0.100000" />
			<input>
				<port id="0">
					<dim>1</dim>
					<dim>64</dim>
					<dim>20</dim>
					<dim>34</dim>
				</port>
			</input>
			<output>
				<port id="1">
					<dim>1</dim>
					<dim>64</dim>
					<dim>20</dim>
					<dim>34</dim>
				</port>
			</output>
		</layer>
		<layer name="bottleneck4_2/inner/dw1/conv" type="Convolution" precision="FP32" id="194">
			<data dilations="1,1" group="64" kernel="3,3" output="64" pads_begin="1,1" pads_end="1,1" quantization_level="I8" strides="1,1" />
			<input>
				<port id="0">
					<dim>1</dim>
					<dim>64</dim>
					<dim>20</dim>
					<dim>34</dim>
				</port>
			</input>
			<output>
				<port id="1">
					<dim>1</dim>
					<dim>64</dim>
					<dim>20</dim>
					<dim>34</dim>
				</port>
			</output>
			<blobs>
				<biases offset="944088" size="256" />
				<weights offset="944344" size="2304" />
			</blobs>
		</layer>
		<layer name="bottleneck4_2/inner/dw1/fn" type="ReLU" precision="FP32" id="195">
			<data negative_slope="0.100000" />
			<input>
				<port id="0">
					<dim>1</dim>
					<dim>64</dim>
					<dim>20</dim>
					<dim>34</dim>
				</port>
			</input>
			<output>
				<port id="1">
					<dim>1</dim>
					<dim>64</dim>
					<dim>20</dim>
					<dim>34</dim>
				</port>
			</output>
		</layer>
		<layer name="bottleneck4_2/dim_inc/conv" type="Convolution" precision="FP32" id="196">
			<data dilations="1,1" group="1" kernel="1,1" output="256" pads_begin="0,0" pads_end="0,0" quantization_level="I8" strides="1,1" />
			<input>
				<port id="0">
					<dim>1</dim>
					<dim>64</dim>
					<dim>20</dim>
					<dim>34</dim>
				</port>
			</input>
			<output>
				<port id="1">
					<dim>1</dim>
					<dim>256</dim>
					<dim>20</dim>
					<dim>34</dim>
				</port>
			</output>
			<blobs>
				<biases offset="946648" size="1024" />
				<weights offset="947672" size="65536" />
			</blobs>
		</layer>
		<layer name="bottleneck4_2/add" type="Eltwise" precision="FP32" id="197">
			<data operation="sum" />
			<input>
				<port id="0">
					<dim>1</dim>
					<dim>256</dim>
					<dim>20</dim>
					<dim>34</dim>
				</port>
				<port id="1">
					<dim>1</dim>
					<dim>256</dim>
					<dim>20</dim>
					<dim>34</dim>
				</port>
			</input>
			<output>
				<port id="2">
					<dim>1</dim>
					<dim>256</dim>
					<dim>20</dim>
					<dim>34</dim>
				</port>
			</output>
		</layer>
		<layer name="bottleneck4_2/fn" type="ReLU" precision="FP32" id="198">
			<data negative_slope="0.100000" />
			<input>
				<port id="0">
					<dim>1</dim>
					<dim>256</dim>
					<dim>20</dim>
					<dim>34</dim>
				</port>
			</input>
			<output>
				<port id="1">
					<dim>1</dim>
					<dim>256</dim>
					<dim>20</dim>
					<dim>34</dim>
				</port>
			</output>
		</layer>
		<layer name="bottleneck4_3/dim_red/conv" type="Convolution" precision="FP32" id="199">
			<data dilations="1,1" group="1" kernel="1,1" output="64" pads_begin="0,0" pads_end="0,0" quantization_level="I8" strides="1,1" />
			<input>
				<port id="0">
					<dim>1</dim>
					<dim>256</dim>
					<dim>20</dim>
					<dim>34</dim>
				</port>
			</input>
			<output>
				<port id="1">
					<dim>1</dim>
					<dim>64</dim>
					<dim>20</dim>
					<dim>34</dim>
				</port>
			</output>
			<blobs>
				<biases offset="1013208" size="256" />
				<weights offset="1013464" size="65536" />
			</blobs>
		</layer>
		<layer name="bottleneck4_3/dim_red/fn" type="ReLU" precision="FP32" id="200">
			<data negative_slope="0.100000" />
			<input>
				<port id="0">
					<dim>1</dim>
					<dim>64</dim>
					<dim>20</dim>
					<dim>34</dim>
				</port>
			</input>
			<output>
				<port id="1">
					<dim>1</dim>
					<dim>64</dim>
					<dim>20</dim>
					<dim>34</dim>
				</port>
			</output>
		</layer>
		<layer name="bottleneck4_3/inner/dw1/conv" type="Convolution" precision="FP32" id="201">
			<data dilations="1,1" group="64" kernel="3,3" output="64" pads_begin="1,1" pads_end="1,1" quantization_level="I8" strides="1,1" />
			<input>
				<port id="0">
					<dim>1</dim>
					<dim>64</dim>
					<dim>20</dim>
					<dim>34</dim>
				</port>
			</input>
			<output>
				<port id="1">
					<dim>1</dim>
					<dim>64</dim>
					<dim>20</dim>
					<dim>34</dim>
				</port>
			</output>
			<blobs>
				<biases offset="1079000" size="256" />
				<weights offset="1079256" size="2304" />
			</blobs>
		</layer>
		<layer name="bottleneck4_3/inner/dw1/fn" type="ReLU" precision="FP32" id="202">
			<data negative_slope="0.100000" />
			<input>
				<port id="0">
					<dim>1</dim>
					<dim>64</dim>
					<dim>20</dim>
					<dim>34</dim>
				</port>
			</input>
			<output>
				<port id="1">
					<dim>1</dim>
					<dim>64</dim>
					<dim>20</dim>
					<dim>34</dim>
				</port>
			</output>
		</layer>
		<layer name="bottleneck4_3/dim_inc/conv" type="Convolution" precision="FP32" id="203">
			<data dilations="1,1" group="1" kernel="1,1" output="256" pads_begin="0,0" pads_end="0,0" quantization_level="I8" strides="1,1" />
			<input>
				<port id="0">
					<dim>1</dim>
					<dim>64</dim>
					<dim>20</dim>
					<dim>34</dim>
				</port>
			</input>
			<output>
				<port id="1">
					<dim>1</dim>
					<dim>256</dim>
					<dim>20</dim>
					<dim>34</dim>
				</port>
			</output>
			<blobs>
				<biases offset="1081560" size="1024" />
				<weights offset="1082584" size="65536" />
			</blobs>
		</layer>
		<layer name="bottleneck4_3/add" type="Eltwise" precision="FP32" id="204">
			<data operation="sum" />
			<input>
				<port id="0">
					<dim>1</dim>
					<dim>256</dim>
					<dim>20</dim>
					<dim>34</dim>
				</port>
				<port id="1">
					<dim>1</dim>
					<dim>256</dim>
					<dim>20</dim>
					<dim>34</dim>
				</port>
			</input>
			<output>
				<port id="2">
					<dim>1</dim>
					<dim>256</dim>
					<dim>20</dim>
					<dim>34</dim>
				</port>
			</output>
		</layer>
		<layer name="bottleneck4_3/fn" type="ReLU" precision="FP32" id="205">
			<data negative_slope="0.100000" />
			<input>
				<port id="0">
					<dim>1</dim>
					<dim>256</dim>
					<dim>20</dim>
					<dim>34</dim>
				</port>
			</input>
			<output>
				<port id="1">
					<dim>1</dim>
					<dim>256</dim>
					<dim>20</dim>
					<dim>34</dim>
				</port>
			</output>
		</layer>
		<layer name="bottleneck4_4/dim_red/conv" type="Convolution" precision="FP32" id="206">
			<data dilations="1,1" group="1" kernel="1,1" output="64" pads_begin="0,0" pads_end="0,0" quantization_level="I8" strides="1,1" />
			<input>
				<port id="0">
					<dim>1</dim>
					<dim>256</dim>
					<dim>20</dim>
					<dim>34</dim>
				</port>
			</input>
			<output>
				<port id="1">
					<dim>1</dim>
					<dim>64</dim>
					<dim>20</dim>
					<dim>34</dim>
				</port>
			</output>
			<blobs>
				<biases offset="1148120" size="256" />
				<weights offset="1148376" size="65536" />
			</blobs>
		</layer>
		<layer name="bottleneck4_4/dim_red/fn" type="ReLU" precision="FP32" id="207">
			<data negative_slope="0.100000" />
			<input>
				<port id="0">
					<dim>1</dim>
					<dim>64</dim>
					<dim>20</dim>
					<dim>34</dim>
				</port>
			</input>
			<output>
				<port id="1">
					<dim>1</dim>
					<dim>64</dim>
					<dim>20</dim>
					<dim>34</dim>
				</port>
			</output>
		</layer>
		<layer name="bottleneck4_4/inner/dw1/conv" type="Convolution" precision="FP32" id="208">
			<data dilations="1,1" group="64" kernel="3,3" output="64" pads_begin="1,1" pads_end="1,1" quantization_level="I8" strides="1,1" />
			<input>
				<port id="0">
					<dim>1</dim>
					<dim>64</dim>
					<dim>20</dim>
					<dim>34</dim>
				</port>
			</input>
			<output>
				<port id="1">
					<dim>1</dim>
					<dim>64</dim>
					<dim>20</dim>
					<dim>34</dim>
				</port>
			</output>
			<blobs>
				<biases offset="1213912" size="256" />
				<weights offset="1214168" size="2304" />
			</blobs>
		</layer>
		<layer name="bottleneck4_4/inner/dw1/fn" type="ReLU" precision="FP32" id="209">
			<data negative_slope="0.100000" />
			<input>
				<port id="0">
					<dim>1</dim>
					<dim>64</dim>
					<dim>20</dim>
					<dim>34</dim>
				</port>
			</input>
			<output>
				<port id="1">
					<dim>1</dim>
					<dim>64</dim>
					<dim>20</dim>
					<dim>34</dim>
				</port>
			</output>
		</layer>
		<layer name="bottleneck4_4/dim_inc/conv" type="Convolution" precision="FP32" id="210">
			<data dilations="1,1" group="1" kernel="1,1" output="256" pads_begin="0,0" pads_end="0,0" quantization_level="I8" strides="1,1" />
			<input>
				<port id="0">
					<dim>1</dim>
					<dim>64</dim>
					<dim>20</dim>
					<dim>34</dim>
				</port>
			</input>
			<output>
				<port id="1">
					<dim>1</dim>
					<dim>256</dim>
					<dim>20</dim>
					<dim>34</dim>
				</port>
			</output>
			<blobs>
				<biases offset="1216472" size="1024" />
				<weights offset="1217496" size="65536" />
			</blobs>
		</layer>
		<layer name="bottleneck4_4/add" type="Eltwise" precision="FP32" id="211">
			<data operation="sum" />
			<input>
				<port id="0">
					<dim>1</dim>
					<dim>256</dim>
					<dim>20</dim>
					<dim>34</dim>
				</port>
				<port id="1">
					<dim>1</dim>
					<dim>256</dim>
					<dim>20</dim>
					<dim>34</dim>
				</port>
			</input>
			<output>
				<port id="2">
					<dim>1</dim>
					<dim>256</dim>
					<dim>20</dim>
					<dim>34</dim>
				</port>
			</output>
		</layer>
		<layer name="bottleneck4_4/fn" type="ReLU" precision="FP32" id="212">
			<data negative_slope="0.100000" />
			<input>
				<port id="0">
					<dim>1</dim>
					<dim>256</dim>
					<dim>20</dim>
					<dim>34</dim>
				</port>
			</input>
			<output>
				<port id="1">
					<dim>1</dim>
					<dim>256</dim>
					<dim>20</dim>
					<dim>34</dim>
				</port>
			</output>
		</layer>
		<layer name="bottleneck4_5/dim_red/conv" type="Convolution" precision="FP32" id="213">
			<data dilations="1,1" group="1" kernel="1,1" output="64" pads_begin="0,0" pads_end="0,0" quantization_level="I8" strides="1,1" />
			<input>
				<port id="0">
					<dim>1</dim>
					<dim>256</dim>
					<dim>20</dim>
					<dim>34</dim>
				</port>
			</input>
			<output>
				<port id="1">
					<dim>1</dim>
					<dim>64</dim>
					<dim>20</dim>
					<dim>34</dim>
				</port>
			</output>
			<blobs>
				<biases offset="1283032" size="256" />
				<weights offset="1283288" size="65536" />
			</blobs>
		</layer>
		<layer name="bottleneck4_5/dim_red/fn" type="ReLU" precision="FP32" id="214">
			<data negative_slope="0.100000" />
			<input>
				<port id="0">
					<dim>1</dim>
					<dim>64</dim>
					<dim>20</dim>
					<dim>34</dim>
				</port>
			</input>
			<output>
				<port id="1">
					<dim>1</dim>
					<dim>64</dim>
					<dim>20</dim>
					<dim>34</dim>
				</port>
			</output>
		</layer>
		<layer name="bottleneck4_5/inner/dw1/conv" type="Convolution" precision="FP32" id="215">
			<data dilations="1,1" group="64" kernel="3,3" output="64" pads_begin="1,1" pads_end="1,1" quantization_level="I8" strides="1,1" />
			<input>
				<port id="0">
					<dim>1</dim>
					<dim>64</dim>
					<dim>20</dim>
					<dim>34</dim>
				</port>
			</input>
			<output>
				<port id="1">
					<dim>1</dim>
					<dim>64</dim>
					<dim>20</dim>
					<dim>34</dim>
				</port>
			</output>
			<blobs>
				<biases offset="1348824" size="256" />
				<weights offset="1349080" size="2304" />
			</blobs>
		</layer>
		<layer name="bottleneck4_5/inner/dw1/fn" type="ReLU" precision="FP32" id="216">
			<data negative_slope="0.100000" />
			<input>
				<port id="0">
					<dim>1</dim>
					<dim>64</dim>
					<dim>20</dim>
					<dim>34</dim>
				</port>
			</input>
			<output>
				<port id="1">
					<dim>1</dim>
					<dim>64</dim>
					<dim>20</dim>
					<dim>34</dim>
				</port>
			</output>
		</layer>
		<layer name="bottleneck4_5/dim_inc/conv" type="Convolution" precision="FP32" id="217">
			<data dilations="1,1" group="1" kernel="1,1" output="256" pads_begin="0,0" pads_end="0,0" quantization_level="I8" strides="1,1" />
			<input>
				<port id="0">
					<dim>1</dim>
					<dim>64</dim>
					<dim>20</dim>
					<dim>34</dim>
				</port>
			</input>
			<output>
				<port id="1">
					<dim>1</dim>
					<dim>256</dim>
					<dim>20</dim>
					<dim>34</dim>
				</port>
			</output>
			<blobs>
				<biases offset="1351384" size="1024" />
				<weights offset="1352408" size="65536" />
			</blobs>
		</layer>
		<layer name="bottleneck4_5/add" type="Eltwise" precision="FP32" id="218">
			<data operation="sum" />
			<input>
				<port id="0">
					<dim>1</dim>
					<dim>256</dim>
					<dim>20</dim>
					<dim>34</dim>
				</port>
				<port id="1">
					<dim>1</dim>
					<dim>256</dim>
					<dim>20</dim>
					<dim>34</dim>
				</port>
			</input>
			<output>
				<port id="2">
					<dim>1</dim>
					<dim>256</dim>
					<dim>20</dim>
					<dim>34</dim>
				</port>
			</output>
		</layer>
		<layer name="bottleneck4_5/fn" type="ReLU" precision="FP32" id="219">
			<data negative_slope="0.100000" />
			<input>
				<port id="0">
					<dim>1</dim>
					<dim>256</dim>
					<dim>20</dim>
					<dim>34</dim>
				</port>
			</input>
			<output>
				<port id="1">
					<dim>1</dim>
					<dim>256</dim>
					<dim>20</dim>
					<dim>34</dim>
				</port>
			</output>
		</layer>
		<layer name="bottleneck4_6/dim_red/conv" type="Convolution" precision="FP32" id="220">
			<data dilations="1,1" group="1" kernel="1,1" output="64" pads_begin="0,0" pads_end="0,0" quantization_level="I8" strides="1,1" />
			<input>
				<port id="0">
					<dim>1</dim>
					<dim>256</dim>
					<dim>20</dim>
					<dim>34</dim>
				</port>
			</input>
			<output>
				<port id="1">
					<dim>1</dim>
					<dim>64</dim>
					<dim>20</dim>
					<dim>34</dim>
				</port>
			</output>
			<blobs>
				<biases offset="1417944" size="256" />
				<weights offset="1418200" size="65536" />
			</blobs>
		</layer>
		<layer name="bottleneck4_6/dim_red/fn" type="ReLU" precision="FP32" id="221">
			<data negative_slope="0.100000" />
			<input>
				<port id="0">
					<dim>1</dim>
					<dim>64</dim>
					<dim>20</dim>
					<dim>34</dim>
				</port>
			</input>
			<output>
				<port id="1">
					<dim>1</dim>
					<dim>64</dim>
					<dim>20</dim>
					<dim>34</dim>
				</port>
			</output>
		</layer>
		<layer name="bottleneck4_6/inner/dw1/conv" type="Convolution" precision="FP32" id="222">
			<data dilations="1,1" group="64" kernel="3,3" output="64" pads_begin="1,1" pads_end="1,1" quantization_level="I8" strides="1,1" />
			<input>
				<port id="0">
					<dim>1</dim>
					<dim>64</dim>
					<dim>20</dim>
					<dim>34</dim>
				</port>
			</input>
			<output>
				<port id="1">
					<dim>1</dim>
					<dim>64</dim>
					<dim>20</dim>
					<dim>34</dim>
				</port>
			</output>
			<blobs>
				<biases offset="1483736" size="256" />
				<weights offset="1483992" size="2304" />
			</blobs>
		</layer>
		<layer name="bottleneck4_6/inner/dw1/fn" type="ReLU" precision="FP32" id="223">
			<data negative_slope="0.100000" />
			<input>
				<port id="0">
					<dim>1</dim>
					<dim>64</dim>
					<dim>20</dim>
					<dim>34</dim>
				</port>
			</input>
			<output>
				<port id="1">
					<dim>1</dim>
					<dim>64</dim>
					<dim>20</dim>
					<dim>34</dim>
				</port>
			</output>
		</layer>
		<layer name="bottleneck4_6/dim_inc/conv" type="Convolution" precision="FP32" id="224">
			<data dilations="1,1" group="1" kernel="1,1" output="256" pads_begin="0,0" pads_end="0,0" quantization_level="I8" strides="1,1" />
			<input>
				<port id="0">
					<dim>1</dim>
					<dim>64</dim>
					<dim>20</dim>
					<dim>34</dim>
				</port>
			</input>
			<output>
				<port id="1">
					<dim>1</dim>
					<dim>256</dim>
					<dim>20</dim>
					<dim>34</dim>
				</port>
			</output>
			<blobs>
				<biases offset="1486296" size="1024" />
				<weights offset="1487320" size="65536" />
			</blobs>
		</layer>
		<layer name="bottleneck4_6/add" type="Eltwise" precision="FP32" id="225">
			<data operation="sum" />
			<input>
				<port id="0">
					<dim>1</dim>
					<dim>256</dim>
					<dim>20</dim>
					<dim>34</dim>
				</port>
				<port id="1">
					<dim>1</dim>
					<dim>256</dim>
					<dim>20</dim>
					<dim>34</dim>
				</port>
			</input>
			<output>
				<port id="2">
					<dim>1</dim>
					<dim>256</dim>
					<dim>20</dim>
					<dim>34</dim>
				</port>
			</output>
		</layer>
		<layer name="bottleneck4_6/fn" type="ReLU" precision="FP32" id="226">
			<data negative_slope="0.100000" />
			<input>
				<port id="0">
					<dim>1</dim>
					<dim>256</dim>
					<dim>20</dim>
					<dim>34</dim>
				</port>
			</input>
			<output>
				<port id="1">
					<dim>1</dim>
					<dim>256</dim>
					<dim>20</dim>
					<dim>34</dim>
				</port>
			</output>
		</layer>
		<layer name="bottleneck4_7/dim_red/conv" type="Convolution" precision="FP32" id="227">
			<data dilations="1,1" group="1" kernel="1,1" output="64" pads_begin="0,0" pads_end="0,0" quantization_level="I8" strides="1,1" />
			<input>
				<port id="0">
					<dim>1</dim>
					<dim>256</dim>
					<dim>20</dim>
					<dim>34</dim>
				</port>
			</input>
			<output>
				<port id="1">
					<dim>1</dim>
					<dim>64</dim>
					<dim>20</dim>
					<dim>34</dim>
				</port>
			</output>
			<blobs>
				<biases offset="1552856" size="256" />
				<weights offset="1553112" size="65536" />
			</blobs>
		</layer>
		<layer name="bottleneck4_7/dim_red/fn" type="ReLU" precision="FP32" id="228">
			<data negative_slope="0.100000" />
			<input>
				<port id="0">
					<dim>1</dim>
					<dim>64</dim>
					<dim>20</dim>
					<dim>34</dim>
				</port>
			</input>
			<output>
				<port id="1">
					<dim>1</dim>
					<dim>64</dim>
					<dim>20</dim>
					<dim>34</dim>
				</port>
			</output>
		</layer>
		<layer name="bottleneck4_7/inner/dw1/conv" type="Convolution" precision="FP32" id="229">
			<data dilations="1,1" group="64" kernel="3,3" output="64" pads_begin="1,1" pads_end="1,1" quantization_level="I8" strides="1,1" />
			<input>
				<port id="0">
					<dim>1</dim>
					<dim>64</dim>
					<dim>20</dim>
					<dim>34</dim>
				</port>
			</input>
			<output>
				<port id="1">
					<dim>1</dim>
					<dim>64</dim>
					<dim>20</dim>
					<dim>34</dim>
				</port>
			</output>
			<blobs>
				<biases offset="1618648" size="256" />
				<weights offset="1618904" size="2304" />
			</blobs>
		</layer>
		<layer name="bottleneck4_7/inner/dw1/fn" type="ReLU" precision="FP32" id="230">
			<data negative_slope="0.100000" />
			<input>
				<port id="0">
					<dim>1</dim>
					<dim>64</dim>
					<dim>20</dim>
					<dim>34</dim>
				</port>
			</input>
			<output>
				<port id="1">
					<dim>1</dim>
					<dim>64</dim>
					<dim>20</dim>
					<dim>34</dim>
				</port>
			</output>
		</layer>
		<layer name="bottleneck4_7/dim_inc/conv" type="Convolution" precision="FP32" id="231">
			<data dilations="1,1" group="1" kernel="1,1" output="256" pads_begin="0,0" pads_end="0,0" quantization_level="I8" strides="1,1" />
			<input>
				<port id="0">
					<dim>1</dim>
					<dim>64</dim>
					<dim>20</dim>
					<dim>34</dim>
				</port>
			</input>
			<output>
				<port id="1">
					<dim>1</dim>
					<dim>256</dim>
					<dim>20</dim>
					<dim>34</dim>
				</port>
			</output>
			<blobs>
				<biases offset="1621208" size="1024" />
				<weights offset="1622232" size="65536" />
			</blobs>
		</layer>
		<layer name="bottleneck4_7/add" type="Eltwise" precision="FP32" id="232">
			<data operation="sum" />
			<input>
				<port id="0">
					<dim>1</dim>
					<dim>256</dim>
					<dim>20</dim>
					<dim>34</dim>
				</port>
				<port id="1">
					<dim>1</dim>
					<dim>256</dim>
					<dim>20</dim>
					<dim>34</dim>
				</port>
			</input>
			<output>
				<port id="2">
					<dim>1</dim>
					<dim>256</dim>
					<dim>20</dim>
					<dim>34</dim>
				</port>
			</output>
		</layer>
		<layer name="bottleneck4_7/fn" type="ReLU" precision="FP32" id="233">
			<data negative_slope="0.100000" />
			<input>
				<port id="0">
					<dim>1</dim>
					<dim>256</dim>
					<dim>20</dim>
					<dim>34</dim>
				</port>
			</input>
			<output>
				<port id="1">
					<dim>1</dim>
					<dim>256</dim>
					<dim>20</dim>
					<dim>34</dim>
				</port>
			</output>
		</layer>
		<layer name="bottleneck4_8/dim_red/conv" type="Convolution" precision="FP32" id="234">
			<data dilations="1,1" group="1" kernel="1,1" output="64" pads_begin="0,0" pads_end="0,0" quantization_level="I8" strides="1,1" />
			<input>
				<port id="0">
					<dim>1</dim>
					<dim>256</dim>
					<dim>20</dim>
					<dim>34</dim>
				</port>
			</input>
			<output>
				<port id="1">
					<dim>1</dim>
					<dim>64</dim>
					<dim>20</dim>
					<dim>34</dim>
				</port>
			</output>
			<blobs>
				<biases offset="1687768" size="256" />
				<weights offset="1688024" size="65536" />
			</blobs>
		</layer>
		<layer name="bottleneck4_8/dim_red/fn" type="ReLU" precision="FP32" id="235">
			<data negative_slope="0.100000" />
			<input>
				<port id="0">
					<dim>1</dim>
					<dim>64</dim>
					<dim>20</dim>
					<dim>34</dim>
				</port>
			</input>
			<output>
				<port id="1">
					<dim>1</dim>
					<dim>64</dim>
					<dim>20</dim>
					<dim>34</dim>
				</port>
			</output>
		</layer>
		<layer name="bottleneck4_8/inner/dw1/conv" type="Convolution" precision="FP32" id="236">
			<data dilations="1,1" group="64" kernel="3,3" output="64" pads_begin="1,1" pads_end="1,1" quantization_level="I8" strides="1,1" />
			<input>
				<port id="0">
					<dim>1</dim>
					<dim>64</dim>
					<dim>20</dim>
					<dim>34</dim>
				</port>
			</input>
			<output>
				<port id="1">
					<dim>1</dim>
					<dim>64</dim>
					<dim>20</dim>
					<dim>34</dim>
				</port>
			</output>
			<blobs>
				<biases offset="1753560" size="256" />
				<weights offset="1753816" size="2304" />
			</blobs>
		</layer>
		<layer name="bottleneck4_8/inner/dw1/fn" type="ReLU" precision="FP32" id="237">
			<data negative_slope="0.100000" />
			<input>
				<port id="0">
					<dim>1</dim>
					<dim>64</dim>
					<dim>20</dim>
					<dim>34</dim>
				</port>
			</input>
			<output>
				<port id="1">
					<dim>1</dim>
					<dim>64</dim>
					<dim>20</dim>
					<dim>34</dim>
				</port>
			</output>
		</layer>
		<layer name="bottleneck4_8/dim_inc/conv" type="Convolution" precision="FP32" id="238">
			<data dilations="1,1" group="1" kernel="1,1" output="256" pads_begin="0,0" pads_end="0,0" quantization_level="I8" strides="1,1" />
			<input>
				<port id="0">
					<dim>1</dim>
					<dim>64</dim>
					<dim>20</dim>
					<dim>34</dim>
				</port>
			</input>
			<output>
				<port id="1">
					<dim>1</dim>
					<dim>256</dim>
					<dim>20</dim>
					<dim>34</dim>
				</port>
			</output>
			<blobs>
				<biases offset="1756120" size="1024" />
				<weights offset="1757144" size="65536" />
			</blobs>
		</layer>
		<layer name="bottleneck4_8/add" type="Eltwise" precision="FP32" id="239">
			<data operation="sum" />
			<input>
				<port id="0">
					<dim>1</dim>
					<dim>256</dim>
					<dim>20</dim>
					<dim>34</dim>
				</port>
				<port id="1">
					<dim>1</dim>
					<dim>256</dim>
					<dim>20</dim>
					<dim>34</dim>
				</port>
			</input>
			<output>
				<port id="2">
					<dim>1</dim>
					<dim>256</dim>
					<dim>20</dim>
					<dim>34</dim>
				</port>
			</output>
		</layer>
		<layer name="bottleneck4_8/fn" type="ReLU" precision="FP32" id="240">
			<data negative_slope="0.100000" />
			<input>
				<port id="0">
					<dim>1</dim>
					<dim>256</dim>
					<dim>20</dim>
					<dim>34</dim>
				</port>
			</input>
			<output>
				<port id="1">
					<dim>1</dim>
					<dim>256</dim>
					<dim>20</dim>
					<dim>34</dim>
				</port>
			</output>
		</layer>
		<layer name="bottleneck4_9/dim_red/conv" type="Convolution" precision="FP32" id="241">
			<data dilations="1,1" group="1" kernel="1,1" output="64" pads_begin="0,0" pads_end="0,0" quantization_level="I8" strides="1,1" />
			<input>
				<port id="0">
					<dim>1</dim>
					<dim>256</dim>
					<dim>20</dim>
					<dim>34</dim>
				</port>
			</input>
			<output>
				<port id="1">
					<dim>1</dim>
					<dim>64</dim>
					<dim>20</dim>
					<dim>34</dim>
				</port>
			</output>
			<blobs>
				<biases offset="1822680" size="256" />
				<weights offset="1822936" size="65536" />
			</blobs>
		</layer>
		<layer name="bottleneck4_9/dim_red/fn" type="ReLU" precision="FP32" id="242">
			<data negative_slope="0.100000" />
			<input>
				<port id="0">
					<dim>1</dim>
					<dim>64</dim>
					<dim>20</dim>
					<dim>34</dim>
				</port>
			</input>
			<output>
				<port id="1">
					<dim>1</dim>
					<dim>64</dim>
					<dim>20</dim>
					<dim>34</dim>
				</port>
			</output>
		</layer>
		<layer name="bottleneck4_9/inner/dw1/conv" type="Convolution" precision="FP32" id="243">
			<data dilations="1,1" group="64" kernel="3,3" output="64" pads_begin="1,1" pads_end="1,1" quantization_level="I8" strides="1,1" />
			<input>
				<port id="0">
					<dim>1</dim>
					<dim>64</dim>
					<dim>20</dim>
					<dim>34</dim>
				</port>
			</input>
			<output>
				<port id="1">
					<dim>1</dim>
					<dim>64</dim>
					<dim>20</dim>
					<dim>34</dim>
				</port>
			</output>
			<blobs>
				<biases offset="1888472" size="256" />
				<weights offset="1888728" size="2304" />
			</blobs>
		</layer>
		<layer name="bottleneck4_9/inner/dw1/fn" type="ReLU" precision="FP32" id="244">
			<data negative_slope="0.100000" />
			<input>
				<port id="0">
					<dim>1</dim>
					<dim>64</dim>
					<dim>20</dim>
					<dim>34</dim>
				</port>
			</input>
			<output>
				<port id="1">
					<dim>1</dim>
					<dim>64</dim>
					<dim>20</dim>
					<dim>34</dim>
				</port>
			</output>
		</layer>
		<layer name="bottleneck4_9/dim_inc/conv" type="Convolution" precision="FP32" id="245">
			<data dilations="1,1" group="1" kernel="1,1" output="256" pads_begin="0,0" pads_end="0,0" quantization_level="I8" strides="1,1" />
			<input>
				<port id="0">
					<dim>1</dim>
					<dim>64</dim>
					<dim>20</dim>
					<dim>34</dim>
				</port>
			</input>
			<output>
				<port id="1">
					<dim>1</dim>
					<dim>256</dim>
					<dim>20</dim>
					<dim>34</dim>
				</port>
			</output>
			<blobs>
				<biases offset="1891032" size="1024" />
				<weights offset="1892056" size="65536" />
			</blobs>
		</layer>
		<layer name="bottleneck4_9/add" type="Eltwise" precision="FP32" id="246">
			<data operation="sum" />
			<input>
				<port id="0">
					<dim>1</dim>
					<dim>256</dim>
					<dim>20</dim>
					<dim>34</dim>
				</port>
				<port id="1">
					<dim>1</dim>
					<dim>256</dim>
					<dim>20</dim>
					<dim>34</dim>
				</port>
			</input>
			<output>
				<port id="2">
					<dim>1</dim>
					<dim>256</dim>
					<dim>20</dim>
					<dim>34</dim>
				</port>
			</output>
		</layer>
		<layer name="bottleneck4_9/fn" type="ReLU" precision="FP32" id="247">
			<data negative_slope="0.100000" />
			<input>
				<port id="0">
					<dim>1</dim>
					<dim>256</dim>
					<dim>20</dim>
					<dim>34</dim>
				</port>
			</input>
			<output>
				<port id="1">
					<dim>1</dim>
					<dim>256</dim>
					<dim>20</dim>
					<dim>34</dim>
				</port>
			</output>
		</layer>
		<layer name="bottleneck4_10/dim_red/conv" type="Convolution" precision="FP32" id="248">
			<data dilations="1,1" group="1" kernel="1,1" output="64" pads_begin="0,0" pads_end="0,0" quantization_level="I8" strides="1,1" />
			<input>
				<port id="0">
					<dim>1</dim>
					<dim>256</dim>
					<dim>20</dim>
					<dim>34</dim>
				</port>
			</input>
			<output>
				<port id="1">
					<dim>1</dim>
					<dim>64</dim>
					<dim>20</dim>
					<dim>34</dim>
				</port>
			</output>
			<blobs>
				<biases offset="1957592" size="256" />
				<weights offset="1957848" size="65536" />
			</blobs>
		</layer>
		<layer name="bottleneck4_10/dim_red/fn" type="ReLU" precision="FP32" id="249">
			<data negative_slope="0.100000" />
			<input>
				<port id="0">
					<dim>1</dim>
					<dim>64</dim>
					<dim>20</dim>
					<dim>34</dim>
				</port>
			</input>
			<output>
				<port id="1">
					<dim>1</dim>
					<dim>64</dim>
					<dim>20</dim>
					<dim>34</dim>
				</port>
			</output>
		</layer>
		<layer name="bottleneck4_10/inner/dw1/conv" type="Convolution" precision="FP32" id="250">
			<data dilations="1,1" group="64" kernel="3,3" output="64" pads_begin="1,1" pads_end="1,1" quantization_level="I8" strides="1,1" />
			<input>
				<port id="0">
					<dim>1</dim>
					<dim>64</dim>
					<dim>20</dim>
					<dim>34</dim>
				</port>
			</input>
			<output>
				<port id="1">
					<dim>1</dim>
					<dim>64</dim>
					<dim>20</dim>
					<dim>34</dim>
				</port>
			</output>
			<blobs>
				<biases offset="2023384" size="256" />
				<weights offset="2023640" size="2304" />
			</blobs>
		</layer>
		<layer name="bottleneck4_10/inner/dw1/fn" type="ReLU" precision="FP32" id="251">
			<data negative_slope="0.100000" />
			<input>
				<port id="0">
					<dim>1</dim>
					<dim>64</dim>
					<dim>20</dim>
					<dim>34</dim>
				</port>
			</input>
			<output>
				<port id="1">
					<dim>1</dim>
					<dim>64</dim>
					<dim>20</dim>
					<dim>34</dim>
				</port>
			</output>
		</layer>
		<layer name="bottleneck4_10/dim_inc/conv" type="Convolution" precision="FP32" id="252">
			<data dilations="1,1" group="1" kernel="1,1" output="256" pads_begin="0,0" pads_end="0,0" quantization_level="I8" strides="1,1" />
			<input>
				<port id="0">
					<dim>1</dim>
					<dim>64</dim>
					<dim>20</dim>
					<dim>34</dim>
				</port>
			</input>
			<output>
				<port id="1">
					<dim>1</dim>
					<dim>256</dim>
					<dim>20</dim>
					<dim>34</dim>
				</port>
			</output>
			<blobs>
				<biases offset="2025944" size="1024" />
				<weights offset="2026968" size="65536" />
			</blobs>
		</layer>
		<layer name="bottleneck4_10/add" type="Eltwise" precision="FP32" id="253">
			<data operation="sum" />
			<input>
				<port id="0">
					<dim>1</dim>
					<dim>256</dim>
					<dim>20</dim>
					<dim>34</dim>
				</port>
				<port id="1">
					<dim>1</dim>
					<dim>256</dim>
					<dim>20</dim>
					<dim>34</dim>
				</port>
			</input>
			<output>
				<port id="2">
					<dim>1</dim>
					<dim>256</dim>
					<dim>20</dim>
					<dim>34</dim>
				</port>
			</output>
		</layer>
		<layer name="bottleneck4_10/fn" type="ReLU" precision="FP32" id="254">
			<data negative_slope="0.100000" />
			<input>
				<port id="0">
					<dim>1</dim>
					<dim>256</dim>
					<dim>20</dim>
					<dim>34</dim>
				</port>
			</input>
			<output>
				<port id="1">
					<dim>1</dim>
					<dim>256</dim>
					<dim>20</dim>
					<dim>34</dim>
				</port>
			</output>
		</layer>
		<layer name="bottleneck4_11/dim_red/conv" type="Convolution" precision="FP32" id="255">
			<data dilations="1,1" group="1" kernel="1,1" output="64" pads_begin="0,0" pads_end="0,0" quantization_level="I8" strides="1,1" />
			<input>
				<port id="0">
					<dim>1</dim>
					<dim>256</dim>
					<dim>20</dim>
					<dim>34</dim>
				</port>
			</input>
			<output>
				<port id="1">
					<dim>1</dim>
					<dim>64</dim>
					<dim>20</dim>
					<dim>34</dim>
				</port>
			</output>
			<blobs>
				<biases offset="2092504" size="256" />
				<weights offset="2092760" size="65536" />
			</blobs>
		</layer>
		<layer name="bottleneck4_11/dim_red/fn" type="ReLU" precision="FP32" id="256">
			<data negative_slope="0.100000" />
			<input>
				<port id="0">
					<dim>1</dim>
					<dim>64</dim>
					<dim>20</dim>
					<dim>34</dim>
				</port>
			</input>
			<output>
				<port id="1">
					<dim>1</dim>
					<dim>64</dim>
					<dim>20</dim>
					<dim>34</dim>
				</port>
			</output>
		</layer>
		<layer name="bottleneck4_11/inner/dw1/conv" type="Convolution" precision="FP32" id="257">
			<data dilations="1,1" group="64" kernel="3,3" output="64" pads_begin="1,1" pads_end="1,1" quantization_level="I8" strides="1,1" />
			<input>
				<port id="0">
					<dim>1</dim>
					<dim>64</dim>
					<dim>20</dim>
					<dim>34</dim>
				</port>
			</input>
			<output>
				<port id="1">
					<dim>1</dim>
					<dim>64</dim>
					<dim>20</dim>
					<dim>34</dim>
				</port>
			</output>
			<blobs>
				<biases offset="2158296" size="256" />
				<weights offset="2158552" size="2304" />
			</blobs>
		</layer>
		<layer name="bottleneck4_11/inner/dw1/fn" type="ReLU" precision="FP32" id="258">
			<data negative_slope="0.100000" />
			<input>
				<port id="0">
					<dim>1</dim>
					<dim>64</dim>
					<dim>20</dim>
					<dim>34</dim>
				</port>
			</input>
			<output>
				<port id="1">
					<dim>1</dim>
					<dim>64</dim>
					<dim>20</dim>
					<dim>34</dim>
				</port>
			</output>
		</layer>
		<layer name="bottleneck4_11/dim_inc/conv" type="Convolution" precision="FP32" id="259">
			<data dilations="1,1" group="1" kernel="1,1" output="256" pads_begin="0,0" pads_end="0,0" quantization_level="I8" strides="1,1" />
			<input>
				<port id="0">
					<dim>1</dim>
					<dim>64</dim>
					<dim>20</dim>
					<dim>34</dim>
				</port>
			</input>
			<output>
				<port id="1">
					<dim>1</dim>
					<dim>256</dim>
					<dim>20</dim>
					<dim>34</dim>
				</port>
			</output>
			<blobs>
				<biases offset="2160856" size="1024" />
				<weights offset="2161880" size="65536" />
			</blobs>
		</layer>
		<layer name="bottleneck4_11/add" type="Eltwise" precision="FP32" id="260">
			<data operation="sum" />
			<input>
				<port id="0">
					<dim>1</dim>
					<dim>256</dim>
					<dim>20</dim>
					<dim>34</dim>
				</port>
				<port id="1">
					<dim>1</dim>
					<dim>256</dim>
					<dim>20</dim>
					<dim>34</dim>
				</port>
			</input>
			<output>
				<port id="2">
					<dim>1</dim>
					<dim>256</dim>
					<dim>20</dim>
					<dim>34</dim>
				</port>
			</output>
		</layer>
		<layer name="bottleneck4_11/fn" type="ReLU" precision="FP32" id="261">
			<data negative_slope="0.100000" />
			<input>
				<port id="0">
					<dim>1</dim>
					<dim>256</dim>
					<dim>20</dim>
					<dim>34</dim>
				</port>
			</input>
			<output>
				<port id="1">
					<dim>1</dim>
					<dim>256</dim>
					<dim>20</dim>
					<dim>34</dim>
				</port>
			</output>
		</layer>
		<layer name="mbox_loc1/out/conv" type="Convolution" precision="FP32" id="262">
			<data dilations="1,1" group="1" kernel="3,3" output="48" pads_begin="1,1" pads_end="1,1" quantization_level="I8" strides="1,1" />
			<input>
				<port id="0">
					<dim>1</dim>
					<dim>256</dim>
					<dim>20</dim>
					<dim>34</dim>
				</port>
			</input>
			<output>
				<port id="1">
					<dim>1</dim>
					<dim>48</dim>
					<dim>20</dim>
					<dim>34</dim>
				</port>
			</output>
			<blobs>
				<biases offset="2227416" size="192" />
				<weights offset="2227608" size="442368" />
			</blobs>
		</layer>
		<layer name="mbox_loc1/out/conv/perm" type="Permute" precision="FP32" id="263">
			<data order="0,2,3,1" />
			<input>
				<port id="0">
					<dim>1</dim>
					<dim>48</dim>
					<dim>20</dim>
					<dim>34</dim>
				</port>
			</input>
			<output>
				<port id="1">
					<dim>1</dim>
					<dim>20</dim>
					<dim>34</dim>
					<dim>48</dim>
				</port>
			</output>
		</layer>
		<layer name="mbox_loc1/out/conv/flat" type="Flatten" precision="FP32" id="264">
			<data axis="1" end_axis="-1" />
			<input>
				<port id="0">
					<dim>1</dim>
					<dim>20</dim>
					<dim>34</dim>
					<dim>48</dim>
				</port>
			</input>
			<output>
				<port id="1">
					<dim>1</dim>
					<dim>32640</dim>
				</port>
			</output>
		</layer>
		<layer name="mbox_conf1/out/conv" type="Convolution" precision="FP32" id="265">
			<data dilations="1,1" group="1" kernel="3,3" output="24" pads_begin="1,1" pads_end="1,1" quantization_level="I8" strides="1,1" />
			<input>
				<port id="0">
					<dim>1</dim>
					<dim>256</dim>
					<dim>20</dim>
					<dim>34</dim>
				</port>
			</input>
			<output>
				<port id="1">
					<dim>1</dim>
					<dim>24</dim>
					<dim>20</dim>
					<dim>34</dim>
				</port>
			</output>
			<blobs>
				<biases offset="2669976" size="96" />
				<weights offset="2670072" size="221184" />
			</blobs>
		</layer>
		<layer name="mbox_conf1/out/conv/perm" type="Permute" precision="FP32" id="266">
			<data order="0,2,3,1" />
			<input>
				<port id="0">
					<dim>1</dim>
					<dim>24</dim>
					<dim>20</dim>
					<dim>34</dim>
				</port>
			</input>
			<output>
				<port id="1">
					<dim>1</dim>
					<dim>20</dim>
					<dim>34</dim>
					<dim>24</dim>
				</port>
			</output>
		</layer>
		<layer name="mbox_conf1/out/conv/flat" type="Flatten" precision="FP32" id="267">
			<data axis="1" end_axis="-1" />
			<input>
				<port id="0">
					<dim>1</dim>
					<dim>20</dim>
					<dim>34</dim>
					<dim>24</dim>
				</port>
			</input>
			<output>
				<port id="1">
					<dim>1</dim>
					<dim>16320</dim>
				</port>
			</output>
		</layer>
		<layer name="mbox1/priorbox" type="PriorBoxClustered" precision="FP32" id="268">
			<data clip="0" flip="1" height="34.06999969482422,47.11000061035156,54.220001220703125,65.77999877929688,75.55999755859375,80.88999938964844,89.77999877929688,99.26000213623047,115.55999755859375,163.25999450683594,194.07000732421875,197.3300018310547" offset="0.5" step="16.0" variance="0.10000000149011612,0.10000000149011612,0.20000000298023224,0.20000000298023224" width="11.329999923706055,17.0,20.68000030517578,23.520000457763672,28.049999237060547,37.400001525878906,30.030000686645508,35.70000076293945,44.20000076293945,55.25,78.12000274658203,135.14999389648438" />
			<input>
				<port id="0">
					<dim>1</dim>
					<dim>256</dim>
					<dim>20</dim>
					<dim>34</dim>
				</port>
				<port id="1">
					<dim>1</dim>
					<dim>3</dim>
					<dim>320</dim>
					<dim>544</dim>
				</port>
			</input>
			<output>
				<port id="2">
					<dim>1</dim>
					<dim>2</dim>
					<dim>32640</dim>
				</port>
			</output>
		</layer>
		<layer name="500/Output_0/Data__const" type="Const" precision="I32" id="269">
			<output>
				<port id="0">
					<dim>3</dim>
				</port>
			</output>
			<blobs>
				<custom offset="2891256" size="12" />
			</blobs>
		</layer>
		<layer name="mbox_conf1/out/conv/flat/reshape" type="Reshape" precision="FP32" id="270">
			<data axis="0" dim="" num_axes="-1" />
			<input>
				<port id="0">
					<dim>1</dim>
					<dim>16320</dim>
				</port>
				<port id="1">
					<dim>3</dim>
				</port>
			</input>
			<output>
				<port id="2">
					<dim>1</dim>
					<dim>8160</dim>
					<dim>2</dim>
				</port>
			</output>
		</layer>
		<layer name="mbox_conf1/out/conv/flat/softmax" type="SoftMax" precision="FP32" id="271">
			<data axis="2" />
			<input>
				<port id="0">
					<dim>1</dim>
					<dim>8160</dim>
					<dim>2</dim>
				</port>
			</input>
			<output>
				<port id="1">
					<dim>1</dim>
					<dim>8160</dim>
					<dim>2</dim>
				</port>
			</output>
		</layer>
		<layer name="mbox_conf1/out/conv/flat/softmax/flat" type="Flatten" precision="FP32" id="272">
			<data axis="1" end_axis="-1" />
			<input>
				<port id="0">
					<dim>1</dim>
					<dim>8160</dim>
					<dim>2</dim>
				</port>
			</input>
			<output>
				<port id="1">
					<dim>1</dim>
					<dim>16320</dim>
				</port>
			</output>
		</layer>
		<layer name="detection_out" type="DetectionOutput" precision="FP32" id="273">
			<data background_label_id="0" code_type="caffe.PriorBoxParameter.CENTER_SIZE" confidence_threshold="0.009999999776482582" eta="1.0" input_height="1" input_width="1" keep_top_k="200" nms_threshold="0.44999998807907104" normalized="1" num_classes="2" share_location="1" top_k="400" variance_encoded_in_target="0" visualize="False" />
			<input>
				<port id="0">
					<dim>1</dim>
					<dim>32640</dim>
				</port>
				<port id="1">
					<dim>1</dim>
					<dim>16320</dim>
				</port>
				<port id="2">
					<dim>1</dim>
					<dim>2</dim>
					<dim>32640</dim>
				</port>
			</input>
			<output>
				<port id="3">
					<dim>1</dim>
					<dim>1</dim>
					<dim>200</dim>
					<dim>7</dim>
				</port>
			</output>
		</layer>
	</layers>
	<edges>
		<edge from-layer="0" from-port="0" to-layer="1" to-port="0" />
		<edge from-layer="0" from-port="0" to-layer="268" to-port="1" />
		<edge from-layer="1" from-port="1" to-layer="2" to-port="0" />
		<edge from-layer="2" from-port="1" to-layer="3" to-port="0" />
		<edge from-layer="3" from-port="1" to-layer="9" to-port="0" />
		<edge from-layer="3" from-port="1" to-layer="4" to-port="0" />
		<edge from-layer="4" from-port="1" to-layer="5" to-port="0" />
		<edge from-layer="5" from-port="1" to-layer="6" to-port="0" />
		<edge from-layer="6" from-port="1" to-layer="7" to-port="0" />
		<edge from-layer="7" from-port="1" to-layer="8" to-port="0" />
		<edge from-layer="8" from-port="1" to-layer="9" to-port="1" />
		<edge from-layer="9" from-port="2" to-layer="10" to-port="0" />
		<edge from-layer="10" from-port="1" to-layer="16" to-port="0" />
		<edge from-layer="10" from-port="1" to-layer="11" to-port="0" />
		<edge from-layer="11" from-port="1" to-layer="12" to-port="0" />
		<edge from-layer="12" from-port="1" to-layer="13" to-port="0" />
		<edge from-layer="13" from-port="1" to-layer="14" to-port="0" />
		<edge from-layer="14" from-port="1" to-layer="15" to-port="0" />
		<edge from-layer="15" from-port="1" to-layer="16" to-port="1" />
		<edge from-layer="16" from-port="2" to-layer="17" to-port="0" />
		<edge from-layer="17" from-port="1" to-layer="23" to-port="0" />
		<edge from-layer="17" from-port="1" to-layer="18" to-port="0" />
		<edge from-layer="18" from-port="1" to-layer="19" to-port="0" />
		<edge from-layer="19" from-port="1" to-layer="20" to-port="0" />
		<edge from-layer="20" from-port="1" to-layer="21" to-port="0" />
		<edge from-layer="21" from-port="1" to-layer="22" to-port="0" />
		<edge from-layer="22" from-port="1" to-layer="23" to-port="1" />
		<edge from-layer="23" from-port="2" to-layer="24" to-port="0" />
		<edge from-layer="24" from-port="1" to-layer="30" to-port="0" />
		<edge from-layer="24" from-port="1" to-layer="25" to-port="0" />
		<edge from-layer="25" from-port="1" to-layer="26" to-port="0" />
		<edge from-layer="26" from-port="1" to-layer="27" to-port="0" />
		<edge from-layer="27" from-port="1" to-layer="28" to-port="0" />
		<edge from-layer="28" from-port="1" to-layer="29" to-port="0" />
		<edge from-layer="29" from-port="1" to-layer="30" to-port="1" />
		<edge from-layer="30" from-port="2" to-layer="31" to-port="0" />
		<edge from-layer="31" from-port="1" to-layer="34" to-port="0" />
		<edge from-layer="31" from-port="1" to-layer="32" to-port="0" />
		<edge from-layer="32" from-port="1" to-layer="33" to-port="0" />
		<edge from-layer="33" from-port="1" to-layer="39" to-port="0" />
		<edge from-layer="34" from-port="1" to-layer="35" to-port="0" />
		<edge from-layer="35" from-port="1" to-layer="36" to-port="0" />
		<edge from-layer="36" from-port="1" to-layer="37" to-port="0" />
		<edge from-layer="37" from-port="1" to-layer="38" to-port="0" />
		<edge from-layer="38" from-port="1" to-layer="39" to-port="1" />
		<edge from-layer="39" from-port="2" to-layer="40" to-port="0" />
		<edge from-layer="40" from-port="1" to-layer="46" to-port="0" />
		<edge from-layer="40" from-port="1" to-layer="41" to-port="0" />
		<edge from-layer="41" from-port="1" to-layer="42" to-port="0" />
		<edge from-layer="42" from-port="1" to-layer="43" to-port="0" />
		<edge from-layer="43" from-port="1" to-layer="44" to-port="0" />
		<edge from-layer="44" from-port="1" to-layer="45" to-port="0" />
		<edge from-layer="45" from-port="1" to-layer="46" to-port="1" />
		<edge from-layer="46" from-port="2" to-layer="47" to-port="0" />
		<edge from-layer="47" from-port="1" to-layer="53" to-port="0" />
		<edge from-layer="47" from-port="1" to-layer="48" to-port="0" />
		<edge from-layer="48" from-port="1" to-layer="49" to-port="0" />
		<edge from-layer="49" from-port="1" to-layer="50" to-port="0" />
		<edge from-layer="50" from-port="1" to-layer="51" to-port="0" />
		<edge from-layer="51" from-port="1" to-layer="52" to-port="0" />
		<edge from-layer="52" from-port="1" to-layer="53" to-port="1" />
		<edge from-layer="53" from-port="2" to-layer="54" to-port="0" />
		<edge from-layer="54" from-port="1" to-layer="60" to-port="0" />
		<edge from-layer="54" from-port="1" to-layer="55" to-port="0" />
		<edge from-layer="55" from-port="1" to-layer="56" to-port="0" />
		<edge from-layer="56" from-port="1" to-layer="57" to-port="0" />
		<edge from-layer="57" from-port="1" to-layer="58" to-port="0" />
		<edge from-layer="58" from-port="1" to-layer="59" to-port="0" />
		<edge from-layer="59" from-port="1" to-layer="60" to-port="1" />
		<edge from-layer="60" from-port="2" to-layer="61" to-port="0" />
		<edge from-layer="61" from-port="1" to-layer="67" to-port="0" />
		<edge from-layer="61" from-port="1" to-layer="62" to-port="0" />
		<edge from-layer="62" from-port="1" to-layer="63" to-port="0" />
		<edge from-layer="63" from-port="1" to-layer="64" to-port="0" />
		<edge from-layer="64" from-port="1" to-layer="65" to-port="0" />
		<edge from-layer="65" from-port="1" to-layer="66" to-port="0" />
		<edge from-layer="66" from-port="1" to-layer="67" to-port="1" />
		<edge from-layer="67" from-port="2" to-layer="68" to-port="0" />
		<edge from-layer="68" from-port="1" to-layer="74" to-port="0" />
		<edge from-layer="68" from-port="1" to-layer="69" to-port="0" />
		<edge from-layer="69" from-port="1" to-layer="70" to-port="0" />
		<edge from-layer="70" from-port="1" to-layer="71" to-port="0" />
		<edge from-layer="71" from-port="1" to-layer="72" to-port="0" />
		<edge from-layer="72" from-port="1" to-layer="73" to-port="0" />
		<edge from-layer="73" from-port="1" to-layer="74" to-port="1" />
		<edge from-layer="74" from-port="2" to-layer="75" to-port="0" />
		<edge from-layer="75" from-port="1" to-layer="81" to-port="0" />
		<edge from-layer="75" from-port="1" to-layer="76" to-port="0" />
		<edge from-layer="76" from-port="1" to-layer="77" to-port="0" />
		<edge from-layer="77" from-port="1" to-layer="78" to-port="0" />
		<edge from-layer="78" from-port="1" to-layer="79" to-port="0" />
		<edge from-layer="79" from-port="1" to-layer="80" to-port="0" />
		<edge from-layer="80" from-port="1" to-layer="81" to-port="1" />
		<edge from-layer="81" from-port="2" to-layer="82" to-port="0" />
		<edge from-layer="82" from-port="1" to-layer="88" to-port="0" />
		<edge from-layer="82" from-port="1" to-layer="83" to-port="0" />
		<edge from-layer="83" from-port="1" to-layer="84" to-port="0" />
		<edge from-layer="84" from-port="1" to-layer="85" to-port="0" />
		<edge from-layer="85" from-port="1" to-layer="86" to-port="0" />
		<edge from-layer="86" from-port="1" to-layer="87" to-port="0" />
		<edge from-layer="87" from-port="1" to-layer="88" to-port="1" />
		<edge from-layer="88" from-port="2" to-layer="89" to-port="0" />
		<edge from-layer="89" from-port="1" to-layer="95" to-port="0" />
		<edge from-layer="89" from-port="1" to-layer="90" to-port="0" />
		<edge from-layer="90" from-port="1" to-layer="91" to-port="0" />
		<edge from-layer="91" from-port="1" to-layer="92" to-port="0" />
		<edge from-layer="92" from-port="1" to-layer="93" to-port="0" />
		<edge from-layer="93" from-port="1" to-layer="94" to-port="0" />
		<edge from-layer="94" from-port="1" to-layer="95" to-port="1" />
		<edge from-layer="95" from-port="2" to-layer="96" to-port="0" />
		<edge from-layer="96" from-port="1" to-layer="99" to-port="0" />
		<edge from-layer="96" from-port="1" to-layer="97" to-port="0" />
		<edge from-layer="97" from-port="1" to-layer="98" to-port="0" />
		<edge from-layer="98" from-port="1" to-layer="104" to-port="0" />
		<edge from-layer="99" from-port="1" to-layer="100" to-port="0" />
		<edge from-layer="100" from-port="1" to-layer="101" to-port="0" />
		<edge from-layer="101" from-port="1" to-layer="102" to-port="0" />
		<edge from-layer="102" from-port="1" to-layer="103" to-port="0" />
		<edge from-layer="103" from-port="1" to-layer="104" to-port="1" />
		<edge from-layer="104" from-port="2" to-layer="105" to-port="0" />
		<edge from-layer="105" from-port="1" to-layer="111" to-port="0" />
		<edge from-layer="105" from-port="1" to-layer="106" to-port="0" />
		<edge from-layer="106" from-port="1" to-layer="107" to-port="0" />
		<edge from-layer="107" from-port="1" to-layer="108" to-port="0" />
		<edge from-layer="108" from-port="1" to-layer="109" to-port="0" />
		<edge from-layer="109" from-port="1" to-layer="110" to-port="0" />
		<edge from-layer="110" from-port="1" to-layer="111" to-port="1" />
		<edge from-layer="111" from-port="2" to-layer="112" to-port="0" />
		<edge from-layer="112" from-port="1" to-layer="118" to-port="0" />
		<edge from-layer="112" from-port="1" to-layer="113" to-port="0" />
		<edge from-layer="113" from-port="1" to-layer="114" to-port="0" />
		<edge from-layer="114" from-port="1" to-layer="115" to-port="0" />
		<edge from-layer="115" from-port="1" to-layer="116" to-port="0" />
		<edge from-layer="116" from-port="1" to-layer="117" to-port="0" />
		<edge from-layer="117" from-port="1" to-layer="118" to-port="1" />
		<edge from-layer="118" from-port="2" to-layer="119" to-port="0" />
		<edge from-layer="119" from-port="1" to-layer="125" to-port="0" />
		<edge from-layer="119" from-port="1" to-layer="120" to-port="0" />
		<edge from-layer="120" from-port="1" to-layer="121" to-port="0" />
		<edge from-layer="121" from-port="1" to-layer="122" to-port="0" />
		<edge from-layer="122" from-port="1" to-layer="123" to-port="0" />
		<edge from-layer="123" from-port="1" to-layer="124" to-port="0" />
		<edge from-layer="124" from-port="1" to-layer="125" to-port="1" />
		<edge from-layer="125" from-port="2" to-layer="126" to-port="0" />
		<edge from-layer="126" from-port="1" to-layer="132" to-port="0" />
		<edge from-layer="126" from-port="1" to-layer="127" to-port="0" />
		<edge from-layer="127" from-port="1" to-layer="128" to-port="0" />
		<edge from-layer="128" from-port="1" to-layer="129" to-port="0" />
		<edge from-layer="129" from-port="1" to-layer="130" to-port="0" />
		<edge from-layer="130" from-port="1" to-layer="131" to-port="0" />
		<edge from-layer="131" from-port="1" to-layer="132" to-port="1" />
		<edge from-layer="132" from-port="2" to-layer="133" to-port="0" />
		<edge from-layer="133" from-port="1" to-layer="139" to-port="0" />
		<edge from-layer="133" from-port="1" to-layer="134" to-port="0" />
		<edge from-layer="134" from-port="1" to-layer="135" to-port="0" />
		<edge from-layer="135" from-port="1" to-layer="136" to-port="0" />
		<edge from-layer="136" from-port="1" to-layer="137" to-port="0" />
		<edge from-layer="137" from-port="1" to-layer="138" to-port="0" />
		<edge from-layer="138" from-port="1" to-layer="139" to-port="1" />
		<edge from-layer="139" from-port="2" to-layer="140" to-port="0" />
		<edge from-layer="140" from-port="1" to-layer="146" to-port="0" />
		<edge from-layer="140" from-port="1" to-layer="141" to-port="0" />
		<edge from-layer="141" from-port="1" to-layer="142" to-port="0" />
		<edge from-layer="142" from-port="1" to-layer="143" to-port="0" />
		<edge from-layer="143" from-port="1" to-layer="144" to-port="0" />
		<edge from-layer="144" from-port="1" to-layer="145" to-port="0" />
		<edge from-layer="145" from-port="1" to-layer="146" to-port="1" />
		<edge from-layer="146" from-port="2" to-layer="147" to-port="0" />
		<edge from-layer="147" from-port="1" to-layer="153" to-port="0" />
		<edge from-layer="147" from-port="1" to-layer="148" to-port="0" />
		<edge from-layer="148" from-port="1" to-layer="149" to-port="0" />
		<edge from-layer="149" from-port="1" to-layer="150" to-port="0" />
		<edge from-layer="150" from-port="1" to-layer="151" to-port="0" />
		<edge from-layer="151" from-port="1" to-layer="152" to-port="0" />
		<edge from-layer="152" from-port="1" to-layer="153" to-port="1" />
		<edge from-layer="153" from-port="2" to-layer="154" to-port="0" />
		<edge from-layer="154" from-port="1" to-layer="160" to-port="0" />
		<edge from-layer="154" from-port="1" to-layer="155" to-port="0" />
		<edge from-layer="155" from-port="1" to-layer="156" to-port="0" />
		<edge from-layer="156" from-port="1" to-layer="157" to-port="0" />
		<edge from-layer="157" from-port="1" to-layer="158" to-port="0" />
		<edge from-layer="158" from-port="1" to-layer="159" to-port="0" />
		<edge from-layer="159" from-port="1" to-layer="160" to-port="1" />
		<edge from-layer="160" from-port="2" to-layer="161" to-port="0" />
		<edge from-layer="161" from-port="1" to-layer="167" to-port="0" />
		<edge from-layer="161" from-port="1" to-layer="162" to-port="0" />
		<edge from-layer="162" from-port="1" to-layer="163" to-port="0" />
		<edge from-layer="163" from-port="1" to-layer="164" to-port="0" />
		<edge from-layer="164" from-port="1" to-layer="165" to-port="0" />
		<edge from-layer="165" from-port="1" to-layer="166" to-port="0" />
		<edge from-layer="166" from-port="1" to-layer="167" to-port="1" />
		<edge from-layer="167" from-port="2" to-layer="168" to-port="0" />
		<edge from-layer="168" from-port="1" to-layer="174" to-port="0" />
		<edge from-layer="168" from-port="1" to-layer="169" to-port="0" />
		<edge from-layer="169" from-port="1" to-layer="170" to-port="0" />
		<edge from-layer="170" from-port="1" to-layer="171" to-port="0" />
		<edge from-layer="171" from-port="1" to-layer="172" to-port="0" />
		<edge from-layer="172" from-port="1" to-layer="173" to-port="0" />
		<edge from-layer="173" from-port="1" to-layer="174" to-port="1" />
		<edge from-layer="174" from-port="2" to-layer="175" to-port="0" />
		<edge from-layer="175" from-port="1" to-layer="178" to-port="0" />
		<edge from-layer="175" from-port="1" to-layer="176" to-port="0" />
		<edge from-layer="176" from-port="1" to-layer="177" to-port="0" />
		<edge from-layer="177" from-port="1" to-layer="183" to-port="0" />
		<edge from-layer="178" from-port="1" to-layer="179" to-port="0" />
		<edge from-layer="179" from-port="1" to-layer="180" to-port="0" />
		<edge from-layer="180" from-port="1" to-layer="181" to-port="0" />
		<edge from-layer="181" from-port="1" to-layer="182" to-port="0" />
		<edge from-layer="182" from-port="1" to-layer="183" to-port="1" />
		<edge from-layer="183" from-port="2" to-layer="184" to-port="0" />
		<edge from-layer="184" from-port="1" to-layer="190" to-port="0" />
		<edge from-layer="184" from-port="1" to-layer="185" to-port="0" />
		<edge from-layer="185" from-port="1" to-layer="186" to-port="0" />
		<edge from-layer="186" from-port="1" to-layer="187" to-port="0" />
		<edge from-layer="187" from-port="1" to-layer="188" to-port="0" />
		<edge from-layer="188" from-port="1" to-layer="189" to-port="0" />
		<edge from-layer="189" from-port="1" to-layer="190" to-port="1" />
		<edge from-layer="190" from-port="2" to-layer="191" to-port="0" />
		<edge from-layer="191" from-port="1" to-layer="197" to-port="0" />
		<edge from-layer="191" from-port="1" to-layer="192" to-port="0" />
		<edge from-layer="192" from-port="1" to-layer="193" to-port="0" />
		<edge from-layer="193" from-port="1" to-layer="194" to-port="0" />
		<edge from-layer="194" from-port="1" to-layer="195" to-port="0" />
…
		<edge from-layer="205" from-port="1" to-layer="211" to-port="0" />
		<edge from-layer="205" from-port="1" to-layer="206" to-port="0" />
		<edge from-layer="206" from-port="1" to-layer="207" to-port="0" />
		<edge from-layer="207" from-port="1" to-layer="208" to-port="0" />
		<edge from-layer="208" from-port="1" to-layer="209" to-port="0" />
		<edge from-layer="209" from-port="1" to-layer="210" to-port="0" />
		<edge from-layer="210" from-port="1" to-layer="211" to-port="1" />
		<edge from-layer="211" from-port="2" to-layer="212" to-port="0" />
		<edge from-layer="212" from-port="1" to-layer="218" to-port="0" />
		<edge from-layer="212" from-port="1" to-layer="213" to-port="0" />
		<edge from-layer="213" from-port="1" to-layer="214" to-port="0" />
		<edge from-layer="214" from-port="1" to-layer="215" to-port="0" />
		<edge from-layer="215" from-port="1" to-layer="216" to-port="0" />
		<edge from-layer="216" from-port="1" to-layer="217" to-port="0" />
		<edge from-layer="217" from-port="1" to-layer="218" to-port="1" />
		<edge from-layer="218" from-port="2" to-layer="219" to-port="0" />
		<edge from-layer="219" from-port="1" to-layer="225" to-port="0" />
		<edge from-layer="219" from-port="1" to-layer="220" to-port="0" />
		<edge from-layer="220" from-port="1" to-layer="221" to-port="0" />
		<edge from-layer="221" from-port="1" to-layer="222" to-port="0" />
		<edge from-layer="222" from-port="1" to-layer="223" to-port="0" />
		<edge from-layer="223" from-port="1" to-layer="224" to-port="0" />
		<edge from-layer="224" from-port="1" to-layer="225" to-port="1" />
		<edge from-layer="225" from-port="2" to-layer="226" to-port="0" />
		<edge from-layer="226" from-port="1" to-layer="232" to-port="0" />
		<edge from-layer="226" from-port="1" to-layer="227" to-port="0" />
		<edge from-layer="227" from-port="1" to-layer="228" to-port="0" />
		<edge from-layer="228" from-port="1" to-layer="229" to-port="0" />
		<edge from-layer="229" from-port="1" to-layer="230" to-port="0" />
		<edge from-layer="230" from-port="1" to-layer="231" to-port="0" />
		<edge from-layer="231" from-port="1" to-layer="232" to-port="1" />
		<edge from-layer="232" from-port="2" to-layer="233" to-port="0" />
		<edge from-layer="233" from-port="1" to-layer="239" to-port="0" />
		<edge from-layer="233" from-port="1" to-layer="234" to-port="0" />
		<edge from-layer="234" from-port="1" to-layer="235" to-port="0" />
		<edge from-layer="235" from-port="1" to-layer="236" to-port="0" />
		<edge from-layer="236" from-port="1" to-layer="237" to-port="0" />
		<edge from-layer="237" from-port="1" to-layer="238" to-port="0" />
		<edge from-layer="238" from-port="1" to-layer="239" to-port="1" />
		<edge from-layer="239" from-port="2" to-layer="240" to-port="0" />
		<edge from-layer="240" from-port="1" to-layer="246" to-port="0" />
		<edge from-layer="240" from-port="1" to-layer="241" to-port="0" />
		<edge from-layer="241" from-port="1" to-layer="242" to-port="0" />
		<edge from-layer="242" from-port="1" to-layer="243" to-port="0" />
		<edge from-layer="243" from-port="1" to-layer="244" to-port="0" />
		<edge from-layer="244" from-port="1" to-layer="245" to-port="0" />
		<edge from-layer="245" from-port="1" to-layer="246" to-port="1" />
		<edge from-layer="246" from-port="2" to-layer="247" to-port="0" />
		<edge from-layer="247" from-port="1" to-layer="253" to-port="0" />
		<edge from-layer="247" from-port="1" to-layer="248" to-port="0" />
		<edge from-layer="248" from-port="1" to-layer="249" to-port="0" />
		<edge from-layer="249" from-port="1" to-layer="250" to-port="0" />
		<edge from-layer="250" from-port="1" to-layer="251" to-port="0" />
		<edge from-layer="251" from-port="1" to-layer="252" to-port="0" />
		<edge from-layer="252" from-port="1" to-layer="253" to-port="1" />
		<edge from-layer="253" from-port="2" to-layer="254" to-port="0" />
		<edge from-layer="254" from-port="1" to-layer="260" to-port="0" />
		<edge from-layer="254" from-port="1" to-layer="255" to-port="0" />
		<edge from-layer="255" from-port="1" to-layer="256" to-port="0" />
		<edge from-layer="256" from-port="1" to-layer="257" to-port="0" />
		<edge from-layer="257" from-port="1" to-layer="258" to-port="0" />
		<edge from-layer="258" from-port="1" to-layer="259" to-port="0" />
		<edge from-layer="259" from-port="1" to-layer="260" to-port="1" />
		<edge from-layer="260" from-port="2" to-layer="261" to-port="0" />
		<edge from-layer="261" from-port="1" to-layer="268" to-port="0" />
		<edge from-layer="261" from-port="1" to-layer="265" to-port="0" />
		<edge from-layer="261" from-port="1" to-layer="262" to-port="0" />
		<edge from-layer="262" from-port="1" to-layer="263" to-port="0" />
		<edge from-layer="263" from-port="1" to-layer="264" to-port="0" />
		<edge from-layer="264" from-port="1" to-layer="273" to-port="0" />
		<edge from-layer="265" from-port="1" to-layer="266" to-port="0" />
		<edge from-layer="266" from-port="1" to-layer="267" to-port="0" />
		<edge from-layer="267" from-port="1" to-layer="270" to-port="0" />
		<edge from-layer="268" from-port="2" to-layer="273" to-port="2" />
		<edge from-layer="269" from-port="0" to-layer="270" to-port="1" />
		<edge from-layer="270" from-port="2" to-layer="271" to-port="0" />
		<edge from-layer="271" from-port="1" to-layer="272" to-port="0" />
		<edge from-layer="272" from-port="1" to-layer="273" to-port="1" />
	</edges>
	<statistics>
		<layer>
			<name>Mul_12401/Fused_Mul_/FusedScaleShift_</name>
			<min>-4.137305, -5.721144, -6.570130</min>
			<max>13.082029, 14.226526, 13.183771</max>
		</layer>
		<layer>
			<name>bottleneck1_1/add</name>
			<min>… -0.176900</min>
			<max>… 43.609570</max>
		</layer>
		<layer>
			<name>bottleneck1_1/dim_inc/conv</name>
			<min>… -0.204081</min>
			<max>… 0.398142</max>
		</layer>
		<layer>
			<name>bottleneck1_1/dim_red/conv</name>
			<min>-6.792197, -3.854654, -6.982932, -4.174672, -0.279616, -24.105022, -2.540739, -20.227339</min>
			<max>5.588579, 3.548212, 4.419776, 5.283607, 3.328605, 2.307541, 5.577226, 1.978805</max>
		</layer>
		<layer>
			<name>bottleneck1_1/dim_red/fn</name>
			<min>-0.679220, -0.385465, -0.698293, -0.417467, -0.027962, -2.410502, -0.254074, -2.022734</min>
			<max>5.588579, 3.548212, 4.419776, 5.283607, 3.328605, 2.307541, 5.577226, 1.978805</max>
		</layer>
		<layer>
			<name>bottleneck1_1/fn</name>
			<min>… -0.017690</min>
			<max>… 43.609570</max>
		</layer>
		<layer>
			<name>bottleneck1_1/inner/dw1/conv</name>
			<min>-6.583197, -3.734818, -23.108988, -8.592732, -15.944405, -3.390936, -20.278093, -13.770465</min>
			<max>13.285604, 12.794077, 21.614851, 20.538301, 15.337063, 3.532416, 17.484425, 17.063671</max>
		</layer>
		<layer>
			<name>bottleneck1_1/inner/dw1/fn</name>
			<min>-0.658320, -0.373482, -2.310899, -0.859273, -1.594440, -0.339094, -2.027809, -1.377046</min>
			<max>13.285604, 12.794077, 21.614851, 20.538301, 15.337063, 3.532416, 17.484425, 17.063671</max>
		</layer>
		<layer>
			<name>bottleneck1_2/add</name>
			<min>… 0.018815</min>
			<max>… 43.639866</max>
		</layer>
		<layer>
			<name>bottleneck1_2/dim_inc/conv</name>
			<min>… 0.025187</min>
			<max>… 0.068906</max>
		</layer>
		<layer>
			<name>bottleneck1_2/dim_red/conv</name>
			<min>-11.660296, -0.184274, -9.019110, -4.693623, -1.291929, -1.663579, -6.144551, 0.284981</min>
			<max>20.129789, 3.700892, 5.513771, 10.223715, 4.688106, 3.531407, 6.865851, 3.303090</max>
		</layer>
		<layer>
			<name>bottleneck1_2/dim_red/fn</name>
			<min>-1.166030, -0.018427, -0.901911, -0.469362, -0.129193, -0.166358, -0.614455, 0.284981</min>
			<max>20.129789, 3.700892, 5.513771, 10.223715, 4.688106, 3.531407, 6.865851, 3.303090</max>
		</layer>
		<layer>
			<name>bottleneck1_2/fn</name>
			<min>… 0.018815</min>
			<max>… 43.639866</max>
		</layer>
		<layer>
			<name>bottleneck1_2/inner/dw1/conv</name>
			<min>-12.025053, -12.599310, -9.292139, -18.190647, -9.977904, -11.030541, -12.706153, -14.236914</min>
			<max>6.268951, 14.747441, 9.882701, 25.192717, 11.768222, 14.652043, 12.229670, 12.454316</max>
		</layer>
		<layer>
			<name>bottleneck1_2/inner/dw1/fn</name>
			<min>-1.202505, -1.259931, -0.929214, -1.819065, -0.997790, -1.103054, -1.270615, -1.423691</min>
			<max>6.268951, 14.747441, 9.882701, 25.192717, 11.768222, 14.652043, 12.229670, 12.454316</max>
		</layer>
		<layer>
			<name>bottleneck1_3/add</name>
			<min>… 0.022345</min>
			<max>… 43.647816</max>
		</layer>
		<layer>
			<name>bottleneck1_3/dim_inc/conv</name>
			<min>… -0.006286</min>
			<max>… 0.047040</max>
		</layer>
		<layer>
			<name>bottleneck1_3/dim_red/conv</name>
			<min>-3.368587, -8.960469, -6.402890, -6.463463, -5.322755, -4.726139, -7.296507, -3.412701</min>
			<max>5.878865, 7.070177, 5.666254, 5.862048, 6.485988, 4.834897, 6.011241, 6.637820</max>
		</layer>
		<layer>
			<name>bottleneck1_3/dim_red/fn</name>
			<min>-0.336859, -0.896047, -0.640289, -0.646346, -0.532276, -0.472614, -0.729651, -0.341270</min>
			<max>5.878865, 7.070177, 5.666254, 5.862048, 6.485988, 4.834897, 6.011241, 6.637820</max>
		</layer>
		<layer>
			<name>bottleneck1_3/fn</name>
			<min>… 0.022345</min>
			<max>… 43.647816</max>
		</layer>
		<layer>
			<name>bottleneck1_3/inner/dw1/conv</name>
			<min>-14.747492, -18.547274, -10.469483, -18.440109, -14.282532, -10.757466, -12.391378, -14.988345</min>
			<max>20.196215, 17.530613, 12.250611, 14.900544, 17.509991, 14.247422, 19.937214, 16.198324</max>
		</layer>
		<layer>
			<name>bottleneck1_3/inner/dw1/fn</name>
			<min>-1.474749, -1.854727, -1.046948, -1.844011, -1.428253, -1.075747, -1.239138, -1.498834</min>
			<max>20.196215, 17.530613, 12.250611, 14.900544, 17.509991, 14.247422, 19.937214, 16.198324</max>
		</layer>
		<layer>
			<name>bottleneck1_4/add</name>
			<min>… -0.258775</min>
			<max>… 43.574677</max>
		</layer>
		<layer>
			<name>bottleneck1_4/dim_inc/conv</name>
			<min>… -0.405758</min>
			<max>… 1.244905</max>
		</layer>
		<layer>
			<name>bottleneck1_4/dim_red/conv</name>
			<min>-2.423582, -3.938445, -5.122797, -1.346851, -16.000034, -3.830352, -3.299807, -29.587738</min>
			<max>3.525111, 9.547843, 10.121282, 6.977873, 7.109557, 16.141304, 4.587154, 24.594069</max>
		</layer>
		<layer>
			<name>bottleneck1_4/dim_red/fn</name>
			<min>-0.242358, -0.393845, -0.512280, -0.134685, -1.600003, -0.383035, -0.329981, -2.958774</min>
			<max>3.525111, 9.547843, 10.121282, 6.977873, 7.109557, 16.141304, 4.587154, 24.594069</max>
		</layer>
		<layer>
			<name>bottleneck1_4/fn</name>
			<min>… -0.025877</min>
			<max>… 43.574677</max>
		</layer>
		<layer>
			<name>bottleneck1_4/inner/dw1/conv</name>
			<min>-6.256766, -15.585865, -24.412212, -13.019474, -12.124431, -45.990955, -11.403542, -13.502905</min>
			<max>10.341872, 8.907661, 21.276508, 12.556631, 29.092560, 21.163717, 14.690922, 16.752619</max>
		</layer>
		<layer>
			<name>bottleneck1_4/inner/dw1/fn</name>
			<min>-0.625677, -1.558586, -2.441221, -1.301947, -1.212443, -4.599096, -1.140354, -1.350291</min>
			<max>10.341872, 8.907661, 21.276508, 12.556631, 29.092560, 21.163717, 14.690922, 16.752619</max>
		</layer>
		<layer>
			<name>bottleneck2_0/add</name>
			<min>… -21.330971</min>
			<max>… 6.797930</max>
		</layer>
		<layer>
			<name>bottleneck2_0/dim_inc/conv</name>
			<min>… -11.514132</min>
			<max>… 6.862500</max>
		</layer>
		<layer>
			<name>bottleneck2_0/dim_red/conv</name>
			<min>-2.785299, 0.484094, -10.450914, -10.307292, -13.073016, -6.080994, -2.105774, -2.272726, -9.246078, -24.133205, -9.031932, -4.317676, -10.034761, -9.885281, -9.597392, -1.332142</min>
			<max>4.765000, 4.350271, 5.209713, 4.982058, 9.909132, 13.025705, 3.501347, 8.018691, 16.070957, 9.726935, 2.784413, 7.975513, 4.345458, 11.307532, 6.582502, 5.143381</max>
		</layer>
		<layer>
			<name>bottleneck2_0/dim_red/fn</name>
			<min>-0.278530, 0.484094, -1.045092, -1.030729, -1.307302, -0.608099, -0.210577, -0.227273, -0.924608, -2.413321, -0.903193, -0.431768, -1.003476, -0.988528, -0.959739, -0.133214</min>
			<max>4.765000, 4.350271, 5.209713, 4.982058, 9.909132, 13.025705, 3.501347, 8.018691, 16.070957, 9.726935, 2.784413, 7.975513, 4.345458, 11.307532, 6.582502, 5.143381</max>
		</layer>
		<layer>
			<name>bottleneck2_0/fn</name>
			<min>… -2.133097</min>
			<max>… 6.797930</max>
		</layer>
		<layer>
			<name>bottleneck2_0/inner/dw1/conv</name>
			<min>-13.207808, -4.098958, -1.803427, -12.184561, -15.333834, -34.123531, -10.607311, -27.822073, -3.690859, -3.839872, -10.254597, -30.931816, -2.897391, -4.701390, -0.003636, -16.287605</min>
			<max>11.271138, 11.842353, 5.818822, 14.333989, 6.430055, 7.739469, 13.141523, 33.278610, 19.276190, 6.586824, 10.054551, 18.738394, 6.771473, 6.891118, 8.147273, 9.380959</max>
		</layer>
		<layer>
			<name>bottleneck2_0/inner/dw1/fn</name>
			<min>-1.320781, -0.409896, -0.180343, -1.218456, -1.533383, -3.412353, -1.060731, -2.782207, -0.369086, -0.383987, -1.025460, -3.093182, -0.289739, -0.470139, -0.000364, -1.628761</min>
			<max>11.271138, 11.842353, 5.818822, 14.333989, 6.430055, 7.739469, 13.141523, 33.278610, 19.276190, 6.586824, 10.054551, 18.738394, 6.771473, 6.891118, 8.147273, 9.380959</max>
		</layer>
		<layer>
			<name>bottleneck2_0/skip/conv</name>
			<min>… -18.557457</min>
			<max>… 7.632217</max>
		</layer>
		<layer>
			<name>bottleneck2_0/skip/pooling</name>
			<min>… -0.011803</min>
			<max>… 43.574677</max>
		</layer>
		<layer>
			<name>bottleneck2_1/add</name>
			<min>… -3.731102</min>
			<max>… 10.838461</max>
		</layer>
		<layer>
			<name>bottleneck2_1/dim_inc/conv</name>
			<min>… -2.844607</min>
			<max>… 7.545254</max>
		</layer>
		<layer>
			<name>bottleneck2_1/dim_red/conv</name>
			<min>-4.595747, -3.016563, -15.732271, -0.746897, -4.116921, -1.249841, -1.677028, -2.292924, -2.143709, -12.890026, -5.035421, -4.658484, -1.612748, -7.080595, -6.412477, -13.093959</min>
			<max>-0.332811, 3.834966, 3.595377, 4.353777, 9.146490, 2.255100, 5.513406, 2.357679, 2.829340, 9.442431, 2.516152, 12.788649, 6.592016, 2.712755, 3.689859, 4.763834</max>
		</layer>
		<layer>
			<name>bottleneck2_1/dim_red/fn</name>
			<min>-0.459575, -0.301656, -1.573227, -0.074690, -0.411692, -0.124984, -0.167703, -0.229292, -0.214371, -1.289003, -0.503542, -0.465848, -0.161275, -0.708059, -0.641248, -1.309396</min>
			<max>-0.033281, 3.834966, 3.595377, 4.353777, 9.146490, 2.255100, 5.513406, 2.357679, 2.829340, 9.442431, 2.516152, 12.788649, 6.592016, 2.712755, 3.689859, 4.763834</max>
		</layer>
		<layer>
			<name>bottleneck2_1/fn</name>
			<min>… -0.373110</min>
			<max>… 10.838461</max>
		</layer>
		<layer>
			<name>bottleneck2_1/inner/dw1/conv</name>
			<min>-7.525047, -8.744313, -5.714916, -5.815478, -11.462260, -7.771985, -7.713090, -8.686385, -8.760041, -14.686110, -10.138663, -3.906513, -23.654432, -7.281708, -0.924603, -3.046555</min>
			<max>8.824158, 11.837131, 8.168106, 9.987629, 16.180071, 9.936741, 10.689526, 9.481196, 10.706639, 3.909180, 5.658235, 27.986605, 17.404015, 9.184730, 5.432329, 9.528463</max>
		</layer>
		<layer>
			<name>bottleneck2_1/inner/dw1/fn</name>
			<min>-0.752505, -0.874431, -0.571492, -0.581548, -1.146226, -0.777198, -0.771309, -0.868639, -0.876004, -1.468611, -1.013866, -0.390651, -2.365443, -0.728171, -0.092460, -0.304655</min>
			<max>8.824158, 11.837131, 8.168106, 9.987629, 16.180071, 9.936741, 10.689526, 9.481196, 10.706639, 3.909180, 5.658235, 27.986605, 17.404015, 9.184730, 5.432329, 9.528463</max>
		</layer>
		<layer>
			<name>bottleneck2_2/add</name>
			<min>… -8.554998</min>
			<max>… 12.494518</max>
		</layer>
		<layer>
			<name>bottleneck2_2/dim_inc/conv</name>
			<min>… -8.405546</min>
			<max>… 5.222857</max>
		</layer>
		<layer>
			<name>bottleneck2_2/dim_red/conv</name>
			<min>-0.966561, -6.657239, -8.730349, -4.262763, -2.232161, -3.000203, -3.329585, 1.489674, -4.059810, -3.932972, -8.431208, -13.565814, -2.552739, -2.757939, -7.686737, -0.719039</min>
			<max>5.030786, 3.968963, 8.037004, 6.850332, 5.074533, 2.142123, 2.940189, 3.509662, 4.055362, 2.169423, 1.524524, 8.100119, 3.447846, 3.642387, 3.189380, 4.414247</max>
		</layer>
		<layer>
			<name>bottleneck2_2/dim_red/fn</name>
			<min>-0.096656, -0.665724, -0.873035, -0.426276, -0.223216, -0.300020, -0.332959, 1.489674, -0.405981, -0.393297, -0.843121, -1.356581, -0.255274, -0.275794, -0.768674, -0.071904</min>
			<max>5.030786, 3.968963, 8.037004, 6.850332, 5.074533, 2.142123, 2.940189, 3.509662, 4.055362, 2.169423, 1.524524, 8.100119, 3.447846, 3.642387, 3.189380, 4.414247</max>
		</layer>
		<layer>
			<name>bottleneck2_2/fn</name>
			<min>… -0.855500</min>
			<max>… 12.494518</max>
		</layer>
		<layer>
			<name>bottleneck2_2/inner/dw1/conv</name>
			<min>-5.950343, -3.260808, -4.378744, -5.637829, -11.353932, -6.974634, -3.719245, -2.305516, -3.466903, -5.851157, -7.603011, -3.520285, -8.844115, -2.667923, -4.814143, -6.243631</min>
			<max>8.402346, 6.196283, 10.026553, 12.218555, 11.089572, 6.594213, 6.746392, 9.286555, 6.569791, 9.024102, 6.758952, 6.620134, 8.895340, 4.474953, 7.310173, 8.289842</max>
		</layer>
		<layer>
			<name>bottleneck2_2/inner/dw1/fn</name>
			<min>-0.595034, -0.326081, -0.437874, -0.563783, -1.135393, -0.697463, -0.371925, -0.230552, -0.346690, -0.585116, -0.760301, -0.352028, -0.884412, -0.266792, -0.481414, -0.624363</min>
			<max>8.402346, 6.196283, 10.026553, 12.218555, 11.089572, 6.594213, 6.746392, 9.286555, 6.569791, 9.024102, 6.758952, 6.620134, 8.895340, 4.474953, 7.310173, 8.289842</max>
		</layer>
		<layer>
			<name>bottleneck2_3/add</name>
			<min>… -6.075599</min>
			<max>… 12.925033</max>
		</layer>
		<layer>
			<name>bottleneck2_3/dim_inc/conv</name>
			<min>… -6.397893</min>
			<max>… 3.986333</max>
		</layer>
		<layer>
			<name>bottleneck2_3/dim_red/conv</name>
			<min>-3.878311, -1.011748, -3.078656, -6.130663, -6.417144, -3.203581, -11.272553, -2.266585, -16.976761, -2.460330, -6.841780, -2.456311, -2.778665, -1.419415, -0.300466, -3.351211</min>
			<max>2.688671, 2.586905, 5.182662, 11.012289, 2.438194, 4.690580, 4.382231, 5.025627, 4.766804, 3.535232, 7.107041, 7.710591, 4.434597, 3.797794, 4.298383, 4.172900</max>
		</layer>
		<layer>
			<name>bottleneck2_3/dim_red/fn</name>
			<min>-0.387831, -0.101175, -0.307866, -0.613066, -0.641714, -0.320358, -1.127255, -0.226659, -1.697676, -0.246033, -0.684178, -0.245631, -0.277866, -0.141942, -0.030047, -0.335121</min>
			<max>2.688671, 2.586905, 5.182662, 11.012289, 2.438194, 4.690580, 4.382231, 5.025627, 4.766804, 3.535232, 7.107041, 7.710591, 4.434597, 3.797794, 4.298383, 4.172900</max>
		</layer>
		<layer>
			<name>bottleneck2_3/fn</name>
			<min>… -0.607560</min>
			<max>… 12.925033</max>
		</layer>
		<layer>
			<name>bottleneck2_3/inner/dw1/conv</name>
			<min>-34.014153, -5.544737, -9.529320, -10.883883, -4.525159, -8.741556, -8.299994, -8.593355, -0.442051, -3.860827, -3.798781, -15.719474, -5.957336, -15.296947, -5.938739, -8.566480</min>
			<max>4.952460, 7.962487, 9.290058, 8.365323, 6.998582, 8.423292, 5.137084, 6.878316, 4.044242, 4.439729, 7.626253, 13.464214, 6.502779, 11.318975, 7.427470, 16.273066</max>
		</layer>
		<layer>
			<name>bottleneck2_3/inner/dw1/fn</name>
			<min>-3.401415, -0.554474, -0.952932, -1.088388, -0.452516, -0.874156, -0.829999, -0.859336, -0.044205, -0.386083, -0.379878, -1.571947, -0.595734, -1.529695, -0.593874, -0.856648</min>
			<max>4.952460, 7.962487, 9.290058, 8.365323, 6.998582, 8.423292, 5.137084, 6.878316, 4.044242, 4.439729, 7.626253, 13.464214, 6.502779, 11.318975, 7.427470, 16.273066</max>
		</layer>
		<layer>
			<name>bottleneck2_4/add</name>
			<min>… -12.088846</min>
			<max>… 18.353113</max>
		</layer>
		<layer>
			<name>bottleneck2_4/dim_inc/conv</name>
			<min>… -11.912842</min>
			<max>… 12.434858</max>
		</layer>
		<layer>
			<name>bottleneck2_4/dim_red/conv</name>
			<min>-3.115994, -6.728072, -5.634892, -6.403313, -16.242983, -3.095743, -10.658918, -11.077127, -10.601362, -7.456969, -1.758739, -5.913553, -6.328440, -5.938150, -5.474116, -3.314941</min>
			<max>5.414236, 5.380347, 5.919168, 3.167315, 3.006663, 5.338919, 0.809113, 6.401060, 6.118424, 4.893781, 4.157668, 4.781592, 3.594061, 3.688129, 4.557116, 7.687986</max>
		</layer>
		<layer>
			<name>bottleneck2_4/dim_red/fn</name>
			<min>-0.311599, -0.672807, -0.563489, -0.640331, -1.624298, -0.309574, -1.065892, -1.107713, -1.060136, -0.745697, -0.175874, -0.591355, -0.632844, -0.593815, -0.547412, -0.331494</min>
			<max>5.414236, 5.380347, 5.919168, 3.167315, 3.006663, 5.338919, 0.809113, 6.401060, 6.118424, 4.893781, 4.157668, 4.781592, 3.594061, 3.688129, 4.557116, 7.687986</max>
		</layer>
		<layer>
			<name>bottleneck2_4/fn</name>
			<min>… -1.208885</min>
			<max>… 18.353113</max>
		</layer>
		<layer>
			<name>bottleneck2_4/inner/dw1/conv</name>
			<min>-16.591312, -2.876960, -3.505161, -7.093760, -8.113963, -4.817797, -4.381439, -5.916377, -4.123868, -3.098877, -15.465736, -8.642350, -8.206320, -7.269944, -8.232917, -12.295446</min>
			<max>10.273121, 6.707530, 6.534953, 6.207375, 9.163622, 7.583677, 6.734533, 5.467148, 7.962911, 7.833949, 15.073972, 8.212128, 8.784944, 7.047590, 7.779643, 11.550088</max>
		</layer>
		<layer>
			<name>bottleneck2_4/inner/dw1/fn</name>
			<min>-1.659131, -0.287696, -0.350516, -0.709376, -0.811396, -0.481780, -0.438144, -0.591638, -0.412387, -0.309888, -1.546574, -0.864235, -0.820632, -0.726994, -0.823292, -1.229545</min>
			<max>10.273121, 6.707530, 6.534953, 6.207375, 9.163622, 7.583677, 6.734533, 5.467148, 7.962911, 7.833949, 15.073972, 8.212128, 8.784944, 7.047590, 7.779643, 11.550088</max>
		</layer>
		<layer>
			<name>bottleneck2_5/add</name>
			<min>… -6.060462</min>
			<max>… 18.646280</max>
		</layer>
		<layer>
			<name>bottleneck2_5/dim_inc/conv</name>
			<min>… -5.830599</min>
			<max>… 3.795871</max>
		</layer>
		<layer>
			<name>bottleneck2_5/dim_red/conv</name>
			<min>-5.859611, -17.747993, -6.510932, -1.253318, -3.731730, -5.950737, -3.521591, -11.021269, -8.648186, -5.602141, -2.138302, -10.283744, -7.532450, -2.270934, -5.305566, -6.662889</min>
			<max>6.426071, 8.201029, 10.108956, 2.499087, 4.723856, 7.476310, 6.152027, 6.345077, 3.902045, 14.053220, 3.581201, 4.861601, 4.475362, 8.144395, 5.886341, 13.085248</max>
		</layer>
		<layer>
			<name>bottleneck2_5/dim_red/fn</name>
			<min>-0.585961, -1.774799, -0.651093, -0.125332, -0.373173, -0.595074, -0.352159, -1.102127, -0.864819, -0.560214, -0.213830, -1.028374, -0.753245, -0.227093, -0.530557, -0.666289</min>
			<max>6.426071, 8.201029, 10.108956, 2.499087, 4.723856, 7.476310, 6.152027, 6.345077, 3.902045, 14.053220, 3.581201, 4.861601, 4.475362, 8.144395, 5.886341, 13.085248</max>
		</layer>
		<layer>
			<name>bottleneck2_5/fn</name>
			<min>… -0.606046</min>
			<max>… 18.646280</max>
		</layer>
		<layer>
			<name>bottleneck2_5/inner/dw1/conv</name>
			<min>-8.293966, -8.700444, -11.117153, -6.547059, -8.996110, -6.408203, -8.213901, -5.210726, -4.226596, -2.523473, -12.555727, -4.751959, -8.608581, -9.168496, -9.809668, -8.579569</min>
			<max>8.945613, 3.271088, 8.769911, 8.076855, 7.983413, 10.262920, 6.046947, 11.802972, 6.940171, 17.819616, 10.315450, 6.247810, 11.873232, 6.109368, 8.442909, 8.116899</max>
		</layer>
		<layer>
			<name>bottleneck2_5/inner/dw1/fn</name>
			<min>-0.829397, -0.870044, -1.111715, -0.654706, -0.899611, -0.640820, -0.821390, -0.521073, -0.422660, -0.252347, -1.255573, -0.475196, -0.860858, -0.916850, -0.980967, -0.857957</min>
			<max>8.945613, 3.271088, 8.769911, 8.076855, 7.983413, 10.262920, 6.046947, 11.802972, 6.940171, 17.819616, 10.315450, 6.247810, 11.873232, 6.109368, 8.442909, 8.116899</max>
		</layer>
		<layer>
			<name>bottleneck2_6/add</name>
			<min>… -11.464177</min>
			<max>… 16.263828</max>
		</layer>
		<layer>
			<name>bottleneck2_6/dim_inc/conv</name>
			<min>… -11.128375</min>
			<max>… 5.063523</max>
		</layer>
		<layer>
			<name>bottleneck2_6/dim_red/conv</name>
			<min>-5.713065, -6.011490, -2.571441, -4.116606, -4.932373, -2.840009, -4.125073, -2.430649, -3.117357, -6.099849, -2.103822, -3.879906, -2.198107, -3.421151, -5.266392, -4.214645</min>
			<max>5.897644, 5.683124, 5.369603, 4.185361, 5.841469, 5.263504, 5.210100, 4.932165, 5.237718, 9.650352, 6.297191, 3.235870, 3.724615, 3.235973, 6.186115, 5.348432</max>
		</layer>
		<layer>
			<name>bottleneck2_6/dim_red/fn</name>
			<min>-0.571306, -0.601149, -0.257144, -0.411661, -0.493237, -0.284001, -0.412507, -0.243065, -0.311736, -0.609985, -0.210382, -0.387991, -0.219811, -0.342115, -0.526639, -0.421465</min>
			<max>5.897644, 5.683124, 5.369603, 4.185361, 5.841469, 5.263504, 5.210100, 4.932165, 5.237718, 9.650352, 6.297191, 3.235870, 3.724615, 3.235973, 6.186115, 5.348432</max>
		</layer>
		<layer>
			<name>bottleneck2_6/fn</name>
			<min>… -1.146418</min>
			<max>… 16.263828</max>
		</layer>
		<layer>
			<name>bottleneck2_6/inner/dw1/conv</name>
			<min>-2.055221, -3.872084, -10.351628, -10.420528, -4.988689, -8.986688, -8.667777, -8.355497, -11.942472, -4.499310, -17.631813, -10.260226, -12.201072, -10.892869, -12.037267, -3.230973</min>
			<max>9.808572, 5.276791, 9.271156, 8.964923, 5.215688, 6.742557, 6.230786, 9.894992, 12.392012, 19.090937, 15.586269, 8.054247, 9.866895, 11.241091, 6.783576, 8.291858</max>
		</layer>
		<layer>
			<name>bottleneck2_6/inner/dw1/fn</name>
			<min>-0.205522, -0.387208, -1.035163, -1.042053, -0.498869, -0.898669, -0.866778, -0.835550, -1.194247, -0.449931, -1.763181, -1.026023, -1.220107, -1.089287, -1.203727, -0.323097</min>
			<max>9.808572, 5.276791, 9.271156, 8.964923, 5.215688, 6.742557, 6.230786, 9.894992, 12.392012, 19.090937, 15.586269, 8.054247, 9.866895, 11.241091, 6.783576, 8.291858</max>
		</layer>
		<layer>
			<name>bottleneck2_7/add</name>
			<min>… -4.400034</min>
			<max>… 17.904169</max>
		</layer>
		<layer>
			<name>bottleneck2_7/dim_inc/conv</name>
			<min>… -4.281437</min>
			<max>… 3.839410</max>
		</layer>
		<layer>
			<name>bottleneck2_7/dim_red/conv</name>
			<min>-2.953565, -1.411687, -5.298546, -5.920188, -3.886953, -3.152025, -1.980864, -7.613966, -3.389637, -5.166575, -1.869926, -3.196002, -5.599506, -4.384931, -4.891726, -5.008510</min>
			<max>5.432691, 5.566957, 5.189785, 3.815428, 3.872484, 4.617720, 5.142783, 4.975725, 3.727107, 5.072538, 3.849983, 8.824766, 5.466611, 2.928125, 5.454666, 6.698684</max>
		</layer>
		<layer>
			<name>bottleneck2_7/dim_red/fn</name>
			<min>-0.295357, -0.141169, -0.529855, -0.592019, -0.388695, -0.315203, -0.198086, -0.761397, -0.338964, -0.516658, -0.186993, -0.319600, -0.559951, -0.438493, -0.489173, -0.500851</min>
			<max>5.432691, 5.566957, 5.189785, 3.815428, 3.872484, 4.617720, 5.142783, 4.975725, 3.727107, 5.072538, 3.849983, 8.824766, 5.466611, 2.928125, 5.454666, 6.698684</max>
		</layer>
		<layer>
			<name>bottleneck2_7/fn</name>
			<min>… -0.440003</min>
			<max>… 17.904169</max>
		</layer>
		<layer>
			<name>bottleneck2_7/inner/dw1/conv</name>
			<min>-15.020446, -17.031416, -13.776594, -12.002061, -6.001501, -11.213881, -12.914003, -9.303583, -10.998449, -13.316819, -12.014006, -11.861632, -12.044471, -11.189741, -16.174191, -11.579749</min>
			<max>12.918569, 14.671501, 12.264202, 9.545333, 11.259606, 10.445338, 11.217689, 10.235771, 7.622369, 8.026404, 10.494747, 10.229236, 7.975532, 8.172138, 11.008056, 10.318277</max>
		</layer>
		<layer>
			<name>bottleneck2_7/inner/dw1/fn</name>
			<min>-1.502045, -1.703142, -1.377659, -1.200206, -0.600150, -1.121388, -1.291400, -0.930358, -1.099845, -1.331682, -1.201401, -1.186163, -1.204447, -1.118974, -1.617419, -1.157975</min>
			<max>12.918569, 14.671501, 12.264202, 9.545333, 11.259606, 10.445338, 11.217689, 10.235771, 7.622369, 8.026404, 10.494747, 10.229236, 7.975532, 8.172138, 11.008056, 10.318277</max>
		</layer>
		<layer>
			<name>bottleneck2_8/add</name>
			<min>… -5.106873</min>
			<max>… 23.560417</max>
		</layer>
		<layer>
			<name>bottleneck2_8/dim_inc/conv</name>
			<min>… -4.985713</min>
			<max>… 9.035566</max>
		</layer>
		<layer>
			<name>bottleneck2_8/dim_red/conv</name>
			<min>-6.069932, -2.966777, -2.135132, -1.985531, -0.218760, -4.614628, -3.355404, -1.064317, -4.284513, -2.567812, -4.980707, -6.124917, -0.988529, -4.950726, -2.021446, -4.486021</min>
			<max>4.732302, 2.577467, 3.210883, 4.468204, 5.062063, 6.812468, 7.736335, 4.953145, 5.502153, 3.581765, 6.599871, 3.387599, 3.568116, 3.991405, 4.082442, 4.017736</max>
		</layer>
		<layer>
			<name>bottleneck2_8/dim_red/fn</name>
			<min>-0.606993, -0.296678, -0.213513, -0.198553, -0.021876, -0.461463, -0.335540, -0.106432, -0.428451, -0.256781, -0.498071, -0.612492, -0.098853, -0.495073, -0.202145, -0.448602</min>
			<max>4.732302, 2.577467, 3.210883, 4.468204, 5.062063, 6.812468, 7.736335, 4.953145, 5.502153, 3.581765, 6.599871, 3.387599, 3.568116, 3.991405, 4.082442, 4.017736</max>
		</layer>
		<layer>
			<name>bottleneck2_8/fn</name>
			<min>… -0.510687</min>
			<max>… 23.560417</max>
		</layer>
		<layer>
			<name>bottleneck2_8/inner/dw1/conv</name>
			<min>-1.565180, -11.484528, -13.206046, -14.865147, -17.105299, -10.698895, -16.386707, -16.014782, -16.821047, -12.950328, -10.986013, -19.664337, -16.540905, -12.264814, -11.436717, -10.538595</min>
			<max>16.048180, 8.285695, 8.275753, 9.879663, 13.231794, 11.298985, 14.026373, 13.892708, 9.325181, 10.314880, 8.967813, 16.030895, 14.192258, 9.340052, 8.649127, 11.886587</max>
		</layer>
		<layer>
			<name>bottleneck2_8/inner/dw1/fn</name>
			<min>-0.156518, -1.148453, -1.320605, -1.486515, -1.710530, -1.069890, -1.638671, -1.601478, -1.682105, -1.295033, -1.098601, -1.966434, -1.654091, -1.226481, -1.143672, -1.053860</min>
			<max>16.048180, 8.285695, 8.275753, 9.879663, 13.231794, 11.298985, 14.026373, 13.892708, 9.325181, 10.314880, 8.967813, 16.030895, 14.192258, 9.340052, 8.649127, 11.886587</max>
		</layer>
		<layer>
			<name>bottleneck3_0/add</name>
			<min>… -8.917881</min>
			<max>… 8.016909</max>
		</layer>
		<layer>
			<name>bottleneck3_0/dim_inc/conv</name>
			<min>… -4.720652</min>
			<max>… 3.884341</max>
		</layer>
		<layer>
			<name>bottleneck3_0/dim_red/conv</name>
			<min>… -4.089665</min>
			<max>… 5.025657</max>
		</layer>
		<layer>
			<name>bottleneck3_0/dim_red/fn</name>
			<min>… -0.408967</min>
			<max>… 5.025657</max>
		</layer>
		<layer>
			<name>bottleneck3_0/fn</name>
			<min>… -0.891788</min>
			<max>… 8.016909</max>
		</layer>
		<layer>
			<name>bottleneck3_0/inner/dw1/conv</name>
			<min>… -2.173985</min>
			<max>… 7.249928</max>
		</layer>
		<layer>
			<name>bottleneck3_0/inner/dw1/fn</name>
			<min>… -0.217398</min>
			<max>… 7.249928</max>
		</layer>
		<layer>
			<name>bottleneck3_0/skip/conv</name>
			<min>… -7.644242</min>
			<max>… 5.946970</max>
		</layer>
		<layer>
			<name>bottleneck3_0/skip/pooling</name>
			<min>… -0.219529</min>
			<max>… 23.560417</max>
		</layer>
		<layer>
			<name>bottleneck3_1/add</name>
			<min>… -4.930796</min>
			<max>… 9.673451</max>
		</layer>
		<layer>
			<name>bottleneck3_1/dim_inc/conv</name>
			<min>… -4.946225</min>
			<max>… 4.717052</max>
		</layer>
		<layer>
			<name>bottleneck3_1/dim_red/conv</name>
			<min>… -0.485557</min>
			<max>… 2.686468</max>
		</layer>
		<layer>
			<name>bottleneck3_1/dim_red/fn</name>
			<min>… -0.048556</min>
			<max>… 2.686468</max>
		</layer>
		<layer>
			<name>bottleneck3_1/fn</name>
			<min>… -0.493080</min>
			<max>… 9.673451</max>
		</layer>
		<layer>
			<name>bottleneck3_1/inner/dw1/conv</name>
			<min>… -15.525990</min>
			<max>… 9.043410</max>
		</layer>
		<layer>
			<name>bottleneck3_1/inner/dw1/fn</name>
			<min>… -1.552599</min>
			<max>… 9.043410</max>
		</layer>
		<layer>
			<name>bottleneck3_10/add</name>
			<min>… -6.197620</min>
			<max>… 22.665295</max>
		</layer>
		<layer>
			<name>bottleneck3_10/dim_inc/conv</name>
			<min>… -6.419583</min>
			<max>… 8.435049</max>
		</layer>
		<layer>
			<name>bottleneck3_10/dim_red/conv</name>
			<min>… -11.382318</min>
			<max>… 7.549161</max>
		</layer>
		<layer>
			<name>bottleneck3_10/dim_red/fn</name>
			<min>… -1.138232</min>
			<max>… 7.549161</max>
		</layer>
		<layer>
			<name>bottleneck3_10/fn</name>
			<min>… -0.619762</min>
			<max>… 22.665295</max>
		</layer>
		<layer>
			<name>bottleneck3_10/inner/dw1/conv</name>
			<min>… -2.970451</min>
			<max>… 11.605504</max>
		</layer>
		<layer>
			<name>bottleneck3_10/inner/dw1/fn</name>
			<min>… -0.297045</min>
			<max>… 11.605504</max>
		</layer>
		<layer>
			<name>bottleneck3_2/add</name>
			<min>… -6.771825</min>
			<max>… 13.046680</max>
		</layer>
		<layer>
			<name>bottleneck3_2/dim_inc/conv</name>
			<min>… -6.508791</min>
			<max>… 7.382835</max>
		</layer>
		<layer>
			<name>bottleneck3_2/dim_red/conv</name>
			<min>… -1.190635</min>
			<max>… 4.741411</max>
		</layer>
		<layer>
			<name>bottleneck3_2/dim_red/fn</name>
			<min>… -0.119064</min>
			<max>… 4.741411</max>
		</layer>
		<layer>
			<name>bottleneck3_2/fn</name>
			<min>… -0.677183</min>
			<max>… 13.046680</max>
		</layer>
		<layer>
			<name>bottleneck3_2/inner/dw1/conv</name>
			<min>… -9.257133</min>
			<max>… 7.905665</max>
		</layer>
		<layer>
			<name>bottleneck3_2/inner/dw1/fn</name>
			<min>… -0.925713</min>
			<max>… 7.905665</max>
		</layer>
		<layer>
			<name>bottleneck3_3/add</name>
			<min>… -4.121464</min>
			<max>… 14.489356</max>
		</layer>
		<layer>
			<name>bottleneck3_3/dim_inc/conv</name>
			<min>… -3.881137</min>
			<max>… 3.764609</max>
		</layer>
		<layer>
			<name>bottleneck3_3/dim_red/conv</name>
			<min>… -1.635180</min>
			<max>… 3.720567</max>
		</layer>
		<layer>
			<name>bottleneck3_3/dim_red/fn</name>
			<min>… -0.163518</min>
			<max>… 3.720567</max>
		</layer>
		<layer>
			<name>bottleneck3_3/fn</name>
			<min>… -0.412146</min>
			<max>… 14.489356</max>
		</layer>
		<layer>
			<name>bottleneck3_3/inner/dw1/conv</name>
			<min>… -10.972885</min>
			<max>… 7.615599</max>
		</layer>
		<layer>
			<name>bottleneck3_3/inner/dw1/fn</name>
			<min>… -1.097288</min>
			<max>… 7.615599</max>
		</layer>
		<layer>
			<name>bottleneck3_4/add</name>
			<min>… -4.610464</min>
			<max>… 16.130142</max>
		</layer>
		<layer>
			<name>bottleneck3_4/dim_inc/conv</name>
			<min>… -4.552732</min>
			<max>… 5.681049</max>
		</layer>
		<layer>
			<name>bottleneck3_4/dim_red/conv</name>
			<min>… -2.296055</min>
			<max>… 2.095741</max>
		</layer>
		<layer>
			<name>bottleneck3_4/dim_red/fn</name>
			<min>… -0.229606</min>
			<max>… 2.095741</max>
		</layer>
		<layer>
			<name>bottleneck3_4/fn</name>
			<min>… -0.461046</min>
			<max>… 16.130142</max>
		</layer>
		<layer>
			<name>bottleneck3_4/inner/dw1/conv</name>
			<min>… -13.724339</min>
			<max>… 9.005292</max>
		</layer>
		<layer>
			<name>bottleneck3_4/inner/dw1/fn</name>
			<min>… -1.372434</min>
			<max>… 9.005292</max>
		</layer>
		<layer>
			<name>bottleneck3_5/add</name>
			<min>… -5.015191</min>
			<max>… 16.447649</max>
		</layer>
		<layer>
			<name>bottleneck3_5/dim_inc/conv</name>
			<min>… -5.289140</min>
			<max>… 2.554376</max>
		</layer>
		<layer>
			<name>bottleneck3_5/dim_red/conv</name>
			<min>… -2.290643</min>
			<max>… 3.674225</max>
		</layer>
		<layer>
			<name>bottleneck3_5/dim_red/fn</name>
			<min>… -0.229064</min>
			<max>… 3.674225</max>
		</layer>
		<layer>
			<name>bottleneck3_5/fn</name>
			<min>… -0.501519</min>
			<max>… 16.447649</max>
		</layer>
		<layer>
			<name>bottleneck3_5/inner/dw1/conv</name>
			<min>… -8.516983</min>
			<max>… 6.717405</max>
		</layer>
		<layer>
			<name>bottleneck3_5/inner/dw1/fn</name>
			<min>… -0.851698</min>
			<max>… 6.717405</max>
		</layer>
		<layer>
			<name>bottleneck3_6/add</name>
			<min>… -2.726512</min>
			<max>… 16.746271</max>
		</layer>
		<layer>
			<name>bottleneck3_6/dim_inc/conv</name>
			<min>… -2.700541</min>
			<max>… 3.064416</max>
		</layer>
		<layer>
			<name>bottleneck3_6/dim_red/conv</name>
			<min>… -6.028740</min>
			<max>… 8.205165</max>
		</layer>
		<layer>
			<name>bottleneck3_6/dim_red/fn</name>
			<min>… -0.602874</min>
			<max>… 8.205165</max>
		</layer>
		<layer>
			<name>bottleneck3_6/fn</name>
			<min>… -0.272651</min>
			<max>… 16.746271</max>
		</layer>
		<layer>
			<name>bottleneck3_6/inner/dw1/conv</name>
			<min>… -20.513346</min>
			<max>… 1.439180</max>
		</layer>
		<layer>
			<name>bottleneck3_6/inner/dw1/fn</name>
			<min>… -2.051335</min>
			<max>… 1.439180</max>
		</layer>
		<layer>
			<name>bottleneck3_7/add</name>
			<min>… -4.759661</min>
			<max>… 18.468866</max>
		</layer>
		<layer>
			<name>bottleneck3_7/dim_inc/conv</name>
			<min>… -4.996348</min>
			<max>… 6.501440</max>
		</layer>
		<layer>
			<name>bottleneck3_7/dim_red/conv</name>
			<min>… -2.412190</min>
			<max>… 1.508913</max>
		</layer>
		<layer>
			<name>bottleneck3_7/dim_red/fn</name>
			<min>… -0.241219</min>
			<max>… 1.508913</max>
		</layer>
		<layer>
			<name>bottleneck3_7/fn</name>
			<min>… -0.475966</min>
			<max>… 18.468866</max>
		</layer>
		<layer>
			<name>bottleneck3_7/inner/dw1/conv</name>
			<min>… -10.853105</min>
			<max>… 11.340405</max>
		</layer>
		<layer>
			<name>bottleneck3_7/inner/dw1/fn</name>
			<min>… -1.085310</min>
			<max>… 11.340405</max>
		</layer>
		<layer>
			<name>bottleneck3_8/add</name>
			<min>… -5.989378</min>
			<max>… 18.551430</max>
		</layer>
		<layer>
			<name>bottleneck3_8/dim_inc/conv</name>
			<min>… -6.094281</min>
			<max>… 8.106824</max>
		</layer>
		<layer>
			<name>bottleneck3_8/dim_red/conv</name>
			<min>… -4.503714</min>
			<max>… 5.170031</max>
		</layer>
		<layer>
			<name>bottleneck3_8/dim_red/fn</name>
			<min>… -0.450371</min>
			<max>… 5.170031</max>
		</layer>
		<layer>
			<name>bottleneck3_8/fn</name>
			<min>… -0.598938</min>
			<max>… 18.551430</max>
		</layer>
		<layer>
			<name>bottleneck3_8/inner/dw1/conv</name>
			<min>… -8.560498</min>
			<max>… 10.474219</max>
		</layer>
		<layer>
			<name>bottleneck3_8/inner/dw1/fn</name>
			<min>… -0.856050</min>
			<max>… 10.474219</max>
		</layer>
		<layer>
			<name>bottleneck3_9/add</name>
			<min>… -7.127604</min>
			<max>… 20.069145</max>
		</layer>
		<layer>
			<name>bottleneck3_9/dim_inc/conv</name>
			<min>… -6.871051</min>
			<max>… 4.739147</max>
		</layer>
		<layer>
			<name>bottleneck3_9/dim_red/conv</name>
			<min>… -2.622549</min>
			<max>… 4.089242</max>
		</layer>
		<layer>
			<name>bottleneck3_9/dim_red/fn</name>
			<min>… -0.262255</min>
			<max>… 4.089242</max>
		</layer>
		<layer>
			<name>bottleneck3_9/fn</name>
			<min>… -0.712760</min>
			<max>… 20.069145</max>
		</layer>
		<layer>
			<name>bottleneck3_9/inner/dw1/conv</name>
			<min>… -7.220263</min>
			<max>… 10.911642</max>
		</layer>
		<layer>
			<name>bottleneck3_9/inner/dw1/fn</name>
			<min>… -0.722026</min>
			<max>… 10.911642</max>
		</layer>
		<layer>
			<name>bottleneck4_0/add</name>
			<min>… -11.560066</min>
			<max>… 6.350580</max>
		</layer>
		<layer>
			<name>bottleneck4_0/dim_inc/conv</name>
			<min>… -8.337127</min>
			<max>… 2.030345</max>
		</layer>
		<layer>
			<name>bottleneck4_0/dim_red/conv</name>
			<min>… -10.753117</min>
			<max>… 7.745741</max>
		</layer>
		<layer>
			<name>bottleneck4_0/dim_red/fn</name>
			<min>… -1.075312</min>
			<max>… 7.745741</max>
		</layer>
		<layer>
			<name>bottleneck4_0/fn</name>
			<min>… -1.156007</min>
			<max>… 6.350580</max>
		</layer>
		<layer>
			<name>bottleneck4_0/inner/dw1/conv</name>
			<min>… -1.821562</min>
			<max>… 9.096469</max>
		</layer>
		<layer>
			<name>bottleneck4_0/inner/dw1/fn</name>
			<min>… -0.182156</min>
			<max>… 9.096469</max>
		</layer>
		<layer>
			<name>bottleneck4_0/skip/conv</name>
			<min>… -7.819777</min>
			<max>… 8.167027</max>
		</layer>
		<layer>
			<name>bottleneck4_0/skip/pooling</name>
			<min>… -0.288475</min>
			<max>… 22.665295</max>
		</layer>
		<layer>
			<name>bottleneck4_1/add</name>
			<min>… -4.740894</min>
			<max>… 5.758796</max>
		</layer>
		<layer>
			<name>bottleneck4_1/dim_inc/conv</name>
			<min>… -4.601537</min>
			<max>… 1.480970</max>
		</layer>
		<layer>
			<name>bottleneck4_1/dim_red/conv</name>
			<min>… -7.100301</min>
			<max>… 1.615129</max>
		</layer>
		<layer>
			<name>bottleneck4_1/dim_red/fn</name>
			<min>… -0.710030</min>
			<max>… 1.615129</max>
		</layer>
		<layer>
			<name>bottleneck4_1/fn</name>
			<min>… -0.474089</min>
			<max>… 5.758796</max>
		</layer>
		<layer>
			<name>bottleneck4_1/inner/dw1/conv</name>
			<min>… -22.264462</min>
			<max>… 5.512295</max>
		</layer>
		<layer>
			<name>bottleneck4_1/inner/dw1/fn</name>
			<min>… -2.226446</min>
			<max>… 5.512295</max>
		</layer>
		<layer>
			<name>bottleneck4_10/add</name>
			<min>… -4.742805</min>
			<max>… 1.871615</max>
		</layer>
		<layer>
			<name>bottleneck4_10/dim_inc/conv</name>
			<min>… -4.715617</min>
			<max>… 0.972409</max>
		</layer>
		<layer>
			<name>bottleneck4_10/dim_red/conv</name>
			<min>… -0.763814</min>
			<max>… 4.602167</max>
		</layer>
		<layer>
			<name>bottleneck4_10/dim_red/fn</name>
			<min>… -0.076381</min>
			<max>… 4.602167</max>
		</layer>
		<layer>
			<name>bottleneck4_10/fn</name>
			<min>… -0.474281</min>
			<max>… 1.871615</max>
		</layer>
		<layer>
			<name>bottleneck4_10/inner/dw1/conv</name>
			<min>… -5.301158</min>
			<max>… 7.585078</max>
		</layer>
		<layer>
			<name>bottleneck4_10/inner/dw1/fn</name>
			<min>… -0.530116</min>
			<max>… 7.585078</max>
		</layer>
		<layer>
			<name>bottleneck4_11/add</name>
			<min>… -1.514107</min>
			<max>… 1.968741</max>
		</layer>
		<layer>
			<name>bottleneck4_11/dim_inc/conv</name>
			<min>… -1.401776</min>
			<max>… 1.039333</max>
		</layer>
		<layer>
			<name>bottleneck4_11/dim_red/conv</name>
			<min>… -3.980459</min>
			<max>… 4.083141</max>
		</layer>
		<layer>
			<name>bottleneck4_11/dim_red/fn</name>
			<min>… -0.398046</min>
			<max>… 4.083141</max>
		</layer>
		<layer>
			<name>bottleneck4_11/fn</name>
			<min>… -0.151411</min>
			<max>… 1.968741</max>
		</layer>
		<layer>
			<name>bottleneck4_11/inner/dw1/conv</name>
			<min>… -7.226521</min>
			<max>… 17.414211</max>
		</layer>
		<layer>
			<name>bottleneck4_11/inner/dw1/fn</name>
			<min>… -0.722652</min>
			<max>… 17.414211</max>
		</layer>
		<layer>
			<name>bottleneck4_2/add</name>
			<min>… -5.850041</min>
			<max>… 4.681441</max>
		</layer>
		<layer>
			<name>bottleneck4_2/dim_inc/conv</name>
			<min>… -5.869191</min>
			<max>… 2.100596</max>
		</layer>
		<layer>
			<name>bottleneck4_2/dim_red/conv</name>
			<min>… -2.287955</min>
			<max>… 3.389666</max>
		</layer>
		<layer>
			<name>bottleneck4_2/dim_red/fn</name>
			<min>… -0.228795</min>
			<max>… 3.389666</max>
		</layer>
		<layer>
			<name>bottleneck4_2/fn</name>
			<min>… -0.585004</min>
			<max>… 4.681441</max>
		</layer>
		<layer>
			<name>bottleneck4_2/inner/dw1/conv</name>
			<min>… -13.490349</min>
			<max>… 9.001353</max>
		</layer>
		<layer>
			<name>bottleneck4_2/inner/dw1/fn</name>
			<min>… -1.349035</min>
			<max>… 9.001353</max>
		</layer>
		<layer>
			<name>bottleneck4_3/add</name>
			<min>… -3.026955</min>
			<max>… 6.694485</max>
		</layer>
		<layer>
			<name>bottleneck4_3/dim_inc/conv</name>
			<min>… -2.884247</min>
			<max>… 6.813447</max>
		</layer>
		<layer>
			<name>bottleneck4_3/dim_red/conv</name>
			<min>… -2.161931</min>
			<max>… 3.576884</max>
		</layer>
		<layer>
			<name>bottleneck4_3/dim_red/fn</name>
			<min>… -0.216193</min>
			<max>… 3.576884</max>
		</layer>
		<layer>
			<name>bottleneck4_3/fn</name>
			<min>… -0.302696</min>
			<max>… 6.694485</max>
		</layer>
		<layer>
			<name>bottleneck4_3/inner/dw1/conv</name>
			<min>… -2.966845</min>
			<max>… 7.353113</max>
		</layer>
		<layer>
			<name>bottleneck4_3/inner/dw1/fn</name>
			<min>… -0.296685</min>
			<max>… 7.353113</max>
		</layer>
		<layer>
			<name>bottleneck4_4/add</name>
			<min>… -4.756230</min>
			<max>… 5.211819</max>
		</layer>
		<layer>
			<name>bottleneck4_4/dim_inc/conv</name>
			<min>… -4.953957</min>
			<max>… 4.763873</max>
		</layer>
		<layer>
			<name>bottleneck4_4/dim_red/conv</name>
			<min>… -1.994504</min>
			<max>… 3.771112</max>
		</layer>
		<layer>
			<name>bottleneck4_4/dim_red/fn</name>
			<min>… -0.199450</min>
			<max>… 3.771112</max>
		</layer>
		<layer>
			<name>bottleneck4_4/fn</name>
			<min>… -0.475623</min>
			<max>… 5.211819</max>
		</layer>
		<layer>
			<name>bottleneck4_4/inner/dw1/conv</name>
			<min>… -4.541826</min>
			<max>… 6.459394</max>
		</layer>
		<layer>
			<name>bottleneck4_4/inner/dw1/fn</name>
			<min>… -0.454183</min>
			<max>… 6.459394</max>
		</layer>
		<layer>
			<name>bottleneck4_5/add</name>
			<min>… -4.389585</min>
			<max>… 4.720961</max>
		</layer>
		<layer>
			<name>bottleneck4_5/dim_inc/conv</name>
			<min>… -4.243245</min>
			<max>… 2.194395</max>
		</layer>
		<layer>
			<name>bottleneck4_5/dim_red/conv</name>
			<min>… -3.950679</min>
			<max>… 5.188580</max>
		</layer>
		<layer>
			<name>bottleneck4_5/dim_red/fn</name>
			<min>… -0.395068</min>
			<max>… 5.188580</max>
		</layer>
		<layer>
			<name>bottleneck4_5/fn</name>
			<min>… -0.438958</min>
			<max>… 4.720961</max>
		</layer>
		<layer>
			<name>bottleneck4_5/inner/dw1/conv</name>
			<min>… -4.185293</min>
			<max>… 8.907783</max>
		</layer>
		<layer>
			<name>bottleneck4_5/inner/dw1/fn</name>
			<min>… -0.418529</min>
			<max>… 8.907783</max>
		</layer>
		<layer>
			<name>bottleneck4_6/add</name>
			<min>… -5.157381</min>
			<max>… 4.049726</max>
		</layer>
		<layer>
			<name>bottleneck4_6/dim_inc/conv</name>
			<min>… -6.015875</min>
			<max>… 1.605834</max>
		</layer>
		<layer>
			<name>bottleneck4_6/dim_red/conv</name>
			<min>… -2.491685</min>
			<max>… 2.906599</max>
		</layer>
		<layer>
			<name>bottleneck4_6/dim_red/fn</name>
			<min>… -0.249168</min>
			<max>… 2.906599</max>
		</layer>
		<layer>
			<name>bottleneck4_6/fn</name>
			<min>… -0.515738</min>
			<max>… 4.049726</max>
		</layer>
		<layer>
			<name>bottleneck4_6/inner/dw1/conv</name>
			<min>… -4.744639</min>
			<max>… 4.684928</max>
		</layer>
		<layer>
			<name>bottleneck4_6/inner/dw1/fn</name>
			<min>… -0.474464</min>
			<max>… 4.684928</max>
		</layer>
		<layer>
			<name>bottleneck4_7/add</name>
			<min>… -6.776443</min>
			<max>… 4.173261</max>
		</layer>
		<layer>
			<name>bottleneck4_7/dim_inc/conv</name>
			<min>… -6.630927</min>
			<max>… 1.865985</max>
		</layer>
		<layer>
			<name>bottleneck4_7/dim_red/conv</name>
			<min>… -5.378849</min>
			<max>… 20.912971</max>
		</layer>
		<layer>
			<name>bottleneck4_7/dim_red/fn</name>
			<min>… -0.537885</min>
			<max>… 20.912971</max>
		</layer>
		<layer>
			<name>bottleneck4_7/fn</name>
			<min>… -0.677644</min>
			<max>… 4.173261</max>
		</layer>
		<layer>
			<name>bottleneck4_7/inner/dw1/conv</name>
			<min>… -13.889875</min>
			<max>… 44.576900</max>
		</layer>
		<layer>
			<name>bottleneck4_7/inner/dw1/fn</name>
			<min>… -1.388988</min>
			<max>… 44.576900</max>
		</layer>
		<layer>
			<name>bottleneck4_8/add</name>
			<min>… -9.540071</min>
			<max>… 2.623505</max>
		</layer>
		<layer>
			<name>bottleneck4_8/dim_inc/conv</name>
			<min>… -11.028421</min>
			<max>… 1.668655</max>
		</layer>
		<layer>
			<name>bottleneck4_8/dim_red/conv</name>
			<min>… -4.138313</min>
			<max>… 8.535941</max>
		</layer>
		<layer>
			<name>bottleneck4_8/dim_red/fn</name>
			<min>… -0.413831</min>
			<max>… 8.535941</max>
		</layer>
		<layer>
			<name>bottleneck4_8/fn</name>
			<min>… -0.954007</min>
			<max>… 2.623505</max>
		</layer>
		<layer>
			<name>bottleneck4_8/inner/dw1/conv</name>
			<min>… -1.948415</min>
			<max>… 9.379098</max>
		</layer>
		<layer>
			<name>bottleneck4_8/inner/dw1/fn</name>
			<min>… -0.194841</min>
			<max>… 9.379098</max>
		</layer>
		<layer>
			<name>bottleneck4_9/add</name>
			<min>… -14.085489</min>
			<max>… 2.325404</max>
		</layer>
		<layer>
			<name>bottleneck4_9/dim_inc/conv</name>
			<min>… -13.207640</min>
			<max>… 1.315961</max>
		</layer>
		<layer>
			<name>bottleneck4_9/dim_red/conv</name>
			<min>… -4.742348</min>
			<max>… 4.232701</max>
		</layer>
		<layer>
			<name>bottleneck4_9/dim_red/fn</name>
			<min>… -0.474235</min>
			<max>… 4.232701</max>
		</layer>
		<layer>
			<name>bottleneck4_9/fn</name>
			<min>… -1.408549</min>
			<max>… 2.325404</max>
		</layer>
		<layer>
			<name>bottleneck4_9/inner/dw1/conv</name>
			<min>… -1.434030</min>
			<max>… 5.234017</max>
		</layer>
		<layer>
			<name>bottleneck4_9/inner/dw1/fn</name>
			<min>… -0.143403</min>
			<max>… 5.234017</max>
		</layer>
		<layer>
			<name>data</name>
			<min>0.000000, 0.000000, 0.000000</min>
			<max>255.000000, 255.000000, 255.000000</max>
		</layer>
		<layer>
			<name>detection_out</name>
			<min>-1.000000</min>
			<max>1.198125</max>
		</layer>
		<layer>
			<name>init_block1/dim_inc/conv</name>
			<min>… -31.192366</min>
			<max>… 43.662041</max>
		</layer>
		<layer>
			<name>init_block1/dim_inc/fn</name>
			<min>… -0.000000</min>
			<max>… 43.662041</max>
		</layer>
		<layer>
			<name>mbox1/priorbox</name>
			<min>-0.283328</min>
			<max>1.283328</max>
		</layer>
		<layer>
			<name>mbox_conf1/out/conv</name>
			<min>… -6.136693</min>
			<max>… 0.500983</max>
		</layer>
		<layer>
			<name>mbox_conf1/out/conv/flat</name>
			<min>… -4.109806</min>
			<max>… -2.499717</max>
		</layer>
		<layer>
			<name>mbox_conf1/out/conv/flat/reshape</name>
			<min>-7.828461</min>
			<max>7.922472</max>
		</layer>
		<layer>
			<name>mbox_conf1/out/conv/flat/softmax</name>
			<min>0.000000</min>
			<max>1.000000</max>
		</layer>
		<layer>
			<name>mbox_conf1/out/conv/flat/softmax/flat</name>
			<min>… 0.000247</min>
			<max>… 0.007007</max>
		</layer>
		<layer>
			<name>mbox_conf1/out/conv/perm</name>
			<min>… -7.389813</min>
			<max>… 7.395316</max>
		</layer>
		<layer>
			<name>mbox_loc1/out/conv</name>
			<min>… -4.023611</min>
			<max>… 2.232337</max>
		</layer>
		<layer>
			<name>mbox_loc1/out/conv/flat</name>
			<min>… -0.968922</min>
			<max>… -0.181055</max>
		</layer>
		<layer>
			<name>mbox_loc1/out/conv/perm</name>
			<min>… -11.000948</min>
			<max>… 8.513554</max>
		</layer>
	</statistics>
</net>
