<?xml version="1.0"?>
<net name="model_A_weights" version="6" batch="1">
	<layers>
		<layer name="input_2" type="Input" precision="FP32" id="0">
			<output>
				<port id="0">
					<dim>1</dim>
					<dim>3</dim>
					<dim>768</dim>
					<dim>1024</dim>
				</port>
			</output>
		</layer>
		<layer name="Mul_/Fused_Mul_/FusedScaleShift_" type="ScaleShift" precision="FP32" id="1">
			<data broadcast="0" />
			<input>
				<port id="0">
					<dim>1</dim>
					<dim>3</dim>
					<dim>768</dim>
					<dim>1024</dim>
				</port>
			</input>
			<output>
				<port id="1">
					<dim>1</dim>
					<dim>3</dim>
					<dim>768</dim>
					<dim>1024</dim>
				</port>
			</output>
			<blobs>
				<biases offset="0" size="12" />
				<weights offset="12" size="12" />
			</blobs>
		</layer>
		<layer name="block1_conv1/convolution" type="Convolution" precision="FP32" id="2">
			<data auto_pad="same_upper" dilations="1,1" group="1" kernel="3,3" output="64" pads_begin="1,1" pads_end="1,1" quantization_level="I8" strides="1,1" />
			<input>
				<port id="0">
					<dim>1</dim>
					<dim>3</dim>
					<dim>768</dim>
					<dim>1024</dim>
				</port>
			</input>
			<output>
				<port id="1">
					<dim>1</dim>
					<dim>64</dim>
					<dim>768</dim>
					<dim>1024</dim>
				</port>
			</output>
			<blobs>
				<biases offset="24" size="256" />
				<weights offset="280" size="6912" />
			</blobs>
		</layer>
		<layer name="block1_conv1/Relu" type="ReLU" precision="FP32" id="3">
			<input>
				<port id="0">
					<dim>1</dim>
					<dim>64</dim>
					<dim>768</dim>
					<dim>1024</dim>
				</port>
			</input>
			<output>
				<port id="1">
					<dim>1</dim>
					<dim>64</dim>
					<dim>768</dim>
					<dim>1024</dim>
				</port>
			</output>
		</layer>
		<layer name="block1_conv2/convolution" type="Convolution" precision="FP32" id="4">
			<data auto_pad="same_upper" dilations="1,1" group="1" kernel="3,3" output="64" pads_begin="1,1" pads_end="1,1" quantization_level="I8" strides="1,1" />
			<input>
				<port id="0">
					<dim>1</dim>
					<dim>64</dim>
					<dim>768</dim>
					<dim>1024</dim>
				</port>
			</input>
			<output>
				<port id="1">
					<dim>1</dim>
					<dim>64</dim>
					<dim>768</dim>
					<dim>1024</dim>
				</port>
			</output>
			<blobs>
				<biases offset="7192" size="256" />
				<weights offset="7448" size="147456" />
			</blobs>
		</layer>
		<layer name="block1_conv2/Relu" type="ReLU" precision="FP32" id="5">
			<input>
				<port id="0">
					<dim>1</dim>
					<dim>64</dim>
					<dim>768</dim>
					<dim>1024</dim>
				</port>
			</input>
			<output>
				<port id="1">
					<dim>1</dim>
					<dim>64</dim>
					<dim>768</dim>
					<dim>1024</dim>
				</port>
			</output>
		</layer>
		<layer name="block1_pool/MaxPool" type="Pooling" precision="FP32" id="6">
			<data auto_pad="valid" exclude-pad="true" kernel="2,2" pads_begin="0,0" pads_end="0,0" pool-method="max" strides="2,2" />
			<input>
				<port id="0">
					<dim>1</dim>
					<dim>64</dim>
					<dim>768</dim>
					<dim>1024</dim>
				</port>
			</input>
			<output>
				<port id="1">
					<dim>1</dim>
					<dim>64</dim>
					<dim>384</dim>
					<dim>512</dim>
				</port>
			</output>
		</layer>
		<layer name="block2_conv1/convolution" type="Convolution" precision="FP32" id="7">
			<data auto_pad="same_upper" dilations="1,1" group="1" kernel="3,3" output="128" pads_begin="1,1" pads_end="1,1" quantization_level="I8" strides="1,1" />
			<input>
				<port id="0">
					<dim>1</dim>
					<dim>64</dim>
					<dim>384</dim>
					<dim>512</dim>
				</port>
			</input>
			<output>
				<port id="1">
					<dim>1</dim>
					<dim>128</dim>
					<dim>384</dim>
					<dim>512</dim>
				</port>
			</output>
			<blobs>
				<biases offset="154904" size="512" />
				<weights offset="155416" size="294912" />
			</blobs>
		</layer>
		<layer name="block2_conv1/Relu" type="ReLU" precision="FP32" id="8">
			<input>
				<port id="0">
					<dim>1</dim>
					<dim>128</dim>
					<dim>384</dim>
					<dim>512</dim>
				</port>
			</input>
			<output>
				<port id="1">
					<dim>1</dim>
					<dim>128</dim>
					<dim>384</dim>
					<dim>512</dim>
				</port>
			</output>
		</layer>
		<layer name="block2_conv2/convolution" type="Convolution" precision="FP32" id="9">
			<data auto_pad="same_upper" dilations="1,1" group="1" kernel="3,3" output="128" pads_begin="1,1" pads_end="1,1" quantization_level="I8" strides="1,1" />
			<input>
				<port id="0">
					<dim>1</dim>
					<dim>128</dim>
					<dim>384</dim>
					<dim>512</dim>
				</port>
			</input>
			<output>
				<port id="1">
					<dim>1</dim>
					<dim>128</dim>
					<dim>384</dim>
					<dim>512</dim>
				</port>
			</output>
			<blobs>
				<biases offset="450328" size="512" />
				<weights offset="450840" size="589824" />
			</blobs>
		</layer>
		<layer name="block2_conv2/Relu" type="ReLU" precision="FP32" id="10">
			<input>
				<port id="0">
					<dim>1</dim>
					<dim>128</dim>
					<dim>384</dim>
					<dim>512</dim>
				</port>
			</input>
			<output>
				<port id="1">
					<dim>1</dim>
					<dim>128</dim>
					<dim>384</dim>
					<dim>512</dim>
				</port>
			</output>
		</layer>
		<layer name="block2_pool/MaxPool" type="Pooling" precision="FP32" id="11">
			<data auto_pad="valid" exclude-pad="true" kernel="2,2" pads_begin="0,0" pads_end="0,0" pool-method="max" strides="2,2" />
			<input>
				<port id="0">
					<dim>1</dim>
					<dim>128</dim>
					<dim>384</dim>
					<dim>512</dim>
				</port>
			</input>
			<output>
				<port id="1">
					<dim>1</dim>
					<dim>128</dim>
					<dim>192</dim>
					<dim>256</dim>
				</port>
			</output>
		</layer>
		<layer name="block3_conv1/convolution" type="Convolution" precision="FP32" id="12">
			<data auto_pad="same_upper" dilations="1,1" group="1" kernel="3,3" output="256" pads_begin="1,1" pads_end="1,1" quantization_level="I8" strides="1,1" />
			<input>
				<port id="0">
					<dim>1</dim>
					<dim>128</dim>
					<dim>192</dim>
					<dim>256</dim>
				</port>
			</input>
			<output>
				<port id="1">
					<dim>1</dim>
					<dim>256</dim>
					<dim>192</dim>
					<dim>256</dim>
				</port>
			</output>
			<blobs>
				<biases offset="1040664" size="1024" />
				<weights offset="1041688" size="1179648" />
			</blobs>
		</layer>
		<layer name="block3_conv1/Relu" type="ReLU" precision="FP32" id="13">
			<input>
				<port id="0">
					<dim>1</dim>
					<dim>256</dim>
					<dim>192</dim>
					<dim>256</dim>
				</port>
			</input>
			<output>
				<port id="1">
					<dim>1</dim>
					<dim>256</dim>
					<dim>192</dim>
					<dim>256</dim>
				</port>
			</output>
		</layer>
		<layer name="block3_conv2/convolution" type="Convolution" precision="FP32" id="14">
			<data auto_pad="same_upper" dilations="1,1" group="1" kernel="3,3" output="256" pads_begin="1,1" pads_end="1,1" quantization_level="I8" strides="1,1" />
			<input>
				<port id="0">
					<dim>1</dim>
					<dim>256</dim>
					<dim>192</dim>
					<dim>256</dim>
				</port>
			</input>
			<output>
				<port id="1">
					<dim>1</dim>
					<dim>256</dim>
					<dim>192</dim>
					<dim>256</dim>
				</port>
			</output>
			<blobs>
				<biases offset="2221336" size="1024" />
				<weights offset="2222360" size="2359296" />
			</blobs>
		</layer>
		<layer name="block3_conv2/Relu" type="ReLU" precision="FP32" id="15">
			<input>
				<port id="0">
					<dim>1</dim>
					<dim>256</dim>
					<dim>192</dim>
					<dim>256</dim>
				</port>
			</input>
			<output>
				<port id="1">
					<dim>1</dim>
					<dim>256</dim>
					<dim>192</dim>
					<dim>256</dim>
				</port>
			</output>
		</layer>
		<layer name="block3_conv3/convolution" type="Convolution" precision="FP32" id="16">
			<data auto_pad="same_upper" dilations="1,1" group="1" kernel="3,3" output="256" pads_begin="1,1" pads_end="1,1" quantization_level="I8" strides="1,1" />
			<input>
				<port id="0">
					<dim>1</dim>
					<dim>256</dim>
					<dim>192</dim>
					<dim>256</dim>
				</port>
			</input>
			<output>
				<port id="1">
					<dim>1</dim>
					<dim>256</dim>
					<dim>192</dim>
					<dim>256</dim>
				</port>
			</output>
			<blobs>
				<biases offset="4581656" size="1024" />
				<weights offset="4582680" size="2359296" />
			</blobs>
		</layer>
		<layer name="block3_conv3/Relu" type="ReLU" precision="FP32" id="17">
			<input>
				<port id="0">
					<dim>1</dim>
					<dim>256</dim>
					<dim>192</dim>
					<dim>256</dim>
				</port>
			</input>
			<output>
				<port id="1">
					<dim>1</dim>
					<dim>256</dim>
					<dim>192</dim>
					<dim>256</dim>
				</port>
			</output>
		</layer>
		<layer name="block3_pool/MaxPool" type="Pooling" precision="FP32" id="18">
			<data auto_pad="valid" exclude-pad="true" kernel="2,2" pads_begin="0,0" pads_end="0,0" pool-method="max" strides="2,2" />
			<input>
				<port id="0">
					<dim>1</dim>
					<dim>256</dim>
					<dim>192</dim>
					<dim>256</dim>
				</port>
			</input>
			<output>
				<port id="1">
					<dim>1</dim>
					<dim>256</dim>
					<dim>96</dim>
					<dim>128</dim>
				</port>
			</output>
		</layer>
		<layer name="block4_conv1/convolution" type="Convolution" precision="FP32" id="19">
			<data auto_pad="same_upper" dilations="1,1" group="1" kernel="3,3" output="512" pads_begin="1,1" pads_end="1,1" quantization_level="I8" strides="1,1" />
			<input>
				<port id="0">
					<dim>1</dim>
					<dim>256</dim>
					<dim>96</dim>
					<dim>128</dim>
				</port>
			</input>
			<output>
				<port id="1">
					<dim>1</dim>
					<dim>512</dim>
					<dim>96</dim>
					<dim>128</dim>
				</port>
			</output>
			<blobs>
				<biases offset="6941976" size="2048" />
				<weights offset="6944024" size="4718592" />
			</blobs>
		</layer>
		<layer name="block4_conv1/Relu" type="ReLU" precision="FP32" id="20">
			<input>
				<port id="0">
					<dim>1</dim>
					<dim>512</dim>
					<dim>96</dim>
					<dim>128</dim>
				</port>
			</input>
			<output>
				<port id="1">
					<dim>1</dim>
					<dim>512</dim>
					<dim>96</dim>
					<dim>128</dim>
				</port>
			</output>
		</layer>
		<layer name="block4_conv2/convolution" type="Convolution" precision="FP32" id="21">
			<data auto_pad="same_upper" dilations="1,1" group="1" kernel="3,3" output="512" pads_begin="1,1" pads_end="1,1" quantization_level="I8" strides="1,1" />
			<input>
				<port id="0">
					<dim>1</dim>
					<dim>512</dim>
					<dim>96</dim>
					<dim>128</dim>
				</port>
			</input>
			<output>
				<port id="1">
					<dim>1</dim>
					<dim>512</dim>
					<dim>96</dim>
					<dim>128</dim>
				</port>
			</output>
			<blobs>
				<biases offset="11662616" size="2048" />
				<weights offset="11664664" size="9437184" />
			</blobs>
		</layer>
		<layer name="block4_conv2/Relu" type="ReLU" precision="FP32" id="22">
			<input>
				<port id="0">
					<dim>1</dim>
					<dim>512</dim>
					<dim>96</dim>
					<dim>128</dim>
				</port>
			</input>
			<output>
				<port id="1">
					<dim>1</dim>
					<dim>512</dim>
					<dim>96</dim>
					<dim>128</dim>
				</port>
			</output>
		</layer>
		<layer name="block4_conv3/convolution" type="Convolution" precision="FP32" id="23">
			<data auto_pad="same_upper" dilations="1,1" group="1" kernel="3,3" output="512" pads_begin="1,1" pads_end="1,1" quantization_level="I8" strides="1,1" />
			<input>
				<port id="0">
					<dim>1</dim>
					<dim>512</dim>
					<dim>96</dim>
					<dim>128</dim>
				</port>
			</input>
			<output>
				<port id="1">
					<dim>1</dim>
					<dim>512</dim>
					<dim>96</dim>
					<dim>128</dim>
				</port>
			</output>
			<blobs>
				<biases offset="21101848" size="2048" />
				<weights offset="21103896" size="9437184" />
			</blobs>
		</layer>
		<layer name="block4_conv3/Relu" type="ReLU" precision="FP32" id="24">
			<input>
				<port id="0">
					<dim>1</dim>
					<dim>512</dim>
					<dim>96</dim>
					<dim>128</dim>
				</port>
			</input>
			<output>
				<port id="1">
					<dim>1</dim>
					<dim>512</dim>
					<dim>96</dim>
					<dim>128</dim>
				</port>
			</output>
		</layer>
		<layer name="conv2d_1/convolution" type="Convolution" precision="FP32" id="25">
			<data dilations="2,2" group="1" kernel="3,3" output="512" pads_begin="2,2" pads_end="2,2" quantization_level="I8" strides="1,1" />
			<input>
				<port id="0">
					<dim>1</dim>
					<dim>512</dim>
					<dim>96</dim>
					<dim>128</dim>
				</port>
			</input>
			<output>
				<port id="1">
					<dim>1</dim>
					<dim>512</dim>
					<dim>96</dim>
					<dim>128</dim>
				</port>
			</output>
			<blobs>
				<biases offset="30541080" size="2048" />
				<weights offset="30543128" size="9437184" />
			</blobs>
		</layer>
		<layer name="conv2d_1/Relu" type="ReLU" precision="FP32" id="26">
			<input>
				<port id="0">
					<dim>1</dim>
					<dim>512</dim>
					<dim>96</dim>
					<dim>128</dim>
				</port>
			</input>
			<output>
				<port id="1">
					<dim>1</dim>
					<dim>512</dim>
					<dim>96</dim>
					<dim>128</dim>
				</port>
			</output>
		</layer>
		<layer name="conv2d_2/convolution" type="Convolution" precision="FP32" id="27">
			<data dilations="2,2" group="1" kernel="3,3" output="512" pads_begin="2,2" pads_end="2,2" quantization_level="I8" strides="1,1" />
			<input>
				<port id="0">
					<dim>1</dim>
					<dim>512</dim>
					<dim>96</dim>
					<dim>128</dim>
				</port>
			</input>
			<output>
				<port id="1">
					<dim>1</dim>
					<dim>512</dim>
					<dim>96</dim>
					<dim>128</dim>
				</port>
			</output>
			<blobs>
				<biases offset="39980312" size="2048" />
				<weights offset="39982360" size="9437184" />
			</blobs>
		</layer>
		<layer name="conv2d_2/Relu" type="ReLU" precision="FP32" id="28">
			<input>
				<port id="0">
					<dim>1</dim>
					<dim>512</dim>
					<dim>96</dim>
					<dim>128</dim>
				</port>
			</input>
			<output>
				<port id="1">
					<dim>1</dim>
					<dim>512</dim>
					<dim>96</dim>
					<dim>128</dim>
				</port>
			</output>
		</layer>
		<layer name="conv2d_3/convolution" type="Convolution" precision="FP32" id="29">
			<data dilations="2,2" group="1" kernel="3,3" output="512" pads_begin="2,2" pads_end="2,2" quantization_level="I8" strides="1,1" />
			<input>
				<port id="0">
					<dim>1</dim>
					<dim>512</dim>
					<dim>96</dim>
					<dim>128</dim>
				</port>
			</input>
			<output>
				<port id="1">
					<dim>1</dim>
					<dim>512</dim>
					<dim>96</dim>
					<dim>128</dim>
				</port>
			</output>
			<blobs>
				<biases offset="49419544" size="2048" />
				<weights offset="49421592" size="9437184" />
			</blobs>
		</layer>
		<layer name="conv2d_3/Relu" type="ReLU" precision="FP32" id="30">
			<input>
				<port id="0">
					<dim>1</dim>
					<dim>512</dim>
					<dim>96</dim>
					<dim>128</dim>
				</port>
			</input>
			<output>
				<port id="1">
					<dim>1</dim>
					<dim>512</dim>
					<dim>96</dim>
					<dim>128</dim>
				</port>
			</output>
		</layer>
		<layer name="conv2d_4/convolution" type="Convolution" precision="FP32" id="31">
			<data dilations="2,2" group="1" kernel="3,3" output="256" pads_begin="2,2" pads_end="2,2" quantization_level="I8" strides="1,1" />
			<input>
				<port id="0">
					<dim>1</dim>
					<dim>512</dim>
					<dim>96</dim>
					<dim>128</dim>
				</port>
			</input>
			<output>
				<port id="1">
					<dim>1</dim>
					<dim>256</dim>
					<dim>96</dim>
					<dim>128</dim>
				</port>
			</output>
			<blobs>
				<biases offset="58858776" size="1024" />
				<weights offset="58859800" size="4718592" />
			</blobs>
		</layer>
		<layer name="conv2d_4/Relu" type="ReLU" precision="FP32" id="32">
			<input>
				<port id="0">
					<dim>1</dim>
					<dim>256</dim>
					<dim>96</dim>
					<dim>128</dim>
				</port>
			</input>
			<output>
				<port id="1">
					<dim>1</dim>
					<dim>256</dim>
					<dim>96</dim>
					<dim>128</dim>
				</port>
			</output>
		</layer>
		<layer name="conv2d_5/convolution" type="Convolution" precision="FP32" id="33">
			<data dilations="2,2" group="1" kernel="3,3" output="128" pads_begin="2,2" pads_end="2,2" quantization_level="I8" strides="1,1" />
			<input>
				<port id="0">
					<dim>1</dim>
					<dim>256</dim>
					<dim>96</dim>
					<dim>128</dim>
				</port>
			</input>
			<output>
				<port id="1">
					<dim>1</dim>
					<dim>128</dim>
					<dim>96</dim>
					<dim>128</dim>
				</port>
			</output>
			<blobs>
				<biases offset="63578392" size="512" />
				<weights offset="63578904" size="1179648" />
			</blobs>
		</layer>
		<layer name="conv2d_5/Relu" type="ReLU" precision="FP32" id="34">
			<input>
				<port id="0">
					<dim>1</dim>
					<dim>128</dim>
					<dim>96</dim>
					<dim>128</dim>
				</port>
			</input>
			<output>
				<port id="1">
					<dim>1</dim>
					<dim>128</dim>
					<dim>96</dim>
					<dim>128</dim>
				</port>
			</output>
		</layer>
		<layer name="conv2d_6/convolution" type="Convolution" precision="FP32" id="35">
			<data dilations="2,2" group="1" kernel="3,3" output="64" pads_begin="2,2" pads_end="2,2" quantization_level="I8" strides="1,1" />
			<input>
				<port id="0">
					<dim>1</dim>
					<dim>128</dim>
					<dim>96</dim>
					<dim>128</dim>
				</port>
			</input>
			<output>
				<port id="1">
					<dim>1</dim>
					<dim>64</dim>
					<dim>96</dim>
					<dim>128</dim>
				</port>
			</output>
			<blobs>
				<biases offset="64758552" size="256" />
				<weights offset="64758808" size="294912" />
			</blobs>
		</layer>
		<layer name="conv2d_6/Relu" type="ReLU" precision="FP32" id="36">
			<input>
				<port id="0">
					<dim>1</dim>
					<dim>64</dim>
					<dim>96</dim>
					<dim>128</dim>
				</port>
			</input>
			<output>
				<port id="1">
					<dim>1</dim>
					<dim>64</dim>
					<dim>96</dim>
					<dim>128</dim>
				</port>
			</output>
		</layer>
		<layer name="y_out/convolution" type="Convolution" precision="FP32" id="37">
			<data auto_pad="valid" dilations="1,1" group="1" kernel="1,1" output="1" pads_begin="0,0" pads_end="0,0" quantization_level="I8" strides="1,1" />
			<input>
				<port id="0">
					<dim>1</dim>
					<dim>64</dim>
					<dim>96</dim>
					<dim>128</dim>
				</port>
			</input>
			<output>
				<port id="1">
					<dim>1</dim>
					<dim>1</dim>
					<dim>96</dim>
					<dim>128</dim>
				</port>
			</output>
			<blobs>
				<biases offset="65053720" size="4" />
				<weights offset="65053724" size="256" />
			</blobs>
		</layer>
		<layer name="y_out/Relu" type="ReLU" precision="FP32" id="38">
			<input>
				<port id="0">
					<dim>1</dim>
					<dim>1</dim>
					<dim>96</dim>
					<dim>128</dim>
				</port>
			</input>
			<output>
				<port id="1">
					<dim>1</dim>
					<dim>1</dim>
					<dim>96</dim>
					<dim>128</dim>
				</port>
			</output>
		</layer>
		<layer name="y_out/Relu/Transpose" type="Permute" precision="FP32" id="39">
			<data order="0,2,3,1" />
			<input>
				<port id="0">
					<dim>1</dim>
					<dim>1</dim>
					<dim>96</dim>
					<dim>128</dim>
				</port>
			</input>
			<output>
				<port id="1">
					<dim>1</dim>
					<dim>96</dim>
					<dim>128</dim>
					<dim>1</dim>
				</port>
			</output>
		</layer>
	</layers>
	<edges>
		<edge from-layer="0" from-port="0" to-layer="1" to-port="0" />
		<edge from-layer="1" from-port="1" to-layer="2" to-port="0" />
		<edge from-layer="2" from-port="1" to-layer="3" to-port="0" />
		<edge from-layer="3" from-port="1" to-layer="4" to-port="0" />
		<edge from-layer="4" from-port="1" to-layer="5" to-port="0" />
		<edge from-layer="5" from-port="1" to-layer="6" to-port="0" />
		<edge from-layer="6" from-port="1" to-layer="7" to-port="0" />
		<edge from-layer="7" from-port="1" to-layer="8" to-port="0" />
		<edge from-layer="8" from-port="1" to-layer="9" to-port="0" />
		<edge from-layer="9" from-port="1" to-layer="10" to-port="0" />
		<edge from-layer="10" from-port="1" to-layer="11" to-port="0" />
		<edge from-layer="11" from-port="1" to-layer="12" to-port="0" />
		<edge from-layer="12" from-port="1" to-layer="13" to-port="0" />
		<edge from-layer="13" from-port="1" to-layer="14" to-port="0" />
		<edge from-layer="14" from-port="1" to-layer="15" to-port="0" />
		<edge from-layer="15" from-port="1" to-layer="16" to-port="0" />
		<edge from-layer="16" from-port="1" to-layer="17" to-port="0" />
		<edge from-layer="17" from-port="1" to-layer="18" to-port="0" />
		<edge from-layer="18" from-port="1" to-layer="19" to-port="0" />
		<edge from-layer="19" from-port="1" to-layer="20" to-port="0" />
		<edge from-layer="20" from-port="1" to-layer="21" to-port="0" />
		<edge from-layer="21" from-port="1" to-layer="22" to-port="0" />
		<edge from-layer="22" from-port="1" to-layer="23" to-port="0" />
		<edge from-layer="23" from-port="1" to-layer="24" to-port="0" />
		<edge from-layer="24" from-port="1" to-layer="25" to-port="0" />
		<edge from-layer="25" from-port="1" to-layer="26" to-port="0" />
		<edge from-layer="26" from-port="1" to-layer="27" to-port="0" />
		<edge from-layer="27" from-port="1" to-layer="28" to-port="0" />
		<edge from-layer="28" from-port="1" to-layer="29" to-port="0" />
		<edge from-layer="29" from-port="1" to-layer="30" to-port="0" />
		<edge from-layer="30" from-port="1" to-layer="31" to-port="0" />
		<edge from-layer="31" from-port="1" to-layer="32" to-port="0" />
		<edge from-layer="32" from-port="1" to-layer="33" to-port="0" />
		<edge from-layer="33" from-port="1" to-layer="34" to-port="0" />
		<edge from-layer="34" from-port="1" to-layer="35" to-port="0" />
		<edge from-layer="35" from-port="1" to-layer="36" to-port="0" />
		<edge from-layer="36" from-port="1" to-layer="37" to-port="0" />
		<edge from-layer="37" from-port="1" to-layer="38" to-port="0" />
		<edge from-layer="38" from-port="1" to-layer="39" to-port="0" />
	</edges>
	<statistics>
		<layer>
			<name>Mul_/Fused_Mul_/FusedScaleShift_</name>
			<min>-2.117904, -2.035714, -1.804444</min>
			<max>2.248908, 2.428571, 2.640000</max>
		</layer>
		<layer>
			<name>block1_conv1/Relu</name>
			<min>… -0.000000</min>
			<max>… 9.974023</max>
		</layer>
		<layer>
			<name>block1_conv1/convolution</name>
			<min>… -9.381699</min>
			<max>… 9.974023</max>
		</layer>
		<layer>
			<name>block1_conv2/Relu</name>
			<min>… -0.000000</min>
			<max>… 31.907524</max>
		</layer>
		<layer>
			<name>block1_conv2/convolution</name>
			<min>… -43.043175</min>
			<max>… 31.907524</max>
		</layer>
		<layer>
			<name>block1_pool/MaxPool</name>
			<min>… -0.000000</min>
			<max>… 31.907524</max>
		</layer>
		<layer>
			<name>block2_conv1/Relu</name>
			<min>… -0.000000</min>
			<max>… 36.750725</max>
		</layer>
		<layer>
			<name>block2_conv1/convolution</name>
			<min>… -64.073822</min>
			<max>… 36.750725</max>
		</layer>
		<layer>
			<name>block2_conv2/Relu</name>
			<min>… -0.000000</min>
			<max>… 71.777557</max>
		</layer>
		<layer>
			<name>block2_conv2/convolution</name>
			<min>… -26.174181</min>
			<max>… 71.777557</max>
		</layer>
		<layer>
			<name>block2_pool/MaxPool</name>
			<min>… -0.000000</min>
			<max>… 71.777557</max>
		</layer>
		<layer>
			<name>block3_conv1/Relu</name>
			<min>… -0.000000</min>
			<max>… 53.168793</max>
		</layer>
		<layer>
			<name>block3_conv1/convolution</name>
			<min>… -132.413361</min>
			<max>… 53.168793</max>
		</layer>
		<layer>
			<name>block3_conv2/Relu</name>
			<min>… -0.000000</min>
			<max>… 86.982468</max>
		</layer>
		<layer>
			<name>block3_conv2/convolution</name>
			<min>… -106.139809</min>
			<max>… 86.982468</max>
		</layer>
		<layer>
			<name>block3_conv3/Relu</name>
			<min>… -0.000000</min>
			<max>… 174.132156</max>
		</layer>
		<layer>
			<name>block3_conv3/convolution</name>
			<min>… -146.485428</min>
			<max>… 174.132156</max>
		</layer>
		<layer>
			<name>block3_pool/MaxPool</name>
			<min>… -0.000000</min>
			<max>… 174.132156</max>
		</layer>
		<layer>
			<name>block4_conv1/Relu</name>
			<min>… -0.000000</min>
			<max>… 153.972824</max>
		</layer>
		<layer>
			<name>block4_conv1/convolution</name>
			<min>… -226.043518</min>
			<max>… 153.972824</max>
		</layer>
		<layer>
			<name>block4_conv2/Relu</name>
			<min>… -0.000000</min>
			<max>… 228.862946</max>
		</layer>
		<layer>
			<name>block4_conv2/convolution</name>
			<min>… -161.359146</min>
			<max>… 228.862946</max>
		</layer>
		<layer>
			<name>block4_conv3/Relu</name>
			<min>… -0.000000</min>
			<max>… 193.034180</max>
		</layer>
		<layer>
			<name>block4_conv3/convolution</name>
			<min>… -147.763351</min>
			<max>… 193.034180</max>
		</layer>
		<layer>
			<name>conv2d_1/Relu</name>
			<min>… -0.000000</min>
			<max>… 36.643768</max>
		</layer>
		<layer>
			<name>conv2d_1/convolution</name>
			<min>… -32.686760</min>
			<max>… 36.643768</max>
		</layer>
		<layer>
			<name>conv2d_2/Relu</name>
			<min>… -0.000000</min>
			<max>… 15.689292</max>
		</layer>
		<layer>
			<name>conv2d_2/convolution</name>
			<min>… -15.087482</min>
			<max>… 15.689292</max>
		</layer>
		<layer>
			<name>conv2d_3/Relu</name>
			<min>… -0.000000</min>
			<max>… 4.556930</max>
		</layer>
		<layer>
			<name>conv2d_3/convolution</name>
			<min>… -8.194103</min>
			<max>… 4.556930</max>
		</layer>
		<layer>
			<name>conv2d_4/Relu</name>
			<min>… -0.000000</min>
			<max>… 2.496334</max>
		</layer>
		<layer>
			<name>conv2d_4/convolution</name>
			<min>… -2.579232</min>
			<max>… 2.496334</max>
		</layer>
		<layer>
			<name>conv2d_5/Relu</name>
			<min>… -0.000000</min>
			<max>… 1.150852</max>
		</layer>
		<layer>
			<name>conv2d_5/convolution</name>
			<min>… -0.893294</min>
			<max>… 1.150852</max>
		</layer>
		<layer>
			<name>conv2d_6/Relu</name>
			<min>… -0.000000</min>
			<max>… 0.209464</max>
		</layer>
		<layer>
			<name>conv2d_6/convolution</name>
			<min>… -0.186801</min>
			<max>… 0.209464</max>
		</layer>
		<layer>
			<name>input_2</name>
			<min>0.000000, 0.000000, 0.000000</min>
			<max>255.000000, 255.000000, 255.000000</max>
		</layer>
		<layer>
			<name>y_out/Relu</name>
			<min>-0.000000</min>
			<max>3.460985</max>
		</layer>
		<layer>
			<name>y_out/Relu/Transpose</name>
			<min>… -0.000000</min>
			<max>… 0.212769</max>
		</layer>
		<layer>
			<name>y_out/convolution</name>
			<min>-0.010760</min>
			<max>3.460985</max>
		</layer>
	</statistics>
</net>
