<?xml version="1.0"?>
<net name="model_A_weights" version="6" batch="1">
	<layers>
		<layer name="strided_slice/Squeeze_shrink/Indices2366_const" type="Const" precision="I32" id="0">
			<output>
				<port id="0" precision="I32">
					<dim>1</dim>
				</port>
			</output>
			<blobs>
				<custom offset="0" size="4" />
			</blobs>
		</layer>
		<layer name="input_2" type="Input" precision="FP32" id="1">
			<output>
				<port id="0" precision="FP32">
					<dim>1</dim>
					<dim>3</dim>
					<dim>384</dim>
					<dim>512</dim>
				</port>
			</output>
		</layer>
		<layer name="Mul_/Fused_Mul_/FusedScaleShift_" type="ScaleShift" precision="FP32" id="2">
			<data broadcast="0" />
			<input>
				<port id="0">
					<dim>1</dim>
					<dim>3</dim>
					<dim>384</dim>
					<dim>512</dim>
				</port>
			</input>
			<output>
				<port id="1" precision="FP32">
					<dim>1</dim>
					<dim>3</dim>
					<dim>384</dim>
					<dim>512</dim>
				</port>
			</output>
			<blobs>
				<biases offset="4" size="12" />
				<weights offset="16" size="12" />
			</blobs>
		</layer>
		<layer name="block1_conv1/convolution" type="Convolution" precision="FP32" id="3">
			<data auto_pad="same_upper" dilations="1,1" group="1" kernel="3,3" output="64" pads_begin="1,1" pads_end="1,1" quantization_level="I8" strides="1,1" />
			<input>
				<port id="0">
					<dim>1</dim>
					<dim>3</dim>
					<dim>384</dim>
					<dim>512</dim>
				</port>
			</input>
			<output>
				<port id="1" precision="FP32">
					<dim>1</dim>
					<dim>64</dim>
					<dim>384</dim>
					<dim>512</dim>
				</port>
			</output>
			<blobs>
				<biases offset="28" size="256" />
				<weights offset="284" size="6912" />
			</blobs>
		</layer>
		<layer name="block1_conv1/Relu" type="ReLU" precision="FP32" id="4">
			<input>
				<port id="0">
					<dim>1</dim>
					<dim>64</dim>
					<dim>384</dim>
					<dim>512</dim>
				</port>
			</input>
			<output>
				<port id="1" precision="FP32">
					<dim>1</dim>
					<dim>64</dim>
					<dim>384</dim>
					<dim>512</dim>
				</port>
			</output>
		</layer>
		<layer name="block1_conv2/convolution" type="Convolution" precision="FP32" id="5">
			<data auto_pad="same_upper" dilations="1,1" group="1" kernel="3,3" output="64" pads_begin="1,1" pads_end="1,1" quantization_level="I8" strides="1,1" />
			<input>
				<port id="0">
					<dim>1</dim>
					<dim>64</dim>
					<dim>384</dim>
					<dim>512</dim>
				</port>
			</input>
			<output>
				<port id="1" precision="FP32">
					<dim>1</dim>
					<dim>64</dim>
					<dim>384</dim>
					<dim>512</dim>
				</port>
			</output>
			<blobs>
				<biases offset="7196" size="256" />
				<weights offset="7452" size="147456" />
			</blobs>
		</layer>
		<layer name="block1_conv2/Relu" type="ReLU" precision="FP32" id="6">
			<input>
				<port id="0">
					<dim>1</dim>
					<dim>64</dim>
					<dim>384</dim>
					<dim>512</dim>
				</port>
			</input>
			<output>
				<port id="1" precision="FP32">
					<dim>1</dim>
					<dim>64</dim>
					<dim>384</dim>
					<dim>512</dim>
				</port>
			</output>
		</layer>
		<layer name="block1_pool/MaxPool" type="Pooling" precision="FP32" id="7">
			<data auto_pad="valid" exclude-pad="true" kernel="2,2" pads_begin="0,0" pads_end="0,0" pool-method="max" strides="2,2" />
			<input>
				<port id="0">
					<dim>1</dim>
					<dim>64</dim>
					<dim>384</dim>
					<dim>512</dim>
				</port>
			</input>
			<output>
				<port id="1" precision="FP32">
					<dim>1</dim>
					<dim>64</dim>
					<dim>192</dim>
					<dim>256</dim>
				</port>
			</output>
		</layer>
		<layer name="block2_conv1/convolution" type="Convolution" precision="FP32" id="8">
			<data auto_pad="same_upper" dilations="1,1" group="1" kernel="3,3" output="128" pads_begin="1,1" pads_end="1,1" quantization_level="I8" strides="1,1" />
			<input>
				<port id="0">
					<dim>1</dim>
					<dim>64</dim>
					<dim>192</dim>
					<dim>256</dim>
				</port>
			</input>
			<output>
				<port id="1" precision="FP32">
					<dim>1</dim>
					<dim>128</dim>
					<dim>192</dim>
					<dim>256</dim>
				</port>
			</output>
			<blobs>
				<biases offset="154908" size="512" />
				<weights offset="155420" size="294912" />
			</blobs>
		</layer>
		<layer name="block2_conv1/Relu" type="ReLU" precision="FP32" id="9">
			<input>
				<port id="0">
					<dim>1</dim>
					<dim>128</dim>
					<dim>192</dim>
					<dim>256</dim>
				</port>
			</input>
			<output>
				<port id="1" precision="FP32">
					<dim>1</dim>
					<dim>128</dim>
					<dim>192</dim>
					<dim>256</dim>
				</port>
			</output>
		</layer>
		<layer name="block2_conv2/convolution" type="Convolution" precision="FP32" id="10">
			<data auto_pad="same_upper" dilations="1,1" group="1" kernel="3,3" output="128" pads_begin="1,1" pads_end="1,1" quantization_level="I8" strides="1,1" />
			<input>
				<port id="0">
					<dim>1</dim>
					<dim>128</dim>
					<dim>192</dim>
					<dim>256</dim>
				</port>
			</input>
			<output>
				<port id="1" precision="FP32">
					<dim>1</dim>
					<dim>128</dim>
					<dim>192</dim>
					<dim>256</dim>
				</port>
			</output>
			<blobs>
				<biases offset="450332" size="512" />
				<weights offset="450844" size="589824" />
			</blobs>
		</layer>
		<layer name="block2_conv2/Relu" type="ReLU" precision="FP32" id="11">
			<input>
				<port id="0">
					<dim>1</dim>
					<dim>128</dim>
					<dim>192</dim>
					<dim>256</dim>
				</port>
			</input>
			<output>
				<port id="1" precision="FP32">
					<dim>1</dim>
					<dim>128</dim>
					<dim>192</dim>
					<dim>256</dim>
				</port>
			</output>
		</layer>
		<layer name="block2_pool/MaxPool" type="Pooling" precision="FP32" id="12">
			<data auto_pad="valid" exclude-pad="true" kernel="2,2" pads_begin="0,0" pads_end="0,0" pool-method="max" strides="2,2" />
			<input>
				<port id="0">
					<dim>1</dim>
					<dim>128</dim>
					<dim>192</dim>
					<dim>256</dim>
				</port>
			</input>
			<output>
				<port id="1" precision="FP32">
					<dim>1</dim>
					<dim>128</dim>
					<dim>96</dim>
					<dim>128</dim>
				</port>
			</output>
		</layer>
		<layer name="block3_conv1/convolution" type="Convolution" precision="FP32" id="13">
			<data auto_pad="same_upper" dilations="1,1" group="1" kernel="3,3" output="256" pads_begin="1,1" pads_end="1,1" quantization_level="I8" strides="1,1" />
			<input>
				<port id="0">
					<dim>1</dim>
					<dim>128</dim>
					<dim>96</dim>
					<dim>128</dim>
				</port>
			</input>
			<output>
				<port id="1" precision="FP32">
					<dim>1</dim>
					<dim>256</dim>
					<dim>96</dim>
					<dim>128</dim>
				</port>
			</output>
			<blobs>
				<biases offset="1040668" size="1024" />
				<weights offset="1041692" size="1179648" />
			</blobs>
		</layer>
		<layer name="block3_conv1/Relu" type="ReLU" precision="FP32" id="14">
			<input>
				<port id="0">
					<dim>1</dim>
					<dim>256</dim>
					<dim>96</dim>
					<dim>128</dim>
				</port>
			</input>
			<output>
				<port id="1" precision="FP32">
					<dim>1</dim>
					<dim>256</dim>
					<dim>96</dim>
					<dim>128</dim>
				</port>
			</output>
		</layer>
		<layer name="block3_conv2/convolution" type="Convolution" precision="FP32" id="15">
			<data auto_pad="same_upper" dilations="1,1" group="1" kernel="3,3" output="256" pads_begin="1,1" pads_end="1,1" quantization_level="I8" strides="1,1" />
			<input>
				<port id="0">
					<dim>1</dim>
					<dim>256</dim>
					<dim>96</dim>
					<dim>128</dim>
				</port>
			</input>
			<output>
				<port id="1" precision="FP32">
					<dim>1</dim>
					<dim>256</dim>
					<dim>96</dim>
					<dim>128</dim>
				</port>
			</output>
			<blobs>
				<biases offset="2221340" size="1024" />
				<weights offset="2222364" size="2359296" />
			</blobs>
		</layer>
		<layer name="block3_conv2/Relu" type="ReLU" precision="FP32" id="16">
			<input>
				<port id="0">
					<dim>1</dim>
					<dim>256</dim>
					<dim>96</dim>
					<dim>128</dim>
				</port>
			</input>
			<output>
				<port id="1" precision="FP32">
					<dim>1</dim>
					<dim>256</dim>
					<dim>96</dim>
					<dim>128</dim>
				</port>
			</output>
		</layer>
		<layer name="block3_conv3/convolution" type="Convolution" precision="FP32" id="17">
			<data auto_pad="same_upper" dilations="1,1" group="1" kernel="3,3" output="256" pads_begin="1,1" pads_end="1,1" quantization_level="I8" strides="1,1" />
			<input>
				<port id="0">
					<dim>1</dim>
					<dim>256</dim>
					<dim>96</dim>
					<dim>128</dim>
				</port>
			</input>
			<output>
				<port id="1" precision="FP32">
					<dim>1</dim>
					<dim>256</dim>
					<dim>96</dim>
					<dim>128</dim>
				</port>
			</output>
			<blobs>
				<biases offset="4581660" size="1024" />
				<weights offset="4582684" size="2359296" />
			</blobs>
		</layer>
		<layer name="block3_conv3/Relu" type="ReLU" precision="FP32" id="18">
			<input>
				<port id="0">
					<dim>1</dim>
					<dim>256</dim>
					<dim>96</dim>
					<dim>128</dim>
				</port>
			</input>
			<output>
				<port id="1" precision="FP32">
					<dim>1</dim>
					<dim>256</dim>
					<dim>96</dim>
					<dim>128</dim>
				</port>
			</output>
		</layer>
		<layer name="block3_pool/MaxPool" type="Pooling" precision="FP32" id="19">
			<data auto_pad="valid" exclude-pad="true" kernel="2,2" pads_begin="0,0" pads_end="0,0" pool-method="max" strides="2,2" />
			<input>
				<port id="0">
					<dim>1</dim>
					<dim>256</dim>
					<dim>96</dim>
					<dim>128</dim>
				</port>
			</input>
			<output>
				<port id="1" precision="FP32">
					<dim>1</dim>
					<dim>256</dim>
					<dim>48</dim>
					<dim>64</dim>
				</port>
			</output>
		</layer>
		<layer name="block4_conv1/convolution" type="Convolution" precision="FP32" id="20">
			<data auto_pad="same_upper" dilations="1,1" group="1" kernel="3,3" output="512" pads_begin="1,1" pads_end="1,1" quantization_level="I8" strides="1,1" />
			<input>
				<port id="0">
					<dim>1</dim>
					<dim>256</dim>
					<dim>48</dim>
					<dim>64</dim>
				</port>
			</input>
			<output>
				<port id="1" precision="FP32">
					<dim>1</dim>
					<dim>512</dim>
					<dim>48</dim>
					<dim>64</dim>
				</port>
			</output>
			<blobs>
				<biases offset="6941980" size="2048" />
				<weights offset="6944028" size="4718592" />
			</blobs>
		</layer>
		<layer name="block4_conv1/Relu" type="ReLU" precision="FP32" id="21">
			<input>
				<port id="0">
					<dim>1</dim>
					<dim>512</dim>
					<dim>48</dim>
					<dim>64</dim>
				</port>
			</input>
			<output>
				<port id="1" precision="FP32">
					<dim>1</dim>
					<dim>512</dim>
					<dim>48</dim>
					<dim>64</dim>
				</port>
			</output>
		</layer>
		<layer name="block4_conv2/convolution" type="Convolution" precision="FP32" id="22">
			<data auto_pad="same_upper" dilations="1,1" group="1" kernel="3,3" output="512" pads_begin="1,1" pads_end="1,1" quantization_level="I8" strides="1,1" />
			<input>
				<port id="0">
					<dim>1</dim>
					<dim>512</dim>
					<dim>48</dim>
					<dim>64</dim>
				</port>
			</input>
			<output>
				<port id="1" precision="FP32">
					<dim>1</dim>
					<dim>512</dim>
					<dim>48</dim>
					<dim>64</dim>
				</port>
			</output>
			<blobs>
				<biases offset="11662620" size="2048" />
				<weights offset="11664668" size="9437184" />
			</blobs>
		</layer>
		<layer name="block4_conv2/Relu" type="ReLU" precision="FP32" id="23">
			<input>
				<port id="0">
					<dim>1</dim>
					<dim>512</dim>
					<dim>48</dim>
					<dim>64</dim>
				</port>
			</input>
			<output>
				<port id="1" precision="FP32">
					<dim>1</dim>
					<dim>512</dim>
					<dim>48</dim>
					<dim>64</dim>
				</port>
			</output>
		</layer>
		<layer name="block4_conv3/convolution" type="Convolution" precision="FP32" id="24">
			<data auto_pad="same_upper" dilations="1,1" group="1" kernel="3,3" output="512" pads_begin="1,1" pads_end="1,1" quantization_level="I8" strides="1,1" />
			<input>
				<port id="0">
					<dim>1</dim>
					<dim>512</dim>
					<dim>48</dim>
					<dim>64</dim>
				</port>
			</input>
			<output>
				<port id="1" precision="FP32">
					<dim>1</dim>
					<dim>512</dim>
					<dim>48</dim>
					<dim>64</dim>
				</port>
			</output>
			<blobs>
				<biases offset="21101852" size="2048" />
				<weights offset="21103900" size="9437184" />
			</blobs>
		</layer>
		<layer name="block4_conv3/Relu" type="ReLU" precision="FP32" id="25">
			<input>
				<port id="0">
					<dim>1</dim>
					<dim>512</dim>
					<dim>48</dim>
					<dim>64</dim>
				</port>
			</input>
			<output>
				<port id="1" precision="FP32">
					<dim>1</dim>
					<dim>512</dim>
					<dim>48</dim>
					<dim>64</dim>
				</port>
			</output>
		</layer>
		<layer name="conv2d_1/convolution" type="Convolution" precision="FP32" id="26">
			<data dilations="2,2" group="1" kernel="3,3" output="512" pads_begin="2,2" pads_end="2,2" quantization_level="I8" strides="1,1" />
			<input>
				<port id="0">
					<dim>1</dim>
					<dim>512</dim>
					<dim>48</dim>
					<dim>64</dim>
				</port>
			</input>
			<output>
				<port id="1" precision="FP32">
					<dim>1</dim>
					<dim>512</dim>
					<dim>48</dim>
					<dim>64</dim>
				</port>
			</output>
			<blobs>
				<biases offset="30541084" size="2048" />
				<weights offset="30543132" size="9437184" />
			</blobs>
		</layer>
		<layer name="conv2d_1/Relu" type="ReLU" precision="FP32" id="27">
			<input>
				<port id="0">
					<dim>1</dim>
					<dim>512</dim>
					<dim>48</dim>
					<dim>64</dim>
				</port>
			</input>
			<output>
				<port id="1" precision="FP32">
					<dim>1</dim>
					<dim>512</dim>
					<dim>48</dim>
					<dim>64</dim>
				</port>
			</output>
		</layer>
		<layer name="conv2d_2/convolution" type="Convolution" precision="FP32" id="28">
			<data dilations="2,2" group="1" kernel="3,3" output="512" pads_begin="2,2" pads_end="2,2" quantization_level="I8" strides="1,1" />
			<input>
				<port id="0">
					<dim>1</dim>
					<dim>512</dim>
					<dim>48</dim>
					<dim>64</dim>
				</port>
			</input>
			<output>
				<port id="1" precision="FP32">
					<dim>1</dim>
					<dim>512</dim>
					<dim>48</dim>
					<dim>64</dim>
				</port>
			</output>
			<blobs>
				<biases offset="39980316" size="2048" />
				<weights offset="39982364" size="9437184" />
			</blobs>
		</layer>
		<layer name="conv2d_2/Relu" type="ReLU" precision="FP32" id="29">
			<input>
				<port id="0">
					<dim>1</dim>
					<dim>512</dim>
					<dim>48</dim>
					<dim>64</dim>
				</port>
			</input>
			<output>
				<port id="1" precision="FP32">
					<dim>1</dim>
					<dim>512</dim>
					<dim>48</dim>
					<dim>64</dim>
				</port>
			</output>
		</layer>
		<layer name="conv2d_3/convolution" type="Convolution" precision="FP32" id="30">
			<data dilations="2,2" group="1" kernel="3,3" output="512" pads_begin="2,2" pads_end="2,2" quantization_level="I8" strides="1,1" />
			<input>
				<port id="0">
					<dim>1</dim>
					<dim>512</dim>
					<dim>48</dim>
					<dim>64</dim>
				</port>
			</input>
			<output>
				<port id="1" precision="FP32">
					<dim>1</dim>
					<dim>512</dim>
					<dim>48</dim>
					<dim>64</dim>
				</port>
			</output>
			<blobs>
				<biases offset="49419548" size="2048" />
				<weights offset="49421596" size="9437184" />
			</blobs>
		</layer>
		<layer name="conv2d_3/Relu" type="ReLU" precision="FP32" id="31">
			<input>
				<port id="0">
					<dim>1</dim>
					<dim>512</dim>
					<dim>48</dim>
					<dim>64</dim>
				</port>
			</input>
			<output>
				<port id="1" precision="FP32">
					<dim>1</dim>
					<dim>512</dim>
					<dim>48</dim>
					<dim>64</dim>
				</port>
			</output>
		</layer>
		<layer name="conv2d_4/convolution" type="Convolution" precision="FP32" id="32">
			<data dilations="2,2" group="1" kernel="3,3" output="256" pads_begin="2,2" pads_end="2,2" quantization_level="I8" strides="1,1" />
			<input>
				<port id="0">
					<dim>1</dim>
					<dim>512</dim>
					<dim>48</dim>
					<dim>64</dim>
				</port>
			</input>
			<output>
				<port id="1" precision="FP32">
					<dim>1</dim>
					<dim>256</dim>
					<dim>48</dim>
					<dim>64</dim>
				</port>
			</output>
			<blobs>
				<biases offset="58858780" size="1024" />
				<weights offset="58859804" size="4718592" />
			</blobs>
		</layer>
		<layer name="conv2d_4/Relu" type="ReLU" precision="FP32" id="33">
			<input>
				<port id="0">
					<dim>1</dim>
					<dim>256</dim>
					<dim>48</dim>
					<dim>64</dim>
				</port>
			</input>
			<output>
				<port id="1" precision="FP32">
					<dim>1</dim>
					<dim>256</dim>
					<dim>48</dim>
					<dim>64</dim>
				</port>
			</output>
		</layer>
		<layer name="conv2d_5/convolution" type="Convolution" precision="FP32" id="34">
			<data dilations="2,2" group="1" kernel="3,3" output="128" pads_begin="2,2" pads_end="2,2" quantization_level="I8" strides="1,1" />
			<input>
				<port id="0">
					<dim>1</dim>
					<dim>256</dim>
					<dim>48</dim>
					<dim>64</dim>
				</port>
			</input>
			<output>
				<port id="1" precision="FP32">
					<dim>1</dim>
					<dim>128</dim>
					<dim>48</dim>
					<dim>64</dim>
				</port>
			</output>
			<blobs>
				<biases offset="63578396" size="512" />
				<weights offset="63578908" size="1179648" />
			</blobs>
		</layer>
		<layer name="conv2d_5/Relu" type="ReLU" precision="FP32" id="35">
			<input>
				<port id="0">
					<dim>1</dim>
					<dim>128</dim>
					<dim>48</dim>
					<dim>64</dim>
				</port>
			</input>
			<output>
				<port id="1" precision="FP32">
					<dim>1</dim>
					<dim>128</dim>
					<dim>48</dim>
					<dim>64</dim>
				</port>
			</output>
		</layer>
		<layer name="conv2d_6/convolution" type="Convolution" precision="FP32" id="36">
			<data dilations="2,2" group="1" kernel="3,3" output="64" pads_begin="2,2" pads_end="2,2" quantization_level="I8" strides="1,1" />
			<input>
				<port id="0">
					<dim>1</dim>
					<dim>128</dim>
					<dim>48</dim>
					<dim>64</dim>
				</port>
			</input>
			<output>
				<port id="1" precision="FP32">
					<dim>1</dim>
					<dim>64</dim>
					<dim>48</dim>
					<dim>64</dim>
				</port>
			</output>
			<blobs>
				<biases offset="64758556" size="256" />
				<weights offset="64758812" size="294912" />
			</blobs>
		</layer>
		<layer name="conv2d_6/Relu" type="ReLU" precision="FP32" id="37">
			<input>
				<port id="0">
					<dim>1</dim>
					<dim>64</dim>
					<dim>48</dim>
					<dim>64</dim>
				</port>
			</input>
			<output>
				<port id="1" precision="FP32">
					<dim>1</dim>
					<dim>64</dim>
					<dim>48</dim>
					<dim>64</dim>
				</port>
			</output>
		</layer>
		<layer name="y_out/convolution" type="Convolution" precision="FP32" id="38">
			<data auto_pad="valid" dilations="1,1" group="1" kernel="1,1" output="1" pads_begin="0,0" pads_end="0,0" quantization_level="I8" strides="1,1" />
			<input>
				<port id="0">
					<dim>1</dim>
					<dim>64</dim>
					<dim>48</dim>
					<dim>64</dim>
				</port>
			</input>
			<output>
				<port id="1" precision="FP32">
					<dim>1</dim>
					<dim>1</dim>
					<dim>48</dim>
					<dim>64</dim>
				</port>
			</output>
			<blobs>
				<biases offset="65053724" size="4" />
				<weights offset="65053728" size="256" />
			</blobs>
		</layer>
		<layer name="y_out/Relu" type="ReLU" precision="FP32" id="39">
			<input>
				<port id="0">
					<dim>1</dim>
					<dim>1</dim>
					<dim>48</dim>
					<dim>64</dim>
				</port>
			</input>
			<output>
				<port id="1" precision="FP32">
					<dim>1</dim>
					<dim>1</dim>
					<dim>48</dim>
					<dim>64</dim>
				</port>
			</output>
		</layer>
		<layer name="y_out/Relu/Transpose" type="Permute" precision="FP32" id="40">
			<data order="0,2,3,1" />
			<input>
				<port id="0">
					<dim>1</dim>
					<dim>1</dim>
					<dim>48</dim>
					<dim>64</dim>
				</port>
			</input>
			<output>
				<port id="1" precision="FP32">
					<dim>1</dim>
					<dim>48</dim>
					<dim>64</dim>
					<dim>1</dim>
				</port>
			</output>
		</layer>
		<layer name="strided_slice/Squeeze_shrink" type="Squeeze" precision="FP32" id="41">
			<input>
				<port id="0">
					<dim>1</dim>
					<dim>48</dim>
					<dim>64</dim>
					<dim>1</dim>
				</port>
				<port id="1">
					<dim>1</dim>
				</port>
			</input>
			<output>
				<port id="2" precision="FP32">
					<dim>48</dim>
					<dim>64</dim>
					<dim>1</dim>
				</port>
			</output>
		</layer>
	</layers>
	<edges>
		<edge from-layer="0" from-port="0" to-layer="41" to-port="1" />
		<edge from-layer="1" from-port="0" to-layer="2" to-port="0" />
		<edge from-layer="2" from-port="1" to-layer="3" to-port="0" />
		<edge from-layer="3" from-port="1" to-layer="4" to-port="0" />
		<edge from-layer="4" from-port="1" to-layer="5" to-port="0" />
		<edge from-layer="5" from-port="1" to-layer="6" to-port="0" />
		<edge from-layer="6" from-port="1" to-layer="7" to-port="0" />
		<edge from-layer="7" from-port="1" to-layer="8" to-port="0" />
		<edge from-layer="8" from-port="1" to-layer="9" to-port="0" />
		<edge from-layer="9" from-port="1" to-layer="10" to-port="0" />
		<edge from-layer="10" from-port="1" to-layer="11" to-port="0" />
		<edge from-layer="11" from-port="1" to-layer="12" to-port="0" />
		<edge from-layer="12" from-port="1" to-layer="13" to-port="0" />
		<edge from-layer="13" from-port="1" to-layer="14" to-port="0" />
		<edge from-layer="14" from-port="1" to-layer="15" to-port="0" />
		<edge from-layer="15" from-port="1" to-layer="16" to-port="0" />
		<edge from-layer="16" from-port="1" to-layer="17" to-port="0" />
		<edge from-layer="17" from-port="1" to-layer="18" to-port="0" />
		<edge from-layer="18" from-port="1" to-layer="19" to-port="0" />
		<edge from-layer="19" from-port="1" to-layer="20" to-port="0" />
		<edge from-layer="20" from-port="1" to-layer="21" to-port="0" />
		<edge from-layer="21" from-port="1" to-layer="22" to-port="0" />
		<edge from-layer="22" from-port="1" to-layer="23" to-port="0" />
		<edge from-layer="23" from-port="1" to-layer="24" to-port="0" />
		<edge from-layer="24" from-port="1" to-layer="25" to-port="0" />
		<edge from-layer="25" from-port="1" to-layer="26" to-port="0" />
		<edge from-layer="26" from-port="1" to-layer="27" to-port="0" />
		<edge from-layer="27" from-port="1" to-layer="28" to-port="0" />
		<edge from-layer="28" from-port="1" to-layer="29" to-port="0" />
		<edge from-layer="29" from-port="1" to-layer="30" to-port="0" />
		<edge from-layer="30" from-port="1" to-layer="31" to-port="0" />
		<edge from-layer="31" from-port="1" to-layer="32" to-port="0" />
		<edge from-layer="32" from-port="1" to-layer="33" to-port="0" />
		<edge from-layer="33" from-port="1" to-layer="34" to-port="0" />
		<edge from-layer="34" from-port="1" to-layer="35" to-port="0" />
		<edge from-layer="35" from-port="1" to-layer="36" to-port="0" />
		<edge from-layer="36" from-port="1" to-layer="37" to-port="0" />
		<edge from-layer="37" from-port="1" to-layer="38" to-port="0" />
		<edge from-layer="38" from-port="1" to-layer="39" to-port="0" />
		<edge from-layer="39" from-port="1" to-layer="40" to-port="0" />
		<edge from-layer="40" from-port="1" to-layer="41" to-port="0" />
	</edges>
	<statistics>
		<layer>
			<name>Mul_/Fused_Mul_/FusedScaleShift_</name>
			<min>-2.117904, -2.035714, -1.804444</min>
			<max>2.248908, 2.428571, 2.640000</max>
		</layer>
		<layer>
			<name>block1_conv1/Relu</name>
			<min>… -0.000000</min>
			<max>… 9.665218</max>
		</layer>
		<layer>
			<name>block1_conv1/convolution</name>
			<min>… -9.626983</min>
			<max>… 9.665218</max>
		</layer>
		<layer>
			<name>block1_conv2/Relu</name>
			<min>… -0.000000</min>
			<max>… 34.991528</max>
		</layer>
		<layer>
			<name>block1_conv2/convolution</name>
			<min>… -41.729206</min>
			<max>… 34.991528</max>
		</layer>
		<layer>
			<name>block1_pool/MaxPool</name>
			<min>… -0.000000</min>
			<max>… 34.991528</max>
		</layer>
		<layer>
			<name>block2_conv1/Relu</name>
			<min>… -0.000000</min>
			<max>… 39.403038</max>
		</layer>
		<layer>
			<name>block2_conv1/convolution</name>
			<min>… -74.533714</min>
			<max>… 39.403038</max>
		</layer>
		<layer>
			<name>block2_conv2/Relu</name>
			<min>… -0.000000</min>
			<max>… 72.979279</max>
		</layer>
		<layer>
			<name>block2_conv2/convolution</name>
			<min>… -34.286457</min>
			<max>… 72.979279</max>
		</layer>
		<layer>
			<name>block2_pool/MaxPool</name>
			<min>… -0.000000</min>
			<max>… 72.979279</max>
		</layer>
		<layer>
			<name>block3_conv1/Relu</name>
			<min>… -0.000000</min>
			<max>… 61.620514</max>
		</layer>
		<layer>
			<name>block3_conv1/convolution</name>
			<min>… -148.400726</min>
			<max>… 61.620514</max>
		</layer>
		<layer>
			<name>block3_conv2/Relu</name>
			<min>… -0.000000</min>
			<max>… 134.526077</max>
		</layer>
		<layer>
			<name>block3_conv2/convolution</name>
			<min>… -95.835800</min>
			<max>… 134.526077</max>
		</layer>
		<layer>
			<name>block3_conv3/Relu</name>
			<min>… -0.000000</min>
			<max>… 192.985870</max>
		</layer>
		<layer>
			<name>block3_conv3/convolution</name>
			<min>… -173.612625</min>
			<max>… 192.985870</max>
		</layer>
		<layer>
			<name>block3_pool/MaxPool</name>
			<min>… -0.000000</min>
			<max>… 192.985870</max>
		</layer>
		<layer>
			<name>block4_conv1/Relu</name>
			<min>… -0.000000</min>
			<max>… 167.296692</max>
		</layer>
		<layer>
			<name>block4_conv1/convolution</name>
			<min>… -221.851730</min>
			<max>… 167.296692</max>
		</layer>
		<layer>
			<name>block4_conv2/Relu</name>
			<min>… -0.000000</min>
			<max>… 260.989899</max>
		</layer>
		<layer>
			<name>block4_conv2/convolution</name>
			<min>… -179.846085</min>
			<max>… 260.989899</max>
		</layer>
		<layer>
			<name>block4_conv3/Relu</name>
			<min>… -0.000000</min>
			<max>… 213.705978</max>
		</layer>
		<layer>
			<name>block4_conv3/convolution</name>
			<min>… -184.039734</min>
			<max>… 213.705978</max>
		</layer>
		<layer>
			<name>conv2d_1/Relu</name>
			<min>… -0.000000</min>
			<max>… 49.710537</max>
		</layer>
		<layer>
			<name>conv2d_1/convolution</name>
			<min>… -41.558151</min>
			<max>… 49.710537</max>
		</layer>
		<layer>
			<name>conv2d_2/Relu</name>
			<min>… -0.000000</min>
			<max>… 17.032299</max>
		</layer>
		<layer>
			<name>conv2d_2/convolution</name>
			<min>… -21.353291</min>
			<max>… 17.032299</max>
		</layer>
		<layer>
			<name>conv2d_3/Relu</name>
			<min>… -0.000000</min>
			<max>… 6.372516</max>
		</layer>
		<layer>
			<name>conv2d_3/convolution</name>
			<min>… -8.393415</min>
			<max>… 6.372516</max>
		</layer>
		<layer>
			<name>conv2d_4/Relu</name>
			<min>… -0.000000</min>
			<max>… 2.903898</max>
		</layer>
		<layer>
			<name>conv2d_4/convolution</name>
			<min>… -3.966056</min>
			<max>… 2.903898</max>
		</layer>
		<layer>
			<name>conv2d_5/Relu</name>
			<min>… -0.000000</min>
			<max>… 1.459917</max>
		</layer>
		<layer>
			<name>conv2d_5/convolution</name>
			<min>… -1.050974</min>
			<max>… 1.459917</max>
		</layer>
		<layer>
			<name>conv2d_6/Relu</name>
			<min>… -0.000000</min>
			<max>… 0.245719</max>
		</layer>
		<layer>
			<name>conv2d_6/convolution</name>
			<min>… -0.244281</min>
			<max>… 0.245719</max>
		</layer>
		<layer>
			<name>input_2</name>
			<min>0.000000, 0.000000, 0.000000</min>
			<max>255.000000, 255.000000, 255.000000</max>
		</layer>
		<layer>
			<name>y_out/Relu</name>
			<min>-0.000000</min>
			<max>5.310220</max>
		</layer>
		<layer>
			<name>y_out/Relu/Transpose</name>
			<min>… -0.000000</min>
			<max>… 0.681282</max>
		</layer>
		<layer>
			<name>y_out/convolution</name>
			<min>-0.017328</min>
			<max>5.310220</max>
		</layer>
	</statistics>
</net>
