<?xml version="1.0"?>
<net name="ICV-RMNet-PD-ReID-Middle" version="6" batch="1">
	<layers>
		<layer name="data" type="Input" precision="FP32" id="0">
			<output>
				<port id="0">
					<dim>1</dim>
					<dim>3</dim>
					<dim>160</dim>
					<dim>64</dim>
				</port>
			</output>
		</layer>
		<layer name="Mul_12463/Fused_Mul_/FusedScaleShift_" type="ScaleShift" precision="FP32" id="1">
			<data broadcast="0" />
			<input>
				<port id="0">
					<dim>1</dim>
					<dim>3</dim>
					<dim>160</dim>
					<dim>64</dim>
				</port>
			</input>
			<output>
				<port id="1">
					<dim>1</dim>
					<dim>3</dim>
					<dim>160</dim>
					<dim>64</dim>
				</port>
			</output>
			<blobs>
				<biases offset="0" size="12" />
				<weights offset="12" size="12" />
			</blobs>
		</layer>
		<layer name="init_block1/dim_inc/conv" type="Convolution" precision="FP32" id="2">
			<data dilations="1,1" group="1" kernel="3,3" output="32" pads_begin="1,1" pads_end="1,1" quantization_level="I8" strides="2,2" />
			<input>
				<port id="0">
					<dim>1</dim>
					<dim>3</dim>
					<dim>160</dim>
					<dim>64</dim>
				</port>
			</input>
			<output>
				<port id="1">
					<dim>1</dim>
					<dim>32</dim>
					<dim>80</dim>
					<dim>32</dim>
				</port>
			</output>
			<blobs>
				<biases offset="24" size="128" />
				<weights offset="152" size="3456" />
			</blobs>
		</layer>
		<layer name="init_block1/dim_inc/fn" type="ReLU" precision="FP32" id="3">
			<input>
				<port id="0">
					<dim>1</dim>
					<dim>32</dim>
					<dim>80</dim>
					<dim>32</dim>
				</port>
			</input>
			<output>
				<port id="1">
					<dim>1</dim>
					<dim>32</dim>
					<dim>80</dim>
					<dim>32</dim>
				</port>
			</output>
		</layer>
		<layer name="bottleneck1_1/dim_red/conv" type="Convolution" precision="FP32" id="4">
			<data dilations="1,1" group="1" kernel="1,1" output="8" pads_begin="0,0" pads_end="0,0" quantization_level="I8" strides="1,1" />
			<input>
				<port id="0">
					<dim>1</dim>
					<dim>32</dim>
					<dim>80</dim>
					<dim>32</dim>
				</port>
			</input>
			<output>
				<port id="1">
					<dim>1</dim>
					<dim>8</dim>
					<dim>80</dim>
					<dim>32</dim>
				</port>
			</output>
			<blobs>
				<biases offset="3608" size="32" />
				<weights offset="3640" size="1024" />
			</blobs>
		</layer>
		<layer name="bottleneck1_1/dim_red/fn" type="elu" precision="FP32" id="5">
			<data alpha="1.0" />
			<input>
				<port id="0">
					<dim>1</dim>
					<dim>8</dim>
					<dim>80</dim>
					<dim>32</dim>
				</port>
			</input>
			<output>
				<port id="1">
					<dim>1</dim>
					<dim>8</dim>
					<dim>80</dim>
					<dim>32</dim>
				</port>
			</output>
		</layer>
		<layer name="bottleneck1_1/inner/dw1/conv" type="Convolution" precision="FP32" id="6">
			<data dilations="1,1" group="8" kernel="3,3" output="8" pads_begin="1,1" pads_end="1,1" quantization_level="I8" strides="1,1" />
			<input>
				<port id="0">
					<dim>1</dim>
					<dim>8</dim>
					<dim>80</dim>
					<dim>32</dim>
				</port>
			</input>
			<output>
				<port id="1">
					<dim>1</dim>
					<dim>8</dim>
					<dim>80</dim>
					<dim>32</dim>
				</port>
			</output>
			<blobs>
				<biases offset="4664" size="32" />
				<weights offset="4696" size="288" />
			</blobs>
		</layer>
		<layer name="bottleneck1_1/inner/dw1/fn" type="elu" precision="FP32" id="7">
			<data alpha="1.0" />
			<input>
				<port id="0">
					<dim>1</dim>
					<dim>8</dim>
					<dim>80</dim>
					<dim>32</dim>
				</port>
			</input>
			<output>
				<port id="1">
					<dim>1</dim>
					<dim>8</dim>
					<dim>80</dim>
					<dim>32</dim>
				</port>
			</output>
		</layer>
		<layer name="bottleneck1_1/dim_inc/conv" type="Convolution" precision="FP32" id="8">
			<data dilations="1,1" group="1" kernel="1,1" output="32" pads_begin="0,0" pads_end="0,0" quantization_level="I8" strides="1,1" />
			<input>
				<port id="0">
					<dim>1</dim>
					<dim>8</dim>
					<dim>80</dim>
					<dim>32</dim>
				</port>
			</input>
			<output>
				<port id="1">
					<dim>1</dim>
					<dim>32</dim>
					<dim>80</dim>
					<dim>32</dim>
				</port>
			</output>
			<blobs>
				<biases offset="4984" size="128" />
				<weights offset="5112" size="1024" />
			</blobs>
		</layer>
		<layer name="bottleneck1_1/add" type="Eltwise" precision="FP32" id="9">
			<data operation="sum" />
			<input>
				<port id="0">
					<dim>1</dim>
					<dim>32</dim>
					<dim>80</dim>
					<dim>32</dim>
				</port>
				<port id="1">
					<dim>1</dim>
					<dim>32</dim>
					<dim>80</dim>
					<dim>32</dim>
				</port>
			</input>
			<output>
				<port id="2">
					<dim>1</dim>
					<dim>32</dim>
					<dim>80</dim>
					<dim>32</dim>
				</port>
			</output>
		</layer>
		<layer name="bottleneck1_1/fn" type="elu" precision="FP32" id="10">
			<data alpha="1.0" />
			<input>
				<port id="0">
					<dim>1</dim>
					<dim>32</dim>
					<dim>80</dim>
					<dim>32</dim>
				</port>
			</input>
			<output>
				<port id="1">
					<dim>1</dim>
					<dim>32</dim>
					<dim>80</dim>
					<dim>32</dim>
				</port>
			</output>
		</layer>
		<layer name="bottleneck1_2/dim_red/conv" type="Convolution" precision="FP32" id="11">
			<data dilations="1,1" group="1" kernel="1,1" output="8" pads_begin="0,0" pads_end="0,0" quantization_level="I8" strides="1,1" />
			<input>
				<port id="0">
					<dim>1</dim>
					<dim>32</dim>
					<dim>80</dim>
					<dim>32</dim>
				</port>
			</input>
			<output>
				<port id="1">
					<dim>1</dim>
					<dim>8</dim>
					<dim>80</dim>
					<dim>32</dim>
				</port>
			</output>
			<blobs>
				<biases offset="6136" size="32" />
				<weights offset="6168" size="1024" />
			</blobs>
		</layer>
		<layer name="bottleneck1_2/dim_red/fn" type="elu" precision="FP32" id="12">
			<data alpha="1.0" />
			<input>
				<port id="0">
					<dim>1</dim>
					<dim>8</dim>
					<dim>80</dim>
					<dim>32</dim>
				</port>
			</input>
			<output>
				<port id="1">
					<dim>1</dim>
					<dim>8</dim>
					<dim>80</dim>
					<dim>32</dim>
				</port>
			</output>
		</layer>
		<layer name="bottleneck1_2/inner/dw1/conv" type="Convolution" precision="FP32" id="13">
			<data dilations="1,1" group="8" kernel="3,3" output="8" pads_begin="1,1" pads_end="1,1" quantization_level="I8" strides="1,1" />
			<input>
				<port id="0">
					<dim>1</dim>
					<dim>8</dim>
					<dim>80</dim>
					<dim>32</dim>
				</port>
			</input>
			<output>
				<port id="1">
					<dim>1</dim>
					<dim>8</dim>
					<dim>80</dim>
					<dim>32</dim>
				</port>
			</output>
			<blobs>
				<biases offset="7192" size="32" />
				<weights offset="7224" size="288" />
			</blobs>
		</layer>
		<layer name="bottleneck1_2/inner/dw1/fn" type="elu" precision="FP32" id="14">
			<data alpha="1.0" />
			<input>
				<port id="0">
					<dim>1</dim>
					<dim>8</dim>
					<dim>80</dim>
					<dim>32</dim>
				</port>
			</input>
			<output>
				<port id="1">
					<dim>1</dim>
					<dim>8</dim>
					<dim>80</dim>
					<dim>32</dim>
				</port>
			</output>
		</layer>
		<layer name="bottleneck1_2/dim_inc/conv" type="Convolution" precision="FP32" id="15">
			<data dilations="1,1" group="1" kernel="1,1" output="32" pads_begin="0,0" pads_end="0,0" quantization_level="I8" strides="1,1" />
			<input>
				<port id="0">
					<dim>1</dim>
					<dim>8</dim>
					<dim>80</dim>
					<dim>32</dim>
				</port>
			</input>
			<output>
				<port id="1">
					<dim>1</dim>
					<dim>32</dim>
					<dim>80</dim>
					<dim>32</dim>
				</port>
			</output>
			<blobs>
				<biases offset="7512" size="128" />
				<weights offset="7640" size="1024" />
			</blobs>
		</layer>
		<layer name="bottleneck1_2/add" type="Eltwise" precision="FP32" id="16">
			<data operation="sum" />
			<input>
				<port id="0">
					<dim>1</dim>
					<dim>32</dim>
					<dim>80</dim>
					<dim>32</dim>
				</port>
				<port id="1">
					<dim>1</dim>
					<dim>32</dim>
					<dim>80</dim>
					<dim>32</dim>
				</port>
			</input>
			<output>
				<port id="2">
					<dim>1</dim>
					<dim>32</dim>
					<dim>80</dim>
					<dim>32</dim>
				</port>
			</output>
		</layer>
		<layer name="bottleneck1_2/fn" type="elu" precision="FP32" id="17">
			<data alpha="1.0" />
			<input>
				<port id="0">
					<dim>1</dim>
					<dim>32</dim>
					<dim>80</dim>
					<dim>32</dim>
				</port>
			</input>
			<output>
				<port id="1">
					<dim>1</dim>
					<dim>32</dim>
					<dim>80</dim>
					<dim>32</dim>
				</port>
			</output>
		</layer>
		<layer name="bottleneck1_3/dim_red/conv" type="Convolution" precision="FP32" id="18">
			<data dilations="1,1" group="1" kernel="1,1" output="8" pads_begin="0,0" pads_end="0,0" quantization_level="I8" strides="1,1" />
			<input>
				<port id="0">
					<dim>1</dim>
					<dim>32</dim>
					<dim>80</dim>
					<dim>32</dim>
				</port>
			</input>
			<output>
				<port id="1">
					<dim>1</dim>
					<dim>8</dim>
					<dim>80</dim>
					<dim>32</dim>
				</port>
			</output>
			<blobs>
				<biases offset="8664" size="32" />
				<weights offset="8696" size="1024" />
			</blobs>
		</layer>
		<layer name="bottleneck1_3/dim_red/fn" type="elu" precision="FP32" id="19">
			<data alpha="1.0" />
			<input>
				<port id="0">
					<dim>1</dim>
					<dim>8</dim>
					<dim>80</dim>
					<dim>32</dim>
				</port>
			</input>
			<output>
				<port id="1">
					<dim>1</dim>
					<dim>8</dim>
					<dim>80</dim>
					<dim>32</dim>
				</port>
			</output>
		</layer>
		<layer name="bottleneck1_3/inner/dw1/conv" type="Convolution" precision="FP32" id="20">
			<data dilations="1,1" group="8" kernel="3,3" output="8" pads_begin="1,1" pads_end="1,1" quantization_level="I8" strides="1,1" />
			<input>
				<port id="0">
					<dim>1</dim>
					<dim>8</dim>
					<dim>80</dim>
					<dim>32</dim>
				</port>
			</input>
			<output>
				<port id="1">
					<dim>1</dim>
					<dim>8</dim>
					<dim>80</dim>
					<dim>32</dim>
				</port>
			</output>
			<blobs>
				<biases offset="9720" size="32" />
				<weights offset="9752" size="288" />
			</blobs>
		</layer>
		<layer name="bottleneck1_3/inner/dw1/fn" type="elu" precision="FP32" id="21">
			<data alpha="1.0" />
			<input>
				<port id="0">
					<dim>1</dim>
					<dim>8</dim>
					<dim>80</dim>
					<dim>32</dim>
				</port>
			</input>
			<output>
				<port id="1">
					<dim>1</dim>
					<dim>8</dim>
					<dim>80</dim>
					<dim>32</dim>
				</port>
			</output>
		</layer>
		<layer name="bottleneck1_3/dim_inc/conv" type="Convolution" precision="FP32" id="22">
			<data dilations="1,1" group="1" kernel="1,1" output="32" pads_begin="0,0" pads_end="0,0" quantization_level="I8" strides="1,1" />
			<input>
				<port id="0">
					<dim>1</dim>
					<dim>8</dim>
					<dim>80</dim>
					<dim>32</dim>
				</port>
			</input>
			<output>
				<port id="1">
					<dim>1</dim>
					<dim>32</dim>
					<dim>80</dim>
					<dim>32</dim>
				</port>
			</output>
			<blobs>
				<biases offset="10040" size="128" />
				<weights offset="10168" size="1024" />
			</blobs>
		</layer>
		<layer name="bottleneck1_3/add" type="Eltwise" precision="FP32" id="23">
			<data operation="sum" />
			<input>
				<port id="0">
					<dim>1</dim>
					<dim>32</dim>
					<dim>80</dim>
					<dim>32</dim>
				</port>
				<port id="1">
					<dim>1</dim>
					<dim>32</dim>
					<dim>80</dim>
					<dim>32</dim>
				</port>
			</input>
			<output>
				<port id="2">
					<dim>1</dim>
					<dim>32</dim>
					<dim>80</dim>
					<dim>32</dim>
				</port>
			</output>
		</layer>
		<layer name="bottleneck1_3/fn" type="elu" precision="FP32" id="24">
			<data alpha="1.0" />
			<input>
				<port id="0">
					<dim>1</dim>
					<dim>32</dim>
					<dim>80</dim>
					<dim>32</dim>
				</port>
			</input>
			<output>
				<port id="1">
					<dim>1</dim>
					<dim>32</dim>
					<dim>80</dim>
					<dim>32</dim>
				</port>
			</output>
		</layer>
		<layer name="bottleneck1_4/dim_red/conv" type="Convolution" precision="FP32" id="25">
			<data dilations="1,1" group="1" kernel="1,1" output="8" pads_begin="0,0" pads_end="0,0" quantization_level="I8" strides="1,1" />
			<input>
				<port id="0">
					<dim>1</dim>
					<dim>32</dim>
					<dim>80</dim>
					<dim>32</dim>
				</port>
			</input>
			<output>
				<port id="1">
					<dim>1</dim>
					<dim>8</dim>
					<dim>80</dim>
					<dim>32</dim>
				</port>
			</output>
			<blobs>
				<biases offset="11192" size="32" />
				<weights offset="11224" size="1024" />
			</blobs>
		</layer>
		<layer name="bottleneck1_4/dim_red/fn" type="elu" precision="FP32" id="26">
			<data alpha="1.0" />
			<input>
				<port id="0">
					<dim>1</dim>
					<dim>8</dim>
					<dim>80</dim>
					<dim>32</dim>
				</port>
			</input>
			<output>
				<port id="1">
					<dim>1</dim>
					<dim>8</dim>
					<dim>80</dim>
					<dim>32</dim>
				</port>
			</output>
		</layer>
		<layer name="bottleneck1_4/inner/dw1/conv" type="Convolution" precision="FP32" id="27">
			<data dilations="1,1" group="8" kernel="3,3" output="8" pads_begin="1,1" pads_end="1,1" quantization_level="I8" strides="1,1" />
			<input>
				<port id="0">
					<dim>1</dim>
					<dim>8</dim>
					<dim>80</dim>
					<dim>32</dim>
				</port>
			</input>
			<output>
				<port id="1">
					<dim>1</dim>
					<dim>8</dim>
					<dim>80</dim>
					<dim>32</dim>
				</port>
			</output>
			<blobs>
				<biases offset="12248" size="32" />
				<weights offset="12280" size="288" />
			</blobs>
		</layer>
		<layer name="bottleneck1_4/inner/dw1/fn" type="elu" precision="FP32" id="28">
			<data alpha="1.0" />
			<input>
				<port id="0">
					<dim>1</dim>
					<dim>8</dim>
					<dim>80</dim>
					<dim>32</dim>
				</port>
			</input>
			<output>
				<port id="1">
					<dim>1</dim>
					<dim>8</dim>
					<dim>80</dim>
					<dim>32</dim>
				</port>
			</output>
		</layer>
		<layer name="bottleneck1_4/dim_inc/conv" type="Convolution" precision="FP32" id="29">
			<data dilations="1,1" group="1" kernel="1,1" output="32" pads_begin="0,0" pads_end="0,0" quantization_level="I8" strides="1,1" />
			<input>
				<port id="0">
					<dim>1</dim>
					<dim>8</dim>
					<dim>80</dim>
					<dim>32</dim>
				</port>
			</input>
			<output>
				<port id="1">
					<dim>1</dim>
					<dim>32</dim>
					<dim>80</dim>
					<dim>32</dim>
				</port>
			</output>
			<blobs>
				<biases offset="12568" size="128" />
				<weights offset="12696" size="1024" />
			</blobs>
		</layer>
		<layer name="bottleneck1_4/add" type="Eltwise" precision="FP32" id="30">
			<data operation="sum" />
			<input>
				<port id="0">
					<dim>1</dim>
					<dim>32</dim>
					<dim>80</dim>
					<dim>32</dim>
				</port>
				<port id="1">
					<dim>1</dim>
					<dim>32</dim>
					<dim>80</dim>
					<dim>32</dim>
				</port>
			</input>
			<output>
				<port id="2">
					<dim>1</dim>
					<dim>32</dim>
					<dim>80</dim>
					<dim>32</dim>
				</port>
			</output>
		</layer>
		<layer name="bottleneck1_4/fn" type="elu" precision="FP32" id="31">
			<data alpha="1.0" />
			<input>
				<port id="0">
					<dim>1</dim>
					<dim>32</dim>
					<dim>80</dim>
					<dim>32</dim>
				</port>
			</input>
			<output>
				<port id="1">
					<dim>1</dim>
					<dim>32</dim>
					<dim>80</dim>
					<dim>32</dim>
				</port>
			</output>
		</layer>
		<layer name="bottleneck2_0/skip/pooling" type="Pooling" precision="FP32" id="32">
			<data exclude-pad="true" kernel="2,2" pads_begin="0,0" pads_end="0,0" pool-method="max" rounding_type="ceil" strides="2,2" />
			<input>
				<port id="0">
					<dim>1</dim>
					<dim>32</dim>
					<dim>80</dim>
					<dim>32</dim>
				</port>
			</input>
			<output>
				<port id="1">
					<dim>1</dim>
					<dim>32</dim>
					<dim>40</dim>
					<dim>16</dim>
				</port>
			</output>
		</layer>
		<layer name="bottleneck2_0/skip/conv" type="Convolution" precision="FP32" id="33">
			<data dilations="1,1" group="1" kernel="1,1" output="64" pads_begin="0,0" pads_end="0,0" quantization_level="I8" strides="1,1" />
			<input>
				<port id="0">
					<dim>1</dim>
					<dim>32</dim>
					<dim>40</dim>
					<dim>16</dim>
				</port>
			</input>
			<output>
				<port id="1">
					<dim>1</dim>
					<dim>64</dim>
					<dim>40</dim>
					<dim>16</dim>
				</port>
			</output>
			<blobs>
				<biases offset="13720" size="256" />
				<weights offset="13976" size="8192" />
			</blobs>
		</layer>
		<layer name="bottleneck2_0/dim_red/conv" type="Convolution" precision="FP32" id="34">
			<data dilations="1,1" group="1" kernel="1,1" output="16" pads_begin="0,0" pads_end="0,0" quantization_level="I8" strides="1,1" />
			<input>
				<port id="0">
					<dim>1</dim>
					<dim>32</dim>
					<dim>80</dim>
					<dim>32</dim>
				</port>
			</input>
			<output>
				<port id="1">
					<dim>1</dim>
					<dim>16</dim>
					<dim>80</dim>
					<dim>32</dim>
				</port>
			</output>
			<blobs>
				<biases offset="22168" size="64" />
				<weights offset="22232" size="2048" />
			</blobs>
		</layer>
		<layer name="bottleneck2_0/dim_red/fn" type="elu" precision="FP32" id="35">
			<data alpha="1.0" />
			<input>
				<port id="0">
					<dim>1</dim>
					<dim>16</dim>
					<dim>80</dim>
					<dim>32</dim>
				</port>
			</input>
			<output>
				<port id="1">
					<dim>1</dim>
					<dim>16</dim>
					<dim>80</dim>
					<dim>32</dim>
				</port>
			</output>
		</layer>
		<layer name="bottleneck2_0/inner/dw1/conv" type="Convolution" precision="FP32" id="36">
			<data dilations="1,1" group="16" kernel="3,3" output="16" pads_begin="1,1" pads_end="1,1" quantization_level="I8" strides="2,2" />
			<input>
				<port id="0">
					<dim>1</dim>
					<dim>16</dim>
					<dim>80</dim>
					<dim>32</dim>
				</port>
			</input>
			<output>
				<port id="1">
					<dim>1</dim>
					<dim>16</dim>
					<dim>40</dim>
					<dim>16</dim>
				</port>
			</output>
			<blobs>
				<biases offset="24280" size="64" />
				<weights offset="24344" size="576" />
			</blobs>
		</layer>
		<layer name="bottleneck2_0/inner/dw1/fn" type="elu" precision="FP32" id="37">
			<data alpha="1.0" />
			<input>
				<port id="0">
					<dim>1</dim>
					<dim>16</dim>
					<dim>40</dim>
					<dim>16</dim>
				</port>
			</input>
			<output>
				<port id="1">
					<dim>1</dim>
					<dim>16</dim>
					<dim>40</dim>
					<dim>16</dim>
				</port>
			</output>
		</layer>
		<layer name="bottleneck2_0/dim_inc/conv" type="Convolution" precision="FP32" id="38">
			<data dilations="1,1" group="1" kernel="1,1" output="64" pads_begin="0,0" pads_end="0,0" quantization_level="I8" strides="1,1" />
			<input>
				<port id="0">
					<dim>1</dim>
					<dim>16</dim>
					<dim>40</dim>
					<dim>16</dim>
				</port>
			</input>
			<output>
				<port id="1">
					<dim>1</dim>
					<dim>64</dim>
					<dim>40</dim>
					<dim>16</dim>
				</port>
			</output>
			<blobs>
				<biases offset="24920" size="256" />
				<weights offset="25176" size="4096" />
			</blobs>
		</layer>
		<layer name="bottleneck2_0/add" type="Eltwise" precision="FP32" id="39">
			<data operation="sum" />
			<input>
				<port id="0">
					<dim>1</dim>
					<dim>64</dim>
					<dim>40</dim>
					<dim>16</dim>
				</port>
				<port id="1">
					<dim>1</dim>
					<dim>64</dim>
					<dim>40</dim>
					<dim>16</dim>
				</port>
			</input>
			<output>
				<port id="2">
					<dim>1</dim>
					<dim>64</dim>
					<dim>40</dim>
					<dim>16</dim>
				</port>
			</output>
		</layer>
		<layer name="bottleneck2_0/fn" type="elu" precision="FP32" id="40">
			<data alpha="1.0" />
			<input>
				<port id="0">
					<dim>1</dim>
					<dim>64</dim>
					<dim>40</dim>
					<dim>16</dim>
				</port>
			</input>
			<output>
				<port id="1">
					<dim>1</dim>
					<dim>64</dim>
					<dim>40</dim>
					<dim>16</dim>
				</port>
			</output>
		</layer>
		<layer name="bottleneck2_1/dim_red/conv" type="Convolution" precision="FP32" id="41">
			<data dilations="1,1" group="1" kernel="1,1" output="16" pads_begin="0,0" pads_end="0,0" quantization_level="I8" strides="1,1" />
			<input>
				<port id="0">
					<dim>1</dim>
					<dim>64</dim>
					<dim>40</dim>
					<dim>16</dim>
				</port>
			</input>
			<output>
				<port id="1">
					<dim>1</dim>
					<dim>16</dim>
					<dim>40</dim>
					<dim>16</dim>
				</port>
			</output>
			<blobs>
				<biases offset="29272" size="64" />
				<weights offset="29336" size="4096" />
			</blobs>
		</layer>
		<layer name="bottleneck2_1/dim_red/fn" type="elu" precision="FP32" id="42">
			<data alpha="1.0" />
			<input>
				<port id="0">
					<dim>1</dim>
					<dim>16</dim>
					<dim>40</dim>
					<dim>16</dim>
				</port>
			</input>
			<output>
				<port id="1">
					<dim>1</dim>
					<dim>16</dim>
					<dim>40</dim>
					<dim>16</dim>
				</port>
			</output>
		</layer>
		<layer name="bottleneck2_1/inner/dw1/conv" type="Convolution" precision="FP32" id="43">
			<data dilations="1,1" group="16" kernel="3,3" output="16" pads_begin="1,1" pads_end="1,1" quantization_level="I8" strides="1,1" />
			<input>
				<port id="0">
					<dim>1</dim>
					<dim>16</dim>
					<dim>40</dim>
					<dim>16</dim>
				</port>
			</input>
			<output>
				<port id="1">
					<dim>1</dim>
					<dim>16</dim>
					<dim>40</dim>
					<dim>16</dim>
				</port>
			</output>
			<blobs>
				<biases offset="33432" size="64" />
				<weights offset="33496" size="576" />
			</blobs>
		</layer>
		<layer name="bottleneck2_1/inner/dw1/fn" type="elu" precision="FP32" id="44">
			<data alpha="1.0" />
			<input>
				<port id="0">
					<dim>1</dim>
					<dim>16</dim>
					<dim>40</dim>
					<dim>16</dim>
				</port>
			</input>
			<output>
				<port id="1">
					<dim>1</dim>
					<dim>16</dim>
					<dim>40</dim>
					<dim>16</dim>
				</port>
			</output>
		</layer>
		<layer name="bottleneck2_1/dim_inc/conv" type="Convolution" precision="FP32" id="45">
			<data dilations="1,1" group="1" kernel="1,1" output="64" pads_begin="0,0" pads_end="0,0" quantization_level="I8" strides="1,1" />
			<input>
				<port id="0">
					<dim>1</dim>
					<dim>16</dim>
					<dim>40</dim>
					<dim>16</dim>
				</port>
			</input>
			<output>
				<port id="1">
					<dim>1</dim>
					<dim>64</dim>
					<dim>40</dim>
					<dim>16</dim>
				</port>
			</output>
			<blobs>
				<biases offset="34072" size="256" />
				<weights offset="34328" size="4096" />
			</blobs>
		</layer>
		<layer name="bottleneck2_1/add" type="Eltwise" precision="FP32" id="46">
			<data operation="sum" />
			<input>
				<port id="0">
					<dim>1</dim>
					<dim>64</dim>
					<dim>40</dim>
					<dim>16</dim>
				</port>
				<port id="1">
					<dim>1</dim>
					<dim>64</dim>
					<dim>40</dim>
					<dim>16</dim>
				</port>
			</input>
			<output>
				<port id="2">
					<dim>1</dim>
					<dim>64</dim>
					<dim>40</dim>
					<dim>16</dim>
				</port>
			</output>
		</layer>
		<layer name="bottleneck2_1/fn" type="elu" precision="FP32" id="47">
			<data alpha="1.0" />
			<input>
				<port id="0">
					<dim>1</dim>
					<dim>64</dim>
					<dim>40</dim>
					<dim>16</dim>
				</port>
			</input>
			<output>
				<port id="1">
					<dim>1</dim>
					<dim>64</dim>
					<dim>40</dim>
					<dim>16</dim>
				</port>
			</output>
		</layer>
		<layer name="bottleneck2_2/dim_red/conv" type="Convolution" precision="FP32" id="48">
			<data dilations="1,1" group="1" kernel="1,1" output="16" pads_begin="0,0" pads_end="0,0" quantization_level="I8" strides="1,1" />
			<input>
				<port id="0">
					<dim>1</dim>
					<dim>64</dim>
					<dim>40</dim>
					<dim>16</dim>
				</port>
			</input>
			<output>
				<port id="1">
					<dim>1</dim>
					<dim>16</dim>
					<dim>40</dim>
					<dim>16</dim>
				</port>
			</output>
			<blobs>
				<biases offset="38424" size="64" />
				<weights offset="38488" size="4096" />
			</blobs>
		</layer>
		<layer name="bottleneck2_2/dim_red/fn" type="elu" precision="FP32" id="49">
			<data alpha="1.0" />
			<input>
				<port id="0">
					<dim>1</dim>
					<dim>16</dim>
					<dim>40</dim>
					<dim>16</dim>
				</port>
			</input>
			<output>
				<port id="1">
					<dim>1</dim>
					<dim>16</dim>
					<dim>40</dim>
					<dim>16</dim>
				</port>
			</output>
		</layer>
		<layer name="bottleneck2_2/inner/dw1/conv" type="Convolution" precision="FP32" id="50">
			<data dilations="1,1" group="16" kernel="3,3" output="16" pads_begin="1,1" pads_end="1,1" quantization_level="I8" strides="1,1" />
			<input>
				<port id="0">
					<dim>1</dim>
					<dim>16</dim>
					<dim>40</dim>
					<dim>16</dim>
				</port>
			</input>
			<output>
				<port id="1">
					<dim>1</dim>
					<dim>16</dim>
					<dim>40</dim>
					<dim>16</dim>
				</port>
			</output>
			<blobs>
				<biases offset="42584" size="64" />
				<weights offset="42648" size="576" />
			</blobs>
		</layer>
		<layer name="bottleneck2_2/inner/dw1/fn" type="elu" precision="FP32" id="51">
			<data alpha="1.0" />
			<input>
				<port id="0">
					<dim>1</dim>
					<dim>16</dim>
					<dim>40</dim>
					<dim>16</dim>
				</port>
			</input>
			<output>
				<port id="1">
					<dim>1</dim>
					<dim>16</dim>
					<dim>40</dim>
					<dim>16</dim>
				</port>
			</output>
		</layer>
		<layer name="bottleneck2_2/dim_inc/conv" type="Convolution" precision="FP32" id="52">
			<data dilations="1,1" group="1" kernel="1,1" output="64" pads_begin="0,0" pads_end="0,0" quantization_level="I8" strides="1,1" />
			<input>
				<port id="0">
					<dim>1</dim>
					<dim>16</dim>
					<dim>40</dim>
					<dim>16</dim>
				</port>
			</input>
			<output>
				<port id="1">
					<dim>1</dim>
					<dim>64</dim>
					<dim>40</dim>
					<dim>16</dim>
				</port>
			</output>
			<blobs>
				<biases offset="43224" size="256" />
				<weights offset="43480" size="4096" />
			</blobs>
		</layer>
		<layer name="bottleneck2_2/add" type="Eltwise" precision="FP32" id="53">
			<data operation="sum" />
			<input>
				<port id="0">
					<dim>1</dim>
					<dim>64</dim>
					<dim>40</dim>
					<dim>16</dim>
				</port>
				<port id="1">
					<dim>1</dim>
					<dim>64</dim>
					<dim>40</dim>
					<dim>16</dim>
				</port>
			</input>
			<output>
				<port id="2">
					<dim>1</dim>
					<dim>64</dim>
					<dim>40</dim>
					<dim>16</dim>
				</port>
			</output>
		</layer>
		<layer name="bottleneck2_2/fn" type="elu" precision="FP32" id="54">
			<data alpha="1.0" />
			<input>
				<port id="0">
					<dim>1</dim>
					<dim>64</dim>
					<dim>40</dim>
					<dim>16</dim>
				</port>
			</input>
			<output>
				<port id="1">
					<dim>1</dim>
					<dim>64</dim>
					<dim>40</dim>
					<dim>16</dim>
				</port>
			</output>
		</layer>
		<layer name="bottleneck2_3/dim_red/conv" type="Convolution" precision="FP32" id="55">
			<data dilations="1,1" group="1" kernel="1,1" output="16" pads_begin="0,0" pads_end="0,0" quantization_level="I8" strides="1,1" />
			<input>
				<port id="0">
					<dim>1</dim>
					<dim>64</dim>
					<dim>40</dim>
					<dim>16</dim>
				</port>
			</input>
			<output>
				<port id="1">
					<dim>1</dim>
					<dim>16</dim>
					<dim>40</dim>
					<dim>16</dim>
				</port>
			</output>
			<blobs>
				<biases offset="47576" size="64" />
				<weights offset="47640" size="4096" />
			</blobs>
		</layer>
		<layer name="bottleneck2_3/dim_red/fn" type="elu" precision="FP32" id="56">
			<data alpha="1.0" />
			<input>
				<port id="0">
					<dim>1</dim>
					<dim>16</dim>
					<dim>40</dim>
					<dim>16</dim>
				</port>
			</input>
			<output>
				<port id="1">
					<dim>1</dim>
					<dim>16</dim>
					<dim>40</dim>
					<dim>16</dim>
				</port>
			</output>
		</layer>
		<layer name="bottleneck2_3/inner/dw1/conv" type="Convolution" precision="FP32" id="57">
			<data dilations="1,1" group="16" kernel="3,3" output="16" pads_begin="1,1" pads_end="1,1" quantization_level="I8" strides="1,1" />
			<input>
				<port id="0">
					<dim>1</dim>
					<dim>16</dim>
					<dim>40</dim>
					<dim>16</dim>
				</port>
			</input>
			<output>
				<port id="1">
					<dim>1</dim>
					<dim>16</dim>
					<dim>40</dim>
					<dim>16</dim>
				</port>
			</output>
			<blobs>
				<biases offset="51736" size="64" />
				<weights offset="51800" size="576" />
			</blobs>
		</layer>
		<layer name="bottleneck2_3/inner/dw1/fn" type="elu" precision="FP32" id="58">
			<data alpha="1.0" />
			<input>
				<port id="0">
					<dim>1</dim>
					<dim>16</dim>
					<dim>40</dim>
					<dim>16</dim>
				</port>
			</input>
			<output>
				<port id="1">
					<dim>1</dim>
					<dim>16</dim>
					<dim>40</dim>
					<dim>16</dim>
				</port>
			</output>
		</layer>
		<layer name="bottleneck2_3/dim_inc/conv" type="Convolution" precision="FP32" id="59">
			<data dilations="1,1" group="1" kernel="1,1" output="64" pads_begin="0,0" pads_end="0,0" quantization_level="I8" strides="1,1" />
			<input>
				<port id="0">
					<dim>1</dim>
					<dim>16</dim>
					<dim>40</dim>
					<dim>16</dim>
				</port>
			</input>
			<output>
				<port id="1">
					<dim>1</dim>
					<dim>64</dim>
					<dim>40</dim>
					<dim>16</dim>
				</port>
			</output>
			<blobs>
				<biases offset="52376" size="256" />
				<weights offset="52632" size="4096" />
			</blobs>
		</layer>
		<layer name="bottleneck2_3/add" type="Eltwise" precision="FP32" id="60">
			<data operation="sum" />
			<input>
				<port id="0">
					<dim>1</dim>
					<dim>64</dim>
					<dim>40</dim>
					<dim>16</dim>
				</port>
				<port id="1">
					<dim>1</dim>
					<dim>64</dim>
					<dim>40</dim>
					<dim>16</dim>
				</port>
			</input>
			<output>
				<port id="2">
					<dim>1</dim>
					<dim>64</dim>
					<dim>40</dim>
					<dim>16</dim>
				</port>
			</output>
		</layer>
		<layer name="bottleneck2_3/fn" type="elu" precision="FP32" id="61">
			<data alpha="1.0" />
			<input>
				<port id="0">
					<dim>1</dim>
					<dim>64</dim>
					<dim>40</dim>
					<dim>16</dim>
				</port>
			</input>
			<output>
				<port id="1">
					<dim>1</dim>
					<dim>64</dim>
					<dim>40</dim>
					<dim>16</dim>
				</port>
			</output>
		</layer>
		<layer name="bottleneck2_4/dim_red/conv" type="Convolution" precision="FP32" id="62">
			<data dilations="1,1" group="1" kernel="1,1" output="16" pads_begin="0,0" pads_end="0,0" quantization_level="I8" strides="1,1" />
			<input>
				<port id="0">
					<dim>1</dim>
					<dim>64</dim>
					<dim>40</dim>
					<dim>16</dim>
				</port>
			</input>
			<output>
				<port id="1">
					<dim>1</dim>
					<dim>16</dim>
					<dim>40</dim>
					<dim>16</dim>
				</port>
			</output>
			<blobs>
				<biases offset="56728" size="64" />
				<weights offset="56792" size="4096" />
			</blobs>
		</layer>
		<layer name="bottleneck2_4/dim_red/fn" type="elu" precision="FP32" id="63">
			<data alpha="1.0" />
			<input>
				<port id="0">
					<dim>1</dim>
					<dim>16</dim>
					<dim>40</dim>
					<dim>16</dim>
				</port>
			</input>
			<output>
				<port id="1">
					<dim>1</dim>
					<dim>16</dim>
					<dim>40</dim>
					<dim>16</dim>
				</port>
			</output>
		</layer>
		<layer name="bottleneck2_4/inner/dw1/conv" type="Convolution" precision="FP32" id="64">
			<data dilations="1,1" group="16" kernel="3,3" output="16" pads_begin="1,1" pads_end="1,1" quantization_level="I8" strides="1,1" />
			<input>
				<port id="0">
					<dim>1</dim>
					<dim>16</dim>
					<dim>40</dim>
					<dim>16</dim>
				</port>
			</input>
			<output>
				<port id="1">
					<dim>1</dim>
					<dim>16</dim>
					<dim>40</dim>
					<dim>16</dim>
				</port>
			</output>
			<blobs>
				<biases offset="60888" size="64" />
				<weights offset="60952" size="576" />
			</blobs>
		</layer>
		<layer name="bottleneck2_4/inner/dw1/fn" type="elu" precision="FP32" id="65">
			<data alpha="1.0" />
			<input>
				<port id="0">
					<dim>1</dim>
					<dim>16</dim>
					<dim>40</dim>
					<dim>16</dim>
				</port>
			</input>
			<output>
				<port id="1">
					<dim>1</dim>
					<dim>16</dim>
					<dim>40</dim>
					<dim>16</dim>
				</port>
			</output>
		</layer>
		<layer name="bottleneck2_4/dim_inc/conv" type="Convolution" precision="FP32" id="66">
			<data dilations="1,1" group="1" kernel="1,1" output="64" pads_begin="0,0" pads_end="0,0" quantization_level="I8" strides="1,1" />
			<input>
				<port id="0">
					<dim>1</dim>
					<dim>16</dim>
					<dim>40</dim>
					<dim>16</dim>
				</port>
			</input>
			<output>
				<port id="1">
					<dim>1</dim>
					<dim>64</dim>
					<dim>40</dim>
					<dim>16</dim>
				</port>
			</output>
			<blobs>
				<biases offset="61528" size="256" />
				<weights offset="61784" size="4096" />
			</blobs>
		</layer>
		<layer name="bottleneck2_4/add" type="Eltwise" precision="FP32" id="67">
			<data operation="sum" />
			<input>
				<port id="0">
					<dim>1</dim>
					<dim>64</dim>
					<dim>40</dim>
					<dim>16</dim>
				</port>
				<port id="1">
					<dim>1</dim>
					<dim>64</dim>
					<dim>40</dim>
					<dim>16</dim>
				</port>
			</input>
			<output>
				<port id="2">
					<dim>1</dim>
					<dim>64</dim>
					<dim>40</dim>
					<dim>16</dim>
				</port>
			</output>
		</layer>
		<layer name="bottleneck2_4/fn" type="elu" precision="FP32" id="68">
			<data alpha="1.0" />
			<input>
				<port id="0">
					<dim>1</dim>
					<dim>64</dim>
					<dim>40</dim>
					<dim>16</dim>
				</port>
			</input>
			<output>
				<port id="1">
					<dim>1</dim>
					<dim>64</dim>
					<dim>40</dim>
					<dim>16</dim>
				</port>
			</output>
		</layer>
		<layer name="bottleneck2_5/dim_red/conv" type="Convolution" precision="FP32" id="69">
			<data dilations="1,1" group="1" kernel="1,1" output="16" pads_begin="0,0" pads_end="0,0" quantization_level="I8" strides="1,1" />
			<input>
				<port id="0">
					<dim>1</dim>
					<dim>64</dim>
					<dim>40</dim>
					<dim>16</dim>
				</port>
			</input>
			<output>
				<port id="1">
					<dim>1</dim>
					<dim>16</dim>
					<dim>40</dim>
					<dim>16</dim>
				</port>
			</output>
			<blobs>
				<biases offset="65880" size="64" />
				<weights offset="65944" size="4096" />
			</blobs>
		</layer>
		<layer name="bottleneck2_5/dim_red/fn" type="elu" precision="FP32" id="70">
			<data alpha="1.0" />
			<input>
				<port id="0">
					<dim>1</dim>
					<dim>16</dim>
					<dim>40</dim>
					<dim>16</dim>
				</port>
			</input>
			<output>
				<port id="1">
					<dim>1</dim>
					<dim>16</dim>
					<dim>40</dim>
					<dim>16</dim>
				</port>
			</output>
		</layer>
		<layer name="bottleneck2_5/inner/dw1/conv" type="Convolution" precision="FP32" id="71">
			<data dilations="1,1" group="16" kernel="3,3" output="16" pads_begin="1,1" pads_end="1,1" quantization_level="I8" strides="1,1" />
			<input>
				<port id="0">
					<dim>1</dim>
					<dim>16</dim>
					<dim>40</dim>
					<dim>16</dim>
				</port>
			</input>
			<output>
				<port id="1">
					<dim>1</dim>
					<dim>16</dim>
					<dim>40</dim>
					<dim>16</dim>
				</port>
			</output>
			<blobs>
				<biases offset="70040" size="64" />
				<weights offset="70104" size="576" />
			</blobs>
		</layer>
		<layer name="bottleneck2_5/inner/dw1/fn" type="elu" precision="FP32" id="72">
			<data alpha="1.0" />
			<input>
				<port id="0">
					<dim>1</dim>
					<dim>16</dim>
					<dim>40</dim>
					<dim>16</dim>
				</port>
			</input>
			<output>
				<port id="1">
					<dim>1</dim>
					<dim>16</dim>
					<dim>40</dim>
					<dim>16</dim>
				</port>
			</output>
		</layer>
		<layer name="bottleneck2_5/dim_inc/conv" type="Convolution" precision="FP32" id="73">
			<data dilations="1,1" group="1" kernel="1,1" output="64" pads_begin="0,0" pads_end="0,0" quantization_level="I8" strides="1,1" />
			<input>
				<port id="0">
					<dim>1</dim>
					<dim>16</dim>
					<dim>40</dim>
					<dim>16</dim>
				</port>
			</input>
			<output>
				<port id="1">
					<dim>1</dim>
					<dim>64</dim>
					<dim>40</dim>
					<dim>16</dim>
				</port>
			</output>
			<blobs>
				<biases offset="70680" size="256" />
				<weights offset="70936" size="4096" />
			</blobs>
		</layer>
		<layer name="bottleneck2_5/add" type="Eltwise" precision="FP32" id="74">
			<data operation="sum" />
			<input>
				<port id="0">
					<dim>1</dim>
					<dim>64</dim>
					<dim>40</dim>
					<dim>16</dim>
				</port>
				<port id="1">
					<dim>1</dim>
					<dim>64</dim>
					<dim>40</dim>
					<dim>16</dim>
				</port>
			</input>
			<output>
				<port id="2">
					<dim>1</dim>
					<dim>64</dim>
					<dim>40</dim>
					<dim>16</dim>
				</port>
			</output>
		</layer>
		<layer name="bottleneck2_5/fn" type="elu" precision="FP32" id="75">
			<data alpha="1.0" />
			<input>
				<port id="0">
					<dim>1</dim>
					<dim>64</dim>
					<dim>40</dim>
					<dim>16</dim>
				</port>
			</input>
			<output>
				<port id="1">
					<dim>1</dim>
					<dim>64</dim>
					<dim>40</dim>
					<dim>16</dim>
				</port>
			</output>
		</layer>
		<layer name="bottleneck2_6/dim_red/conv" type="Convolution" precision="FP32" id="76">
			<data dilations="1,1" group="1" kernel="1,1" output="16" pads_begin="0,0" pads_end="0,0" quantization_level="I8" strides="1,1" />
			<input>
				<port id="0">
					<dim>1</dim>
					<dim>64</dim>
					<dim>40</dim>
					<dim>16</dim>
				</port>
			</input>
			<output>
				<port id="1">
					<dim>1</dim>
					<dim>16</dim>
					<dim>40</dim>
					<dim>16</dim>
				</port>
			</output>
			<blobs>
				<biases offset="75032" size="64" />
				<weights offset="75096" size="4096" />
			</blobs>
		</layer>
		<layer name="bottleneck2_6/dim_red/fn" type="elu" precision="FP32" id="77">
			<data alpha="1.0" />
			<input>
				<port id="0">
					<dim>1</dim>
					<dim>16</dim>
					<dim>40</dim>
					<dim>16</dim>
				</port>
			</input>
			<output>
				<port id="1">
					<dim>1</dim>
					<dim>16</dim>
					<dim>40</dim>
					<dim>16</dim>
				</port>
			</output>
		</layer>
		<layer name="bottleneck2_6/inner/dw1/conv" type="Convolution" precision="FP32" id="78">
			<data dilations="1,1" group="16" kernel="3,3" output="16" pads_begin="1,1" pads_end="1,1" quantization_level="I8" strides="1,1" />
			<input>
				<port id="0">
					<dim>1</dim>
					<dim>16</dim>
					<dim>40</dim>
					<dim>16</dim>
				</port>
			</input>
			<output>
				<port id="1">
					<dim>1</dim>
					<dim>16</dim>
					<dim>40</dim>
					<dim>16</dim>
				</port>
			</output>
			<blobs>
				<biases offset="79192" size="64" />
				<weights offset="79256" size="576" />
			</blobs>
		</layer>
		<layer name="bottleneck2_6/inner/dw1/fn" type="elu" precision="FP32" id="79">
			<data alpha="1.0" />
			<input>
				<port id="0">
					<dim>1</dim>
					<dim>16</dim>
					<dim>40</dim>
					<dim>16</dim>
				</port>
			</input>
			<output>
				<port id="1">
					<dim>1</dim>
					<dim>16</dim>
					<dim>40</dim>
					<dim>16</dim>
				</port>
			</output>
		</layer>
		<layer name="bottleneck2_6/dim_inc/conv" type="Convolution" precision="FP32" id="80">
			<data dilations="1,1" group="1" kernel="1,1" output="64" pads_begin="0,0" pads_end="0,0" quantization_level="I8" strides="1,1" />
			<input>
				<port id="0">
					<dim>1</dim>
					<dim>16</dim>
					<dim>40</dim>
					<dim>16</dim>
				</port>
			</input>
			<output>
				<port id="1">
					<dim>1</dim>
					<dim>64</dim>
					<dim>40</dim>
					<dim>16</dim>
				</port>
			</output>
			<blobs>
				<biases offset="79832" size="256" />
				<weights offset="80088" size="4096" />
			</blobs>
		</layer>
		<layer name="bottleneck2_6/add" type="Eltwise" precision="FP32" id="81">
			<data operation="sum" />
			<input>
				<port id="0">
					<dim>1</dim>
					<dim>64</dim>
					<dim>40</dim>
					<dim>16</dim>
				</port>
				<port id="1">
					<dim>1</dim>
					<dim>64</dim>
					<dim>40</dim>
					<dim>16</dim>
				</port>
			</input>
			<output>
				<port id="2">
					<dim>1</dim>
					<dim>64</dim>
					<dim>40</dim>
					<dim>16</dim>
				</port>
			</output>
		</layer>
		<layer name="bottleneck2_6/fn" type="elu" precision="FP32" id="82">
			<data alpha="1.0" />
			<input>
				<port id="0">
					<dim>1</dim>
					<dim>64</dim>
					<dim>40</dim>
					<dim>16</dim>
				</port>
			</input>
			<output>
				<port id="1">
					<dim>1</dim>
					<dim>64</dim>
					<dim>40</dim>
					<dim>16</dim>
				</port>
			</output>
		</layer>
		<layer name="bottleneck2_7/dim_red/conv" type="Convolution" precision="FP32" id="83">
			<data dilations="1,1" group="1" kernel="1,1" output="16" pads_begin="0,0" pads_end="0,0" quantization_level="I8" strides="1,1" />
			<input>
				<port id="0">
					<dim>1</dim>
					<dim>64</dim>
					<dim>40</dim>
					<dim>16</dim>
				</port>
			</input>
			<output>
				<port id="1">
					<dim>1</dim>
					<dim>16</dim>
					<dim>40</dim>
					<dim>16</dim>
				</port>
			</output>
			<blobs>
				<biases offset="84184" size="64" />
				<weights offset="84248" size="4096" />
			</blobs>
		</layer>
		<layer name="bottleneck2_7/dim_red/fn" type="elu" precision="FP32" id="84">
			<data alpha="1.0" />
			<input>
				<port id="0">
					<dim>1</dim>
					<dim>16</dim>
					<dim>40</dim>
					<dim>16</dim>
				</port>
			</input>
			<output>
				<port id="1">
					<dim>1</dim>
					<dim>16</dim>
					<dim>40</dim>
					<dim>16</dim>
				</port>
			</output>
		</layer>
		<layer name="bottleneck2_7/inner/dw1/conv" type="Convolution" precision="FP32" id="85">
			<data dilations="1,1" group="16" kernel="3,3" output="16" pads_begin="1,1" pads_end="1,1" quantization_level="I8" strides="1,1" />
			<input>
				<port id="0">
					<dim>1</dim>
					<dim>16</dim>
					<dim>40</dim>
					<dim>16</dim>
				</port>
			</input>
			<output>
				<port id="1">
					<dim>1</dim>
					<dim>16</dim>
					<dim>40</dim>
					<dim>16</dim>
				</port>
			</output>
			<blobs>
				<biases offset="88344" size="64" />
				<weights offset="88408" size="576" />
			</blobs>
		</layer>
		<layer name="bottleneck2_7/inner/dw1/fn" type="elu" precision="FP32" id="86">
			<data alpha="1.0" />
			<input>
				<port id="0">
					<dim>1</dim>
					<dim>16</dim>
					<dim>40</dim>
					<dim>16</dim>
				</port>
			</input>
			<output>
				<port id="1">
					<dim>1</dim>
					<dim>16</dim>
					<dim>40</dim>
					<dim>16</dim>
				</port>
			</output>
		</layer>
		<layer name="bottleneck2_7/dim_inc/conv" type="Convolution" precision="FP32" id="87">
			<data dilations="1,1" group="1" kernel="1,1" output="64" pads_begin="0,0" pads_end="0,0" quantization_level="I8" strides="1,1" />
			<input>
				<port id="0">
					<dim>1</dim>
					<dim>16</dim>
					<dim>40</dim>
					<dim>16</dim>
				</port>
			</input>
			<output>
				<port id="1">
					<dim>1</dim>
					<dim>64</dim>
					<dim>40</dim>
					<dim>16</dim>
				</port>
			</output>
			<blobs>
				<biases offset="88984" size="256" />
				<weights offset="89240" size="4096" />
			</blobs>
		</layer>
		<layer name="bottleneck2_7/add" type="Eltwise" precision="FP32" id="88">
			<data operation="sum" />
			<input>
				<port id="0">
					<dim>1</dim>
					<dim>64</dim>
					<dim>40</dim>
					<dim>16</dim>
				</port>
				<port id="1">
					<dim>1</dim>
					<dim>64</dim>
					<dim>40</dim>
					<dim>16</dim>
				</port>
			</input>
			<output>
				<port id="2">
					<dim>1</dim>
					<dim>64</dim>
					<dim>40</dim>
					<dim>16</dim>
				</port>
			</output>
		</layer>
		<layer name="bottleneck2_7/fn" type="elu" precision="FP32" id="89">
			<data alpha="1.0" />
			<input>
				<port id="0">
					<dim>1</dim>
					<dim>64</dim>
					<dim>40</dim>
					<dim>16</dim>
				</port>
			</input>
			<output>
				<port id="1">
					<dim>1</dim>
					<dim>64</dim>
					<dim>40</dim>
					<dim>16</dim>
				</port>
			</output>
		</layer>
		<layer name="bottleneck2_8/dim_red/conv" type="Convolution" precision="FP32" id="90">
			<data dilations="1,1" group="1" kernel="1,1" output="16" pads_begin="0,0" pads_end="0,0" quantization_level="I8" strides="1,1" />
			<input>
				<port id="0">
					<dim>1</dim>
					<dim>64</dim>
					<dim>40</dim>
					<dim>16</dim>
				</port>
			</input>
			<output>
				<port id="1">
					<dim>1</dim>
					<dim>16</dim>
					<dim>40</dim>
					<dim>16</dim>
				</port>
			</output>
			<blobs>
				<biases offset="93336" size="64" />
				<weights offset="93400" size="4096" />
			</blobs>
		</layer>
		<layer name="bottleneck2_8/dim_red/fn" type="elu" precision="FP32" id="91">
			<data alpha="1.0" />
			<input>
				<port id="0">
					<dim>1</dim>
					<dim>16</dim>
					<dim>40</dim>
					<dim>16</dim>
				</port>
			</input>
			<output>
				<port id="1">
					<dim>1</dim>
					<dim>16</dim>
					<dim>40</dim>
					<dim>16</dim>
				</port>
			</output>
		</layer>
		<layer name="bottleneck2_8/inner/dw1/conv" type="Convolution" precision="FP32" id="92">
			<data dilations="1,1" group="16" kernel="3,3" output="16" pads_begin="1,1" pads_end="1,1" quantization_level="I8" strides="1,1" />
			<input>
				<port id="0">
					<dim>1</dim>
					<dim>16</dim>
					<dim>40</dim>
					<dim>16</dim>
				</port>
			</input>
			<output>
				<port id="1">
					<dim>1</dim>
					<dim>16</dim>
					<dim>40</dim>
					<dim>16</dim>
				</port>
			</output>
			<blobs>
				<biases offset="97496" size="64" />
				<weights offset="97560" size="576" />
			</blobs>
		</layer>
		<layer name="bottleneck2_8/inner/dw1/fn" type="elu" precision="FP32" id="93">
			<data alpha="1.0" />
			<input>
				<port id="0">
					<dim>1</dim>
					<dim>16</dim>
					<dim>40</dim>
					<dim>16</dim>
				</port>
			</input>
			<output>
				<port id="1">
					<dim>1</dim>
					<dim>16</dim>
					<dim>40</dim>
					<dim>16</dim>
				</port>
			</output>
		</layer>
		<layer name="bottleneck2_8/dim_inc/conv" type="Convolution" precision="FP32" id="94">
			<data dilations="1,1" group="1" kernel="1,1" output="64" pads_begin="0,0" pads_end="0,0" quantization_level="I8" strides="1,1" />
			<input>
				<port id="0">
					<dim>1</dim>
					<dim>16</dim>
					<dim>40</dim>
					<dim>16</dim>
				</port>
			</input>
			<output>
				<port id="1">
					<dim>1</dim>
					<dim>64</dim>
					<dim>40</dim>
					<dim>16</dim>
				</port>
			</output>
			<blobs>
				<biases offset="98136" size="256" />
				<weights offset="98392" size="4096" />
			</blobs>
		</layer>
		<layer name="bottleneck2_8/add" type="Eltwise" precision="FP32" id="95">
			<data operation="sum" />
			<input>
				<port id="0">
					<dim>1</dim>
					<dim>64</dim>
					<dim>40</dim>
					<dim>16</dim>
				</port>
				<port id="1">
					<dim>1</dim>
					<dim>64</dim>
					<dim>40</dim>
					<dim>16</dim>
				</port>
			</input>
			<output>
				<port id="2">
					<dim>1</dim>
					<dim>64</dim>
					<dim>40</dim>
					<dim>16</dim>
				</port>
			</output>
		</layer>
		<layer name="bottleneck2_8/fn" type="elu" precision="FP32" id="96">
			<data alpha="1.0" />
			<input>
				<port id="0">
					<dim>1</dim>
					<dim>64</dim>
					<dim>40</dim>
					<dim>16</dim>
				</port>
			</input>
			<output>
				<port id="1">
					<dim>1</dim>
					<dim>64</dim>
					<dim>40</dim>
					<dim>16</dim>
				</port>
			</output>
		</layer>
		<layer name="bottleneck3_0/skip/pooling" type="Pooling" precision="FP32" id="97">
			<data exclude-pad="true" kernel="2,2" pads_begin="0,0" pads_end="0,0" pool-method="max" rounding_type="ceil" strides="2,2" />
			<input>
				<port id="0">
					<dim>1</dim>
					<dim>64</dim>
					<dim>40</dim>
					<dim>16</dim>
				</port>
			</input>
			<output>
				<port id="1">
					<dim>1</dim>
					<dim>64</dim>
					<dim>20</dim>
					<dim>8</dim>
				</port>
			</output>
		</layer>
		<layer name="bottleneck3_0/skip/conv" type="Convolution" precision="FP32" id="98">
			<data dilations="1,1" group="1" kernel="1,1" output="128" pads_begin="0,0" pads_end="0,0" quantization_level="I8" strides="1,1" />
			<input>
				<port id="0">
					<dim>1</dim>
					<dim>64</dim>
					<dim>20</dim>
					<dim>8</dim>
				</port>
			</input>
			<output>
				<port id="1">
					<dim>1</dim>
					<dim>128</dim>
					<dim>20</dim>
					<dim>8</dim>
				</port>
			</output>
			<blobs>
				<biases offset="102488" size="512" />
				<weights offset="103000" size="32768" />
			</blobs>
		</layer>
		<layer name="bottleneck3_0/dim_red/conv" type="Convolution" precision="FP32" id="99">
			<data dilations="1,1" group="1" kernel="1,1" output="32" pads_begin="0,0" pads_end="0,0" quantization_level="I8" strides="1,1" />
			<input>
				<port id="0">
					<dim>1</dim>
					<dim>64</dim>
					<dim>40</dim>
					<dim>16</dim>
				</port>
			</input>
			<output>
				<port id="1">
					<dim>1</dim>
					<dim>32</dim>
					<dim>40</dim>
					<dim>16</dim>
				</port>
			</output>
			<blobs>
				<biases offset="135768" size="128" />
				<weights offset="135896" size="8192" />
			</blobs>
		</layer>
		<layer name="bottleneck3_0/dim_red/fn" type="elu" precision="FP32" id="100">
			<data alpha="1.0" />
			<input>
				<port id="0">
					<dim>1</dim>
					<dim>32</dim>
					<dim>40</dim>
					<dim>16</dim>
				</port>
			</input>
			<output>
				<port id="1">
					<dim>1</dim>
					<dim>32</dim>
					<dim>40</dim>
					<dim>16</dim>
				</port>
			</output>
		</layer>
		<layer name="bottleneck3_0/inner/dw1/conv" type="Convolution" precision="FP32" id="101">
			<data dilations="1,1" group="32" kernel="3,3" output="32" pads_begin="1,1" pads_end="1,1" quantization_level="I8" strides="2,2" />
			<input>
				<port id="0">
					<dim>1</dim>
					<dim>32</dim>
					<dim>40</dim>
					<dim>16</dim>
				</port>
			</input>
			<output>
				<port id="1">
					<dim>1</dim>
					<dim>32</dim>
					<dim>20</dim>
					<dim>8</dim>
				</port>
			</output>
			<blobs>
				<biases offset="144088" size="128" />
				<weights offset="144216" size="1152" />
			</blobs>
		</layer>
		<layer name="bottleneck3_0/inner/dw1/fn" type="elu" precision="FP32" id="102">
			<data alpha="1.0" />
			<input>
				<port id="0">
					<dim>1</dim>
					<dim>32</dim>
					<dim>20</dim>
					<dim>8</dim>
				</port>
			</input>
			<output>
				<port id="1">
					<dim>1</dim>
					<dim>32</dim>
					<dim>20</dim>
					<dim>8</dim>
				</port>
			</output>
		</layer>
		<layer name="bottleneck3_0/dim_inc/conv" type="Convolution" precision="FP32" id="103">
			<data dilations="1,1" group="1" kernel="1,1" output="128" pads_begin="0,0" pads_end="0,0" quantization_level="I8" strides="1,1" />
			<input>
				<port id="0">
					<dim>1</dim>
					<dim>32</dim>
					<dim>20</dim>
					<dim>8</dim>
				</port>
			</input>
			<output>
				<port id="1">
					<dim>1</dim>
					<dim>128</dim>
					<dim>20</dim>
					<dim>8</dim>
				</port>
			</output>
			<blobs>
				<biases offset="145368" size="512" />
				<weights offset="145880" size="16384" />
			</blobs>
		</layer>
		<layer name="bottleneck3_0/add" type="Eltwise" precision="FP32" id="104">
			<data operation="sum" />
			<input>
				<port id="0">
					<dim>1</dim>
					<dim>128</dim>
					<dim>20</dim>
					<dim>8</dim>
				</port>
				<port id="1">
					<dim>1</dim>
					<dim>128</dim>
					<dim>20</dim>
					<dim>8</dim>
				</port>
			</input>
			<output>
				<port id="2">
					<dim>1</dim>
					<dim>128</dim>
					<dim>20</dim>
					<dim>8</dim>
				</port>
			</output>
		</layer>
		<layer name="bottleneck3_0/fn" type="elu" precision="FP32" id="105">
			<data alpha="1.0" />
			<input>
				<port id="0">
					<dim>1</dim>
					<dim>128</dim>
					<dim>20</dim>
					<dim>8</dim>
				</port>
			</input>
			<output>
				<port id="1">
					<dim>1</dim>
					<dim>128</dim>
					<dim>20</dim>
					<dim>8</dim>
				</port>
			</output>
		</layer>
		<layer name="bottleneck3_1/dim_red/conv" type="Convolution" precision="FP32" id="106">
			<data dilations="1,1" group="1" kernel="1,1" output="32" pads_begin="0,0" pads_end="0,0" quantization_level="I8" strides="1,1" />
			<input>
				<port id="0">
					<dim>1</dim>
					<dim>128</dim>
					<dim>20</dim>
					<dim>8</dim>
				</port>
			</input>
			<output>
				<port id="1">
					<dim>1</dim>
					<dim>32</dim>
					<dim>20</dim>
					<dim>8</dim>
				</port>
			</output>
			<blobs>
				<biases offset="162264" size="128" />
				<weights offset="162392" size="16384" />
			</blobs>
		</layer>
		<layer name="bottleneck3_1/dim_red/fn" type="elu" precision="FP32" id="107">
			<data alpha="1.0" />
			<input>
				<port id="0">
					<dim>1</dim>
					<dim>32</dim>
					<dim>20</dim>
					<dim>8</dim>
				</port>
			</input>
			<output>
				<port id="1">
					<dim>1</dim>
					<dim>32</dim>
					<dim>20</dim>
					<dim>8</dim>
				</port>
			</output>
		</layer>
		<layer name="bottleneck3_1/inner/dw1/conv" type="Convolution" precision="FP32" id="108">
			<data dilations="1,1" group="32" kernel="3,3" output="32" pads_begin="1,1" pads_end="1,1" quantization_level="I8" strides="1,1" />
			<input>
				<port id="0">
					<dim>1</dim>
					<dim>32</dim>
					<dim>20</dim>
					<dim>8</dim>
				</port>
			</input>
			<output>
				<port id="1">
					<dim>1</dim>
					<dim>32</dim>
					<dim>20</dim>
					<dim>8</dim>
				</port>
			</output>
			<blobs>
				<biases offset="178776" size="128" />
				<weights offset="178904" size="1152" />
			</blobs>
		</layer>
		<layer name="bottleneck3_1/inner/dw1/fn" type="elu" precision="FP32" id="109">
			<data alpha="1.0" />
			<input>
				<port id="0">
					<dim>1</dim>
					<dim>32</dim>
					<dim>20</dim>
					<dim>8</dim>
				</port>
			</input>
			<output>
				<port id="1">
					<dim>1</dim>
					<dim>32</dim>
					<dim>20</dim>
					<dim>8</dim>
				</port>
			</output>
		</layer>
		<layer name="bottleneck3_1/dim_inc/conv" type="Convolution" precision="FP32" id="110">
			<data dilations="1,1" group="1" kernel="1,1" output="128" pads_begin="0,0" pads_end="0,0" quantization_level="I8" strides="1,1" />
			<input>
				<port id="0">
					<dim>1</dim>
					<dim>32</dim>
					<dim>20</dim>
					<dim>8</dim>
				</port>
			</input>
			<output>
				<port id="1">
					<dim>1</dim>
					<dim>128</dim>
					<dim>20</dim>
					<dim>8</dim>
				</port>
			</output>
			<blobs>
				<biases offset="180056" size="512" />
				<weights offset="180568" size="16384" />
			</blobs>
		</layer>
		<layer name="bottleneck3_1/add" type="Eltwise" precision="FP32" id="111">
			<data operation="sum" />
			<input>
				<port id="0">
					<dim>1</dim>
					<dim>128</dim>
					<dim>20</dim>
					<dim>8</dim>
				</port>
				<port id="1">
					<dim>1</dim>
					<dim>128</dim>
					<dim>20</dim>
					<dim>8</dim>
				</port>
			</input>
			<output>
				<port id="2">
					<dim>1</dim>
					<dim>128</dim>
					<dim>20</dim>
					<dim>8</dim>
				</port>
			</output>
		</layer>
		<layer name="bottleneck3_1/fn" type="elu" precision="FP32" id="112">
			<data alpha="1.0" />
			<input>
				<port id="0">
					<dim>1</dim>
					<dim>128</dim>
					<dim>20</dim>
					<dim>8</dim>
				</port>
			</input>
			<output>
				<port id="1">
					<dim>1</dim>
					<dim>128</dim>
					<dim>20</dim>
					<dim>8</dim>
				</port>
			</output>
		</layer>
		<layer name="bottleneck3_2/dim_red/conv" type="Convolution" precision="FP32" id="113">
			<data dilations="1,1" group="1" kernel="1,1" output="32" pads_begin="0,0" pads_end="0,0" quantization_level="I8" strides="1,1" />
			<input>
				<port id="0">
					<dim>1</dim>
					<dim>128</dim>
					<dim>20</dim>
					<dim>8</dim>
				</port>
			</input>
			<output>
				<port id="1">
					<dim>1</dim>
					<dim>32</dim>
					<dim>20</dim>
					<dim>8</dim>
				</port>
			</output>
			<blobs>
				<biases offset="196952" size="128" />
				<weights offset="197080" size="16384" />
			</blobs>
		</layer>
		<layer name="bottleneck3_2/dim_red/fn" type="elu" precision="FP32" id="114">
			<data alpha="1.0" />
			<input>
				<port id="0">
					<dim>1</dim>
					<dim>32</dim>
					<dim>20</dim>
					<dim>8</dim>
				</port>
			</input>
			<output>
				<port id="1">
					<dim>1</dim>
					<dim>32</dim>
					<dim>20</dim>
					<dim>8</dim>
				</port>
			</output>
		</layer>
		<layer name="bottleneck3_2/inner/dw1/conv" type="Convolution" precision="FP32" id="115">
			<data dilations="1,1" group="32" kernel="3,3" output="32" pads_begin="1,1" pads_end="1,1" quantization_level="I8" strides="1,1" />
			<input>
				<port id="0">
					<dim>1</dim>
					<dim>32</dim>
					<dim>20</dim>
					<dim>8</dim>
				</port>
			</input>
			<output>
				<port id="1">
					<dim>1</dim>
					<dim>32</dim>
					<dim>20</dim>
					<dim>8</dim>
				</port>
			</output>
			<blobs>
				<biases offset="213464" size="128" />
				<weights offset="213592" size="1152" />
			</blobs>
		</layer>
		<layer name="bottleneck3_2/inner/dw1/fn" type="elu" precision="FP32" id="116">
			<data alpha="1.0" />
			<input>
				<port id="0">
					<dim>1</dim>
					<dim>32</dim>
					<dim>20</dim>
					<dim>8</dim>
				</port>
			</input>
			<output>
				<port id="1">
					<dim>1</dim>
					<dim>32</dim>
					<dim>20</dim>
					<dim>8</dim>
				</port>
			</output>
		</layer>
		<layer name="bottleneck3_2/dim_inc/conv" type="Convolution" precision="FP32" id="117">
			<data dilations="1,1" group="1" kernel="1,1" output="128" pads_begin="0,0" pads_end="0,0" quantization_level="I8" strides="1,1" />
			<input>
				<port id="0">
					<dim>1</dim>
					<dim>32</dim>
					<dim>20</dim>
					<dim>8</dim>
				</port>
			</input>
			<output>
				<port id="1">
					<dim>1</dim>
					<dim>128</dim>
					<dim>20</dim>
					<dim>8</dim>
				</port>
			</output>
			<blobs>
				<biases offset="214744" size="512" />
				<weights offset="215256" size="16384" />
			</blobs>
		</layer>
		<layer name="bottleneck3_2/add" type="Eltwise" precision="FP32" id="118">
			<data operation="sum" />
			<input>
				<port id="0">
					<dim>1</dim>
					<dim>128</dim>
					<dim>20</dim>
					<dim>8</dim>
				</port>
				<port id="1">
					<dim>1</dim>
					<dim>128</dim>
					<dim>20</dim>
					<dim>8</dim>
				</port>
			</input>
			<output>
				<port id="2">
					<dim>1</dim>
					<dim>128</dim>
					<dim>20</dim>
					<dim>8</dim>
				</port>
			</output>
		</layer>
		<layer name="bottleneck3_2/fn" type="elu" precision="FP32" id="119">
			<data alpha="1.0" />
			<input>
				<port id="0">
					<dim>1</dim>
					<dim>128</dim>
					<dim>20</dim>
					<dim>8</dim>
				</port>
			</input>
			<output>
				<port id="1">
					<dim>1</dim>
					<dim>128</dim>
					<dim>20</dim>
					<dim>8</dim>
				</port>
			</output>
		</layer>
		<layer name="bottleneck3_3/dim_red/conv" type="Convolution" precision="FP32" id="120">
			<data dilations="1,1" group="1" kernel="1,1" output="32" pads_begin="0,0" pads_end="0,0" quantization_level="I8" strides="1,1" />
			<input>
				<port id="0">
					<dim>1</dim>
					<dim>128</dim>
					<dim>20</dim>
					<dim>8</dim>
				</port>
			</input>
			<output>
				<port id="1">
					<dim>1</dim>
					<dim>32</dim>
					<dim>20</dim>
					<dim>8</dim>
				</port>
			</output>
			<blobs>
				<biases offset="231640" size="128" />
				<weights offset="231768" size="16384" />
			</blobs>
		</layer>
		<layer name="bottleneck3_3/dim_red/fn" type="elu" precision="FP32" id="121">
			<data alpha="1.0" />
			<input>
				<port id="0">
					<dim>1</dim>
					<dim>32</dim>
					<dim>20</dim>
					<dim>8</dim>
				</port>
			</input>
			<output>
				<port id="1">
					<dim>1</dim>
					<dim>32</dim>
					<dim>20</dim>
					<dim>8</dim>
				</port>
			</output>
		</layer>
		<layer name="bottleneck3_3/inner/dw1/conv" type="Convolution" precision="FP32" id="122">
			<data dilations="1,1" group="32" kernel="3,3" output="32" pads_begin="1,1" pads_end="1,1" quantization_level="I8" strides="1,1" />
			<input>
				<port id="0">
					<dim>1</dim>
					<dim>32</dim>
					<dim>20</dim>
					<dim>8</dim>
				</port>
			</input>
			<output>
				<port id="1">
					<dim>1</dim>
					<dim>32</dim>
					<dim>20</dim>
					<dim>8</dim>
				</port>
			</output>
			<blobs>
				<biases offset="248152" size="128" />
				<weights offset="248280" size="1152" />
			</blobs>
		</layer>
		<layer name="bottleneck3_3/inner/dw1/fn" type="elu" precision="FP32" id="123">
			<data alpha="1.0" />
			<input>
				<port id="0">
					<dim>1</dim>
					<dim>32</dim>
					<dim>20</dim>
					<dim>8</dim>
				</port>
			</input>
			<output>
				<port id="1">
					<dim>1</dim>
					<dim>32</dim>
					<dim>20</dim>
					<dim>8</dim>
				</port>
			</output>
		</layer>
		<layer name="bottleneck3_3/dim_inc/conv" type="Convolution" precision="FP32" id="124">
			<data dilations="1,1" group="1" kernel="1,1" output="128" pads_begin="0,0" pads_end="0,0" quantization_level="I8" strides="1,1" />
			<input>
				<port id="0">
					<dim>1</dim>
					<dim>32</dim>
					<dim>20</dim>
					<dim>8</dim>
				</port>
			</input>
			<output>
				<port id="1">
					<dim>1</dim>
					<dim>128</dim>
					<dim>20</dim>
					<dim>8</dim>
				</port>
			</output>
			<blobs>
				<biases offset="249432" size="512" />
				<weights offset="249944" size="16384" />
			</blobs>
		</layer>
		<layer name="bottleneck3_3/add" type="Eltwise" precision="FP32" id="125">
			<data operation="sum" />
			<input>
				<port id="0">
					<dim>1</dim>
					<dim>128</dim>
					<dim>20</dim>
					<dim>8</dim>
				</port>
				<port id="1">
					<dim>1</dim>
					<dim>128</dim>
					<dim>20</dim>
					<dim>8</dim>
				</port>
			</input>
			<output>
				<port id="2">
					<dim>1</dim>
					<dim>128</dim>
					<dim>20</dim>
					<dim>8</dim>
				</port>
			</output>
		</layer>
		<layer name="bottleneck3_3/fn" type="elu" precision="FP32" id="126">
			<data alpha="1.0" />
			<input>
				<port id="0">
					<dim>1</dim>
					<dim>128</dim>
					<dim>20</dim>
					<dim>8</dim>
				</port>
			</input>
			<output>
				<port id="1">
					<dim>1</dim>
					<dim>128</dim>
					<dim>20</dim>
					<dim>8</dim>
				</port>
			</output>
		</layer>
		<layer name="bottleneck3_4/dim_red/conv" type="Convolution" precision="FP32" id="127">
			<data dilations="1,1" group="1" kernel="1,1" output="32" pads_begin="0,0" pads_end="0,0" quantization_level="I8" strides="1,1" />
			<input>
				<port id="0">
					<dim>1</dim>
					<dim>128</dim>
					<dim>20</dim>
					<dim>8</dim>
				</port>
			</input>
			<output>
				<port id="1">
					<dim>1</dim>
					<dim>32</dim>
					<dim>20</dim>
					<dim>8</dim>
				</port>
			</output>
			<blobs>
				<biases offset="266328" size="128" />
				<weights offset="266456" size="16384" />
			</blobs>
		</layer>
		<layer name="bottleneck3_4/dim_red/fn" type="elu" precision="FP32" id="128">
			<data alpha="1.0" />
			<input>
				<port id="0">
					<dim>1</dim>
					<dim>32</dim>
					<dim>20</dim>
					<dim>8</dim>
				</port>
			</input>
			<output>
				<port id="1">
					<dim>1</dim>
					<dim>32</dim>
					<dim>20</dim>
					<dim>8</dim>
				</port>
			</output>
		</layer>
		<layer name="bottleneck3_4/inner/dw1/conv" type="Convolution" precision="FP32" id="129">
			<data dilations="1,1" group="32" kernel="3,3" output="32" pads_begin="1,1" pads_end="1,1" quantization_level="I8" strides="1,1" />
			<input>
				<port id="0">
					<dim>1</dim>
					<dim>32</dim>
					<dim>20</dim>
					<dim>8</dim>
				</port>
			</input>
			<output>
				<port id="1">
					<dim>1</dim>
					<dim>32</dim>
					<dim>20</dim>
					<dim>8</dim>
				</port>
			</output>
			<blobs>
				<biases offset="282840" size="128" />
				<weights offset="282968" size="1152" />
			</blobs>
		</layer>
		<layer name="bottleneck3_4/inner/dw1/fn" type="elu" precision="FP32" id="130">
			<data alpha="1.0" />
			<input>
				<port id="0">
					<dim>1</dim>
					<dim>32</dim>
					<dim>20</dim>
					<dim>8</dim>
				</port>
			</input>
			<output>
				<port id="1">
					<dim>1</dim>
					<dim>32</dim>
					<dim>20</dim>
					<dim>8</dim>
				</port>
			</output>
		</layer>
		<layer name="bottleneck3_4/dim_inc/conv" type="Convolution" precision="FP32" id="131">
			<data dilations="1,1" group="1" kernel="1,1" output="128" pads_begin="0,0" pads_end="0,0" quantization_level="I8" strides="1,1" />
			<input>
				<port id="0">
					<dim>1</dim>
					<dim>32</dim>
					<dim>20</dim>
					<dim>8</dim>
				</port>
			</input>
			<output>
				<port id="1">
					<dim>1</dim>
					<dim>128</dim>
					<dim>20</dim>
					<dim>8</dim>
				</port>
			</output>
			<blobs>
				<biases offset="284120" size="512" />
				<weights offset="284632" size="16384" />
			</blobs>
		</layer>
		<layer name="bottleneck3_4/add" type="Eltwise" precision="FP32" id="132">
			<data operation="sum" />
			<input>
				<port id="0">
					<dim>1</dim>
					<dim>128</dim>
					<dim>20</dim>
					<dim>8</dim>
				</port>
				<port id="1">
					<dim>1</dim>
					<dim>128</dim>
					<dim>20</dim>
					<dim>8</dim>
				</port>
			</input>
			<output>
				<port id="2">
					<dim>1</dim>
					<dim>128</dim>
					<dim>20</dim>
					<dim>8</dim>
				</port>
			</output>
		</layer>
		<layer name="bottleneck3_4/fn" type="elu" precision="FP32" id="133">
			<data alpha="1.0" />
			<input>
				<port id="0">
					<dim>1</dim>
					<dim>128</dim>
					<dim>20</dim>
					<dim>8</dim>
				</port>
			</input>
			<output>
				<port id="1">
					<dim>1</dim>
					<dim>128</dim>
					<dim>20</dim>
					<dim>8</dim>
				</port>
			</output>
		</layer>
		<layer name="bottleneck3_5/dim_red/conv" type="Convolution" precision="FP32" id="134">
			<data dilations="1,1" group="1" kernel="1,1" output="32" pads_begin="0,0" pads_end="0,0" quantization_level="I8" strides="1,1" />
			<input>
				<port id="0">
					<dim>1</dim>
					<dim>128</dim>
					<dim>20</dim>
					<dim>8</dim>
				</port>
			</input>
			<output>
				<port id="1">
					<dim>1</dim>
					<dim>32</dim>
					<dim>20</dim>
					<dim>8</dim>
				</port>
			</output>
			<blobs>
				<biases offset="301016" size="128" />
				<weights offset="301144" size="16384" />
			</blobs>
		</layer>
		<layer name="bottleneck3_5/dim_red/fn" type="elu" precision="FP32" id="135">
			<data alpha="1.0" />
			<input>
				<port id="0">
					<dim>1</dim>
					<dim>32</dim>
					<dim>20</dim>
					<dim>8</dim>
				</port>
			</input>
			<output>
				<port id="1">
					<dim>1</dim>
					<dim>32</dim>
					<dim>20</dim>
					<dim>8</dim>
				</port>
			</output>
		</layer>
		<layer name="bottleneck3_5/inner/dw1/conv" type="Convolution" precision="FP32" id="136">
			<data dilations="1,1" group="32" kernel="3,3" output="32" pads_begin="1,1" pads_end="1,1" quantization_level="I8" strides="1,1" />
			<input>
				<port id="0">
					<dim>1</dim>
					<dim>32</dim>
					<dim>20</dim>
					<dim>8</dim>
				</port>
			</input>
			<output>
				<port id="1">
					<dim>1</dim>
					<dim>32</dim>
					<dim>20</dim>
					<dim>8</dim>
				</port>
			</output>
			<blobs>
				<biases offset="317528" size="128" />
				<weights offset="317656" size="1152" />
			</blobs>
		</layer>
		<layer name="bottleneck3_5/inner/dw1/fn" type="elu" precision="FP32" id="137">
			<data alpha="1.0" />
			<input>
				<port id="0">
					<dim>1</dim>
					<dim>32</dim>
					<dim>20</dim>
					<dim>8</dim>
				</port>
			</input>
			<output>
				<port id="1">
					<dim>1</dim>
					<dim>32</dim>
					<dim>20</dim>
					<dim>8</dim>
				</port>
			</output>
		</layer>
		<layer name="bottleneck3_5/dim_inc/conv" type="Convolution" precision="FP32" id="138">
			<data dilations="1,1" group="1" kernel="1,1" output="128" pads_begin="0,0" pads_end="0,0" quantization_level="I8" strides="1,1" />
			<input>
				<port id="0">
					<dim>1</dim>
					<dim>32</dim>
					<dim>20</dim>
					<dim>8</dim>
				</port>
			</input>
			<output>
				<port id="1">
					<dim>1</dim>
					<dim>128</dim>
					<dim>20</dim>
					<dim>8</dim>
				</port>
			</output>
			<blobs>
				<biases offset="318808" size="512" />
				<weights offset="319320" size="16384" />
			</blobs>
		</layer>
		<layer name="bottleneck3_5/add" type="Eltwise" precision="FP32" id="139">
			<data operation="sum" />
			<input>
				<port id="0">
					<dim>1</dim>
					<dim>128</dim>
					<dim>20</dim>
					<dim>8</dim>
				</port>
				<port id="1">
					<dim>1</dim>
					<dim>128</dim>
					<dim>20</dim>
					<dim>8</dim>
				</port>
			</input>
			<output>
				<port id="2">
					<dim>1</dim>
					<dim>128</dim>
					<dim>20</dim>
					<dim>8</dim>
				</port>
			</output>
		</layer>
		<layer name="bottleneck3_5/fn" type="elu" precision="FP32" id="140">
			<data alpha="1.0" />
			<input>
				<port id="0">
					<dim>1</dim>
					<dim>128</dim>
					<dim>20</dim>
					<dim>8</dim>
				</port>
			</input>
			<output>
				<port id="1">
					<dim>1</dim>
					<dim>128</dim>
					<dim>20</dim>
					<dim>8</dim>
				</port>
			</output>
		</layer>
		<layer name="bottleneck3_6/dim_red/conv" type="Convolution" precision="FP32" id="141">
			<data dilations="1,1" group="1" kernel="1,1" output="32" pads_begin="0,0" pads_end="0,0" quantization_level="I8" strides="1,1" />
			<input>
				<port id="0">
					<dim>1</dim>
					<dim>128</dim>
					<dim>20</dim>
					<dim>8</dim>
				</port>
			</input>
			<output>
				<port id="1">
					<dim>1</dim>
					<dim>32</dim>
					<dim>20</dim>
					<dim>8</dim>
				</port>
			</output>
			<blobs>
				<biases offset="335704" size="128" />
				<weights offset="335832" size="16384" />
			</blobs>
		</layer>
		<layer name="bottleneck3_6/dim_red/fn" type="elu" precision="FP32" id="142">
			<data alpha="1.0" />
			<input>
				<port id="0">
					<dim>1</dim>
					<dim>32</dim>
					<dim>20</dim>
					<dim>8</dim>
				</port>
			</input>
			<output>
				<port id="1">
					<dim>1</dim>
					<dim>32</dim>
					<dim>20</dim>
					<dim>8</dim>
				</port>
			</output>
		</layer>
		<layer name="bottleneck3_6/inner/dw1/conv" type="Convolution" precision="FP32" id="143">
			<data dilations="1,1" group="32" kernel="3,3" output="32" pads_begin="1,1" pads_end="1,1" quantization_level="I8" strides="1,1" />
			<input>
				<port id="0">
					<dim>1</dim>
					<dim>32</dim>
					<dim>20</dim>
					<dim>8</dim>
				</port>
			</input>
			<output>
				<port id="1">
					<dim>1</dim>
					<dim>32</dim>
					<dim>20</dim>
					<dim>8</dim>
				</port>
			</output>
			<blobs>
				<biases offset="352216" size="128" />
				<weights offset="352344" size="1152" />
			</blobs>
		</layer>
		<layer name="bottleneck3_6/inner/dw1/fn" type="elu" precision="FP32" id="144">
			<data alpha="1.0" />
			<input>
				<port id="0">
					<dim>1</dim>
					<dim>32</dim>
					<dim>20</dim>
					<dim>8</dim>
				</port>
			</input>
			<output>
				<port id="1">
					<dim>1</dim>
					<dim>32</dim>
					<dim>20</dim>
					<dim>8</dim>
				</port>
			</output>
		</layer>
		<layer name="bottleneck3_6/dim_inc/conv" type="Convolution" precision="FP32" id="145">
			<data dilations="1,1" group="1" kernel="1,1" output="128" pads_begin="0,0" pads_end="0,0" quantization_level="I8" strides="1,1" />
			<input>
				<port id="0">
					<dim>1</dim>
					<dim>32</dim>
					<dim>20</dim>
					<dim>8</dim>
				</port>
			</input>
			<output>
				<port id="1">
					<dim>1</dim>
					<dim>128</dim>
					<dim>20</dim>
					<dim>8</dim>
				</port>
			</output>
			<blobs>
				<biases offset="353496" size="512" />
				<weights offset="354008" size="16384" />
			</blobs>
		</layer>
		<layer name="bottleneck3_6/add" type="Eltwise" precision="FP32" id="146">
			<data operation="sum" />
			<input>
				<port id="0">
					<dim>1</dim>
					<dim>128</dim>
					<dim>20</dim>
					<dim>8</dim>
				</port>
				<port id="1">
					<dim>1</dim>
					<dim>128</dim>
					<dim>20</dim>
					<dim>8</dim>
				</port>
			</input>
			<output>
				<port id="2">
					<dim>1</dim>
					<dim>128</dim>
					<dim>20</dim>
					<dim>8</dim>
				</port>
			</output>
		</layer>
		<layer name="bottleneck3_6/fn" type="elu" precision="FP32" id="147">
			<data alpha="1.0" />
			<input>
				<port id="0">
					<dim>1</dim>
					<dim>128</dim>
					<dim>20</dim>
					<dim>8</dim>
				</port>
			</input>
			<output>
				<port id="1">
					<dim>1</dim>
					<dim>128</dim>
					<dim>20</dim>
					<dim>8</dim>
				</port>
			</output>
		</layer>
		<layer name="bottleneck3_7/dim_red/conv" type="Convolution" precision="FP32" id="148">
			<data dilations="1,1" group="1" kernel="1,1" output="32" pads_begin="0,0" pads_end="0,0" quantization_level="I8" strides="1,1" />
			<input>
				<port id="0">
					<dim>1</dim>
					<dim>128</dim>
					<dim>20</dim>
					<dim>8</dim>
				</port>
			</input>
			<output>
				<port id="1">
					<dim>1</dim>
					<dim>32</dim>
					<dim>20</dim>
					<dim>8</dim>
				</port>
			</output>
			<blobs>
				<biases offset="370392" size="128" />
				<weights offset="370520" size="16384" />
			</blobs>
		</layer>
		<layer name="bottleneck3_7/dim_red/fn" type="elu" precision="FP32" id="149">
			<data alpha="1.0" />
			<input>
				<port id="0">
					<dim>1</dim>
					<dim>32</dim>
					<dim>20</dim>
					<dim>8</dim>
				</port>
			</input>
			<output>
				<port id="1">
					<dim>1</dim>
					<dim>32</dim>
					<dim>20</dim>
					<dim>8</dim>
				</port>
			</output>
		</layer>
		<layer name="bottleneck3_7/inner/dw1/conv" type="Convolution" precision="FP32" id="150">
			<data dilations="1,1" group="32" kernel="3,3" output="32" pads_begin="1,1" pads_end="1,1" quantization_level="I8" strides="1,1" />
			<input>
				<port id="0">
					<dim>1</dim>
					<dim>32</dim>
					<dim>20</dim>
					<dim>8</dim>
				</port>
			</input>
			<output>
				<port id="1">
					<dim>1</dim>
					<dim>32</dim>
					<dim>20</dim>
					<dim>8</dim>
				</port>
			</output>
			<blobs>
				<biases offset="386904" size="128" />
				<weights offset="387032" size="1152" />
			</blobs>
		</layer>
		<layer name="bottleneck3_7/inner/dw1/fn" type="elu" precision="FP32" id="151">
			<data alpha="1.0" />
			<input>
				<port id="0">
					<dim>1</dim>
					<dim>32</dim>
					<dim>20</dim>
					<dim>8</dim>
				</port>
			</input>
			<output>
				<port id="1">
					<dim>1</dim>
					<dim>32</dim>
					<dim>20</dim>
					<dim>8</dim>
				</port>
			</output>
		</layer>
		<layer name="bottleneck3_7/dim_inc/conv" type="Convolution" precision="FP32" id="152">
			<data dilations="1,1" group="1" kernel="1,1" output="128" pads_begin="0,0" pads_end="0,0" quantization_level="I8" strides="1,1" />
			<input>
				<port id="0">
					<dim>1</dim>
					<dim>32</dim>
					<dim>20</dim>
					<dim>8</dim>
				</port>
			</input>
			<output>
				<port id="1">
					<dim>1</dim>
					<dim>128</dim>
					<dim>20</dim>
					<dim>8</dim>
				</port>
			</output>
			<blobs>
				<biases offset="388184" size="512" />
				<weights offset="388696" size="16384" />
			</blobs>
		</layer>
		<layer name="bottleneck3_7/add" type="Eltwise" precision="FP32" id="153">
			<data operation="sum" />
			<input>
				<port id="0">
					<dim>1</dim>
					<dim>128</dim>
					<dim>20</dim>
					<dim>8</dim>
				</port>
				<port id="1">
					<dim>1</dim>
					<dim>128</dim>
					<dim>20</dim>
					<dim>8</dim>
				</port>
			</input>
			<output>
				<port id="2">
					<dim>1</dim>
					<dim>128</dim>
					<dim>20</dim>
					<dim>8</dim>
				</port>
			</output>
		</layer>
		<layer name="bottleneck3_7/fn" type="elu" precision="FP32" id="154">
			<data alpha="1.0" />
			<input>
				<port id="0">
					<dim>1</dim>
					<dim>128</dim>
					<dim>20</dim>
					<dim>8</dim>
				</port>
			</input>
			<output>
				<port id="1">
					<dim>1</dim>
					<dim>128</dim>
					<dim>20</dim>
					<dim>8</dim>
				</port>
			</output>
		</layer>
		<layer name="bottleneck3_8/dim_red/conv" type="Convolution" precision="FP32" id="155">
			<data dilations="1,1" group="1" kernel="1,1" output="32" pads_begin="0,0" pads_end="0,0" quantization_level="I8" strides="1,1" />
			<input>
				<port id="0">
					<dim>1</dim>
					<dim>128</dim>
					<dim>20</dim>
					<dim>8</dim>
				</port>
			</input>
			<output>
				<port id="1">
					<dim>1</dim>
					<dim>32</dim>
					<dim>20</dim>
					<dim>8</dim>
				</port>
			</output>
			<blobs>
				<biases offset="405080" size="128" />
				<weights offset="405208" size="16384" />
			</blobs>
		</layer>
		<layer name="bottleneck3_8/dim_red/fn" type="elu" precision="FP32" id="156">
			<data alpha="1.0" />
			<input>
				<port id="0">
					<dim>1</dim>
					<dim>32</dim>
					<dim>20</dim>
					<dim>8</dim>
				</port>
			</input>
			<output>
				<port id="1">
					<dim>1</dim>
					<dim>32</dim>
					<dim>20</dim>
					<dim>8</dim>
				</port>
			</output>
		</layer>
		<layer name="bottleneck3_8/inner/dw1/conv" type="Convolution" precision="FP32" id="157">
			<data dilations="1,1" group="32" kernel="3,3" output="32" pads_begin="1,1" pads_end="1,1" quantization_level="I8" strides="1,1" />
			<input>
				<port id="0">
					<dim>1</dim>
					<dim>32</dim>
					<dim>20</dim>
					<dim>8</dim>
				</port>
			</input>
			<output>
				<port id="1">
					<dim>1</dim>
					<dim>32</dim>
					<dim>20</dim>
					<dim>8</dim>
				</port>
			</output>
			<blobs>
				<biases offset="421592" size="128" />
				<weights offset="421720" size="1152" />
			</blobs>
		</layer>
		<layer name="bottleneck3_8/inner/dw1/fn" type="elu" precision="FP32" id="158">
			<data alpha="1.0" />
			<input>
				<port id="0">
					<dim>1</dim>
					<dim>32</dim>
					<dim>20</dim>
					<dim>8</dim>
				</port>
			</input>
			<output>
				<port id="1">
					<dim>1</dim>
					<dim>32</dim>
					<dim>20</dim>
					<dim>8</dim>
				</port>
			</output>
		</layer>
		<layer name="bottleneck3_8/dim_inc/conv" type="Convolution" precision="FP32" id="159">
			<data dilations="1,1" group="1" kernel="1,1" output="128" pads_begin="0,0" pads_end="0,0" quantization_level="I8" strides="1,1" />
			<input>
				<port id="0">
					<dim>1</dim>
					<dim>32</dim>
					<dim>20</dim>
					<dim>8</dim>
				</port>
			</input>
			<output>
				<port id="1">
					<dim>1</dim>
					<dim>128</dim>
					<dim>20</dim>
					<dim>8</dim>
				</port>
			</output>
			<blobs>
				<biases offset="422872" size="512" />
				<weights offset="423384" size="16384" />
			</blobs>
		</layer>
		<layer name="bottleneck3_8/add" type="Eltwise" precision="FP32" id="160">
			<data operation="sum" />
			<input>
				<port id="0">
					<dim>1</dim>
					<dim>128</dim>
					<dim>20</dim>
					<dim>8</dim>
				</port>
				<port id="1">
					<dim>1</dim>
					<dim>128</dim>
					<dim>20</dim>
					<dim>8</dim>
				</port>
			</input>
			<output>
				<port id="2">
					<dim>1</dim>
					<dim>128</dim>
					<dim>20</dim>
					<dim>8</dim>
				</port>
			</output>
		</layer>
		<layer name="bottleneck3_8/fn" type="elu" precision="FP32" id="161">
			<data alpha="1.0" />
			<input>
				<port id="0">
					<dim>1</dim>
					<dim>128</dim>
					<dim>20</dim>
					<dim>8</dim>
				</port>
			</input>
			<output>
				<port id="1">
					<dim>1</dim>
					<dim>128</dim>
					<dim>20</dim>
					<dim>8</dim>
				</port>
			</output>
		</layer>
		<layer name="bottleneck3_9/dim_red/conv" type="Convolution" precision="FP32" id="162">
			<data dilations="1,1" group="1" kernel="1,1" output="32" pads_begin="0,0" pads_end="0,0" quantization_level="I8" strides="1,1" />
			<input>
				<port id="0">
					<dim>1</dim>
					<dim>128</dim>
					<dim>20</dim>
					<dim>8</dim>
				</port>
			</input>
			<output>
				<port id="1">
					<dim>1</dim>
					<dim>32</dim>
					<dim>20</dim>
					<dim>8</dim>
				</port>
			</output>
			<blobs>
				<biases offset="439768" size="128" />
				<weights offset="439896" size="16384" />
			</blobs>
		</layer>
		<layer name="bottleneck3_9/dim_red/fn" type="elu" precision="FP32" id="163">
			<data alpha="1.0" />
			<input>
				<port id="0">
					<dim>1</dim>
					<dim>32</dim>
					<dim>20</dim>
					<dim>8</dim>
				</port>
			</input>
			<output>
				<port id="1">
					<dim>1</dim>
					<dim>32</dim>
					<dim>20</dim>
					<dim>8</dim>
				</port>
			</output>
		</layer>
		<layer name="bottleneck3_9/inner/dw1/conv" type="Convolution" precision="FP32" id="164">
			<data dilations="1,1" group="32" kernel="3,3" output="32" pads_begin="1,1" pads_end="1,1" quantization_level="I8" strides="1,1" />
			<input>
				<port id="0">
					<dim>1</dim>
					<dim>32</dim>
					<dim>20</dim>
					<dim>8</dim>
				</port>
			</input>
			<output>
				<port id="1">
					<dim>1</dim>
					<dim>32</dim>
					<dim>20</dim>
					<dim>8</dim>
				</port>
			</output>
			<blobs>
				<biases offset="456280" size="128" />
				<weights offset="456408" size="1152" />
			</blobs>
		</layer>
		<layer name="bottleneck3_9/inner/dw1/fn" type="elu" precision="FP32" id="165">
			<data alpha="1.0" />
			<input>
				<port id="0">
					<dim>1</dim>
					<dim>32</dim>
					<dim>20</dim>
					<dim>8</dim>
				</port>
			</input>
			<output>
				<port id="1">
					<dim>1</dim>
					<dim>32</dim>
					<dim>20</dim>
					<dim>8</dim>
				</port>
			</output>
		</layer>
		<layer name="bottleneck3_9/dim_inc/conv" type="Convolution" precision="FP32" id="166">
			<data dilations="1,1" group="1" kernel="1,1" output="128" pads_begin="0,0" pads_end="0,0" quantization_level="I8" strides="1,1" />
			<input>
				<port id="0">
					<dim>1</dim>
					<dim>32</dim>
					<dim>20</dim>
					<dim>8</dim>
				</port>
			</input>
			<output>
				<port id="1">
					<dim>1</dim>
					<dim>128</dim>
					<dim>20</dim>
					<dim>8</dim>
				</port>
			</output>
			<blobs>
				<biases offset="457560" size="512" />
				<weights offset="458072" size="16384" />
			</blobs>
		</layer>
		<layer name="bottleneck3_9/add" type="Eltwise" precision="FP32" id="167">
			<data operation="sum" />
			<input>
				<port id="0">
					<dim>1</dim>
					<dim>128</dim>
					<dim>20</dim>
					<dim>8</dim>
				</port>
				<port id="1">
					<dim>1</dim>
					<dim>128</dim>
					<dim>20</dim>
					<dim>8</dim>
				</port>
			</input>
			<output>
				<port id="2">
					<dim>1</dim>
					<dim>128</dim>
					<dim>20</dim>
					<dim>8</dim>
				</port>
			</output>
		</layer>
		<layer name="bottleneck3_9/fn" type="elu" precision="FP32" id="168">
			<data alpha="1.0" />
			<input>
				<port id="0">
					<dim>1</dim>
					<dim>128</dim>
					<dim>20</dim>
					<dim>8</dim>
				</port>
			</input>
			<output>
				<port id="1">
					<dim>1</dim>
					<dim>128</dim>
					<dim>20</dim>
					<dim>8</dim>
				</port>
			</output>
		</layer>
		<layer name="bottleneck3_10/dim_red/conv" type="Convolution" precision="FP32" id="169">
			<data dilations="1,1" group="1" kernel="1,1" output="32" pads_begin="0,0" pads_end="0,0" quantization_level="I8" strides="1,1" />
			<input>
				<port id="0">
					<dim>1</dim>
					<dim>128</dim>
					<dim>20</dim>
					<dim>8</dim>
				</port>
			</input>
			<output>
				<port id="1">
					<dim>1</dim>
					<dim>32</dim>
					<dim>20</dim>
					<dim>8</dim>
				</port>
			</output>
			<blobs>
				<biases offset="474456" size="128" />
				<weights offset="474584" size="16384" />
			</blobs>
		</layer>
		<layer name="bottleneck3_10/dim_red/fn" type="elu" precision="FP32" id="170">
			<data alpha="1.0" />
			<input>
				<port id="0">
					<dim>1</dim>
					<dim>32</dim>
					<dim>20</dim>
					<dim>8</dim>
				</port>
			</input>
			<output>
				<port id="1">
					<dim>1</dim>
					<dim>32</dim>
					<dim>20</dim>
					<dim>8</dim>
				</port>
			</output>
		</layer>
		<layer name="bottleneck3_10/inner/dw1/conv" type="Convolution" precision="FP32" id="171">
			<data dilations="1,1" group="32" kernel="3,3" output="32" pads_begin="1,1" pads_end="1,1" quantization_level="I8" strides="1,1" />
			<input>
				<port id="0">
					<dim>1</dim>
					<dim>32</dim>
					<dim>20</dim>
					<dim>8</dim>
				</port>
			</input>
			<output>
				<port id="1">
					<dim>1</dim>
					<dim>32</dim>
					<dim>20</dim>
					<dim>8</dim>
				</port>
			</output>
			<blobs>
				<biases offset="490968" size="128" />
				<weights offset="491096" size="1152" />
			</blobs>
		</layer>
		<layer name="bottleneck3_10/inner/dw1/fn" type="elu" precision="FP32" id="172">
			<data alpha="1.0" />
			<input>
				<port id="0">
					<dim>1</dim>
					<dim>32</dim>
					<dim>20</dim>
					<dim>8</dim>
				</port>
			</input>
			<output>
				<port id="1">
					<dim>1</dim>
					<dim>32</dim>
					<dim>20</dim>
					<dim>8</dim>
				</port>
			</output>
		</layer>
		<layer name="bottleneck3_10/dim_inc/conv" type="Convolution" precision="FP32" id="173">
			<data dilations="1,1" group="1" kernel="1,1" output="128" pads_begin="0,0" pads_end="0,0" quantization_level="I8" strides="1,1" />
			<input>
				<port id="0">
					<dim>1</dim>
					<dim>32</dim>
					<dim>20</dim>
					<dim>8</dim>
				</port>
			</input>
			<output>
				<port id="1">
					<dim>1</dim>
					<dim>128</dim>
					<dim>20</dim>
					<dim>8</dim>
				</port>
			</output>
			<blobs>
				<biases offset="492248" size="512" />
				<weights offset="492760" size="16384" />
			</blobs>
		</layer>
		<layer name="bottleneck3_10/add" type="Eltwise" precision="FP32" id="174">
			<data operation="sum" />
			<input>
				<port id="0">
					<dim>1</dim>
					<dim>128</dim>
					<dim>20</dim>
					<dim>8</dim>
				</port>
				<port id="1">
					<dim>1</dim>
					<dim>128</dim>
					<dim>20</dim>
					<dim>8</dim>
				</port>
			</input>
			<output>
				<port id="2">
					<dim>1</dim>
					<dim>128</dim>
					<dim>20</dim>
					<dim>8</dim>
				</port>
			</output>
		</layer>
		<layer name="bottleneck3_10/fn" type="elu" precision="FP32" id="175">
			<data alpha="1.0" />
			<input>
				<port id="0">
					<dim>1</dim>
					<dim>128</dim>
					<dim>20</dim>
					<dim>8</dim>
				</port>
			</input>
			<output>
				<port id="1">
					<dim>1</dim>
					<dim>128</dim>
					<dim>20</dim>
					<dim>8</dim>
				</port>
			</output>
		</layer>
		<layer name="bottleneck4_0/skip/pooling" type="Pooling" precision="FP32" id="176">
			<data exclude-pad="true" kernel="2,2" pads_begin="0,0" pads_end="0,0" pool-method="max" rounding_type="ceil" strides="2,2" />
			<input>
				<port id="0">
					<dim>1</dim>
					<dim>128</dim>
					<dim>20</dim>
					<dim>8</dim>
				</port>
			</input>
			<output>
				<port id="1">
					<dim>1</dim>
					<dim>128</dim>
					<dim>10</dim>
					<dim>4</dim>
				</port>
			</output>
		</layer>
		<layer name="bottleneck4_0/skip/conv" type="Convolution" precision="FP32" id="177">
			<data dilations="1,1" group="1" kernel="1,1" output="256" pads_begin="0,0" pads_end="0,0" quantization_level="I8" strides="1,1" />
			<input>
				<port id="0">
					<dim>1</dim>
					<dim>128</dim>
					<dim>10</dim>
					<dim>4</dim>
				</port>
			</input>
			<output>
				<port id="1">
					<dim>1</dim>
					<dim>256</dim>
					<dim>10</dim>
					<dim>4</dim>
				</port>
			</output>
			<blobs>
				<biases offset="509144" size="1024" />
				<weights offset="510168" size="131072" />
			</blobs>
		</layer>
		<layer name="bottleneck4_0/dim_red/conv" type="Convolution" precision="FP32" id="178">
			<data dilations="1,1" group="1" kernel="1,1" output="64" pads_begin="0,0" pads_end="0,0" quantization_level="I8" strides="1,1" />
			<input>
				<port id="0">
					<dim>1</dim>
					<dim>128</dim>
					<dim>20</dim>
					<dim>8</dim>
				</port>
			</input>
			<output>
				<port id="1">
					<dim>1</dim>
					<dim>64</dim>
					<dim>20</dim>
					<dim>8</dim>
				</port>
			</output>
			<blobs>
				<biases offset="641240" size="256" />
				<weights offset="641496" size="32768" />
			</blobs>
		</layer>
		<layer name="bottleneck4_0/dim_red/fn" type="elu" precision="FP32" id="179">
			<data alpha="1.0" />
			<input>
				<port id="0">
					<dim>1</dim>
					<dim>64</dim>
					<dim>20</dim>
					<dim>8</dim>
				</port>
			</input>
			<output>
				<port id="1">
					<dim>1</dim>
					<dim>64</dim>
					<dim>20</dim>
					<dim>8</dim>
				</port>
			</output>
		</layer>
		<layer name="bottleneck4_0/inner/dw1/conv" type="Convolution" precision="FP32" id="180">
			<data dilations="1,1" group="64" kernel="3,3" output="64" pads_begin="1,1" pads_end="1,1" quantization_level="I8" strides="2,2" />
			<input>
				<port id="0">
					<dim>1</dim>
					<dim>64</dim>
					<dim>20</dim>
					<dim>8</dim>
				</port>
			</input>
			<output>
				<port id="1">
					<dim>1</dim>
					<dim>64</dim>
					<dim>10</dim>
					<dim>4</dim>
				</port>
			</output>
			<blobs>
				<biases offset="674264" size="256" />
				<weights offset="674520" size="2304" />
			</blobs>
		</layer>
		<layer name="bottleneck4_0/inner/dw1/fn" type="elu" precision="FP32" id="181">
			<data alpha="1.0" />
			<input>
				<port id="0">
					<dim>1</dim>
					<dim>64</dim>
					<dim>10</dim>
					<dim>4</dim>
				</port>
			</input>
			<output>
				<port id="1">
					<dim>1</dim>
					<dim>64</dim>
					<dim>10</dim>
					<dim>4</dim>
				</port>
			</output>
		</layer>
		<layer name="bottleneck4_0/dim_inc/conv" type="Convolution" precision="FP32" id="182">
			<data dilations="1,1" group="1" kernel="1,1" output="256" pads_begin="0,0" pads_end="0,0" quantization_level="I8" strides="1,1" />
			<input>
				<port id="0">
					<dim>1</dim>
					<dim>64</dim>
					<dim>10</dim>
					<dim>4</dim>
				</port>
			</input>
			<output>
				<port id="1">
					<dim>1</dim>
					<dim>256</dim>
					<dim>10</dim>
					<dim>4</dim>
				</port>
			</output>
			<blobs>
				<biases offset="676824" size="1024" />
				<weights offset="677848" size="65536" />
			</blobs>
		</layer>
		<layer name="bottleneck4_0/add" type="Eltwise" precision="FP32" id="183">
			<data operation="sum" />
			<input>
				<port id="0">
					<dim>1</dim>
					<dim>256</dim>
					<dim>10</dim>
					<dim>4</dim>
				</port>
				<port id="1">
					<dim>1</dim>
					<dim>256</dim>
					<dim>10</dim>
					<dim>4</dim>
				</port>
			</input>
			<output>
				<port id="2">
					<dim>1</dim>
					<dim>256</dim>
					<dim>10</dim>
					<dim>4</dim>
				</port>
			</output>
		</layer>
		<layer name="bottleneck4_0/fn" type="elu" precision="FP32" id="184">
			<data alpha="1.0" />
			<input>
				<port id="0">
					<dim>1</dim>
					<dim>256</dim>
					<dim>10</dim>
					<dim>4</dim>
				</port>
			</input>
			<output>
				<port id="1">
					<dim>1</dim>
					<dim>256</dim>
					<dim>10</dim>
					<dim>4</dim>
				</port>
			</output>
		</layer>
		<layer name="bottleneck4_1/dim_red/conv" type="Convolution" precision="FP32" id="185">
			<data dilations="1,1" group="1" kernel="1,1" output="64" pads_begin="0,0" pads_end="0,0" quantization_level="I8" strides="1,1" />
			<input>
				<port id="0">
					<dim>1</dim>
					<dim>256</dim>
					<dim>10</dim>
					<dim>4</dim>
				</port>
			</input>
			<output>
				<port id="1">
					<dim>1</dim>
					<dim>64</dim>
					<dim>10</dim>
					<dim>4</dim>
				</port>
			</output>
			<blobs>
				<biases offset="743384" size="256" />
				<weights offset="743640" size="65536" />
			</blobs>
		</layer>
		<layer name="bottleneck4_1/dim_red/fn" type="elu" precision="FP32" id="186">
			<data alpha="1.0" />
			<input>
				<port id="0">
					<dim>1</dim>
					<dim>64</dim>
					<dim>10</dim>
					<dim>4</dim>
				</port>
			</input>
			<output>
				<port id="1">
					<dim>1</dim>
					<dim>64</dim>
					<dim>10</dim>
					<dim>4</dim>
				</port>
			</output>
		</layer>
		<layer name="bottleneck4_1/inner/dw1/conv" type="Convolution" precision="FP32" id="187">
			<data dilations="1,1" group="64" kernel="3,3" output="64" pads_begin="1,1" pads_end="1,1" quantization_level="I8" strides="1,1" />
			<input>
				<port id="0">
					<dim>1</dim>
					<dim>64</dim>
					<dim>10</dim>
					<dim>4</dim>
				</port>
			</input>
			<output>
				<port id="1">
					<dim>1</dim>
					<dim>64</dim>
					<dim>10</dim>
					<dim>4</dim>
				</port>
			</output>
			<blobs>
				<biases offset="809176" size="256" />
				<weights offset="809432" size="2304" />
			</blobs>
		</layer>
		<layer name="bottleneck4_1/inner/dw1/fn" type="elu" precision="FP32" id="188">
			<data alpha="1.0" />
			<input>
				<port id="0">
					<dim>1</dim>
					<dim>64</dim>
					<dim>10</dim>
					<dim>4</dim>
				</port>
			</input>
			<output>
				<port id="1">
					<dim>1</dim>
					<dim>64</dim>
					<dim>10</dim>
					<dim>4</dim>
				</port>
			</output>
		</layer>
		<layer name="bottleneck4_1/dim_inc/conv" type="Convolution" precision="FP32" id="189">
			<data dilations="1,1" group="1" kernel="1,1" output="256" pads_begin="0,0" pads_end="0,0" quantization_level="I8" strides="1,1" />
			<input>
				<port id="0">
					<dim>1</dim>
					<dim>64</dim>
					<dim>10</dim>
					<dim>4</dim>
				</port>
			</input>
			<output>
				<port id="1">
					<dim>1</dim>
					<dim>256</dim>
					<dim>10</dim>
					<dim>4</dim>
				</port>
			</output>
			<blobs>
				<biases offset="811736" size="1024" />
				<weights offset="812760" size="65536" />
			</blobs>
		</layer>
		<layer name="bottleneck4_1/add" type="Eltwise" precision="FP32" id="190">
			<data operation="sum" />
			<input>
				<port id="0">
					<dim>1</dim>
					<dim>256</dim>
					<dim>10</dim>
					<dim>4</dim>
				</port>
				<port id="1">
					<dim>1</dim>
					<dim>256</dim>
					<dim>10</dim>
					<dim>4</dim>
				</port>
			</input>
			<output>
				<port id="2">
					<dim>1</dim>
					<dim>256</dim>
					<dim>10</dim>
					<dim>4</dim>
				</port>
			</output>
		</layer>
		<layer name="bottleneck4_1/fn" type="elu" precision="FP32" id="191">
			<data alpha="1.0" />
			<input>
				<port id="0">
					<dim>1</dim>
					<dim>256</dim>
					<dim>10</dim>
					<dim>4</dim>
				</port>
			</input>
			<output>
				<port id="1">
					<dim>1</dim>
					<dim>256</dim>
					<dim>10</dim>
					<dim>4</dim>
				</port>
			</output>
		</layer>
		<layer name="bottleneck4_2/dim_red/conv" type="Convolution" precision="FP32" id="192">
			<data dilations="1,1" group="1" kernel="1,1" output="64" pads_begin="0,0" pads_end="0,0" quantization_level="I8" strides="1,1" />
			<input>
				<port id="0">
					<dim>1</dim>
					<dim>256</dim>
					<dim>10</dim>
					<dim>4</dim>
				</port>
			</input>
			<output>
				<port id="1">
					<dim>1</dim>
					<dim>64</dim>
					<dim>10</dim>
					<dim>4</dim>
				</port>
			</output>
			<blobs>
				<biases offset="878296" size="256" />
				<weights offset="878552" size="65536" />
			</blobs>
		</layer>
		<layer name="bottleneck4_2/dim_red/fn" type="elu" precision="FP32" id="193">
			<data alpha="1.0" />
			<input>
				<port id="0">
					<dim>1</dim>
					<dim>64</dim>
					<dim>10</dim>
					<dim>4</dim>
				</port>
			</input>
			<output>
				<port id="1">
					<dim>1</dim>
					<dim>64</dim>
					<dim>10</dim>
					<dim>4</dim>
				</port>
			</output>
		</layer>
		<layer name="bottleneck4_2/inner/dw1/conv" type="Convolution" precision="FP32" id="194">
			<data dilations="1,1" group="64" kernel="3,3" output="64" pads_begin="1,1" pads_end="1,1" quantization_level="I8" strides="1,1" />
			<input>
				<port id="0">
					<dim>1</dim>
					<dim>64</dim>
					<dim>10</dim>
					<dim>4</dim>
				</port>
			</input>
			<output>
				<port id="1">
					<dim>1</dim>
					<dim>64</dim>
					<dim>10</dim>
					<dim>4</dim>
				</port>
			</output>
			<blobs>
				<biases offset="944088" size="256" />
				<weights offset="944344" size="2304" />
			</blobs>
		</layer>
		<layer name="bottleneck4_2/inner/dw1/fn" type="elu" precision="FP32" id="195">
			<data alpha="1.0" />
			<input>
				<port id="0">
					<dim>1</dim>
					<dim>64</dim>
					<dim>10</dim>
					<dim>4</dim>
				</port>
			</input>
			<output>
				<port id="1">
					<dim>1</dim>
					<dim>64</dim>
					<dim>10</dim>
					<dim>4</dim>
				</port>
			</output>
		</layer>
		<layer name="bottleneck4_2/dim_inc/conv" type="Convolution" precision="FP32" id="196">
			<data dilations="1,1" group="1" kernel="1,1" output="256" pads_begin="0,0" pads_end="0,0" quantization_level="I8" strides="1,1" />
			<input>
				<port id="0">
					<dim>1</dim>
					<dim>64</dim>
					<dim>10</dim>
					<dim>4</dim>
				</port>
			</input>
			<output>
				<port id="1">
					<dim>1</dim>
					<dim>256</dim>
					<dim>10</dim>
					<dim>4</dim>
				</port>
			</output>
			<blobs>
				<biases offset="946648" size="1024" />
				<weights offset="947672" size="65536" />
			</blobs>
		</layer>
		<layer name="bottleneck4_2/add" type="Eltwise" precision="FP32" id="197">
			<data operation="sum" />
			<input>
				<port id="0">
					<dim>1</dim>
					<dim>256</dim>
					<dim>10</dim>
					<dim>4</dim>
				</port>
				<port id="1">
					<dim>1</dim>
					<dim>256</dim>
					<dim>10</dim>
					<dim>4</dim>
				</port>
			</input>
			<output>
				<port id="2">
					<dim>1</dim>
					<dim>256</dim>
					<dim>10</dim>
					<dim>4</dim>
				</port>
			</output>
		</layer>
		<layer name="bottleneck4_2/fn" type="elu" precision="FP32" id="198">
			<data alpha="1.0" />
			<input>
				<port id="0">
					<dim>1</dim>
					<dim>256</dim>
					<dim>10</dim>
					<dim>4</dim>
				</port>
			</input>
			<output>
				<port id="1">
					<dim>1</dim>
					<dim>256</dim>
					<dim>10</dim>
					<dim>4</dim>
				</port>
			</output>
		</layer>
		<layer name="bottleneck4_3/dim_red/conv" type="Convolution" precision="FP32" id="199">
			<data dilations="1,1" group="1" kernel="1,1" output="64" pads_begin="0,0" pads_end="0,0" quantization_level="I8" strides="1,1" />
			<input>
				<port id="0">
					<dim>1</dim>
					<dim>256</dim>
					<dim>10</dim>
					<dim>4</dim>
				</port>
			</input>
			<output>
				<port id="1">
					<dim>1</dim>
					<dim>64</dim>
					<dim>10</dim>
					<dim>4</dim>
				</port>
			</output>
			<blobs>
				<biases offset="1013208" size="256" />
				<weights offset="1013464" size="65536" />
			</blobs>
		</layer>
		<layer name="bottleneck4_3/dim_red/fn" type="elu" precision="FP32" id="200">
			<data alpha="1.0" />
			<input>
				<port id="0">
					<dim>1</dim>
					<dim>64</dim>
					<dim>10</dim>
					<dim>4</dim>
				</port>
			</input>
			<output>
				<port id="1">
					<dim>1</dim>
					<dim>64</dim>
					<dim>10</dim>
					<dim>4</dim>
				</port>
			</output>
		</layer>
		<layer name="bottleneck4_3/inner/dw1/conv" type="Convolution" precision="FP32" id="201">
			<data dilations="1,1" group="64" kernel="3,3" output="64" pads_begin="1,1" pads_end="1,1" quantization_level="I8" strides="1,1" />
			<input>
				<port id="0">
					<dim>1</dim>
					<dim>64</dim>
					<dim>10</dim>
					<dim>4</dim>
				</port>
			</input>
			<output>
				<port id="1">
					<dim>1</dim>
					<dim>64</dim>
					<dim>10</dim>
					<dim>4</dim>
				</port>
			</output>
			<blobs>
				<biases offset="1079000" size="256" />
				<weights offset="1079256" size="2304" />
			</blobs>
		</layer>
		<layer name="bottleneck4_3/inner/dw1/fn" type="elu" precision="FP32" id="202">
			<data alpha="1.0" />
			<input>
				<port id="0">
					<dim>1</dim>
					<dim>64</dim>
					<dim>10</dim>
					<dim>4</dim>
				</port>
			</input>
			<output>
				<port id="1">
					<dim>1</dim>
					<dim>64</dim>
					<dim>10</dim>
					<dim>4</dim>
				</port>
			</output>
		</layer>
		<layer name="bottleneck4_3/dim_inc/conv" type="Convolution" precision="FP32" id="203">
			<data dilations="1,1" group="1" kernel="1,1" output="256" pads_begin="0,0" pads_end="0,0" quantization_level="I8" strides="1,1" />
			<input>
				<port id="0">
					<dim>1</dim>
					<dim>64</dim>
					<dim>10</dim>
					<dim>4</dim>
				</port>
			</input>
			<output>
				<port id="1">
					<dim>1</dim>
					<dim>256</dim>
					<dim>10</dim>
					<dim>4</dim>
				</port>
			</output>
			<blobs>
				<biases offset="1081560" size="1024" />
				<weights offset="1082584" size="65536" />
			</blobs>
		</layer>
		<layer name="bottleneck4_3/add" type="Eltwise" precision="FP32" id="204">
			<data operation="sum" />
			<input>
				<port id="0">
					<dim>1</dim>
					<dim>256</dim>
					<dim>10</dim>
					<dim>4</dim>
				</port>
				<port id="1">
					<dim>1</dim>
					<dim>256</dim>
					<dim>10</dim>
					<dim>4</dim>
				</port>
			</input>
			<output>
				<port id="2">
					<dim>1</dim>
					<dim>256</dim>
					<dim>10</dim>
					<dim>4</dim>
				</port>
			</output>
		</layer>
		<layer name="bottleneck4_3/fn" type="elu" precision="FP32" id="205">
			<data alpha="1.0" />
			<input>
				<port id="0">
					<dim>1</dim>
					<dim>256</dim>
					<dim>10</dim>
					<dim>4</dim>
				</port>
			</input>
			<output>
				<port id="1">
					<dim>1</dim>
					<dim>256</dim>
					<dim>10</dim>
					<dim>4</dim>
				</port>
			</output>
		</layer>
		<layer name="bottleneck4_4/dim_red/conv" type="Convolution" precision="FP32" id="206">
			<data dilations="1,1" group="1" kernel="1,1" output="64" pads_begin="0,0" pads_end="0,0" quantization_level="I8" strides="1,1" />
			<input>
				<port id="0">
					<dim>1</dim>
					<dim>256</dim>
					<dim>10</dim>
					<dim>4</dim>
				</port>
			</input>
			<output>
				<port id="1">
					<dim>1</dim>
					<dim>64</dim>
					<dim>10</dim>
					<dim>4</dim>
				</port>
			</output>
			<blobs>
				<biases offset="1148120" size="256" />
				<weights offset="1148376" size="65536" />
			</blobs>
		</layer>
		<layer name="bottleneck4_4/dim_red/fn" type="elu" precision="FP32" id="207">
			<data alpha="1.0" />
			<input>
				<port id="0">
					<dim>1</dim>
					<dim>64</dim>
					<dim>10</dim>
					<dim>4</dim>
				</port>
			</input>
			<output>
				<port id="1">
					<dim>1</dim>
					<dim>64</dim>
					<dim>10</dim>
					<dim>4</dim>
				</port>
			</output>
		</layer>
		<layer name="bottleneck4_4/inner/dw1/conv" type="Convolution" precision="FP32" id="208">
			<data dilations="1,1" group="64" kernel="3,3" output="64" pads_begin="1,1" pads_end="1,1" quantization_level="I8" strides="1,1" />
			<input>
				<port id="0">
					<dim>1</dim>
					<dim>64</dim>
					<dim>10</dim>
					<dim>4</dim>
				</port>
			</input>
			<output>
				<port id="1">
					<dim>1</dim>
					<dim>64</dim>
					<dim>10</dim>
					<dim>4</dim>
				</port>
			</output>
			<blobs>
				<biases offset="1213912" size="256" />
				<weights offset="1214168" size="2304" />
			</blobs>
		</layer>
		<layer name="bottleneck4_4/inner/dw1/fn" type="elu" precision="FP32" id="209">
			<data alpha="1.0" />
			<input>
				<port id="0">
					<dim>1</dim>
					<dim>64</dim>
					<dim>10</dim>
					<dim>4</dim>
				</port>
			</input>
			<output>
				<port id="1">
					<dim>1</dim>
					<dim>64</dim>
					<dim>10</dim>
					<dim>4</dim>
				</port>
			</output>
		</layer>
		<layer name="bottleneck4_4/dim_inc/conv" type="Convolution" precision="FP32" id="210">
			<data dilations="1,1" group="1" kernel="1,1" output="256" pads_begin="0,0" pads_end="0,0" quantization_level="I8" strides="1,1" />
			<input>
				<port id="0">
					<dim>1</dim>
					<dim>64</dim>
					<dim>10</dim>
					<dim>4</dim>
				</port>
			</input>
			<output>
				<port id="1">
					<dim>1</dim>
					<dim>256</dim>
					<dim>10</dim>
					<dim>4</dim>
				</port>
			</output>
			<blobs>
				<biases offset="1216472" size="1024" />
				<weights offset="1217496" size="65536" />
			</blobs>
		</layer>
		<layer name="bottleneck4_4/add" type="Eltwise" precision="FP32" id="211">
			<data operation="sum" />
			<input>
				<port id="0">
					<dim>1</dim>
					<dim>256</dim>
					<dim>10</dim>
					<dim>4</dim>
				</port>
				<port id="1">
					<dim>1</dim>
					<dim>256</dim>
					<dim>10</dim>
					<dim>4</dim>
				</port>
			</input>
			<output>
				<port id="2">
					<dim>1</dim>
					<dim>256</dim>
					<dim>10</dim>
					<dim>4</dim>
				</port>
			</output>
		</layer>
		<layer name="bottleneck4_4/fn" type="elu" precision="FP32" id="212">
			<data alpha="1.0" />
			<input>
				<port id="0">
					<dim>1</dim>
					<dim>256</dim>
					<dim>10</dim>
					<dim>4</dim>
				</port>
			</input>
			<output>
				<port id="1">
					<dim>1</dim>
					<dim>256</dim>
					<dim>10</dim>
					<dim>4</dim>
				</port>
			</output>
		</layer>
		<layer name="bottleneck4_5/dim_red/conv" type="Convolution" precision="FP32" id="213">
			<data dilations="1,1" group="1" kernel="1,1" output="64" pads_begin="0,0" pads_end="0,0" quantization_level="I8" strides="1,1" />
			<input>
				<port id="0">
					<dim>1</dim>
					<dim>256</dim>
					<dim>10</dim>
					<dim>4</dim>
				</port>
			</input>
			<output>
				<port id="1">
					<dim>1</dim>
					<dim>64</dim>
					<dim>10</dim>
					<dim>4</dim>
				</port>
			</output>
			<blobs>
				<biases offset="1283032" size="256" />
				<weights offset="1283288" size="65536" />
			</blobs>
		</layer>
		<layer name="bottleneck4_5/dim_red/fn" type="elu" precision="FP32" id="214">
			<data alpha="1.0" />
			<input>
				<port id="0">
					<dim>1</dim>
					<dim>64</dim>
					<dim>10</dim>
					<dim>4</dim>
				</port>
			</input>
			<output>
				<port id="1">
					<dim>1</dim>
					<dim>64</dim>
					<dim>10</dim>
					<dim>4</dim>
				</port>
			</output>
		</layer>
		<layer name="bottleneck4_5/inner/dw1/conv" type="Convolution" precision="FP32" id="215">
			<data dilations="1,1" group="64" kernel="3,3" output="64" pads_begin="1,1" pads_end="1,1" quantization_level="I8" strides="1,1" />
			<input>
				<port id="0">
					<dim>1</dim>
					<dim>64</dim>
					<dim>10</dim>
					<dim>4</dim>
				</port>
			</input>
			<output>
				<port id="1">
					<dim>1</dim>
					<dim>64</dim>
					<dim>10</dim>
					<dim>4</dim>
				</port>
			</output>
			<blobs>
				<biases offset="1348824" size="256" />
				<weights offset="1349080" size="2304" />
			</blobs>
		</layer>
		<layer name="bottleneck4_5/inner/dw1/fn" type="elu" precision="FP32" id="216">
			<data alpha="1.0" />
			<input>
				<port id="0">
					<dim>1</dim>
					<dim>64</dim>
					<dim>10</dim>
					<dim>4</dim>
				</port>
			</input>
			<output>
				<port id="1">
					<dim>1</dim>
					<dim>64</dim>
					<dim>10</dim>
					<dim>4</dim>
				</port>
			</output>
		</layer>
		<layer name="bottleneck4_5/dim_inc/conv" type="Convolution" precision="FP32" id="217">
			<data dilations="1,1" group="1" kernel="1,1" output="256" pads_begin="0,0" pads_end="0,0" quantization_level="I8" strides="1,1" />
			<input>
				<port id="0">
					<dim>1</dim>
					<dim>64</dim>
					<dim>10</dim>
					<dim>4</dim>
				</port>
			</input>
			<output>
				<port id="1">
					<dim>1</dim>
					<dim>256</dim>
					<dim>10</dim>
					<dim>4</dim>
				</port>
			</output>
			<blobs>
				<biases offset="1351384" size="1024" />
				<weights offset="1352408" size="65536" />
			</blobs>
		</layer>
		<layer name="bottleneck4_5/add" type="Eltwise" precision="FP32" id="218">
			<data operation="sum" />
			<input>
				<port id="0">
					<dim>1</dim>
					<dim>256</dim>
					<dim>10</dim>
					<dim>4</dim>
				</port>
				<port id="1">
					<dim>1</dim>
					<dim>256</dim>
					<dim>10</dim>
					<dim>4</dim>
				</port>
			</input>
			<output>
				<port id="2">
					<dim>1</dim>
					<dim>256</dim>
					<dim>10</dim>
					<dim>4</dim>
				</port>
			</output>
		</layer>
		<layer name="bottleneck4_5/fn" type="elu" precision="FP32" id="219">
			<data alpha="1.0" />
			<input>
				<port id="0">
					<dim>1</dim>
					<dim>256</dim>
					<dim>10</dim>
					<dim>4</dim>
				</port>
			</input>
			<output>
				<port id="1">
					<dim>1</dim>
					<dim>256</dim>
					<dim>10</dim>
					<dim>4</dim>
				</port>
			</output>
		</layer>
		<layer name="bottleneck4_6/dim_red/conv" type="Convolution" precision="FP32" id="220">
			<data dilations="1,1" group="1" kernel="1,1" output="64" pads_begin="0,0" pads_end="0,0" quantization_level="I8" strides="1,1" />
			<input>
				<port id="0">
					<dim>1</dim>
					<dim>256</dim>
					<dim>10</dim>
					<dim>4</dim>
				</port>
			</input>
			<output>
				<port id="1">
					<dim>1</dim>
					<dim>64</dim>
					<dim>10</dim>
					<dim>4</dim>
				</port>
			</output>
			<blobs>
				<biases offset="1417944" size="256" />
				<weights offset="1418200" size="65536" />
			</blobs>
		</layer>
		<layer name="bottleneck4_6/dim_red/fn" type="elu" precision="FP32" id="221">
			<data alpha="1.0" />
			<input>
				<port id="0">
					<dim>1</dim>
					<dim>64</dim>
					<dim>10</dim>
					<dim>4</dim>
				</port>
			</input>
			<output>
				<port id="1">
					<dim>1</dim>
					<dim>64</dim>
					<dim>10</dim>
					<dim>4</dim>
				</port>
			</output>
		</layer>
		<layer name="bottleneck4_6/inner/dw1/conv" type="Convolution" precision="FP32" id="222">
			<data dilations="1,1" group="64" kernel="3,3" output="64" pads_begin="1,1" pads_end="1,1" quantization_level="I8" strides="1,1" />
			<input>
				<port id="0">
					<dim>1</dim>
					<dim>64</dim>
					<dim>10</dim>
					<dim>4</dim>
				</port>
			</input>
			<output>
				<port id="1">
					<dim>1</dim>
					<dim>64</dim>
					<dim>10</dim>
					<dim>4</dim>
				</port>
			</output>
			<blobs>
				<biases offset="1483736" size="256" />
				<weights offset="1483992" size="2304" />
			</blobs>
		</layer>
		<layer name="bottleneck4_6/inner/dw1/fn" type="elu" precision="FP32" id="223">
			<data alpha="1.0" />
			<input>
				<port id="0">
					<dim>1</dim>
					<dim>64</dim>
					<dim>10</dim>
					<dim>4</dim>
				</port>
			</input>
			<output>
				<port id="1">
					<dim>1</dim>
					<dim>64</dim>
					<dim>10</dim>
					<dim>4</dim>
				</port>
			</output>
		</layer>
		<layer name="bottleneck4_6/dim_inc/conv" type="Convolution" precision="FP32" id="224">
			<data dilations="1,1" group="1" kernel="1,1" output="256" pads_begin="0,0" pads_end="0,0" quantization_level="I8" strides="1,1" />
			<input>
				<port id="0">
					<dim>1</dim>
					<dim>64</dim>
					<dim>10</dim>
					<dim>4</dim>
				</port>
			</input>
			<output>
				<port id="1">
					<dim>1</dim>
					<dim>256</dim>
					<dim>10</dim>
					<dim>4</dim>
				</port>
			</output>
			<blobs>
				<biases offset="1486296" size="1024" />
				<weights offset="1487320" size="65536" />
			</blobs>
		</layer>
		<layer name="bottleneck4_6/add" type="Eltwise" precision="FP32" id="225">
			<data operation="sum" />
			<input>
				<port id="0">
					<dim>1</dim>
					<dim>256</dim>
					<dim>10</dim>
					<dim>4</dim>
				</port>
				<port id="1">
					<dim>1</dim>
					<dim>256</dim>
					<dim>10</dim>
					<dim>4</dim>
				</port>
			</input>
			<output>
				<port id="2">
					<dim>1</dim>
					<dim>256</dim>
					<dim>10</dim>
					<dim>4</dim>
				</port>
			</output>
		</layer>
		<layer name="bottleneck4_6/fn" type="elu" precision="FP32" id="226">
			<data alpha="1.0" />
			<input>
				<port id="0">
					<dim>1</dim>
					<dim>256</dim>
					<dim>10</dim>
					<dim>4</dim>
				</port>
			</input>
			<output>
				<port id="1">
					<dim>1</dim>
					<dim>256</dim>
					<dim>10</dim>
					<dim>4</dim>
				</port>
			</output>
		</layer>
		<layer name="bottleneck4_7/dim_red/conv" type="Convolution" precision="FP32" id="227">
			<data dilations="1,1" group="1" kernel="1,1" output="64" pads_begin="0,0" pads_end="0,0" quantization_level="I8" strides="1,1" />
			<input>
				<port id="0">
					<dim>1</dim>
					<dim>256</dim>
					<dim>10</dim>
					<dim>4</dim>
				</port>
			</input>
			<output>
				<port id="1">
					<dim>1</dim>
					<dim>64</dim>
					<dim>10</dim>
					<dim>4</dim>
				</port>
			</output>
			<blobs>
				<biases offset="1552856" size="256" />
				<weights offset="1553112" size="65536" />
			</blobs>
		</layer>
		<layer name="bottleneck4_7/dim_red/fn" type="elu" precision="FP32" id="228">
			<data alpha="1.0" />
			<input>
				<port id="0">
					<dim>1</dim>
					<dim>64</dim>
					<dim>10</dim>
					<dim>4</dim>
				</port>
			</input>
			<output>
				<port id="1">
					<dim>1</dim>
					<dim>64</dim>
					<dim>10</dim>
					<dim>4</dim>
				</port>
			</output>
		</layer>
		<layer name="bottleneck4_7/inner/dw1/conv" type="Convolution" precision="FP32" id="229">
			<data dilations="1,1" group="64" kernel="3,3" output="64" pads_begin="1,1" pads_end="1,1" quantization_level="I8" strides="1,1" />
			<input>
				<port id="0">
					<dim>1</dim>
					<dim>64</dim>
					<dim>10</dim>
					<dim>4</dim>
				</port>
			</input>
			<output>
				<port id="1">
					<dim>1</dim>
					<dim>64</dim>
					<dim>10</dim>
					<dim>4</dim>
				</port>
			</output>
			<blobs>
				<biases offset="1618648" size="256" />
				<weights offset="1618904" size="2304" />
			</blobs>
		</layer>
		<layer name="bottleneck4_7/inner/dw1/fn" type="elu" precision="FP32" id="230">
			<data alpha="1.0" />
			<input>
				<port id="0">
					<dim>1</dim>
					<dim>64</dim>
					<dim>10</dim>
					<dim>4</dim>
				</port>
			</input>
			<output>
				<port id="1">
					<dim>1</dim>
					<dim>64</dim>
					<dim>10</dim>
					<dim>4</dim>
				</port>
			</output>
		</layer>
		<layer name="bottleneck4_7/dim_inc/conv" type="Convolution" precision="FP32" id="231">
			<data dilations="1,1" group="1" kernel="1,1" output="256" pads_begin="0,0" pads_end="0,0" quantization_level="I8" strides="1,1" />
			<input>
				<port id="0">
					<dim>1</dim>
					<dim>64</dim>
					<dim>10</dim>
					<dim>4</dim>
				</port>
			</input>
			<output>
				<port id="1">
					<dim>1</dim>
					<dim>256</dim>
					<dim>10</dim>
					<dim>4</dim>
				</port>
			</output>
			<blobs>
				<biases offset="1621208" size="1024" />
				<weights offset="1622232" size="65536" />
			</blobs>
		</layer>
		<layer name="bottleneck4_7/add" type="Eltwise" precision="FP32" id="232">
			<data operation="sum" />
			<input>
				<port id="0">
					<dim>1</dim>
					<dim>256</dim>
					<dim>10</dim>
					<dim>4</dim>
				</port>
				<port id="1">
					<dim>1</dim>
					<dim>256</dim>
					<dim>10</dim>
					<dim>4</dim>
				</port>
			</input>
			<output>
				<port id="2">
					<dim>1</dim>
					<dim>256</dim>
					<dim>10</dim>
					<dim>4</dim>
				</port>
			</output>
		</layer>
		<layer name="bottleneck4_7/fn" type="elu" precision="FP32" id="233">
			<data alpha="1.0" />
			<input>
				<port id="0">
					<dim>1</dim>
					<dim>256</dim>
					<dim>10</dim>
					<dim>4</dim>
				</port>
			</input>
			<output>
				<port id="1">
					<dim>1</dim>
					<dim>256</dim>
					<dim>10</dim>
					<dim>4</dim>
				</port>
			</output>
		</layer>
		<layer name="bottleneck4_8/dim_red/conv" type="Convolution" precision="FP32" id="234">
			<data dilations="1,1" group="1" kernel="1,1" output="64" pads_begin="0,0" pads_end="0,0" quantization_level="I8" strides="1,1" />
			<input>
				<port id="0">
					<dim>1</dim>
					<dim>256</dim>
					<dim>10</dim>
					<dim>4</dim>
				</port>
			</input>
			<output>
				<port id="1">
					<dim>1</dim>
					<dim>64</dim>
					<dim>10</dim>
					<dim>4</dim>
				</port>
			</output>
			<blobs>
				<biases offset="1687768" size="256" />
				<weights offset="1688024" size="65536" />
			</blobs>
		</layer>
		<layer name="bottleneck4_8/dim_red/fn" type="elu" precision="FP32" id="235">
			<data alpha="1.0" />
			<input>
				<port id="0">
					<dim>1</dim>
					<dim>64</dim>
					<dim>10</dim>
					<dim>4</dim>
				</port>
			</input>
			<output>
				<port id="1">
					<dim>1</dim>
					<dim>64</dim>
					<dim>10</dim>
					<dim>4</dim>
				</port>
			</output>
		</layer>
		<layer name="bottleneck4_8/inner/dw1/conv" type="Convolution" precision="FP32" id="236">
			<data dilations="1,1" group="64" kernel="3,3" output="64" pads_begin="1,1" pads_end="1,1" quantization_level="I8" strides="1,1" />
			<input>
				<port id="0">
					<dim>1</dim>
					<dim>64</dim>
					<dim>10</dim>
					<dim>4</dim>
				</port>
			</input>
			<output>
				<port id="1">
					<dim>1</dim>
					<dim>64</dim>
					<dim>10</dim>
					<dim>4</dim>
				</port>
			</output>
			<blobs>
				<biases offset="1753560" size="256" />
				<weights offset="1753816" size="2304" />
			</blobs>
		</layer>
		<layer name="bottleneck4_8/inner/dw1/fn" type="elu" precision="FP32" id="237">
			<data alpha="1.0" />
			<input>
				<port id="0">
					<dim>1</dim>
					<dim>64</dim>
					<dim>10</dim>
					<dim>4</dim>
				</port>
			</input>
			<output>
				<port id="1">
					<dim>1</dim>
					<dim>64</dim>
					<dim>10</dim>
					<dim>4</dim>
				</port>
			</output>
		</layer>
		<layer name="bottleneck4_8/dim_inc/conv" type="Convolution" precision="FP32" id="238">
			<data dilations="1,1" group="1" kernel="1,1" output="256" pads_begin="0,0" pads_end="0,0" quantization_level="I8" strides="1,1" />
			<input>
				<port id="0">
					<dim>1</dim>
					<dim>64</dim>
					<dim>10</dim>
					<dim>4</dim>
				</port>
			</input>
			<output>
				<port id="1">
					<dim>1</dim>
					<dim>256</dim>
					<dim>10</dim>
					<dim>4</dim>
				</port>
			</output>
			<blobs>
				<biases offset="1756120" size="1024" />
				<weights offset="1757144" size="65536" />
			</blobs>
		</layer>
		<layer name="bottleneck4_8/add" type="Eltwise" precision="FP32" id="239">
			<data operation="sum" />
			<input>
				<port id="0">
					<dim>1</dim>
					<dim>256</dim>
					<dim>10</dim>
					<dim>4</dim>
				</port>
				<port id="1">
					<dim>1</dim>
					<dim>256</dim>
					<dim>10</dim>
					<dim>4</dim>
				</port>
			</input>
			<output>
				<port id="2">
					<dim>1</dim>
					<dim>256</dim>
					<dim>10</dim>
					<dim>4</dim>
				</port>
			</output>
		</layer>
		<layer name="bottleneck4_8/fn" type="elu" precision="FP32" id="240">
			<data alpha="1.0" />
			<input>
				<port id="0">
					<dim>1</dim>
					<dim>256</dim>
					<dim>10</dim>
					<dim>4</dim>
				</port>
			</input>
			<output>
				<port id="1">
					<dim>1</dim>
					<dim>256</dim>
					<dim>10</dim>
					<dim>4</dim>
				</port>
			</output>
		</layer>
		<layer name="bottleneck4_9/dim_red/conv" type="Convolution" precision="FP32" id="241">
			<data dilations="1,1" group="1" kernel="1,1" output="64" pads_begin="0,0" pads_end="0,0" quantization_level="I8" strides="1,1" />
			<input>
				<port id="0">
					<dim>1</dim>
					<dim>256</dim>
					<dim>10</dim>
					<dim>4</dim>
				</port>
			</input>
			<output>
				<port id="1">
					<dim>1</dim>
					<dim>64</dim>
					<dim>10</dim>
					<dim>4</dim>
				</port>
			</output>
			<blobs>
				<biases offset="1822680" size="256" />
				<weights offset="1822936" size="65536" />
			</blobs>
		</layer>
		<layer name="bottleneck4_9/dim_red/fn" type="elu" precision="FP32" id="242">
			<data alpha="1.0" />
			<input>
				<port id="0">
					<dim>1</dim>
					<dim>64</dim>
					<dim>10</dim>
					<dim>4</dim>
				</port>
			</input>
			<output>
				<port id="1">
					<dim>1</dim>
					<dim>64</dim>
					<dim>10</dim>
					<dim>4</dim>
				</port>
			</output>
		</layer>
		<layer name="bottleneck4_9/inner/dw1/conv" type="Convolution" precision="FP32" id="243">
			<data dilations="1,1" group="64" kernel="3,3" output="64" pads_begin="1,1" pads_end="1,1" quantization_level="I8" strides="1,1" />
			<input>
				<port id="0">
					<dim>1</dim>
					<dim>64</dim>
					<dim>10</dim>
					<dim>4</dim>
				</port>
			</input>
			<output>
				<port id="1">
					<dim>1</dim>
					<dim>64</dim>
					<dim>10</dim>
					<dim>4</dim>
				</port>
			</output>
			<blobs>
				<biases offset="1888472" size="256" />
				<weights offset="1888728" size="2304" />
			</blobs>
		</layer>
		<layer name="bottleneck4_9/inner/dw1/fn" type="elu" precision="FP32" id="244">
			<data alpha="1.0" />
			<input>
				<port id="0">
					<dim>1</dim>
					<dim>64</dim>
					<dim>10</dim>
					<dim>4</dim>
				</port>
			</input>
			<output>
				<port id="1">
					<dim>1</dim>
					<dim>64</dim>
					<dim>10</dim>
					<dim>4</dim>
				</port>
			</output>
		</layer>
		<layer name="bottleneck4_9/dim_inc/conv" type="Convolution" precision="FP32" id="245">
			<data dilations="1,1" group="1" kernel="1,1" output="256" pads_begin="0,0" pads_end="0,0" quantization_level="I8" strides="1,1" />
			<input>
				<port id="0">
					<dim>1</dim>
					<dim>64</dim>
					<dim>10</dim>
					<dim>4</dim>
				</port>
			</input>
			<output>
				<port id="1">
					<dim>1</dim>
					<dim>256</dim>
					<dim>10</dim>
					<dim>4</dim>
				</port>
			</output>
			<blobs>
				<biases offset="1891032" size="1024" />
				<weights offset="1892056" size="65536" />
			</blobs>
		</layer>
		<layer name="bottleneck4_9/add" type="Eltwise" precision="FP32" id="246">
			<data operation="sum" />
			<input>
				<port id="0">
					<dim>1</dim>
					<dim>256</dim>
					<dim>10</dim>
					<dim>4</dim>
				</port>
				<port id="1">
					<dim>1</dim>
					<dim>256</dim>
					<dim>10</dim>
					<dim>4</dim>
				</port>
			</input>
			<output>
				<port id="2">
					<dim>1</dim>
					<dim>256</dim>
					<dim>10</dim>
					<dim>4</dim>
				</port>
			</output>
		</layer>
		<layer name="bottleneck4_9/fn" type="elu" precision="FP32" id="247">
			<data alpha="1.0" />
			<input>
				<port id="0">
					<dim>1</dim>
					<dim>256</dim>
					<dim>10</dim>
					<dim>4</dim>
				</port>
			</input>
			<output>
				<port id="1">
					<dim>1</dim>
					<dim>256</dim>
					<dim>10</dim>
					<dim>4</dim>
				</port>
			</output>
		</layer>
		<layer name="bottleneck4_10/dim_red/conv" type="Convolution" precision="FP32" id="248">
			<data dilations="1,1" group="1" kernel="1,1" output="64" pads_begin="0,0" pads_end="0,0" quantization_level="I8" strides="1,1" />
			<input>
				<port id="0">
					<dim>1</dim>
					<dim>256</dim>
					<dim>10</dim>
					<dim>4</dim>
				</port>
			</input>
			<output>
				<port id="1">
					<dim>1</dim>
					<dim>64</dim>
					<dim>10</dim>
					<dim>4</dim>
				</port>
			</output>
			<blobs>
				<biases offset="1957592" size="256" />
				<weights offset="1957848" size="65536" />
			</blobs>
		</layer>
		<layer name="bottleneck4_10/dim_red/fn" type="elu" precision="FP32" id="249">
			<data alpha="1.0" />
			<input>
				<port id="0">
					<dim>1</dim>
					<dim>64</dim>
					<dim>10</dim>
					<dim>4</dim>
				</port>
			</input>
			<output>
				<port id="1">
					<dim>1</dim>
					<dim>64</dim>
					<dim>10</dim>
					<dim>4</dim>
				</port>
			</output>
		</layer>
		<layer name="bottleneck4_10/inner/dw1/conv" type="Convolution" precision="FP32" id="250">
			<data dilations="1,1" group="64" kernel="3,3" output="64" pads_begin="1,1" pads_end="1,1" quantization_level="I8" strides="1,1" />
			<input>
				<port id="0">
					<dim>1</dim>
					<dim>64</dim>
					<dim>10</dim>
					<dim>4</dim>
				</port>
			</input>
			<output>
				<port id="1">
					<dim>1</dim>
					<dim>64</dim>
					<dim>10</dim>
					<dim>4</dim>
				</port>
			</output>
			<blobs>
				<biases offset="2023384" size="256" />
				<weights offset="2023640" size="2304" />
			</blobs>
		</layer>
		<layer name="bottleneck4_10/inner/dw1/fn" type="elu" precision="FP32" id="251">
			<data alpha="1.0" />
			<input>
				<port id="0">
					<dim>1</dim>
					<dim>64</dim>
					<dim>10</dim>
					<dim>4</dim>
				</port>
			</input>
			<output>
				<port id="1">
					<dim>1</dim>
					<dim>64</dim>
					<dim>10</dim>
					<dim>4</dim>
				</port>
			</output>
		</layer>
		<layer name="bottleneck4_10/dim_inc/conv" type="Convolution" precision="FP32" id="252">
			<data dilations="1,1" group="1" kernel="1,1" output="256" pads_begin="0,0" pads_end="0,0" quantization_level="I8" strides="1,1" />
			<input>
				<port id="0">
					<dim>1</dim>
					<dim>64</dim>
					<dim>10</dim>
					<dim>4</dim>
				</port>
			</input>
			<output>
				<port id="1">
					<dim>1</dim>
					<dim>256</dim>
					<dim>10</dim>
					<dim>4</dim>
				</port>
			</output>
			<blobs>
				<biases offset="2025944" size="1024" />
				<weights offset="2026968" size="65536" />
			</blobs>
		</layer>
		<layer name="bottleneck4_10/add" type="Eltwise" precision="FP32" id="253">
			<data operation="sum" />
			<input>
				<port id="0">
					<dim>1</dim>
					<dim>256</dim>
					<dim>10</dim>
					<dim>4</dim>
				</port>
				<port id="1">
					<dim>1</dim>
					<dim>256</dim>
					<dim>10</dim>
					<dim>4</dim>
				</port>
			</input>
			<output>
				<port id="2">
					<dim>1</dim>
					<dim>256</dim>
					<dim>10</dim>
					<dim>4</dim>
				</port>
			</output>
		</layer>
		<layer name="bottleneck4_10/fn" type="elu" precision="FP32" id="254">
			<data alpha="1.0" />
			<input>
				<port id="0">
					<dim>1</dim>
					<dim>256</dim>
					<dim>10</dim>
					<dim>4</dim>
				</port>
			</input>
			<output>
				<port id="1">
					<dim>1</dim>
					<dim>256</dim>
					<dim>10</dim>
					<dim>4</dim>
				</port>
			</output>
		</layer>
		<layer name="bottleneck4_11/dim_red/conv" type="Convolution" precision="FP32" id="255">
			<data dilations="1,1" group="1" kernel="1,1" output="64" pads_begin="0,0" pads_end="0,0" quantization_level="I8" strides="1,1" />
			<input>
				<port id="0">
					<dim>1</dim>
					<dim>256</dim>
					<dim>10</dim>
					<dim>4</dim>
				</port>
			</input>
			<output>
				<port id="1">
					<dim>1</dim>
					<dim>64</dim>
					<dim>10</dim>
					<dim>4</dim>
				</port>
			</output>
			<blobs>
				<biases offset="2092504" size="256" />
				<weights offset="2092760" size="65536" />
			</blobs>
		</layer>
		<layer name="bottleneck4_11/dim_red/fn" type="elu" precision="FP32" id="256">
			<data alpha="1.0" />
			<input>
				<port id="0">
					<dim>1</dim>
					<dim>64</dim>
					<dim>10</dim>
					<dim>4</dim>
				</port>
			</input>
			<output>
				<port id="1">
					<dim>1</dim>
					<dim>64</dim>
					<dim>10</dim>
					<dim>4</dim>
				</port>
			</output>
		</layer>
		<layer name="bottleneck4_11/inner/dw1/conv" type="Convolution" precision="FP32" id="257">
			<data dilations="1,1" group="64" kernel="3,3" output="64" pads_begin="1,1" pads_end="1,1" quantization_level="I8" strides="1,1" />
			<input>
				<port id="0">
					<dim>1</dim>
					<dim>64</dim>
					<dim>10</dim>
					<dim>4</dim>
				</port>
			</input>
			<output>
				<port id="1">
					<dim>1</dim>
					<dim>64</dim>
					<dim>10</dim>
					<dim>4</dim>
				</port>
			</output>
			<blobs>
				<biases offset="2158296" size="256" />
				<weights offset="2158552" size="2304" />
			</blobs>
		</layer>
		<layer name="bottleneck4_11/inner/dw1/fn" type="elu" precision="FP32" id="258">
			<data alpha="1.0" />
			<input>
				<port id="0">
					<dim>1</dim>
					<dim>64</dim>
					<dim>10</dim>
					<dim>4</dim>
				</port>
			</input>
			<output>
				<port id="1">
					<dim>1</dim>
					<dim>64</dim>
					<dim>10</dim>
					<dim>4</dim>
				</port>
			</output>
		</layer>
		<layer name="bottleneck4_11/dim_inc/conv" type="Convolution" precision="FP32" id="259">
			<data dilations="1,1" group="1" kernel="1,1" output="256" pads_begin="0,0" pads_end="0,0" quantization_level="I8" strides="1,1" />
			<input>
				<port id="0">
					<dim>1</dim>
					<dim>64</dim>
					<dim>10</dim>
					<dim>4</dim>
				</port>
			</input>
			<output>
				<port id="1">
					<dim>1</dim>
					<dim>256</dim>
					<dim>10</dim>
					<dim>4</dim>
				</port>
			</output>
			<blobs>
				<biases offset="2160856" size="1024" />
				<weights offset="2161880" size="65536" />
			</blobs>
		</layer>
		<layer name="bottleneck4_11/add" type="Eltwise" precision="FP32" id="260">
			<data operation="sum" />
			<input>
				<port id="0">
					<dim>1</dim>
					<dim>256</dim>
					<dim>10</dim>
					<dim>4</dim>
				</port>
				<port id="1">
					<dim>1</dim>
					<dim>256</dim>
					<dim>10</dim>
					<dim>4</dim>
				</port>
			</input>
			<output>
				<port id="2">
					<dim>1</dim>
					<dim>256</dim>
					<dim>10</dim>
					<dim>4</dim>
				</port>
			</output>
		</layer>
		<layer name="bottleneck4_11/fn" type="elu" precision="FP32" id="261">
			<data alpha="1.0" />
			<input>
				<port id="0">
					<dim>1</dim>
					<dim>256</dim>
					<dim>10</dim>
					<dim>4</dim>
				</port>
			</input>
			<output>
				<port id="1">
					<dim>1</dim>
					<dim>256</dim>
					<dim>10</dim>
					<dim>4</dim>
				</port>
			</output>
		</layer>
		<layer name="pooling/out" type="Pooling" precision="FP32" id="262">
			<data exclude-pad="true" kernel="10,4" pads_begin="0,0" pads_end="0,0" pool-method="max" rounding_type="ceil" strides="1,1" />
			<input>
				<port id="0">
					<dim>1</dim>
					<dim>256</dim>
					<dim>10</dim>
					<dim>4</dim>
				</port>
			</input>
			<output>
				<port id="1">
					<dim>1</dim>
					<dim>256</dim>
					<dim>1</dim>
					<dim>1</dim>
				</port>
			</output>
		</layer>
		<layer name="embd/dim_inc/conv" type="Convolution" precision="FP32" id="263">
			<data dilations="1,1" group="1" kernel="1,1" output="512" pads_begin="0,0" pads_end="0,0" quantization_level="I8" strides="1,1" />
			<input>
				<port id="0">
					<dim>1</dim>
					<dim>256</dim>
					<dim>1</dim>
					<dim>1</dim>
				</port>
			</input>
			<output>
				<port id="1">
					<dim>1</dim>
					<dim>512</dim>
					<dim>1</dim>
					<dim>1</dim>
				</port>
			</output>
			<blobs>
				<biases offset="2227416" size="2048" />
				<weights offset="2229464" size="524288" />
			</blobs>
		</layer>
		<layer name="embd/dim_inc/fn" type="elu" precision="FP32" id="264">
			<data alpha="1.0" />
			<input>
				<port id="0">
					<dim>1</dim>
					<dim>512</dim>
					<dim>1</dim>
					<dim>1</dim>
				</port>
			</input>
			<output>
				<port id="1">
					<dim>1</dim>
					<dim>512</dim>
					<dim>1</dim>
					<dim>1</dim>
				</port>
			</output>
		</layer>
		<layer name="embd/dim_red/conv" type="Convolution" precision="FP32" id="265">
			<data dilations="1,1" group="1" kernel="1,1" output="256" pads_begin="0,0" pads_end="0,0" quantization_level="I8" strides="1,1" />
			<input>
				<port id="0">
					<dim>1</dim>
					<dim>512</dim>
					<dim>1</dim>
					<dim>1</dim>
				</port>
			</input>
			<output>
				<port id="1">
					<dim>1</dim>
					<dim>256</dim>
					<dim>1</dim>
					<dim>1</dim>
				</port>
			</output>
			<blobs>
				<biases offset="2753752" size="1024" />
				<weights offset="2754776" size="524288" />
			</blobs>
		</layer>
	</layers>
	<edges>
		<edge from-layer="0" from-port="0" to-layer="1" to-port="0" />
		<edge from-layer="1" from-port="1" to-layer="2" to-port="0" />
		<edge from-layer="2" from-port="1" to-layer="3" to-port="0" />
		<edge from-layer="3" from-port="1" to-layer="9" to-port="0" />
		<edge from-layer="3" from-port="1" to-layer="4" to-port="0" />
		<edge from-layer="4" from-port="1" to-layer="5" to-port="0" />
		<edge from-layer="5" from-port="1" to-layer="6" to-port="0" />
		<edge from-layer="6" from-port="1" to-layer="7" to-port="0" />
		<edge from-layer="7" from-port="1" to-layer="8" to-port="0" />
		<edge from-layer="8" from-port="1" to-layer="9" to-port="1" />
		<edge from-layer="9" from-port="2" to-layer="10" to-port="0" />
		<edge from-layer="10" from-port="1" to-layer="16" to-port="0" />
		<edge from-layer="10" from-port="1" to-layer="11" to-port="0" />
		<edge from-layer="11" from-port="1" to-layer="12" to-port="0" />
		<edge from-layer="12" from-port="1" to-layer="13" to-port="0" />
		<edge from-layer="13" from-port="1" to-layer="14" to-port="0" />
		<edge from-layer="14" from-port="1" to-layer="15" to-port="0" />
		<edge from-layer="15" from-port="1" to-layer="16" to-port="1" />
		<edge from-layer="16" from-port="2" to-layer="17" to-port="0" />
		<edge from-layer="17" from-port="1" to-layer="23" to-port="0" />
		<edge from-layer="17" from-port="1" to-layer="18" to-port="0" />
		<edge from-layer="18" from-port="1" to-layer="19" to-port="0" />
		<edge from-layer="19" from-port="1" to-layer="20" to-port="0" />
		<edge from-layer="20" from-port="1" to-layer="21" to-port="0" />
		<edge from-layer="21" from-port="1" to-layer="22" to-port="0" />
		<edge from-layer="22" from-port="1" to-layer="23" to-port="1" />
		<edge from-layer="23" from-port="2" to-layer="24" to-port="0" />
		<edge from-layer="24" from-port="1" to-layer="30" to-port="0" />
		<edge from-layer="24" from-port="1" to-layer="25" to-port="0" />
		<edge from-layer="25" from-port="1" to-layer="26" to-port="0" />
		<edge from-layer="26" from-port="1" to-layer="27" to-port="0" />
		<edge from-layer="27" from-port="1" to-layer="28" to-port="0" />
		<edge from-layer="28" from-port="1" to-layer="29" to-port="0" />
		<edge from-layer="29" from-port="1" to-layer="30" to-port="1" />
		<edge from-layer="30" from-port="2" to-layer="31" to-port="0" />
		<edge from-layer="31" from-port="1" to-layer="34" to-port="0" />
		<edge from-layer="31" from-port="1" to-layer="32" to-port="0" />
		<edge from-layer="32" from-port="1" to-layer="33" to-port="0" />
		<edge from-layer="33" from-port="1" to-layer="39" to-port="0" />
		<edge from-layer="34" from-port="1" to-layer="35" to-port="0" />
		<edge from-layer="35" from-port="1" to-layer="36" to-port="0" />
		<edge from-layer="36" from-port="1" to-layer="37" to-port="0" />
		<edge from-layer="37" from-port="1" to-layer="38" to-port="0" />
		<edge from-layer="38" from-port="1" to-layer="39" to-port="1" />
		<edge from-layer="39" from-port="2" to-layer="40" to-port="0" />
		<edge from-layer="40" from-port="1" to-layer="46" to-port="0" />
		<edge from-layer="40" from-port="1" to-layer="41" to-port="0" />
		<edge from-layer="41" from-port="1" to-layer="42" to-port="0" />
		<edge from-layer="42" from-port="1" to-layer="43" to-port="0" />
		<edge from-layer="43" from-port="1" to-layer="44" to-port="0" />
		<edge from-layer="44" from-port="1" to-layer="45" to-port="0" />
		<edge from-layer="45" from-port="1" to-layer="46" to-port="1" />
		<edge from-layer="46" from-port="2" to-layer="47" to-port="0" />
		<edge from-layer="47" from-port="1" to-layer="53" to-port="0" />
		<edge from-layer="47" from-port="1" to-layer="48" to-port="0" />
		<edge from-layer="48" from-port="1" to-layer="49" to-port="0" />
		<edge from-layer="49" from-port="1" to-layer="50" to-port="0" />
		<edge from-layer="50" from-port="1" to-layer="51" to-port="0" />
		<edge from-layer="51" from-port="1" to-layer="52" to-port="0" />
		<edge from-layer="52" from-port="1" to-layer="53" to-port="1" />
		<edge from-layer="53" from-port="2" to-layer="54" to-port="0" />
		<edge from-layer="54" from-port="1" to-layer="60" to-port="0" />
		<edge from-layer="54" from-port="1" to-layer="55" to-port="0" />
		<edge from-layer="55" from-port="1" to-layer="56" to-port="0" />
		<edge from-layer="56" from-port="1" to-layer="57" to-port="0" />
		<edge from-layer="57" from-port="1" to-layer="58" to-port="0" />
		<edge from-layer="58" from-port="1" to-layer="59" to-port="0" />
		<edge from-layer="59" from-port="1" to-layer="60" to-port="1" />
		<edge from-layer="60" from-port="2" to-layer="61" to-port="0" />
		<edge from-layer="61" from-port="1" to-layer="67" to-port="0" />
		<edge from-layer="61" from-port="1" to-layer="62" to-port="0" />
		<edge from-layer="62" from-port="1" to-layer="63" to-port="0" />
		<edge from-layer="63" from-port="1" to-layer="64" to-port="0" />
		<edge from-layer="64" from-port="1" to-layer="65" to-port="0" />
		<edge from-layer="65" from-port="1" to-layer="66" to-port="0" />
		<edge from-layer="66" from-port="1" to-layer="67" to-port="1" />
		<edge from-layer="67" from-port="2" to-layer="68" to-port="0" />
		<edge from-layer="68" from-port="1" to-layer="74" to-port="0" />
		<edge from-layer="68" from-port="1" to-layer="69" to-port="0" />
		<edge from-layer="69" from-port="1" to-layer="70" to-port="0" />
		<edge from-layer="70" from-port="1" to-layer="71" to-port="0" />
		<edge from-layer="71" from-port="1" to-layer="72" to-port="0" />
		<edge from-layer="72" from-port="1" to-layer="73" to-port="0" />
		<edge from-layer="73" from-port="1" to-layer="74" to-port="1" />
		<edge from-layer="74" from-port="2" to-layer="75" to-port="0" />
		<edge from-layer="75" from-port="1" to-layer="81" to-port="0" />
		<edge from-layer="75" from-port="1" to-layer="76" to-port="0" />
		<edge from-layer="76" from-port="1" to-layer="77" to-port="0" />
		<edge from-layer="77" from-port="1" to-layer="78" to-port="0" />
		<edge from-layer="78" from-port="1" to-layer="79" to-port="0" />
		<edge from-layer="79" from-port="1" to-layer="80" to-port="0" />
		<edge from-layer="80" from-port="1" to-layer="81" to-port="1" />
		<edge from-layer="81" from-port="2" to-layer="82" to-port="0" />
		<edge from-layer="82" from-port="1" to-layer="88" to-port="0" />
		<edge from-layer="82" from-port="1" to-layer="83" to-port="0" />
		<edge from-layer="83" from-port="1" to-layer="84" to-port="0" />
		<edge from-layer="84" from-port="1" to-layer="85" to-port="0" />
		<edge from-layer="85" from-port="1" to-layer="86" to-port="0" />
		<edge from-layer="86" from-port="1" to-layer="87" to-port="0" />
		<edge from-layer="87" from-port="1" to-layer="88" to-port="1" />
		<edge from-layer="88" from-port="2" to-layer="89" to-port="0" />
		<edge from-layer="89" from-port="1" to-layer="95" to-port="0" />
		<edge from-layer="89" from-port="1" to-layer="90" to-port="0" />
		<edge from-layer="90" from-port="1" to-layer="91" to-port="0" />
		<edge from-layer="91" from-port="1" to-layer="92" to-port="0" />
		<edge from-layer="92" from-port="1" to-layer="93" to-port="0" />
		<edge from-layer="93" from-port="1" to-layer="94" to-port="0" />
		<edge from-layer="94" from-port="1" to-layer="95" to-port="1" />
		<edge from-layer="95" from-port="2" to-layer="96" to-port="0" />
		<edge from-layer="96" from-port="1" to-layer="99" to-port="0" />
		<edge from-layer="96" from-port="1" to-layer="97" to-port="0" />
		<edge from-layer="97" from-port="1" to-layer="98" to-port="0" />
		<edge from-layer="98" from-port="1" to-layer="104" to-port="0" />
		<edge from-layer="99" from-port="1" to-layer="100" to-port="0" />
		<edge from-layer="100" from-port="1" to-layer="101" to-port="0" />
		<edge from-layer="101" from-port="1" to-layer="102" to-port="0" />
		<edge from-layer="102" from-port="1" to-layer="103" to-port="0" />
		<edge from-layer="103" from-port="1" to-layer="104" to-port="1" />
		<edge from-layer="104" from-port="2" to-layer="105" to-port="0" />
		<edge from-layer="105" from-port="1" to-layer="111" to-port="0" />
		<edge from-layer="105" from-port="1" to-layer="106" to-port="0" />
		<edge from-layer="106" from-port="1" to-layer="107" to-port="0" />
		<edge from-layer="107" from-port="1" to-layer="108" to-port="0" />
		<edge from-layer="108" from-port="1" to-layer="109" to-port="0" />
		<edge from-layer="109" from-port="1" to-layer="110" to-port="0" />
		<edge from-layer="110" from-port="1" to-layer="111" to-port="1" />
		<edge from-layer="111" from-port="2" to-layer="112" to-port="0" />
		<edge from-layer="112" from-port="1" to-layer="118" to-port="0" />
		<edge from-layer="112" from-port="1" to-layer="113" to-port="0" />
		<edge from-layer="113" from-port="1" to-layer="114" to-port="0" />
		<edge from-layer="114" from-port="1" to-layer="115" to-port="0" />
		<edge from-layer="115" from-port="1" to-layer="116" to-port="0" />
		<edge from-layer="116" from-port="1" to-layer="117" to-port="0" />
		<edge from-layer="117" from-port="1" to-layer="118" to-port="1" />
		<edge from-layer="118" from-port="2" to-layer="119" to-port="0" />
		<edge from-layer="119" from-port="1" to-layer="125" to-port="0" />
		<edge from-layer="119" from-port="1" to-layer="120" to-port="0" />
		<edge from-layer="120" from-port="1" to-layer="121" to-port="0" />
		<edge from-layer="121" from-port="1" to-layer="122" to-port="0" />
		<edge from-layer="122" from-port="1" to-layer="123" to-port="0" />
		<edge from-layer="123" from-port="1" to-layer="124" to-port="0" />
		<edge from-layer="124" from-port="1" to-layer="125" to-port="1" />
		<edge from-layer="125" from-port="2" to-layer="126" to-port="0" />
		<edge from-layer="126" from-port="1" to-layer="132" to-port="0" />
		<edge from-layer="126" from-port="1" to-layer="127" to-port="0" />
		<edge from-layer="127" from-port="1" to-layer="128" to-port="0" />
		<edge from-layer="128" from-port="1" to-layer="129" to-port="0" />
		<edge from-layer="129" from-port="1" to-layer="130" to-port="0" />
		<edge from-layer="130" from-port="1" to-layer="131" to-port="0" />
		<edge from-layer="131" from-port="1" to-layer="132" to-port="1" />
		<edge from-layer="132" from-port="2" to-layer="133" to-port="0" />
		<edge from-layer="133" from-port="1" to-layer="139" to-port="0" />
		<edge from-layer="133" from-port="1" to-layer="134" to-port="0" />
		<edge from-layer="134" from-port="1" to-layer="135" to-port="0" />
		<edge from-layer="135" from-port="1" to-layer="136" to-port="0" />
		<edge from-layer="136" from-port="1" to-layer="137" to-port="0" />
		<edge from-layer="137" from-port="1" to-layer="138" to-port="0" />
		<edge from-layer="138" from-port="1" to-layer="139" to-port="1" />
		<edge from-layer="139" from-port="2" to-layer="140" to-port="0" />
		<edge from-layer="140" from-port="1" to-layer="146" to-port="0" />
		<edge from-layer="140" from-port="1" to-layer="141" to-port="0" />
		<edge from-layer="141" from-port="1" to-layer="142" to-port="0" />
		<edge from-layer="142" from-port="1" to-layer="143" to-port="0" />
		<edge from-layer="143" from-port="1" to-layer="144" to-port="0" />
		<edge from-layer="144" from-port="1" to-layer="145" to-port="0" />
		<edge from-layer="145" from-port="1" to-layer="146" to-port="1" />
		<edge from-layer="146" from-port="2" to-layer="147" to-port="0" />
		<edge from-layer="147" from-port="1" to-layer="153" to-port="0" />
		<edge from-layer="147" from-port="1" to-layer="148" to-port="0" />
		<edge from-layer="148" from-port="1" to-layer="149" to-port="0" />
		<edge from-layer="149" from-port="1" to-layer="150" to-port="0" />
		<edge from-layer="150" from-port="1" to-layer="151" to-port="0" />
		<edge from-layer="151" from-port="1" to-layer="152" to-port="0" />
		<edge from-layer="152" from-port="1" to-layer="153" to-port="1" />
		<edge from-layer="153" from-port="2" to-layer="154" to-port="0" />
		<edge from-layer="154" from-port="1" to-layer="160" to-port="0" />
		<edge from-layer="154" from-port="1" to-layer="155" to-port="0" />
		<edge from-layer="155" from-port="1" to-layer="156" to-port="0" />
		<edge from-layer="156" from-port="1" to-layer="157" to-port="0" />
		<edge from-layer="157" from-port="1" to-layer="158" to-port="0" />
		<edge from-layer="158" from-port="1" to-layer="159" to-port="0" />
		<edge from-layer="159" from-port="1" to-layer="160" to-port="1" />
		<edge from-layer="160" from-port="2" to-layer="161" to-port="0" />
		<edge from-layer="161" from-port="1" to-layer="167" to-port="0" />
		<edge from-layer="161" from-port="1" to-layer="162" to-port="0" />
		<edge from-layer="162" from-port="1" to-layer="163" to-port="0" />
		<edge from-layer="163" from-port="1" to-layer="164" to-port="0" />
		<edge from-layer="164" from-port="1" to-layer="165" to-port="0" />
		<edge from-layer="165" from-port="1" to-layer="166" to-port="0" />
		<edge from-layer="166" from-port="1" to-layer="167" to-port="1" />
		<edge from-layer="167" from-port="2" to-layer="168" to-port="0" />
		<edge from-layer="168" from-port="1" to-layer="174" to-port="0" />
		<edge from-layer="168" from-port="1" to-layer="169" to-port="0" />
		<edge from-layer="169" from-port="1" to-layer="170" to-port="0" />
		<edge from-layer="170" from-port="1" to-layer="171" to-port="0" />
		<edge from-layer="171" from-port="1" to-layer="172" to-port="0" />
		<edge from-layer="172" from-port="1" to-layer="173" to-port="0" />
		<edge from-layer="173" from-port="1" to-layer="174" to-port="1" />
		<edge from-layer="174" from-port="2" to-layer="175" to-port="0" />
		<edge from-layer="175" from-port="1" to-layer="178" to-port="0" />
		<edge from-layer="175" from-port="1" to-layer="176" to-port="0" />
		<edge from-layer="176" from-port="1" to-layer="177" to-port="0" />
		<edge from-layer="177" from-port="1" to-layer="183" to-port="0" />
		<edge from-layer="178" from-port="1" to-layer="179" to-port="0" />
		<edge from-layer="179" from-port="1" to-layer="180" to-port="0" />
		<edge from-layer="180" from-port="1" to-layer="181" to-port="0" />
		<edge from-layer="181" from-port="1" to-layer="182" to-port="0" />
		<edge from-layer="182" from-port="1" to-layer="183" to-port="1" />
		<edge from-layer="183" from-port="2" to-layer="184" to-port="0" />
		<edge from-layer="184" from-port="1" to-layer="190" to-port="0" />
		<edge from-layer="184" from-port="1" to-layer="185" to-port="0" />
		<edge from-layer="185" from-port="1" to-layer="186" to-port="0" />
		<edge from-layer="186" from-port="1" to-layer="187" to-port="0" />
		<edge from-layer="187" from-port="1" to-layer="188" to-port="0" />
		<edge from-layer="188" from-port="1" to-layer="189" to-port="0" />
		<edge from-layer="189" from-port="1" to-layer="190" to-port="1" />
		<edge from-layer="190" from-port="2" to-layer="191" to-port="0" />
		<edge from-layer="191" from-port="1" to-layer="197" to-port="0" />
		<edge from-layer="191" from-port="1" to-layer="192" to-port="0" />
		<edge from-layer="192" from-port="1" to-layer="193" to-port="0" />
		<edge from-layer="193" from-port="1" to-layer="194" to-port="0" />
		<edge from-layer="194" from-port="1" to-layer="195" to-port="0" />
		<edge from-layer="195" from-port="1" to-layer="196" to-port="0" />
		<edge from-layer="196" from-port="1" to-layer="197" to-port="1" />
		<edge from-layer="197" from-port="2" to-layer="198" to-port="0" />
		<edge from-layer="198" from-port="1" to-layer="204" to-port="0" />
		<edge from-layer="198" from-port="1" to-layer="199" to-port="0" />
		<edge from-layer="199" from-port="1" to-layer="200" to-port="0" />
		<edge from-layer="200" from-port="1" to-layer="201" to-port="0" />
		<edge from-layer="201" from-port="1" to-layer="202" to-port="0" />
		<edge from-layer="202" from-port="1" to-layer="203" to-port="0" />
		<edge from-layer="203" from-port="1" to-layer="204" to-port="1" />
		<edge from-layer="204" from-port="2" to-layer="205" to-port="0" />
		<edge from-layer="205" from-port="1" to-layer="211" to-port="0" />
		<edge from-layer="205" from-port="1" to-layer="206" to-port="0" />
		<edge from-layer="206" from-port="1" to-layer="207" to-port="0" />
		<edge from-layer="207" from-port="1" to-layer="208" to-port="0" />
		<edge from-layer="208" from-port="1" to-layer="209" to-port="0" />
		<edge from-layer="209" from-port="1" to-layer="210" to-port="0" />
		<edge from-layer="210" from-port="1" to-layer="211" to-port="1" />
		<edge from-layer="211" from-port="2" to-layer="212" to-port="0" />
		<edge from-layer="212" from-port="1" to-layer="218" to-port="0" />
		<edge from-layer="212" from-port="1" to-layer="213" to-port="0" />
		<edge from-layer="213" from-port="1" to-layer="214" to-port="0" />
		<edge from-layer="214" from-port="1" to-layer="215" to-port="0" />
		<edge from-layer="215" from-port="1" to-layer="216" to-port="0" />
		<edge from-layer="216" from-port="1" to-layer="217" to-port="0" />
		<edge from-layer="217" from-port="1" to-layer="218" to-port="1" />
		<edge from-layer="218" from-port="2" to-layer="219" to-port="0" />
		<edge from-layer="219" from-port="1" to-layer="225" to-port="0" />
		<edge from-layer="219" from-port="1" to-layer="220" to-port="0" />
		<edge from-layer="220" from-port="1" to-layer="221" to-port="0" />
		<edge from-layer="221" from-port="1" to-layer="222" to-port="0" />
		<edge from-layer="222" from-port="1" to-layer="223" to-port="0" />
		<edge from-layer="223" from-port="1" to-layer="224" to-port="0" />
		<edge from-layer="224" from-port="1" to-layer="225" to-port="1" />
		<edge from-layer="225" from-port="2" to-layer="226" to-port="0" />
		<edge from-layer="226" from-port="1" to-layer="232" to-port="0" />
		<edge from-layer="226" from-port="1" to-layer="227" to-port="0" />
		<edge from-layer="227" from-port="1" to-layer="228" to-port="0" />
		<edge from-layer="228" from-port="1" to-layer="229" to-port="0" />
		<edge from-layer="229" from-port="1" to-layer="230" to-port="0" />
		<edge from-layer="230" from-port="1" to-layer="231" to-port="0" />
		<edge from-layer="231" from-port="1" to-layer="232" to-port="1" />
		<edge from-layer="232" from-port="2" to-layer="233" to-port="0" />
		<edge from-layer="233" from-port="1" to-layer="239" to-port="0" />
		<edge from-layer="233" from-port="1" to-layer="234" to-port="0" />
		<edge from-layer="234" from-port="1" to-layer="235" to-port="0" />
		<edge from-layer="235" from-port="1" to-layer="236" to-port="0" />
		<edge from-layer="236" from-port="1" to-layer="237" to-port="0" />
		<edge from-layer="237" from-port="1" to-layer="238" to-port="0" />
		<edge from-layer="238" from-port="1" to-layer="239" to-port="1" />
		<edge from-layer="239" from-port="2" to-layer="240" to-port="0" />
		<edge from-layer="240" from-port="1" to-layer="246" to-port="0" />
		<edge from-layer="240" from-port="1" to-layer="241" to-port="0" />
		<edge from-layer="241" from-port="1" to-layer="242" to-port="0" />
		<edge from-layer="242" from-port="1" to-layer="243" to-port="0" />
		<edge from-layer="243" from-port="1" to-layer="244" to-port="0" />
		<edge from-layer="244" from-port="1" to-layer="245" to-port="0" />
		<edge from-layer="245" from-port="1" to-layer="246" to-port="1" />
		<edge from-layer="246" from-port="2" to-layer="247" to-port="0" />
		<edge from-layer="247" from-port="1" to-layer="253" to-port="0" />
		<edge from-layer="247" from-port="1" to-layer="248" to-port="0" />
		<edge from-layer="248" from-port="1" to-layer="249" to-port="0" />
		<edge from-layer="249" from-port="1" to-layer="250" to-port="0" />
		<edge from-layer="250" from-port="1" to-layer="251" to-port="0" />
		<edge from-layer="251" from-port="1" to-layer="252" to-port="0" />
		<edge from-layer="252" from-port="1" to-layer="253" to-port="1" />
		<edge from-layer="253" from-port="2" to-layer="254" to-port="0" />
		<edge from-layer="254" from-port="1" to-layer="260" to-port="0" />
		<edge from-layer="254" from-port="1" to-layer="255" to-port="0" />
		<edge from-layer="255" from-port="1" to-layer="256" to-port="0" />
		<edge from-layer="256" from-port="1" to-layer="257" to-port="0" />
		<edge from-layer="257" from-port="1" to-layer="258" to-port="0" />
		<edge from-layer="258" from-port="1" to-layer="259" to-port="0" />
		<edge from-layer="259" from-port="1" to-layer="260" to-port="1" />
		<edge from-layer="260" from-port="2" to-layer="261" to-port="0" />
		<edge from-layer="261" from-port="1" to-layer="262" to-port="0" />
		<edge from-layer="262" from-port="1" to-layer="263" to-port="0" />
		<edge from-layer="263" from-port="1" to-layer="264" to-port="0" />
		<edge from-layer="264" from-port="1" to-layer="265" to-port="0" />
	</edges>
	<statistics>
		<layer>
			<name>Mul_12463/Fused_Mul_/FusedScaleShift_</name>
			<min>-7.544135, -5.847231, -6.092403</min>
			<max>13.969815, 16.159275, 14.348620</max>
		</layer>
		<layer>
			<name>bottleneck1_1/add</name>
			<min>… -0.431641</min>
			<max>… 21.526442</max>
		</layer>
		<layer>
			<name>bottleneck1_1/dim_inc/conv</name>
			<min>… -0.856946</min>
			<max>… 0.237567</max>
		</layer>
		<layer>
			<name>bottleneck1_1/dim_red/conv</name>
			<min>-2.345264, -3.483873, -2.448731, -1.675798, 1.466744, -14.149829, -18.651485, -16.694931</min>
			<max>0.859146, 3.523897, 4.249568, 2.084952, 4.486871, -1.529073, 7.501638, -5.629091</max>
		</layer>
		<layer>
			<name>bottleneck1_1/dim_red/fn</name>
			<min>-0.904178, -0.969312, -0.913597, -0.812841, 1.466744, -0.999999, -1.000000, -1.000000</min>
			<max>0.859146, 3.523897, 4.249568, 2.084952, 4.486871, -0.783263, 7.501638, -0.996408</max>
		</layer>
		<layer>
			<name>bottleneck1_1/fn</name>
			<min>… -0.350557</min>
			<max>… 21.526442</max>
		</layer>
		<layer>
			<name>bottleneck1_1/inner/dw1/conv</name>
			<min>-15.665742, -4.268371, -14.139280, -10.190808, -11.370741, -1.590492, -4.640110, 4.545935</min>
			<max>16.543169, 4.232553, 14.309246, 11.120269, 13.635185, -0.548547, 9.836248, 8.453465</max>
		</layer>
		<layer>
			<name>bottleneck1_1/inner/dw1/fn</name>
			<min>-1.000000, -0.985995, -0.999999, -0.999963, -0.999988, -0.796175, -0.990343, 4.545935</min>
			<max>16.543169, 4.232553, 14.309246, 11.120269, 13.635185, -0.422211, 9.836248, 8.453465</max>
		</layer>
		<layer>
			<name>bottleneck1_2/add</name>
			<min>… -0.813684</min>
			<max>… 21.320288</max>
		</layer>
		<layer>
			<name>bottleneck1_2/dim_inc/conv</name>
			<min>… -1.022450</min>
			<max>… 0.559161</max>
		</layer>
		<layer>
			<name>bottleneck1_2/dim_red/conv</name>
			<min>-14.527458, 0.641384, -5.342405, -2.297827, -1.967197, -31.623806, -0.433041, 0.039884</min>
			<max>19.266750, 3.958624, 6.136565, 1.853126, 2.720412, 1.944978, 7.434876, 4.314292</max>
		</layer>
		<layer>
			<name>bottleneck1_2/dim_red/fn</name>
			<min>-1.000000, 0.641384, -0.995216, -0.899523, -0.860152, -1.000000, -0.351466, 0.039884</min>
			<max>19.266750, 3.958624, 6.136565, 1.853126, 2.720412, 1.944978, 7.434876, 4.314292</max>
		</layer>
		<layer>
			<name>bottleneck1_2/fn</name>
			<min>… -0.556778</min>
			<max>… 21.320288</max>
		</layer>
		<layer>
			<name>bottleneck1_2/inner/dw1/conv</name>
			<min>-13.966626, -19.270340, -16.970600, -8.853220, -14.661653, -6.767017, -28.517368, -22.944078</min>
			<max>8.726704, 9.907817, 9.495504, 10.482599, 8.825161, 9.304645, 17.229000, 18.002060</max>
		</layer>
		<layer>
			<name>bottleneck1_2/inner/dw1/fn</name>
			<min>-0.999999, -1.000000, -1.000000, -0.999857, -1.000000, -0.998849, -1.000000, -1.000000</min>
			<max>8.726704, 9.907817, 9.495504, 10.482599, 8.825161, 9.304645, 17.229000, 18.002060</max>
		</layer>
		<layer>
			<name>bottleneck1_3/add</name>
			<min>… -1.150626</min>
			<max>… 21.010542</max>
		</layer>
		<layer>
			<name>bottleneck1_3/dim_inc/conv</name>
			<min>… -0.989315</min>
			<max>… 0.394444</max>
		</layer>
		<layer>
			<name>bottleneck1_3/dim_red/conv</name>
			<min>-0.864752, -4.716152, -2.071446, -7.491924, -8.429631, -5.127607, -22.875950, -8.049941</min>
			<max>0.848731, 1.776378, 0.763406, 4.246593, 4.267557, 3.234981, 3.041462, 4.356381</max>
		</layer>
		<layer>
			<name>bottleneck1_3/dim_red/fn</name>
			<min>-0.578844, -0.991050, -0.873997, -0.999442, -0.999782, -0.994069, -1.000000, -0.999681</min>
			<max>0.848731, 1.776378, 0.763406, 4.246593, 4.267557, 3.234981, 3.041462, 4.356381</max>
		</layer>
		<layer>
			<name>bottleneck1_3/fn</name>
			<min>… -0.683561</min>
			<max>… 21.010542</max>
		</layer>
		<layer>
			<name>bottleneck1_3/inner/dw1/conv</name>
			<min>-11.245481, -8.716015, -21.996473, -12.187347, -7.390284, -3.478449, -16.429571, -7.316119</min>
			<max>13.498926, 10.171863, 21.712864, 8.211781, 12.895082, 9.060236, 13.893068, 12.501972</max>
		</layer>
		<layer>
			<name>bottleneck1_3/inner/dw1/fn</name>
			<min>-0.999987, -0.999836, -1.000000, -0.999995, -0.999383, -0.969145, -1.000000, -0.999335</min>
			<max>13.498926, 10.171863, 21.712864, 8.211781, 12.895082, 9.060236, 13.893068, 12.501972</max>
		</layer>
		<layer>
			<name>bottleneck1_4/add</name>
			<min>… -1.405642</min>
			<max>… 20.680326</max>
		</layer>
		<layer>
			<name>bottleneck1_4/dim_inc/conv</name>
			<min>… -1.349007</min>
			<max>… 0.356940</max>
		</layer>
		<layer>
			<name>bottleneck1_4/dim_red/conv</name>
			<min>-3.353118, -1.239231, -3.623266, -3.451778, -7.140793, -8.408805, -1.695616, -13.151675</min>
			<max>0.765140, 0.543969, 8.318032, 5.471313, 3.807712, 6.178315, 3.444075, 9.155450</max>
		</layer>
		<layer>
			<name>bottleneck1_4/dim_red/fn</name>
			<min>-0.965025, -0.710393, -0.973305, -0.968311, -0.999208, -0.999777, -0.816514, -0.999998</min>
			<max>0.765140, 0.543969, 8.318032, 5.471313, 3.807712, 6.178315, 3.444075, 9.155450</max>
		</layer>
		<layer>
			<name>bottleneck1_4/fn</name>
			<min>… -0.754790</min>
			<max>… 20.680326</max>
		</layer>
		<layer>
			<name>bottleneck1_4/inner/dw1/conv</name>
			<min>-7.285099, -15.366379, -18.388123, -9.016066, -10.561771, -16.952526, -15.788152, 0.056010</min>
			<max>9.744782, 18.151960, 14.801805, 11.553506, 13.457832, 10.487909, 16.716066, 5.876933</max>
		</layer>
		<layer>
			<name>bottleneck1_4/inner/dw1/fn</name>
			<min>-0.999314, -1.000000, -1.000000, -0.999879, -0.999974, -1.000000, -1.000000, 0.056010</min>
			<max>9.744782, 18.151960, 14.801805, 11.553506, 13.457832, 10.487909, 16.716066, 5.876933</max>
		</layer>
		<layer>
			<name>bottleneck2_0/add</name>
			<min>… -8.832293</min>
			<max>… 8.537099</max>
		</layer>
		<layer>
			<name>bottleneck2_0/dim_inc/conv</name>
			<min>… -6.824018</min>
			<max>… 3.945211</max>
		</layer>
		<layer>
			<name>bottleneck2_0/dim_red/conv</name>
			<min>-1.309842, -0.609573, -10.564269, -1.458418, -7.316917, -2.050918, -7.936263, -3.519638, -4.531770, -8.999517, -5.863572, -10.323395, -17.362555, -6.018210, -1.196396, -1.357128</min>
			<max>6.740036, 1.665079, 3.602199, 0.689391, 7.723797, 6.935533, 2.644769, 2.544573, 10.972413, 9.172832, 3.242238, 8.372589, 0.855564, 4.108685, 0.373133, 4.175597</max>
		</layer>
		<layer>
			<name>bottleneck2_0/dim_red/fn</name>
			<min>-0.730137, -0.456417, -0.999974, -0.767396, -0.999336, -0.871383, -0.999642, -0.970390, -0.989238, -0.999877, -0.997159, -0.999967, -1.000000, -0.997566, -0.697719, -0.742601</min>
			<max>6.740036, 1.665079, 3.602199, 0.689391, 7.723797, 6.935533, 2.644769, 2.544573, 10.972413, 9.172832, 3.242238, 8.372589, 0.855564, 4.108685, 0.373133, 4.175597</max>
		</layer>
		<layer>
			<name>bottleneck2_0/fn</name>
			<min>… -0.999854</min>
			<max>… 8.537099</max>
		</layer>
		<layer>
			<name>bottleneck2_0/inner/dw1/conv</name>
			<min>-16.785168, -4.923998, -2.717082, -3.799621, -10.198610, -11.115512, -1.444355, -9.978189, -1.645285, -1.277002, -9.032009, -10.769062, -1.145059, -0.519275, -0.700265, -8.628146</min>
			<max>5.703014, 8.170553, 2.236947, 4.447093, 3.237406, 4.717447, 4.088591, 10.288074, 4.593725, 6.308615, 7.739987, 1.987495, 5.448878, 6.609648, 9.308209, 7.105622</max>
		</layer>
		<layer>
			<name>bottleneck2_0/inner/dw1/fn</name>
			<min>-1.000000, -0.992730, -0.933933, -0.977621, -0.999963, -0.999985, -0.764102, -0.999954, -0.807042, -0.721128, -0.999880, -0.999979, -0.681795, -0.405048, -0.503546, -0.999821</min>
			<max>5.703014, 8.170553, 2.236947, 4.447093, 3.237406, 4.717447, 4.088591, 10.288074, 4.593725, 6.308615, 7.739987, 1.987495, 5.448878, 6.609648, 9.308209, 7.105622</max>
		</layer>
		<layer>
			<name>bottleneck2_0/skip/conv</name>
			<min>… -5.127474</min>
			<max>… 9.047571</max>
		</layer>
		<layer>
			<name>bottleneck2_0/skip/pooling</name>
			<min>… -0.625041</min>
			<max>… 20.680326</max>
		</layer>
		<layer>
			<name>bottleneck2_1/add</name>
			<min>… -3.668283</min>
			<max>… 8.813086</max>
		</layer>
		<layer>
			<name>bottleneck2_1/dim_inc/conv</name>
			<min>… -2.896523</min>
			<max>… 2.253342</max>
		</layer>
		<layer>
			<name>bottleneck2_1/dim_red/conv</name>
			<min>-1.030230, -0.807304, -11.347713, -1.369463, -1.399229, -0.253424, -3.258247, -2.279833, -1.864601, -1.113933, -2.367805, -11.215410, -2.137455, -1.170825, -4.484275, -5.194501</min>
			<max>0.463623, 2.342188, 0.391163, 1.961064, 2.694824, 2.827661, 1.761798, 1.681891, 2.391864, 5.474052, 0.912488, 1.033226, 2.641884, 1.961513, 4.091580, 0.493010</max>
		</layer>
		<layer>
			<name>bottleneck2_1/dim_red/fn</name>
			<min>-0.643075, -0.553941, -0.999988, -0.745756, -0.753213, -0.223861, -0.961544, -0.897699, -0.845042, -0.671735, -0.906314, -0.999987, -0.882045, -0.689889, -0.988715, -0.994453</min>
			<max>0.463623, 2.342188, 0.391163, 1.961064, 2.694824, 2.827661, 1.761798, 1.681891, 2.391864, 5.474052, 0.912488, 1.033226, 2.641884, 1.961513, 4.091580, 0.493010</max>
		</layer>
		<layer>
			<name>bottleneck2_1/fn</name>
			<min>… -0.974480</min>
			<max>… 8.813086</max>
		</layer>
		<layer>
			<name>bottleneck2_1/inner/dw1/conv</name>
			<min>-6.789689, -9.224792, 0.075883, -6.306935, -10.647430, -7.667104, -8.336306, -7.193396, -5.873052, -6.625001, -10.780864, -7.577832, -10.618340, -7.661003, -0.401280, -2.550392</min>
			<max>5.473939, 6.798220, 17.105692, 6.463168, 9.354622, 6.650224, 5.431865, 8.315123, 6.869275, 2.715472, 9.187077, 6.568373, 6.027367, 5.716345, 4.469246, 4.526782</max>
		</layer>
		<layer>
			<name>bottleneck2_1/inner/dw1/fn</name>
			<min>-0.998875, -0.999901, 0.075883, -0.998176, -0.999976, -0.999532, -0.999760, -0.999248, -0.997186, -0.998673, -0.999979, -0.999488, -0.999976, -0.999529, -0.330537, -0.921949</min>
			<max>5.473939, 6.798220, 17.105692, 6.463168, 9.354622, 6.650224, 5.431865, 8.315123, 6.869275, 2.715472, 9.187077, 6.568373, 6.027367, 5.716345, 4.469246, 4.526782</max>
		</layer>
		<layer>
			<name>bottleneck2_2/add</name>
			<min>… -4.271040</min>
			<max>… 8.639641</max>
		</layer>
		<layer>
			<name>bottleneck2_2/dim_inc/conv</name>
			<min>… -4.013773</min>
			<max>… 3.275176</max>
		</layer>
		<layer>
			<name>bottleneck2_2/dim_red/conv</name>
			<min>-0.554951, -7.966205, -5.785120, -2.531067, -3.651021, -5.805070, -0.847433, -0.805140, -4.942707, -1.326499, -5.606402, -3.109989, -2.687209, -0.556979, -4.273510, -0.340045</min>
			<max>1.278551, 5.194158, 2.076676, 2.316893, 5.050905, 8.734036, 4.317528, 3.776850, 4.043466, 2.570471, 3.716887, 10.829070, 0.867459, 0.418473, 2.360762, 3.225065</max>
		</layer>
		<layer>
			<name>bottleneck2_2/dim_red/fn</name>
			<min>-0.425900, -0.999653, -0.996927, -0.920426, -0.974035, -0.996988, -0.571487, -0.552974, -0.992865, -0.734595, -0.996326, -0.955399, -0.931929, -0.427063, -0.986067, -0.288261</min>
			<max>1.278551, 5.194158, 2.076676, 2.316893, 5.050905, 8.734036, 4.317528, 3.776850, 4.043466, 2.570471, 3.716887, 10.829070, 0.867459, 0.418473, 2.360762, 3.225065</max>
		</layer>
		<layer>
			<name>bottleneck2_2/fn</name>
			<min>… -0.986033</min>
			<max>… 8.639641</max>
		</layer>
		<layer>
			<name>bottleneck2_2/inner/dw1/conv</name>
			<min>-1.945642, -2.146410, -4.633045, -6.466223, -8.093841, -10.099410, -3.940373, -6.150688, -1.936057, -2.725491, -8.908745, -3.035046, -5.706163, -4.671412, -4.353979, -10.533093</min>
			<max>7.008329, 4.585787, 4.429253, 6.075193, 9.065619, 1.131119, 5.099010, 4.086017, 4.907556, 4.204651, 3.799119, 7.773941, 7.100238, 6.058403, 4.627644, 6.650741</max>
		</layer>
		<layer>
			<name>bottleneck2_2/inner/dw1/fn</name>
			<min>-0.857105, -0.883097, -0.990275, -0.998445, -0.999695, -0.999959, -0.980559, -0.997868, -0.855728, -0.934486, -0.999865, -0.951928, -0.996675, -0.990641, -0.987144, -0.999973</min>
			<max>7.008329, 4.585787, 4.429253, 6.075193, 9.065619, 1.131119, 5.099010, 4.086017, 4.907556, 4.204651, 3.799119, 7.773941, 7.100238, 6.058403, 4.627644, 6.650741</max>
		</layer>
		<layer>
			<name>bottleneck2_3/add</name>
			<min>… -3.477021</min>
			<max>… 10.098480</max>
		</layer>
		<layer>
			<name>bottleneck2_3/dim_inc/conv</name>
			<min>… -2.735608</min>
			<max>… 5.344311</max>
		</layer>
		<layer>
			<name>bottleneck2_3/dim_red/conv</name>
			<min>-5.896555, -3.684017, -2.630352, -6.853603, -5.177378, -3.091345, -8.383968, -2.311630, -5.751836, -1.136706, -7.349143, -0.805341, -5.517481, -0.181024, 0.090548, -9.635296</min>
			<max>4.503191, 3.571601, 2.652910, 4.890831, 1.022629, 5.774266, 5.412754, 3.955971, -0.160131, 2.309803, 3.939992, 2.999946, 3.558419, 3.136922, 2.772289, 2.731617</max>
		</layer>
		<layer>
			<name>bottleneck2_3/dim_red/fn</name>
			<min>-0.997251, -0.974878, -0.927947, -0.998944, -0.994357, -0.954559, -0.999771, -0.900900, -0.996823, -0.679126, -0.999357, -0.553065, -0.995984, -0.165585, 0.090548, -0.999935</min>
			<max>4.503191, 3.571601, 2.652910, 4.890831, 1.022629, 5.774266, 5.412754, 3.955971, -0.147968, 2.309803, 3.939992, 2.999946, 3.558419, 3.136922, 2.772289, 2.731617</max>
		</layer>
		<layer>
			<name>bottleneck2_3/fn</name>
			<min>… -0.969101</min>
			<max>… 10.098480</max>
		</layer>
		<layer>
			<name>bottleneck2_3/inner/dw1/conv</name>
			<min>-3.818505, -1.838352, -6.115121, -3.517312, -4.998332, -7.129200, -3.463901, -5.748535, 0.243797, -2.681801, -3.424387, -11.125020, -2.022352, -11.010452, -6.915288, -0.681680</min>
			<max>2.930062, 4.312238, 4.476756, 5.045087, 3.265984, 4.002633, 3.585163, 7.299578, 5.032330, 5.287866, 6.817801, 3.567193, 3.655827, 5.167276, 5.715882, 7.882167</max>
		</layer>
		<layer>
			<name>bottleneck2_3/inner/dw1/fn</name>
			<min>-0.978039, -0.840921, -0.997791, -0.970321, -0.993251, -0.999199, -0.968693, -0.996813, 0.243797, -0.931560, -0.967431, -0.999985, -0.867656, -0.999983, -0.999008, -0.494233</min>
			<max>2.930062, 4.312238, 4.476756, 5.045087, 3.265984, 4.002633, 3.585163, 7.299578, 5.032330, 5.287866, 6.817801, 3.567193, 3.655827, 5.167276, 5.715882, 7.882167</max>
		</layer>
		<layer>
			<name>bottleneck2_4/add</name>
			<min>… -7.412551</min>
			<max>… 10.672613</max>
		</layer>
		<layer>
			<name>bottleneck2_4/dim_inc/conv</name>
			<min>… -6.700880</min>
			<max>… 3.581927</max>
		</layer>
		<layer>
			<name>bottleneck2_4/dim_red/conv</name>
			<min>-1.921104, -9.024740, -6.290643, -1.116384, -10.439615, -5.662932, -5.751257, -8.998693, -10.227032, -8.247519, -1.973770, -5.072228, -5.809977, -3.914687, -2.317639, -1.138616</min>
			<max>2.089786, 6.050493, 0.606842, 2.235493, 1.188358, 3.061469, 2.269751, 4.579395, 2.933989, 4.961007, 4.097688, 1.087711, 2.358335, 5.176782, 0.853631, 4.267452</max>
		</layer>
		<layer>
			<name>bottleneck2_4/dim_red/fn</name>
			<min>-0.853555, -0.999880, -0.998146, -0.672538, -0.999971, -0.996528, -0.996821, -0.999876, -0.999964, -0.999738, -0.861068, -0.993732, -0.997002, -0.980053, -0.901494, -0.679738</min>
			<max>2.089786, 6.050493, 0.606842, 2.235493, 1.188358, 3.061469, 2.269751, 4.579395, 2.933989, 4.961007, 4.097688, 1.087711, 2.358335, 5.176782, 0.853631, 4.267452</max>
		</layer>
		<layer>
			<name>bottleneck2_4/fn</name>
			<min>… -0.999396</min>
			<max>… 10.672613</max>
		</layer>
		<layer>
			<name>bottleneck2_4/inner/dw1/conv</name>
			<min>-11.480684, -1.589092, -0.432000, -10.294924, -1.762145, -1.997184, -1.496810, -3.313840, -1.399459, -0.749321, -8.094102, -11.103234, -3.018419, -1.908222, -8.519398, -10.627183</min>
			<max>6.550375, 5.594074, 5.025330, 5.927168, 15.152364, 4.599067, 7.486979, 4.394524, 5.194144, 5.324868, 6.816219, 4.596372, 4.483212, 5.550583, 6.691002, 6.381878</max>
		</layer>
		<layer>
			<name>bottleneck2_4/inner/dw1/fn</name>
			<min>-0.999990, -0.795889, -0.350790, -0.999966, -0.828324, -0.864283, -0.776157, -0.963624, -0.753270, -0.527312, -0.999695, -0.999985, -0.951122, -0.851656, -0.999800, -0.999976</min>
			<max>6.550375, 5.594074, 5.025330, 5.927168, 15.152364, 4.599067, 7.486979, 4.394524, 5.194144, 5.324868, 6.816219, 4.596372, 4.483212, 5.550583, 6.691002, 6.381878</max>
		</layer>
		<layer>
			<name>bottleneck2_5/add</name>
			<min>… -6.144842</min>
			<max>… 13.543088</max>
		</layer>
		<layer>
			<name>bottleneck2_5/dim_inc/conv</name>
			<min>… -5.216267</min>
			<max>… 4.545459</max>
		</layer>
		<layer>
			<name>bottleneck2_5/dim_red/conv</name>
			<min>-7.420032, -4.853475, -3.979525, -1.765080, -0.776885, -6.956230, -2.122299, -8.731768, -8.068167, -5.874955, -2.438537, -8.105461, -5.105302, -5.670575, -10.379829, -7.739354</min>
			<max>5.075611, 7.002549, 2.484169, 2.539462, 0.374769, 4.764128, 2.941411, 2.073737, 4.686712, 8.595587, 2.856573, 4.456848, 4.136664, 2.464185, 2.842568, 3.638319</max>
		</layer>
		<layer>
			<name>bottleneck2_5/dim_red/fn</name>
			<min>-0.999401, -0.992199, -0.981305, -0.828827, -0.540164, -0.999047, -0.880244, -0.999839, -0.999687, -0.997191, -0.912712, -0.999698, -0.993935, -0.996554, -0.999969, -0.999565</min>
			<max>5.075611, 7.002549, 2.484169, 2.539462, 0.374769, 4.764128, 2.941411, 2.073737, 4.686712, 8.595587, 2.856573, 4.456848, 4.136664, 2.464185, 2.842568, 3.638319</max>
		</layer>
		<layer>
			<name>bottleneck2_5/fn</name>
			<min>… -0.997855</min>
			<max>… 13.543088</max>
		</layer>
		<layer>
			<name>bottleneck2_5/inner/dw1/conv</name>
			<min>-1.639851, -6.801678, -2.909323, -3.606157, -6.928825, -4.836499, -3.666695, -5.396583, -2.823870, -2.452957, -11.411735, -2.384505, -6.807999, -6.041080, -6.377373, -3.715486</min>
			<max>3.116727, 2.534973, 2.362776, 3.950027, 6.627708, 2.016491, 4.924425, 1.881060, 4.471644, 5.836935, 7.363138, 4.308395, 5.137532, 4.641644, 3.747802, 2.636051</max>
		</layer>
		<layer>
			<name>bottleneck2_5/inner/dw1/fn</name>
			<min>-0.805991, -0.998888, -0.945487, -0.972844, -0.999021, -0.992065, -0.974439, -0.995468, -0.940624, -0.913961, -0.999989, -0.907865, -0.998895, -0.997621, -0.998300, -0.975656</min>
			<max>3.116727, 2.534973, 2.362776, 3.950027, 6.627708, 2.016491, 4.924425, 1.881060, 4.471644, 5.836935, 7.363138, 4.308395, 5.137532, 4.641644, 3.747802, 2.636051</max>
		</layer>
		<layer>
			<name>bottleneck2_6/add</name>
			<min>… -4.839922</min>
			<max>… 16.372393</max>
		</layer>
		<layer>
			<name>bottleneck2_6/dim_inc/conv</name>
			<min>… -3.933206</min>
			<max>… 5.983053</max>
		</layer>
		<layer>
			<name>bottleneck2_6/dim_red/conv</name>
			<min>-8.199844, -2.941681, -2.570738, -3.025784, -3.941689, -3.489615, -4.712763, -0.626799, -0.261184, -5.092608, -1.735139, -1.720493, -2.033729, -1.766492, -4.584946, -1.876982</min>
			<max>0.866498, 5.084996, 4.687432, 4.565565, 3.189975, 1.679297, 4.695790, 3.751926, 2.884179, 2.892829, 3.031657, 0.714094, 2.360728, 1.632599, 4.669539, 6.419728</max>
		</layer>
		<layer>
			<name>bottleneck2_6/dim_red/fn</name>
			<min>-0.999725, -0.947223, -0.923521, -0.951480, -0.980585, -0.969487, -0.991020, -0.465701, -0.229861, -0.993858, -0.823624, -0.821022, -0.869153, -0.829068, -0.989796, -0.846949</min>
			<max>0.866498, 5.084996, 4.687432, 4.565565, 3.189975, 1.679297, 4.695790, 3.751926, 2.884179, 2.892829, 3.031657, 0.714094, 2.360728, 1.632599, 4.669539, 6.419728</max>
		</layer>
		<layer>
			<name>bottleneck2_6/fn</name>
			<min>… -0.992092</min>
			<max>… 16.372393</max>
		</layer>
		<layer>
			<name>bottleneck2_6/inner/dw1/conv</name>
			<min>-5.866498, -4.512239, -6.711079, -6.507544, -3.372706, -6.556593, -8.048487, -9.374264, -7.206575, -4.881595, -12.918307, -9.196361, -9.700608, -9.345696, -6.225749, -5.148310</min>
			<max>3.644176, 3.798382, 6.595951, 6.179849, 3.881495, 4.530377, 5.454033, 6.105430, 3.563142, 5.065948, 6.430307, 5.128945, 6.518414, 5.841086, 4.059044, 6.003857</max>
		</layer>
		<layer>
			<name>bottleneck2_6/inner/dw1/fn</name>
			<min>-0.997167, -0.989026, -0.998783, -0.998508, -0.965703, -0.998579, -0.999680, -0.999915, -0.999258, -0.992415, -0.999998, -0.999899, -0.999939, -0.999913, -0.998022, -0.994191</min>
			<max>3.644176, 3.798382, 6.595951, 6.179849, 3.881495, 4.530377, 5.454033, 6.105430, 3.563142, 5.065948, 6.430307, 5.128945, 6.518414, 5.841086, 4.059044, 6.003857</max>
		</layer>
		<layer>
			<name>bottleneck2_7/add</name>
			<min>… -4.100000</min>
			<max>… 16.504002</max>
		</layer>
		<layer>
			<name>bottleneck2_7/dim_inc/conv</name>
			<min>… -3.356818</min>
			<max>… 3.471897</max>
		</layer>
		<layer>
			<name>bottleneck2_7/dim_red/conv</name>
			<min>-0.443067, -1.479868, -4.681196, -4.424590, -4.776020, -2.140517, -2.493564, -3.531060, -3.806562, -4.841703, -1.268054, -4.368144, -2.307500, -3.229232, -2.468546, -7.107115</min>
			<max>2.930953, 4.235523, 1.257219, 1.238912, 2.203053, 3.041938, 4.482947, 4.360600, 3.294579, 2.728766, 3.590558, 4.001601, 5.836684, 1.524439, 1.016202, 7.350555</max>
		</layer>
		<layer>
			<name>bottleneck2_7/dim_red/fn</name>
			<min>-0.357936, -0.772332, -0.990732, -0.988021, -0.991571, -0.882406, -0.917385, -0.970726, -0.977776, -0.992106, -0.718621, -0.987325, -0.900490, -0.960412, -0.915292, -0.999181</min>
			<max>2.930953, 4.235523, 1.257219, 1.238912, 2.203053, 3.041938, 4.482947, 4.360600, 3.294579, 2.728766, 3.590558, 4.001601, 5.836684, 1.524439, 1.016202, 7.350555</max>
		</layer>
		<layer>
			<name>bottleneck2_7/fn</name>
			<min>… -0.983427</min>
			<max>… 16.504002</max>
		</layer>
		<layer>
			<name>bottleneck2_7/inner/dw1/conv</name>
			<min>-11.190747, -9.181211, -10.088118, -14.050148, -5.204556, -10.943935, -13.409132, -9.557362, -10.756522, -11.520618, -10.758596, -8.523064, -11.635378, -11.361062, -11.222468, -8.054206</min>
			<max>5.292521, 10.671306, 6.641973, 8.570891, 8.208956, 6.225052, 9.500045, 7.720316, 6.799823, 6.932889, 7.158833, 8.456423, 3.805640, 7.308375, 8.602275, 7.070200</max>
		</layer>
		<layer>
			<name>bottleneck2_7/inner/dw1/fn</name>
			<min>-0.999986, -0.999897, -0.999958, -0.999999, -0.994509, -0.999982, -0.999999, -0.999929, -0.999979, -0.999990, -0.999979, -0.999801, -0.999991, -0.999988, -0.999987, -0.999682</min>
			<max>5.292521, 10.671306, 6.641973, 8.570891, 8.208956, 6.225052, 9.500045, 7.720316, 6.799823, 6.932889, 7.158833, 8.456423, 3.805640, 7.308375, 8.602275, 7.070200</max>
		</layer>
		<layer>
			<name>bottleneck2_8/add</name>
			<min>… -4.240475</min>
			<max>… 18.372290</max>
		</layer>
		<layer>
			<name>bottleneck2_8/dim_inc/conv</name>
			<min>… -3.297116</min>
			<max>… 2.579523</max>
		</layer>
		<layer>
			<name>bottleneck2_8/dim_red/conv</name>
			<min>-7.076249, -1.984922, -2.119215, -4.062841, -1.942637, -2.001843, -4.297771, -1.190631, -1.300572, -1.266491, -2.923554, -1.265794, -1.482462, -4.978269, -3.246688, -1.136713</min>
			<max>5.275538, 1.013835, 3.923375, 6.777405, 4.597614, 5.862670, 3.427352, 3.302188, 4.109909, 0.584148, 4.035908, 0.331329, 3.107964, 2.690814, 4.669902, 0.404514</max>
		</layer>
		<layer>
			<name>bottleneck2_8/dim_red/fn</name>
			<min>-0.999155, -0.862609, -0.879874, -0.982800, -0.856674, -0.864914, -0.986401, -0.695971, -0.727624, -0.718181, -0.946258, -0.717985, -0.772922, -0.993114, -0.961097, -0.679128</min>
			<max>5.275538, 1.013835, 3.923375, 6.777405, 4.597614, 5.862670, 3.427352, 3.302188, 4.109909, 0.584148, 4.035908, 0.331329, 3.107964, 2.690814, 4.669902, 0.404514</max>
		</layer>
		<layer>
			<name>bottleneck2_8/fn</name>
			<min>… -0.985599</min>
			<max>… 18.372290</max>
		</layer>
		<layer>
			<name>bottleneck2_8/inner/dw1/conv</name>
			<min>-1.341389, -15.082556, -10.377015, -13.285007, -14.318813, -14.990570, -6.212140, -10.183928, -15.125411, -10.572717, -11.402176, -14.421646, -13.776929, -12.335528, -8.412506, -12.196231</min>
			<max>7.203214, 9.268482, 9.927738, 9.805732, 8.595454, 8.615897, 6.087862, 10.653927, 7.424539, 8.654058, 9.857033, 9.522440, 10.118722, 8.172703, 10.452010, 8.920882</max>
		</layer>
		<layer>
			<name>bottleneck2_8/inner/dw1/fn</name>
			<min>-0.738518, -1.000000, -0.999969, -0.999998, -0.999999, -1.000000, -0.997995, -0.999962, -1.000000, -0.999974, -0.999989, -0.999999, -0.999999, -0.999996, -0.999778, -0.999995</min>
			<max>7.203214, 9.268482, 9.927738, 9.805732, 8.595454, 8.615897, 6.087862, 10.653927, 7.424539, 8.654058, 9.857033, 9.522440, 10.118722, 8.172703, 10.452010, 8.920882</max>
		</layer>
		<layer>
			<name>bottleneck3_0/add</name>
			<min>… -8.183102</min>
			<max>… 8.821694</max>
		</layer>
		<layer>
			<name>bottleneck3_0/dim_inc/conv</name>
			<min>… -4.806221</min>
			<max>… 4.399709</max>
		</layer>
		<layer>
			<name>bottleneck3_0/dim_red/conv</name>
			<min>… -2.990619</min>
			<max>… 6.616173</max>
		</layer>
		<layer>
			<name>bottleneck3_0/dim_red/fn</name>
			<min>… -0.949744</min>
			<max>… 6.616173</max>
		</layer>
		<layer>
			<name>bottleneck3_0/fn</name>
			<min>… -0.999721</min>
			<max>… 8.821694</max>
		</layer>
		<layer>
			<name>bottleneck3_0/inner/dw1/conv</name>
			<min>… -1.559023</min>
			<max>… 3.727637</max>
		</layer>
		<layer>
			<name>bottleneck3_0/inner/dw1/fn</name>
			<min>… -0.789658</min>
			<max>… 3.727637</max>
		</layer>
		<layer>
			<name>bottleneck3_0/skip/conv</name>
			<min>… -7.683371</min>
			<max>… 7.505566</max>
		</layer>
		<layer>
			<name>bottleneck3_0/skip/pooling</name>
			<min>… -0.949779</min>
			<max>… 18.372290</max>
		</layer>
		<layer>
			<name>bottleneck3_1/add</name>
			<min>… -9.034369</min>
			<max>… 11.625357</max>
		</layer>
		<layer>
			<name>bottleneck3_1/dim_inc/conv</name>
			<min>… -8.036308</min>
			<max>… 4.960295</max>
		</layer>
		<layer>
			<name>bottleneck3_1/dim_red/conv</name>
			<min>… -0.323490</min>
			<max>… 3.103297</max>
		</layer>
		<layer>
			<name>bottleneck3_1/dim_red/fn</name>
			<min>… -0.276381</min>
			<max>… 3.103297</max>
		</layer>
		<layer>
			<name>bottleneck3_1/fn</name>
			<min>… -0.999881</min>
			<max>… 11.625357</max>
		</layer>
		<layer>
			<name>bottleneck3_1/inner/dw1/conv</name>
			<min>… -8.583731</min>
			<max>… 6.735149</max>
		</layer>
		<layer>
			<name>bottleneck3_1/inner/dw1/fn</name>
			<min>… -0.999813</min>
			<max>… 6.735149</max>
		</layer>
		<layer>
			<name>bottleneck3_10/add</name>
			<min>… -5.793123</min>
			<max>… 18.496178</max>
		</layer>
		<layer>
			<name>bottleneck3_10/dim_inc/conv</name>
			<min>… -6.034235</min>
			<max>… 13.065369</max>
		</layer>
		<layer>
			<name>bottleneck3_10/dim_red/conv</name>
			<min>… -9.448817</min>
			<max>… 3.947239</max>
		</layer>
		<layer>
			<name>bottleneck3_10/dim_red/fn</name>
			<min>… -0.999921</min>
			<max>… 3.947239</max>
		</layer>
		<layer>
			<name>bottleneck3_10/fn</name>
			<min>… -0.996952</min>
			<max>… 18.496178</max>
		</layer>
		<layer>
			<name>bottleneck3_10/inner/dw1/conv</name>
			<min>… -2.955856</min>
			<max>… 9.831702</max>
		</layer>
		<layer>
			<name>bottleneck3_10/inner/dw1/fn</name>
			<min>… -0.947966</min>
			<max>… 9.831702</max>
		</layer>
		<layer>
			<name>bottleneck3_2/add</name>
			<min>… -6.847583</min>
			<max>… 12.354889</max>
		</layer>
		<layer>
			<name>bottleneck3_2/dim_inc/conv</name>
			<min>… -5.940306</min>
			<max>… 4.224194</max>
		</layer>
		<layer>
			<name>bottleneck3_2/dim_red/conv</name>
			<min>… -4.011961</min>
			<max>… 6.341851</max>
		</layer>
		<layer>
			<name>bottleneck3_2/dim_red/fn</name>
			<min>… -0.981902</min>
			<max>… 6.341851</max>
		</layer>
		<layer>
			<name>bottleneck3_2/fn</name>
			<min>… -0.998938</min>
			<max>… 12.354889</max>
		</layer>
		<layer>
			<name>bottleneck3_2/inner/dw1/conv</name>
			<min>… -3.464587</min>
			<max>… 6.422596</max>
		</layer>
		<layer>
			<name>bottleneck3_2/inner/dw1/fn</name>
			<min>… -0.968714</min>
			<max>… 6.422596</max>
		</layer>
		<layer>
			<name>bottleneck3_3/add</name>
			<min>… -5.898324</min>
			<max>… 13.158487</max>
		</layer>
		<layer>
			<name>bottleneck3_3/dim_inc/conv</name>
			<min>… -5.012924</min>
			<max>… 4.429780</max>
		</layer>
		<layer>
			<name>bottleneck3_3/dim_red/conv</name>
			<min>… -2.118706</min>
			<max>… 1.490289</max>
		</layer>
		<layer>
			<name>bottleneck3_3/dim_red/fn</name>
			<min>… -0.879813</min>
			<max>… 1.490289</max>
		</layer>
		<layer>
			<name>bottleneck3_3/fn</name>
			<min>… -0.997256</min>
			<max>… 13.158487</max>
		</layer>
		<layer>
			<name>bottleneck3_3/inner/dw1/conv</name>
			<min>… -11.956277</min>
			<max>… 8.016981</max>
		</layer>
		<layer>
			<name>bottleneck3_3/inner/dw1/fn</name>
			<min>… -0.999994</min>
			<max>… 8.016981</max>
		</layer>
		<layer>
			<name>bottleneck3_4/add</name>
			<min>… -5.511364</min>
			<max>… 12.946051</max>
		</layer>
		<layer>
			<name>bottleneck3_4/dim_inc/conv</name>
			<min>… -4.562285</min>
			<max>… 1.850869</max>
		</layer>
		<layer>
			<name>bottleneck3_4/dim_red/conv</name>
			<min>… -2.390430</min>
			<max>… 1.686721</max>
		</layer>
		<layer>
			<name>bottleneck3_4/dim_red/fn</name>
			<min>… -0.908410</min>
			<max>… 1.686721</max>
		</layer>
		<layer>
			<name>bottleneck3_4/fn</name>
			<min>… -0.995959</min>
			<max>… 12.946051</max>
		</layer>
		<layer>
			<name>bottleneck3_4/inner/dw1/conv</name>
			<min>… -11.711707</min>
			<max>… 6.061774</max>
		</layer>
		<layer>
			<name>bottleneck3_4/inner/dw1/fn</name>
			<min>… -0.999992</min>
			<max>… 6.061774</max>
		</layer>
		<layer>
			<name>bottleneck3_5/add</name>
			<min>… -6.411290</min>
			<max>… 12.610734</max>
		</layer>
		<layer>
			<name>bottleneck3_5/dim_inc/conv</name>
			<min>… -6.748148</min>
			<max>… 5.404506</max>
		</layer>
		<layer>
			<name>bottleneck3_5/dim_red/conv</name>
			<min>… -2.416992</min>
			<max>… 3.088848</max>
		</layer>
		<layer>
			<name>bottleneck3_5/dim_red/fn</name>
			<min>… -0.910810</min>
			<max>… 3.088848</max>
		</layer>
		<layer>
			<name>bottleneck3_5/fn</name>
			<min>… -0.998357</min>
			<max>… 12.610734</max>
		</layer>
		<layer>
			<name>bottleneck3_5/inner/dw1/conv</name>
			<min>… -6.505321</min>
			<max>… 3.717588</max>
		</layer>
		<layer>
			<name>bottleneck3_5/inner/dw1/fn</name>
			<min>… -0.998505</min>
			<max>… 3.717588</max>
		</layer>
		<layer>
			<name>bottleneck3_6/add</name>
			<min>… -4.835758</min>
			<max>… 12.652812</max>
		</layer>
		<layer>
			<name>bottleneck3_6/dim_inc/conv</name>
			<min>… -4.361351</min>
			<max>… 2.369388</max>
		</layer>
		<layer>
			<name>bottleneck3_6/dim_red/conv</name>
			<min>… -3.834859</min>
			<max>… 6.559757</max>
		</layer>
		<layer>
			<name>bottleneck3_6/dim_red/fn</name>
			<min>… -0.978396</min>
			<max>… 6.559757</max>
		</layer>
		<layer>
			<name>bottleneck3_6/fn</name>
			<min>… -0.992059</min>
			<max>… 12.652812</max>
		</layer>
		<layer>
			<name>bottleneck3_6/inner/dw1/conv</name>
			<min>… -8.512130</min>
			<max>… 2.645802</max>
		</layer>
		<layer>
			<name>bottleneck3_6/inner/dw1/fn</name>
			<min>… -0.999799</min>
			<max>… 2.645802</max>
		</layer>
		<layer>
			<name>bottleneck3_7/add</name>
			<min>… -7.609051</min>
			<max>… 15.633053</max>
		</layer>
		<layer>
			<name>bottleneck3_7/dim_inc/conv</name>
			<min>… -6.714897</min>
			<max>… 10.484670</max>
		</layer>
		<layer>
			<name>bottleneck3_7/dim_red/conv</name>
			<min>… -0.965063</min>
			<max>… 0.601076</max>
		</layer>
		<layer>
			<name>bottleneck3_7/dim_red/fn</name>
			<min>… -0.619041</min>
			<max>… 0.601076</max>
		</layer>
		<layer>
			<name>bottleneck3_7/fn</name>
			<min>… -0.999504</min>
			<max>… 15.633053</max>
		</layer>
		<layer>
			<name>bottleneck3_7/inner/dw1/conv</name>
			<min>… -9.722759</min>
			<max>… 6.809448</max>
		</layer>
		<layer>
			<name>bottleneck3_7/inner/dw1/fn</name>
			<min>… -0.999940</min>
			<max>… 6.809448</max>
		</layer>
		<layer>
			<name>bottleneck3_8/add</name>
			<min>… -7.512209</min>
			<max>… 12.604424</max>
		</layer>
		<layer>
			<name>bottleneck3_8/dim_inc/conv</name>
			<min>… -7.488390</min>
			<max>… 6.570231</max>
		</layer>
		<layer>
			<name>bottleneck3_8/dim_red/conv</name>
			<min>… -5.815417</min>
			<max>… 4.565824</max>
		</layer>
		<layer>
			<name>bottleneck3_8/dim_red/fn</name>
			<min>… -0.997019</min>
			<max>… 4.565824</max>
		</layer>
		<layer>
			<name>bottleneck3_8/fn</name>
			<min>… -0.999454</min>
			<max>… 12.604424</max>
		</layer>
		<layer>
			<name>bottleneck3_8/inner/dw1/conv</name>
			<min>… -4.017758</min>
			<max>… 5.271458</max>
		</layer>
		<layer>
			<name>bottleneck3_8/inner/dw1/fn</name>
			<min>… -0.982007</min>
			<max>… 5.271458</max>
		</layer>
		<layer>
			<name>bottleneck3_9/add</name>
			<min>… -10.701702</min>
			<max>… 12.672992</max>
		</layer>
		<layer>
			<name>bottleneck3_9/dim_inc/conv</name>
			<min>… -10.372334</min>
			<max>… 6.297976</max>
		</layer>
		<layer>
			<name>bottleneck3_9/dim_red/conv</name>
			<min>… -4.978958</min>
			<max>… 4.616619</max>
		</layer>
		<layer>
			<name>bottleneck3_9/dim_red/fn</name>
			<min>… -0.993119</min>
			<max>… 4.616619</max>
		</layer>
		<layer>
			<name>bottleneck3_9/fn</name>
			<min>… -0.999977</min>
			<max>… 12.672992</max>
		</layer>
		<layer>
			<name>bottleneck3_9/inner/dw1/conv</name>
			<min>… -8.092585</min>
			<max>… 10.250494</max>
		</layer>
		<layer>
			<name>bottleneck3_9/inner/dw1/fn</name>
			<min>… -0.999694</min>
			<max>… 10.250494</max>
		</layer>
		<layer>
			<name>bottleneck4_0/add</name>
			<min>… -9.480128</min>
			<max>… 9.198452</max>
		</layer>
		<layer>
			<name>bottleneck4_0/dim_inc/conv</name>
			<min>… -7.110311</min>
			<max>… 3.724856</max>
		</layer>
		<layer>
			<name>bottleneck4_0/dim_red/conv</name>
			<min>… -11.132604</min>
			<max>… 5.389404</max>
		</layer>
		<layer>
			<name>bottleneck4_0/dim_red/fn</name>
			<min>… -0.999985</min>
			<max>… 5.389404</max>
		</layer>
		<layer>
			<name>bottleneck4_0/fn</name>
			<min>… -0.999924</min>
			<max>… 9.198452</max>
		</layer>
		<layer>
			<name>bottleneck4_0/inner/dw1/conv</name>
			<min>… -0.503809</min>
			<max>… 10.057734</max>
		</layer>
		<layer>
			<name>bottleneck4_0/inner/dw1/fn</name>
			<min>… -0.395775</min>
			<max>… 10.057734</max>
		</layer>
		<layer>
			<name>bottleneck4_0/skip/conv</name>
			<min>… -7.113251</min>
			<max>… 5.791477</max>
		</layer>
		<layer>
			<name>bottleneck4_0/skip/pooling</name>
			<min>… -0.973497</min>
			<max>… 18.496178</max>
		</layer>
		<layer>
			<name>bottleneck4_1/add</name>
			<min>… -5.069369</min>
			<max>… 8.586337</max>
		</layer>
		<layer>
			<name>bottleneck4_1/dim_inc/conv</name>
			<min>… -4.093628</min>
			<max>… 1.646563</max>
		</layer>
		<layer>
			<name>bottleneck4_1/dim_red/conv</name>
			<min>… -5.309952</min>
			<max>… 6.309735</max>
		</layer>
		<layer>
			<name>bottleneck4_1/dim_red/fn</name>
			<min>… -0.995058</min>
			<max>… 6.309735</max>
		</layer>
		<layer>
			<name>bottleneck4_1/fn</name>
			<min>… -0.993714</min>
			<max>… 8.586337</max>
		</layer>
		<layer>
			<name>bottleneck4_1/inner/dw1/conv</name>
			<min>… -14.915892</min>
			<max>… 3.380255</max>
		</layer>
		<layer>
			<name>bottleneck4_1/inner/dw1/fn</name>
			<min>… -1.000000</min>
			<max>… 3.380255</max>
		</layer>
		<layer>
			<name>bottleneck4_10/add</name>
			<min>… -6.608027</min>
			<max>… 12.287899</max>
		</layer>
		<layer>
			<name>bottleneck4_10/dim_inc/conv</name>
			<min>… -5.733100</min>
			<max>… 4.265260</max>
		</layer>
		<layer>
			<name>bottleneck4_10/dim_red/conv</name>
			<min>… -6.709962</min>
			<max>… 5.039175</max>
		</layer>
		<layer>
			<name>bottleneck4_10/dim_red/fn</name>
			<min>… -0.998781</min>
			<max>… 5.039175</max>
		</layer>
		<layer>
			<name>bottleneck4_10/fn</name>
			<min>… -0.998650</min>
			<max>… 12.287899</max>
		</layer>
		<layer>
			<name>bottleneck4_10/inner/dw1/conv</name>
			<min>… -3.509641</min>
			<max>… 7.303750</max>
		</layer>
		<layer>
			<name>bottleneck4_10/inner/dw1/fn</name>
			<min>… -0.970092</min>
			<max>… 7.303750</max>
		</layer>
		<layer>
			<name>bottleneck4_11/add</name>
			<min>… -5.201676</min>
			<max>… 14.698825</max>
		</layer>
		<layer>
			<name>bottleneck4_11/dim_inc/conv</name>
			<min>… -4.247924</min>
			<max>… 3.540330</max>
		</layer>
		<layer>
			<name>bottleneck4_11/dim_red/conv</name>
			<min>… -10.080293</min>
			<max>… 2.379087</max>
		</layer>
		<layer>
			<name>bottleneck4_11/dim_red/fn</name>
			<min>… -0.999958</min>
			<max>… 2.379087</max>
		</layer>
		<layer>
			<name>bottleneck4_11/fn</name>
			<min>… -0.994493</min>
			<max>… 14.698825</max>
		</layer>
		<layer>
			<name>bottleneck4_11/inner/dw1/conv</name>
			<min>… -4.710949</min>
			<max>… 9.332273</max>
		</layer>
		<layer>
			<name>bottleneck4_11/inner/dw1/fn</name>
			<min>… -0.991004</min>
			<max>… 9.332273</max>
		</layer>
		<layer>
			<name>bottleneck4_2/add</name>
			<min>… -2.939220</min>
			<max>… 7.303444</max>
		</layer>
		<layer>
			<name>bottleneck4_2/dim_inc/conv</name>
			<min>… -3.044542</min>
			<max>… 2.775819</max>
		</layer>
		<layer>
			<name>bottleneck4_2/dim_red/conv</name>
			<min>… -1.299437</min>
			<max>… 2.312171</max>
		</layer>
		<layer>
			<name>bottleneck4_2/dim_red/fn</name>
			<min>… -0.727315</min>
			<max>… 2.312171</max>
		</layer>
		<layer>
			<name>bottleneck4_2/fn</name>
			<min>… -0.947093</min>
			<max>… 7.303444</max>
		</layer>
		<layer>
			<name>bottleneck4_2/inner/dw1/conv</name>
			<min>… -11.487573</min>
			<max>… 6.302527</max>
		</layer>
		<layer>
			<name>bottleneck4_2/inner/dw1/fn</name>
			<min>… -0.999990</min>
			<max>… 6.302527</max>
		</layer>
		<layer>
			<name>bottleneck4_3/add</name>
			<min>… -3.772952</min>
			<max>… 7.052299</max>
		</layer>
		<layer>
			<name>bottleneck4_3/dim_inc/conv</name>
			<min>… -3.435117</min>
			<max>… 1.221558</max>
		</layer>
		<layer>
			<name>bottleneck4_3/dim_red/conv</name>
			<min>… -1.425072</min>
			<max>… 2.617123</max>
		</layer>
		<layer>
			<name>bottleneck4_3/dim_red/fn</name>
			<min>… -0.759509</min>
			<max>… 2.617123</max>
		</layer>
		<layer>
			<name>bottleneck4_3/fn</name>
			<min>… -0.977016</min>
			<max>… 7.052299</max>
		</layer>
		<layer>
			<name>bottleneck4_3/inner/dw1/conv</name>
			<min>… -6.847124</min>
			<max>… 7.926720</max>
		</layer>
		<layer>
			<name>bottleneck4_3/inner/dw1/fn</name>
			<min>… -0.998937</min>
			<max>… 7.926720</max>
		</layer>
		<layer>
			<name>bottleneck4_4/add</name>
			<min>… -3.242762</min>
			<max>… 6.483233</max>
		</layer>
		<layer>
			<name>bottleneck4_4/dim_inc/conv</name>
			<min>… -3.020853</min>
			<max>… 2.863296</max>
		</layer>
		<layer>
			<name>bottleneck4_4/dim_red/conv</name>
			<min>… -1.564271</min>
			<max>… 1.896876</max>
		</layer>
		<layer>
			<name>bottleneck4_4/dim_red/fn</name>
			<min>… -0.790759</min>
			<max>… 1.896876</max>
		</layer>
		<layer>
			<name>bottleneck4_4/fn</name>
			<min>… -0.960944</min>
			<max>… 6.483233</max>
		</layer>
		<layer>
			<name>bottleneck4_4/inner/dw1/conv</name>
			<min>… -4.420302</min>
			<max>… 4.151581</max>
		</layer>
		<layer>
			<name>bottleneck4_4/inner/dw1/fn</name>
			<min>… -0.987969</min>
			<max>… 4.151581</max>
		</layer>
		<layer>
			<name>bottleneck4_5/add</name>
			<min>… -5.523081</min>
			<max>… 7.620770</max>
		</layer>
		<layer>
			<name>bottleneck4_5/dim_inc/conv</name>
			<min>… -5.269280</min>
			<max>… 2.243730</max>
		</layer>
		<layer>
			<name>bottleneck4_5/dim_red/conv</name>
			<min>… -3.264584</min>
			<max>… 4.859136</max>
		</layer>
		<layer>
			<name>bottleneck4_5/dim_red/fn</name>
			<min>… -0.961787</min>
			<max>… 4.859136</max>
		</layer>
		<layer>
			<name>bottleneck4_5/fn</name>
			<min>… -0.996006</min>
			<max>… 7.620770</max>
		</layer>
		<layer>
			<name>bottleneck4_5/inner/dw1/conv</name>
			<min>… -6.705308</min>
			<max>… 8.440322</max>
		</layer>
		<layer>
			<name>bottleneck4_5/inner/dw1/fn</name>
			<min>… -0.998776</min>
			<max>… 8.440322</max>
		</layer>
		<layer>
			<name>bottleneck4_6/add</name>
			<min>… -3.999785</min>
			<max>… 8.458821</max>
		</layer>
		<layer>
			<name>bottleneck4_6/dim_inc/conv</name>
			<min>… -3.213133</min>
			<max>… 3.215860</max>
		</layer>
		<layer>
			<name>bottleneck4_6/dim_red/conv</name>
			<min>… -3.638733</min>
			<max>… 4.981121</max>
		</layer>
		<layer>
			<name>bottleneck4_6/dim_red/fn</name>
			<min>… -0.973714</min>
			<max>… 4.981121</max>
		</layer>
		<layer>
			<name>bottleneck4_6/fn</name>
			<min>… -0.981680</min>
			<max>… 8.458821</max>
		</layer>
		<layer>
			<name>bottleneck4_6/inner/dw1/conv</name>
			<min>… -6.459272</min>
			<max>… 7.563980</max>
		</layer>
		<layer>
			<name>bottleneck4_6/inner/dw1/fn</name>
			<min>… -0.998434</min>
			<max>… 7.563980</max>
		</layer>
		<layer>
			<name>bottleneck4_7/add</name>
			<min>… -4.345220</min>
			<max>… 9.105252</max>
		</layer>
		<layer>
			<name>bottleneck4_7/dim_inc/conv</name>
			<min>… -3.529384</min>
			<max>… 3.244719</max>
		</layer>
		<layer>
			<name>bottleneck4_7/dim_red/conv</name>
			<min>… -7.958018</min>
			<max>… 2.427795</max>
		</layer>
		<layer>
			<name>bottleneck4_7/dim_red/fn</name>
			<min>… -0.999650</min>
			<max>… 2.427795</max>
		</layer>
		<layer>
			<name>bottleneck4_7/fn</name>
			<min>… -0.987031</min>
			<max>… 9.105252</max>
		</layer>
		<layer>
			<name>bottleneck4_7/inner/dw1/conv</name>
			<min>… -4.856809</min>
			<max>… 1.498671</max>
		</layer>
		<layer>
			<name>bottleneck4_7/inner/dw1/fn</name>
			<min>… -0.992225</min>
			<max>… 1.498671</max>
		</layer>
		<layer>
			<name>bottleneck4_8/add</name>
			<min>… -7.392514</min>
			<max>… 8.438272</max>
		</layer>
		<layer>
			<name>bottleneck4_8/dim_inc/conv</name>
			<min>… -7.736089</min>
			<max>… 2.286926</max>
		</layer>
		<layer>
			<name>bottleneck4_8/dim_red/conv</name>
			<min>… -7.859600</min>
			<max>… 7.193151</max>
		</layer>
		<layer>
			<name>bottleneck4_8/dim_red/fn</name>
			<min>… -0.999614</min>
			<max>… 7.193151</max>
		</layer>
		<layer>
			<name>bottleneck4_8/fn</name>
			<min>… -0.999384</min>
			<max>… 8.438272</max>
		</layer>
		<layer>
			<name>bottleneck4_8/inner/dw1/conv</name>
			<min>… -12.819209</min>
			<max>… 15.616286</max>
		</layer>
		<layer>
			<name>bottleneck4_8/inner/dw1/fn</name>
			<min>… -0.999997</min>
			<max>… 15.616286</max>
		</layer>
		<layer>
			<name>bottleneck4_9/add</name>
			<min>… -8.361177</min>
			<max>… 10.312160</max>
		</layer>
		<layer>
			<name>bottleneck4_9/dim_inc/conv</name>
			<min>… -7.386658</min>
			<max>… 3.183273</max>
		</layer>
		<layer>
			<name>bottleneck4_9/dim_red/conv</name>
			<min>… -5.253920</min>
			<max>… 6.152040</max>
		</layer>
		<layer>
			<name>bottleneck4_9/dim_red/fn</name>
			<min>… -0.994773</min>
			<max>… 6.152040</max>
		</layer>
		<layer>
			<name>bottleneck4_9/fn</name>
			<min>… -0.999766</min>
			<max>… 10.312160</max>
		</layer>
		<layer>
			<name>bottleneck4_9/inner/dw1/conv</name>
			<min>… -5.000893</min>
			<max>… 5.646474</max>
		</layer>
		<layer>
			<name>bottleneck4_9/inner/dw1/fn</name>
			<min>… -0.993268</min>
			<max>… 5.646474</max>
		</layer>
		<layer>
			<name>data</name>
			<min>0.000000, 0.000000, 0.000000</min>
			<max>255.000000, 255.000000, 255.000000</max>
		</layer>
		<layer>
			<name>embd/dim_inc/conv</name>
			<min>… -9.292298</min>
			<max>… 3.578611</max>
		</layer>
		<layer>
			<name>embd/dim_inc/fn</name>
			<min>… -0.999908</min>
			<max>… 3.578611</max>
		</layer>
		<layer>
			<name>embd/dim_red/conv</name>
			<min>… -1.832997</min>
			<max>… 3.269010</max>
		</layer>
		<layer>
			<name>init_block1/dim_inc/conv</name>
			<min>… -7.116413</min>
			<max>… 21.638107</max>
		</layer>
		<layer>
			<name>init_block1/dim_inc/fn</name>
			<min>… -0.000000</min>
			<max>… 21.638107</max>
		</layer>
		<layer>
			<name>pooling/out</name>
			<min>… -0.704500</min>
			<max>… 14.698825</max>
		</layer>
	</statistics>
</net>
